logs/l1_coef-0.0001/version_0/checkpoints/epoch=5299-step=5300.ckpt (torch, 566207 bytes, 72 tensors)

model.encoder.layers.0.weight f4 [100, 100]
000000 1f c3 de 36 f3 1e 6e 37 54 b2 96 35 b9 0d f5 b6
       6.6388307e-06 1.4193111e-05 1.1227771e-06 -7.3031665e-06
000010 a0 75 23 36 68 13 78 37 b4 8f 62 b7 1f 5f e4 36
       2.435736e-06 1.478647e-05 -1.3504108e-05 6.806003e-06
000020 8b 24 69 37 d9 f0 95 b7 49 e7 12 b7 4b 9a b7 37
       1.3896391e-05 -1.7874338e-05 -8.756128e-06 2.1887148e-05
000030 23 42 b4 b6 cd 79 ef 37 84 c7 7f 37 51 6f 92 b7
       -5.3721174e-06 2.8547738e-05 1.5245638e-05 -1.7456392e-05
000040 28 f8 fd 36 d1 52 52 b6 cb a7 1b 38 e3 4c 13 b7
       7.5688768e-06 -3.1340644e-06 3.711115e-05 -8.779784e-06
000050 1d dc 42 37 f5 ad 40 37 54 d5 6b 37 0d 70 c5 36
       1.161455e-05 1.1484594e-05 1.4056761e-05 5.884102e-06
000060 08 34 5c b5 0f 40 d1 36 ea 7d 78 b6 be 66 fc 37
       -8.20321e-07 6.236143e-06 -3.7028171e-06 3.0088584e-05
000070 eb bb 29 b5 f9 d0 26 36 ba 64 8c b7 39 92 69 b7
       -6.323086e-07 2.4857566e-06 -1.6736205e-05 -1.3921927e-05
000080 0b a1 9e b7 8a 84 af 37 8b 4c 6a 35 dd 6b 4d b7
       -1.891006e-05 2.0923344e-05 8.728318e-07 -1.2244066e-05
000090 28 49 bc 37 68 36 8d b7 a4 86 4a b7 85 1e 98 37
       2.2445412e-05 -1.6833845e-05 -1.2071487e-05 1.8134024e-05
0000a0 d0 3f d7 36 8f 20 a7 b6 3f c1 c6 35 96 61 62 37
       6.414928e-06 -4.980778e-06 1.4808392e-06 1.3493371e-05
0000b0 6d 36 94 37 7f b0 a3 37 17 f8 fb 37 8f f0 c1 37
       1.7668319e-05 1.9513302e-05 3.0037058e-05 2.3119412e-05
0000c0 52 48 cc 36 ab 6d 00 36 0e 5b 8d 36 b2 78 81 b7
       6.088093e-06 1.9137321e-06 4.2127276e-06 -1.5434201e-05
0000d0 12 ef 5d b7 7c a1 87 b7 36 47 90 37 50 ac dc b5
       -1.3228289e-05 -1.6168451e-05 1.7199298e-05 -1.6441427e-06
0000e0 59 20 b8 36 88 c5 b6 37 a2 3c 24 37 42 55 3a b7
       5.487393e-06 2.1788073e-05 9.789279e-06 -1.1106315e-05
0000f0 40 33 ec 37 c5 d5 ae b6 58 45 04 36 ad d0 52 b6
       2.8157257e-05 -5.21049e-06 1.9709896e-06 -3.1413904e-06
000100 75 1c 11 b7 fd 66 a0 b7 a9 9a 5f 37 25 5a dc b7
       -8.649299e-06 -1.9121444e-05 1.3327845e-05 -2.626802e-05
000110 8f 2b 55 b6 d7 ae 53 b7 be 80 a3 37 01 98 61 b6
       -3.1764828e-06 -1.2617288e-05 1.9491064e-05 -3.361609e-06
000120 04 7e d2 36 a5 21 a0 37 87 87 0e 36 68 61 91 37
       6.273158e-06 1.9089153e-05 2.1238536e-06 1.7330705e-05
000130 54 cd de 37 4b 2d 80 b7 f7 ad f4 35 90 87 84 b7
       2.6560076e-05 -1.527988e-05 1.8230047e-06 -1.5798752e-05
000140 39 60 97 36 8a 30 eb 36 51 cd 4d b7 be 7b 41 b7
       4.5113525e-06 7.0091965e-06 -1.2266756e-05 -1.1532507e-05
000150 9e 0c a0 b7 02 50 3e b7 6a e8 c4 37 d6 ee 1d b6
       -1.9079362e-05 -1.1343511e-05 2.3473247e-05 -2.3533844e-06
000160 ce 4e 8a b7 39 ef 97 35 d0 28 e5 b4 37 51 0e 37
       -1.6487578e-05 1.132e-06 -4.268427e-07 8.482769e-06
000170 c1 d1 14 b7 be 4a 87 b7 61 dd 62 b7 e5 4f 5f b7
       -8.870325e-06 -1.6128059e-05 -1.35221935e-05 -1.3310438e-05
000180 1f 49 5f 37 7a 08 ed b6 4c 80 0f 37 d5 82 0d b7
       1.3308861e-05 -7.064137e-06 8.553336e-06 -8.434717e-06
000190 c0 53 b2 37 93 4e 69 37 92 ca 97 b7 3f 8f d2 31
       2.1258253e-05 1.3906177e-05 -1.8094932e-05 6.1280896e-09
0001a0 92 86 31 33 a5 cf 34 b7 ea c6 96 37 40 1a d5 b7
       4.1333415e-08 -1.0777182e-05 1.797402e-05 -2.5403802e-05
0001b0 48 ce 58 b7 93 1d 04 38 cd a8 d6 b7 9a 50 be b6
       -1.2922632e-05 3.1498796e-05 -2.5589392e-05 -5.6718245e-06
0001c0 69 e6 c5 36 fc 04 2c 38 46 1e 94 36 15 7e b7 b7
       5.897881e-06 4.1012638e-05 4.414268e-06 -2.1874012e-05
0001d0 df 5d d3 b6 5f 9f 03 37 90 72 0d 34 e5 6c 52 b6
       -6.299218e-06 7.845315e-06 1.3173326e-07 -3.1355823e-06
0001e0 cc d7 01 b7 b1 dc 43 36 ab b6 32 b7 ac dd 2d 36
       -7.739243e-06 2.9185724e-06 -1.06521575e-05 2.590804e-06
0001f0 f0 c6 ba 37 6c 0a 6e b7 f3 92 1b 37 5b 25 87 37
       2.2265565e-05 -1.4188332e-05 9.272934e-06 1.6110649e-05
000200 2e 41 8b b7 d1 6b e8 b6 2f 49 86 b5 ee d2 f0 36
       -1.6600443e-05 -6.9266903e-06 -1.0005077e-06 7.177113e-06
000210 0b 1e 19 b6 6d 48 58 37 2f 20 cf b7 07 ad 81 b7
       -2.2816264e-06 1.2891466e-05 -2.469131e-05 -1.545857e-05
000220 d9 4d 31 b7 c2 25 90 37 52 9a 69 b6 5b 90 b3 b6
       -1.0568147e-05 1.718372e-05 -3.4809532e-06 -5.351421e-06
000230 82 8f c1 b6 85 9d b2 37 e2 57 a6 37 e3 59 44 b7
       -5.7685547e-06 2.1292604e-05 1.9829666e-05 -1.1703439e-05
000240 09 5d 27 b7 61 1e 2e b7 d1 00 d8 b6 5d 33 3f 37
       -9.975637e-06 -1.0378281e-05 -6.4373967e-06 1.1396446e-05
000250 75 42 c5 b6 79 50 fe 34 8a c4 65 37 7d 36 83 36
       -5.878794e-06 4.7369738e-07 1.3695224e-05 3.9104475e-06
000260 f7 8f dd 36 82 a2 fa b6 e7 dc 87 b7 f8 35 b6 36
       6.603073e-06 -7.469499e-06 -1.619612e-05 5.4303055e-06
000270 36 e5 3d b7 4e c0 67 b7 84 e0 ad b7 ff df 4e 36
       -1.1318645e-05 -1.3813447e-05 -2.0727755e-05 3.0826775e-06
000280 85 81 82 37 1a 12 41 37 9e 32 1b b5 65 0d 76 37
       1.555752e-05 1.1507911e-05 -5.781566e-07 1.4665861e-05
000290 20 8c ed b6 3a ce 00 b7 a7 7c c0 36 1b 12 3a 37
       -7.079463e-06 -7.67741e-06 5.7365573e-06 1.1090679e-05
0002a0 3e 77 e7 b6 3a cb ee 36 a7 72 9d b6 06 f4 fb 36
       -6.898218e-06 7.1166114e-06 -4.692312e-06 7.508791e-06
0002b0 64 a1 d6 b6 15 09 a3 36 d0 33 b0 36 d7 d1 db 35
       -6.3964853e-06 4.858836e-06 5.2512405e-06 1.6377843e-06
0002c0 1d 28 9e 36 ae 53 2a b7 5f 87 2d 36 0a db 15 37
       4.7134367e-06 -1.0152273e-05 2.5857805e-06 8.932091e-06
0002d0 ee e1 05 b6 c6 c4 29 b7 c4 2b 58 35 b1 0d 62 36
       -1.9950053e-06 -1.0119e-05 8.052996e-07 3.3684594e-06
0002e0 3e 72 83 b6 83 1a 70 36 ae 0e 37 37 a3 62 87 b6
       -3.917404e-06 3.5778219e-06 1.0911068e-05 -4.0347963e-06
0002f0 59 8b 7d 37 be 54 60 37 a6 7d 30 b7 ae 68 c0 35
       1.51124195e-05 1.3371171e-05 -1.0519672e-05 1.433558e-06
000300 f9 db 18 37 32 88 14 b6 a9 49 89 b7 96 42 d3 b6
       9.111122e-06 -2.2132995e-06 -1.6365973e-05 -6.2960416e-06
000310 08 72 00 b7 2c 5a 84 37 50 ff 27 37 08 ea 95 b7
       -7.6559445e-06 1.5777616e-05 1.001342e-05 -1.7871163e-05
000320 23 75 0c b6 48 82 4c 37 09 eb 83 b6 d1 2b 27 b7
       -2.0929808e-06 1.2189681e-05 -3.931466e-06 -9.9641775e-06
000330 db f7 0b b7 31 bd e1 b7 f3 a1 0b b7 9d b1 8c 37
       -8.342754e-06 -2.691019e-05 -8.322752e-06 1.6772008e-05
000340 5f b1 2d b7 cd c8 8d 37 de d8 e6 36 86 c9 c3 37
       -1.0352901e-05 1.6902015e-05 6.879781e-06 2.3339653e-05
000350 58 42 89 b5 f7 d2 57 37 84 d1 71 37 22 7c f0 b7
       -1.0226604e-06 1.2864118e-05 1.4413501e-05 -2.8668033e-05
000360 45 ed 54 36 54 91 20 b8 40 95 60 37 d6 8f c4 37
       3.172857e-06 -3.828232e-05 1.338619e-05 2.3432e-05
000370 1b 1d 36 32 0e 8b 73 b5 f2 62 34 b5 a6 88 cd b4
       1.0600412e-08 -9.0726905e-07 -6.719921e-07 -3.828365e-07
000380 37 ff ab 36 62 f8 34 37 f1 05 9d b7 59 86 c7 b7
       5.125908e-06 1.0786667e-05 -1.8718625e-05 -2.378521e-05
000390 67 a8 8a 35 cf 6d f4 34 76 19 5e b7 cb 65 f3 37
       1.0330813e-06 4.5528438e-07 -1.3238159e-05 2.9015258e-05
0003a0 c5 6f 0e b7 90 f5 86 37 d6 52 ae b5 2f b9 66 b7
       -8.489883e-06 1.6088394e-05 -1.2988119e-06 -1.3752185e-05
0003b0 9c c2 11 38 45 71 1c b7 c2 a0 59 b7 04 2e 0b b8
       3.4751938e-05 -9.324697e-06 -1.2971637e-05 -3.3183038e-05
0003c0 f3 ad 68 37 01 09 20 b7 0a 69 de 36 18 84 af 35
       1.3868778e-05 -9.53884e-06 6.6283437e-06 1.307696e-06
0003d0 d4 55 02 37 b6 5c e6 b7 a3 e9 02 37 d7 34 c9 b5
       7.768587e-06 -2.7461308e-05 7.803002e-06 -1.4991045e-06
0003e0 65 6f 28 b7 08 af 9b 36 00 99 bd b4 47 64 84 37
       -1.0039516e-05 4.6397363e-06 -3.5315315e-07 1.5782321e-05
0003f0 0c 54 80 b5 60 b2 13 36 10 cd a8 b6 88 f6 e6 b6
       -9.561204e-07 2.2008535e-06 -5.0306626e-06 -6.883234e-06

model.encoder.layers.0.bias f4 [100]
000000 7a b5 9f 37 5f cc 86 36 03 13 94 b6 ad 30 e4 36
       1.9038784e-05 4.017303e-06 -4.412957e-06 6.800596e-06
000010 f7 7e 35 36 90 3d d6 3d 7f fe 3a 36 c7 0d 97 3b
       2.7045005e-06 0.10460961 2.7864296e-06 0.0046097967
000020 9c 1a 53 37 23 db 0c b7 56 e3 e4 b6 b5 0b 81 37
       1.25827755e-05 -8.395672e-06 -6.821395e-06 1.538345e-05
000030 b3 7b 36 37 47 95 76 36 cc dd 18 b7 d2 47 c7 b7
       1.0876846e-05 3.6743747e-06 -9.111547e-06 -2.3756093e-05
000040 38 82 88 b5 c9 45 8b b7 9f 65 ab 37 25 4c 05 35
       -1.0170688e-06 -1.6602587e-05 2.043211e-05 4.9657166e-07
000050 61 03 a9 b7 ee 96 a2 b7 4a 4c a4 b7 8c 96 d2 36
       -2.0147943e-05 -1.9382187e-05 -1.9585848e-05 6.2760137e-06
000060 20 1a ef bd 5e 77 13 36 25 82 8c 37 09 c2 bc b6
       -0.11674905 2.1974188e-06 1.6749904e-05 -5.6254253e-06
000070 a7 5a 37 b6 7c 64 05 b7 c9 f7 27 b8 f3 a8 7a b7
       -2.7321892e-06 -7.950814e-06 -4.004667e-05 -1.4940498e-05
000080 94 da 15 be 56 94 7a 36 cd b7 c1 b6 7f 8c 11 b7
       -0.14634162 3.7339246e-06 -5.7732454e-06 -8.675385e-06
000090 56 68 33 b7 1b de 8f b6 ee 9b d0 36 40 19 e9 b6
       -1.0693524e-05 -4.2875886e-06 6.2170357e-06 -6.9468806e-06
0000a0 44 66 7e b7 65 2d a5 37 6f dd 9b b7 1e ab 93 37
       -1.516339e-05 1.9690671e-05 -1.8580553e-05 1.7603448e-05
0000b0 ac cc 42 b7 f4 09 0e b7 d8 6a 54 b7 f5 de 1e b7
       -1.1610955e-05 -8.466177e-06 -1.2661061e-05 -9.469445e-06
0000c0 97 0a 94 b7 63 79 36 b6 35 a0 1e 3e b8 9d c8 bd
       -1.7647906e-05 -2.719077e-06 0.15490802 -0.097957075
0000d0 95 33 04 b5 c7 23 e1 37 c5 a6 ff bd 14 8f e7 b5
       -4.9248894e-07 2.683875e-05 -0.12482981 -1.7252482e-06
0000e0 22 95 68 37 71 da 03 b7 9c fb ee 36 95 3f c4 3d
       1.3863e-05 -7.859068e-06 7.122244e-06 0.0958244
0000f0 f8 6b 74 b7 97 b8 69 3c e3 ff f7 34 57 36 4d b7
       -1.4568672e-05 0.014265201 4.6193517e-07 -1.2231604e-05
000100 c0 dd d4 b6 60 4a 56 37 48 ef c3 b7 c6 37 1f b6
       -6.3439074e-06 1.2772711e-05 -2.3357235e-05 -2.372531e-06
000110 e1 3d 52 b7 4e 3a 68 b7 27 d0 0f 37 bd 4b 8e 37
       -1.2531383e-05 -1.3841853e-05 8.571928e-06 1.6962988e-05
000120 ac b6 49 34 55 80 75 b6 ed 1a 8f 37 ac 37 a6 b6
       1.878604e-07 -3.6582544e-06 1.7059467e-05 -4.9536666e-06
000130 1c d3 4e b5 e2 65 66 36 b6 99 f8 b5 1d 6b 43 b7
       -7.7048185e-07 3.4331974e-06 -1.8522176e-06 -1.1647845e-05
000140 0c b7 13 b6 b6 90 e2 36 c9 74 48 bd c9 69 1f b7
       -2.2011254e-06 6.7521714e-06 -0.0489395 -9.501769e-06
000150 7a db 0e 38 cd 44 4a 37 bf 5f 7d b6 44 6a 79 3c
       3.405984e-05 1.2056157e-05 -3.775567e-06 0.01522309
000160 67 0f 5b 37 73 04 29 3d 57 1c 16 bd 85 7e e5 36
       1.3057003e-05 0.04126401 -0.03664812 6.8394606e-06
000170 7a 9d 35 b6 fd 2d d6 b6 6e 49 6e 37 b5 fc 18 37
       -2.7062765e-06 -6.3830507e-06 1.4203002e-05 9.118744e-06
000180 7f e5 a3 b7 8e 6d 9a 37 a7 d2 67 b7 14 c2 81 b6
       -1.9537982e-05 1.8409246e-05 -1.3817719e-05 -3.8670933e-06

model.encoder.layers.1.0.weight f4 [100, 100]
000000 84 43 1b 37 c8 4c 7e b6 01 fa dc b6 e7 5b bc b6
       9.25444e-06 -3.7893642e-06 -6.585615e-06 -5.6135354e-06
000010 85 39 6c 37 e9 7b 40 b5 09 36 8d 36 3c 0c 80 b6
       1.40800885e-05 -7.1705887e-07 4.208418e-06 -3.8161215e-06
000020 95 ac a1 b7 a2 03 0e b6 5b 8e 90 36 7e cb 86 36
       -1.927306e-05 -2.1161763e-06 4.308107e-06 4.017201e-06
000030 e3 e6 d5 b6 45 f1 bb 36 e8 c7 20 37 f4 45 3c 37
       -6.3747734e-06 5.6011218e-06 9.5832875e-06 1.122196e-05
000040 75 c5 17 38 9f ae 65 b4 7d 8e 59 37 26 10 06 38
       3.61851e-05 -2.1390814e-07 1.2967384e-05 3.196313e-05
000050 17 2d 0c 37 1e d9 ed 35 cd b7 92 b6 e0 83 86 b7
       8.355149e-06 1.7721065e-06 -4.3725363e-06 -1.6035454e-05
000060 0d 88 fb 36 03 e8 18 b8 a7 93 60 b5 c2 44 4f 37
       7.4962213e-06 -3.64557e-05 -8.3661365e-07 1.235417e-05
000070 83 66 b8 b5 0d 9a 90 b7 58 b0 05 37 56 d9 31 37
       -1.3738903e-06 -1.7237873e-05 7.968476e-06 1.0600625e-05
000080 0c 39 d2 35 c7 76 dd 35 75 54 bc 37 45 37 4f 36
       1.5662822e-06 1.6500352e-06 2.2450675e-05 3.0877575e-06
000090 88 ca 7d b7 38 af 55 37 a3 0d f8 b6 54 ad 94 36
       -1.5127131e-05 1.2736586e-05 -7.3925635e-06 4.4309218e-06
0000a0 55 b9 99 34 2a 1e a9 37 05 17 37 b7 b7 95 00 36
       2.8633318e-07 2.0160416e-05 -1.091301e-05 1.9160632e-06
0000b0 86 74 2f 37 85 a1 af b6 57 71 3f 37 00 64 d1 b6
       1.0457943e-05 -5.2342098e-06 1.1410876e-05 -6.240327e-06
0000c0 54 11 25 37 c8 43 70 37 10 97 98 b2 ba db 65 b6
       9.838801e-06 1.4320896e-05 -1.7763824e-08 -3.4251557e-06
0000d0 96 80 8e b7 6d 13 94 b7 8b cc 68 b7 76 c7 96 b7
       -1.6987597e-05 -1.765202e-05 -1.38759015e-05 -1.7974275e-05
0000e0 b6 07 17 38 69 89 1a b7 83 37 47 36 59 62 af 3a
       3.6008387e-05 -9.211109e-06 2.9685623e-06 0.001338075
0000f0 5b 82 79 b7 c6 fb 7b b5 40 3f 6b b7 0d 85 0a 36
       -1.4871907e-05 -9.3871165e-07 -1.4021818e-05 2.0641048e-06
000100 78 84 13 b7 64 b7 13 b7 68 3d a8 37 e5 75 29 b8
       -8.792726e-06 -8.804582e-06 2.0055755e-05 -4.0402538e-05
000110 42 7e 6c 35 ea 36 b0 35 49 c0 15 b7 0c 5e 2c b7
       8.810058e-07 1.3129004e-06 -8.925862e-06 -1.0273896e-05
000120 ee bb 02 b7 98 f1 44 37 77 3e 95 b7 90 c5 90 36
       -7.79236e-06 1.1738761e-05 -1.7791272e-05 4.3145337e-06
000130 01 3b c0 b6 d1 3d b5 36 58 be 0c b7 2c c9 a1 37
       -5.728915e-06 5.4014167e-06 -8.388968e-06 1.9286374e-05
000140 a1 14 bb 37 e5 ee 5d b6 85 25 7f b7 ed 2d 28 b7
       2.2301743e-05 -3.3070621e-06 -1.520792e-05 -1.0024273e-05
000150 10 0b 29 36 5c 38 9b b6 eb 59 66 b7 4f 6c 58 b5
       2.5189402e-06 -4.625921e-06 -1.3730004e-05 -8.062388e-07
000160 12 44 f3 37 1f e5 6f b6 e4 95 2c b7 aa a6 4e 37
       2.8999555e-05 -3.5747141e-06 -1.0286898e-05 1.2317361e-05
000170 f3 a6 d7 b7 d2 86 a5 36 26 0a f4 36 2b 61 e0 36
       -2.5707739e-05 4.9330783e-06 7.272948e-06 6.687032e-06
000180 99 89 46 b7 f5 f1 2d b5 91 25 86 37 00 b2 46 37
       -1.1833757e-05 -6.4799616e-07 1.5991538e-05 1.18431635e-05
000190 ad 73 83 34 ca 3b d7 b6 4d 54 9b 37 36 a7 8f b6
       2.4484817e-07 -6.4144597e-06 1.8516695e-05 -4.281198e-06
0001a0 e4 25 e2 36 82 7a 40 b7 96 69 a7 b7 0b 5a ec b5
       6.739736e-06 -1.1472615e-05 -1.9957119e-05 -1.7609576e-06
0001b0 36 ad 80 36 cb 0e 9d b7 55 0e 0f b7 1d 6c 2a b6
       3.8348617e-06 -1.8722747e-05 -8.526801e-06 -2.5394904e-06
0001c0 ad 66 94 b5 9e 0c c8 b6 e8 28 f7 b7 ec 86 32 b5
       -1.1056742e-06 -5.9619333e-06 -2.9463743e-05 -6.6506504e-07
0001d0 53 9b 3a b7 0a 78 44 b7 c3 e4 c7 b6 0c a4 98 36
       -1.1122628e-05 -1.1710459e-05 -5.9572935e-06 4.5490506e-06
0001e0 45 ae 87 35 b6 05 e6 37 60 fa 7f 35 1a 15 18 b7
       1.0109003e-06 2.7420796e-05 9.5359246e-07 -9.064819e-06
0001f0 c3 c8 0f bd 4e e3 8d b7 e7 8d 96 37 c6 05 c9 b6
       -0.03510357 -1.6914357e-05 1.7947472e-05 -5.990939e-06
000200 56 ab ae 34 ad 5b 63 b7 6c cb 6e b7 a2 19 00 36
       3.253469e-07 -1.3551599e-05 -1.4233268e-05 1.9088407e-06
000210 5c 50 c1 b8 de f6 bd b6 c4 35 4d 37 34 0a b2 b6
       -9.217925e-05 -5.661378e-06 1.22314705e-05 -5.306001e-06
000220 40 54 c6 b7 4c e5 05 37 03 25 43 36 39 a2 9c b6
       -2.3642671e-05 7.980805e-06 2.9078808e-06 -4.6680475e-06
000230 18 02 62 37 07 1f 3c b7 45 62 a6 37 2d 81 68 b7
       1.3471137e-05 -1.1212897e-05 1.9834502e-05 -1.3858354e-05
000240 ad e6 59 b5 26 3c 29 36 94 c4 21 b7 6e a4 11 b7
       -8.1174477e-07 2.5217973e-06 -9.642117e-06 -8.680958e-06
000250 02 f7 15 b7 9a 3d fd 37 a6 1d 85 38 69 4f 72 bd
       -8.938603e-06 3.0188636e-05 6.347457e-05 -0.059157763
000260 51 4b 1a 37 4c 17 e7 36 ff c5 4c b7 9f e4 7c 37
       9.196651e-06 6.8870486e-06 -1.2205447e-05 1.50736005e-05
000270 2d 85 94 37 2f ea 93 37 48 c2 0c b7 33 df 10 3e
       1.770499e-05 1.7632816e-05 -8.389885e-06 0.14147644
000280 c1 f9 26 b7 fd 7b 3c b8 09 bd 50 b7 e9 b8 41 b7
       -9.952521e-06 -4.4938166e-05 -1.2441779e-05 -1.1546749e-05
000290 e4 a2 d6 b5 37 75 e9 b6 db 2c cf 35 eb cb 99 36
       -1.599165e-06 -6.9575867e-06 1.5435756e-06 4.5834945e-06
0002a0 d6 42 db b5 98 45 5f b5 01 09 a9 36 ec ec 92 b7
       -1.6336223e-06 -8.3175246e-07 5.0376407e-06 -1.7514882e-05
0002b0 ef 50 97 37 7c f6 10 36 bc ec 2a b8 3b 9f 75 b7
       1.803829e-05 2.1601145e-06 -4.0751635e-05 -1.4640212e-05
0002c0 79 c7 9c b7 dc ac 8d 37 e6 f8 45 37 40 81 26 b7
       -1.8689536e-05 1.6889004e-05 1.1800066e-05 -9.924464e-06
0002d0 27 e2 56 b5 74 36 e2 37 25 4c 06 b7 06 f8 33 37
       -8.005031e-07 2.6966656e-05 -8.004751e-06 1.0726979e-05
0002e0 73 78 98 37 99 9b 97 36 36 90 f1 b6 fc 28 5f b7
       1.81759e-05 4.5182646e-06 -7.199148e-06 -1.3301378e-05
0002f0 65 e4 6d b7 cd d5 93 3d de f5 84 bd d9 ae 16 b5
       -1.4179478e-05 0.07218514 -0.06492208 -5.613379e-07
000300 41 ba 67 b7 8c cc ed 36 f3 21 b4 36 48 4e 83 b7
       -1.3812039e-05 7.086963e-06 5.3683702e-06 -1.565287e-05
000310 c1 88 52 37 3a 8d 87 b5 9f 59 4f b6 98 b6 2c 37
       1.2548816e-05 -1.0099386e-06 -3.089757e-06 1.0294512e-05
000320 bb 59 af b5 e8 8e 45 b7 cb fe 8c b5 72 e1 16 b7
       -1.3064631e-06 -1.1775388e-05 -1.0504967e-06 -8.993187e-06
000330 8d b5 34 b6 6e 44 56 36 d8 bc 8b 36 db 90 62 37
       -2.6927767e-06 3.1928316e-06 4.164507e-06 1.35043765e-05
000340 bf c3 7f b5 33 ce d4 b7 4e da f0 37 10 f5 8f b7
       -9.527975e-07 -2.5368388e-05 2.8711886e-05 -1.7161045e-05
000350 99 9b b6 37 84 c5 b6 37 59 ed 87 b7 ab 46 65 36
       2.1768547e-05 2.1788066e-05 -1.6203778e-05 3.4164793e-06
000360 ab 3f c6 36 6d 3c 06 38 70 b8 e3 b7 d8 38 67 b7
       5.9082718e-06 3.2004365e-05 -2.7146394e-05 -1.3781908e-05
000370 f8 41 14 37 bf 4f 67 36 ec f7 df 35 14 2d 82 b7
       8.836847e-06 3.44681e-06 1.668695e-06 -1.5518199e-05
000380 80 1f 98 37 9d af 1f 38 0b 04 cc b7 12 a5 62 b6
       1.813448e-05 3.8072107e-05 -2.4320578e-05 -3.3772708e-06
000390 e4 86 3c 37 1e c5 58 b7 36 a3 5f 37 f1 a3 9b b7
       1.123708e-05 -1.2920498e-05 1.3329836e-05 -1.8553781e-05
0003a0 37 36 19 b8 03 fb a3 36 38 94 6e b7 16 d0 aa b3
       -3.6528534e-05 4.887e-06 -1.4220415e-05 -7.9540925e-08
0003b0 dc e9 1a 37 58 ab 31 b7 f7 c6 7e 34 bb 97 37 37
       9.233565e-06 -1.0589916e-05 2.3727976e-07 1.09429775e-05
0003c0 d2 1b 51 37 c1 9e a9 b7 c5 0c 67 b7 49 92 f4 37
       1.2463848e-05 -2.0220295e-05 -1.3771646e-05 2.9155186e-05
0003d0 32 d6 70 b7 0c ad c9 36 e3 b0 9c 37 bc b2 5f b7
       -1.4354986e-05 6.010412e-06 1.8679018e-05 -1.3333451e-05
0003e0 34 fe a2 37 7d 7d 6c 37 93 54 f6 b6 a5 78 df b7
       1.9430277e-05 1.4095914e-05 -7.341217e-06 -2.6639851e-05
0003f0 70 9f 73 b7 51 7b 2f 36 7a 4f 52 36 06 f8 af 36
       -1.4521051e-05 2.6148812e-06 3.13387e-06 5.24428e-06

model.encoder.layers.1.0.bias f4 [100]
000000 bf f2 83 36 df 25 45 3d f2 2c 1e b6 22 b5 f6 3c
       3.9323636e-06 0.04813182 -2.3569996e-06 0.030115668
000010 12 37 9b 3b ae c2 93 b4 89 9f f6 3c 43 4e c9 3d
       0.0047367895 -2.7522532e-07 0.03010537 0.0982938
000020 4c 06 ef 3c 00 17 6b b7 02 a5 e6 3d a9 ef 18 b7
       0.029177807 -1.4012447e-05 0.112619415 -9.115706e-06
000030 21 52 cb 37 61 9a 81 36 aa 90 a2 b7 6e 88 ba b5
       2.423773e-05 3.8624717e-06 -1.937927e-05 -1.3897786e-06
000040 33 20 77 37 0e c8 9b b7 ed 61 65 b6 e9 5b c3 b6
       1.4729844e-05 -1.8570598e-05 -3.418066e-06 -5.8221526e-06
000050 fc d6 b4 b6 c6 11 00 b8 22 d5 8e 37 59 de 01 b4
       -5.3894455e-06 -3.053413e-05 1.7026967e-05 -1.2094951e-07
000060 7d d9 be b6 87 a6 3a b4 9a 85 c9 b7 dd 91 3b 37
       -5.68776e-06 -1.7383182e-07 -2.402328e-05 1.118003e-05
000070 92 b7 8a b7 0b fd 19 3d 91 6f 01 3e 85 fb 5a 35
       -1.6536364e-05 0.037594836 0.12640215 8.157734e-07
000080 27 ac 7c b7 44 01 18 3a 41 6c 0d 36 3c 25 7f b7
       -1.5060453e-05 0.00057985284 2.107365e-06 -1.5207854e-05
000090 2f ae 6c 37 88 a7 a8 36 7c aa e8 3d bd 0e 1f b7
       1.4107251e-05 5.0262934e-06 0.11360642 -9.48057e-06
0000a0 8d 2e a4 37 7e 30 20 38 02 a0 53 b6 24 fe 64 b7
       1.9572e-05 3.8192135e-05 -3.1534587e-06 -1.3649031e-05
0000b0 cc 17 21 b7 2b 94 80 b7 f1 24 06 b7 16 37 14 b7
       -9.601888e-06 -1.5327785e-05 -7.9956235e-06 -8.834313e-06
0000c0 cd b6 72 b7 cd da e0 37 ff b6 35 b8 f0 2f aa 3c
       -1.4466886e-05 2.6804768e-05 -4.332419e-05 0.020774812
0000d0 17 2d 8c 36 e5 55 a7 b5 c0 71 cd 37 b5 ba 6f 37
       4.1775743e-06 -1.2467468e-06 2.4490873e-05 1.4288981e-05
0000e0 83 67 3a 37 53 56 c2 b5 7b b0 79 3d ed 1d c3 3d
       1.1110565e-05 -1.447925e-06 0.06095932 0.09527192
0000f0 69 88 5f 37 21 65 fa b6 7c cd 6e b6 06 50 94 b7
       1.3323596e-05 -7.4623536e-06 -3.5584371e-06 -1.7680239e-05
000100 df 7f dc 36 a8 0c 88 37 ba 13 73 37 d6 11 6c 37
       6.571397e-06 1.6218357e-05 1.4488522e-05 1.4070849e-05
000110 b3 a1 79 b7 46 19 ef b7 f5 e0 05 b2 1e e4 07 3d
       -1.4879205e-05 -2.8502789e-05 -7.792768e-09 0.033176534
000120 90 df 18 b7 77 5b 17 b7 59 d8 ef 3d a7 bc 88 36
       -9.111958e-06 -9.021597e-06 0.11711187 4.075078e-06
000130 b9 18 db 3c 12 25 85 b7 a7 c8 18 36 72 9c 11 3d
       0.026745187 -1.5872098e-05 2.276656e-06 0.03554959
000140 14 e4 92 b5 3d 49 67 b5 8a b8 95 b7 39 55 49 36
       -1.0944227e-06 -8.616078e-07 -1.7848117e-05 3.000094e-06
000150 1d db 99 b7 12 7d 9a b6 3d f9 2b b8 9c ce 67 37
       -1.8341054e-05 -4.6041177e-06 -4.10017e-05 1.3816778e-05
000160 0f 98 8d b7 35 14 df 36 84 64 45 b7 70 d8 a7 b6
       -1.6879318e-05 6.6482703e-06 -1.1765518e-05 -5.0021845e-06
000170 3b 35 09 37 4e 79 89 3d 20 a9 08 37 ac 43 0d 37
       8.17823e-06 0.0671259 8.145609e-06 8.420011e-06
000180 9c c4 14 b7 20 93 93 3c 56 52 bf b6 d8 2f 95 36
       -8.867264e-06 0.01801449 -5.7018287e-06 4.446116e-06

model.encoder.layers.2.0.weight f4 [100, 100]
000000 45 a3 4b 37 9a 91 83 36 3f 5c 35 b6 8d f7 8f 37
       1.2137757e-05 3.9210545e-06 -2.7024796e-06 1.7162203e-05
000010 f6 ef c8 36 b3 63 2c 37 90 0a b9 b7 c8 24 94 36
       5.9883996e-06 1.0275212e-05 -2.2058637e-05 4.4150256e-06
000020 cb 16 53 37 ee 50 ac b6 30 7c 8e 36 c2 92 e2 b6
       1.2581887e-05 -5.135421e-06 4.246387e-06 -6.7524097e-06
000030 06 54 d9 34 6c 4c 85 36 e7 8f 7b b5 b5 dc 8e 37
       4.0480535e-07 3.9726056e-06 -9.371419e-07 1.7030494e-05
000040 96 7d 8a 37 f6 b8 57 b7 f3 69 40 35 0d 45 38 b7
       1.6509362e-05 -1.2858063e-05 7.167975e-07 -1.0983332e-05
000050 f7 e1 c2 b7 4c 86 79 b5 ac 77 7a 36 aa b2 a3 36
       -2.3231825e-05 -9.2955156e-07 3.7322561e-06 4.878578e-06
000060 f6 de a6 b7 cc 1a f1 b6 d0 29 95 37 ea 6b 81 36
       -1.9892566e-05 -7.1854793e-06 1.7781655e-05 3.8570624e-06
000070 5a 2f 54 b6 bd 31 ba b7 74 a7 a9 37 dc 77 a2 b7
       -3.1618024e-06 -2.2196089e-05 2.0224346e-05 -1.9367719e-05
000080 76 0e 06 37 5f a7 37 b7 f4 a7 72 b7 d2 9d 6d 37
       7.990389e-06 -1.0946619e-05 -1.4463429e-05 1.4163046e-05
000090 43 53 5b b6 b1 35 91 37 98 04 df 35 ad 77 88 b7
       -3.2682008e-06 1.7310349e-05 1.6616132e-06 -1.6268192e-05
0000a0 f6 04 ce b7 58 46 12 b6 7b 36 53 b8 9d 76 10 b6
       -2.4559424e-05 -2.179664e-06 -5.035706e-05 -2.1526714e-06
0000b0 06 a9 94 36 d7 2f 98 b7 71 09 1a b7 74 9f 43 b8
       4.4304206e-06 -1.814209e-05 -9.1813135e-06 -4.6640125e-05
0000c0 5d 6e c0 b7 38 4d 98 35 18 5d 51 36 9a ce b1 b6
       -2.2939576e-05 1.1347356e-06 3.1197615e-06 -5.2990627e-06
0000d0 37 71 c3 b5 4f fa e7 33 14 57 a5 b7 ea 61 8b 36
       -1.4561582e-06 1.08023066e-07 -1.9710082e-05 4.1539215e-06
0000e0 eb b5 50 b7 da 8f cb 36 90 ca cd b6 63 68 12 b7
       -1.2440122e-05 6.066618e-06 -6.1330575e-06 -8.726583e-06
0000f0 a4 e8 a1 36 86 23 1a 34 e9 7e 35 36 d3 aa b3 37
       4.825257e-06 1.4355291e-07 2.7044973e-06 2.1418009e-05
000100 36 e3 0e b7 cd 66 e3 37 42 b6 4f 37 9e dd a6 36
       -8.516761e-06 2.7108379e-05 1.2380597e-05 4.972985e-06
000110 8c fc 73 36 81 97 d5 b5 9d 38 b7 35 bb 5e 63 37
       3.6356823e-06 -1.591383e-06 1.3651039e-06 1.35523105e-05
000120 6d c0 5a b7 0c 9d c9 35 92 e5 0b 37 fd 69 36 b7
       -1.3038615e-05 1.5021374e-06 8.338497e-06 -1.0872723e-05
000130 16 f0 b9 37 66 b9 92 37 78 ce 75 b7 40 ca 39 37
       2.2165517e-05 1.749089e-05 -1.465121e-05 1.1073949e-05
000140 3d b8 bb b4 67 99 96 b7 e9 22 2a b7 3d f0 72 36
       -3.4965515e-07 -1.7952827e-05 -1.0140918e-05 3.6200647e-06
000150 18 4d 31 b6 86 07 a4 34 9a 8d 7e 36 61 d2 99 b7
       -2.641993e-06 3.0552854e-07 3.7931372e-06 -1.8336987e-05
000160 12 44 50 b7 9e 6f 83 b7 02 a8 8e 37 55 a0 d4 37
       -1.2413615e-05 -1.5668393e-05 1.7005954e-05 2.534703e-05
000170 9b 4b 96 b5 6c 5d 99 b7 65 54 18 37 c5 4c 05 35
       -1.1197875e-06 -1.8282524e-05 9.079556e-06 4.9658075e-07
000180 3d 10 15 35 15 6e 33 35 bd c6 92 b5 cb 19 90 37
       5.5530455e-07 6.6842887e-07 -1.0935688e-06 1.7178148e-05
000190 e0 30 bc 36 df 6d 13 39 49 8b 0c 37 24 8a e4 3d
       5.6085264e-06 0.00014059943 8.37708e-06 0.11159161
0001a0 29 55 69 38 c6 fc 87 b7 aa 58 4e 38 f5 a6 73 3d
       5.563084e-05 -1.621096e-05 4.9196802e-05 0.059485395
0001b0 b1 7e 64 3c e6 29 f8 b4 24 a5 00 3e 85 12 2e b5
       0.013946221 -4.6224085e-07 0.12562996 -6.4847e-07
0001c0 70 91 b4 37 20 6c 57 37 10 37 66 b7 b2 ed 5f b6
       2.1525397e-05 1.2840173e-05 -1.37218885e-05 -3.3367946e-06
0001d0 dc 32 0f 37 79 74 a8 b7 2d de fa b6 d5 08 75 b7
       8.535306e-06 -2.0081397e-05 -7.4764453e-06 -1.4605194e-05
0001e0 fc 2c af b6 61 11 62 37 21 d8 a3 3d 75 65 84 36
       -5.2206433e-06 1.3474696e-05 0.08000208 3.9457177e-06
0001f0 1b 67 3b b6 30 05 83 b7 96 54 9c b6 d5 ea ab 37
       -2.7925187e-06 -1.5618833e-05 -4.6590094e-06 2.049414e-05
000200 e7 6b 50 35 6f 55 47 39 a2 52 be 38 64 f5 e1 35
       7.7643057e-07 0.00019009945 9.0752976e-05 1.6835224e-06
000210 4b e5 9e 37 73 43 1c b8 45 05 b7 3d 48 3f 85 37
       1.894184e-05 -3.7256115e-05 0.08936552 1.5884303e-05
000220 da 3c 6c 37 a8 e4 37 b7 c7 ef b7 3d 51 64 4e 3d
       1.4080864e-05 -1.0960888e-05 0.08981281 0.050388638
000230 b8 34 d9 b5 e5 ba b3 36 a5 38 87 37 ff 7b 1e b6
       -1.6183103e-06 5.356373e-06 1.6119631e-05 -2.361601e-06
000240 4e 61 cb 37 47 57 8e b7 a1 65 8b b7 b8 f5 0a b7
       2.4244797e-05 -1.696836e-05 -1.6617416e-05 -8.282652e-06
000250 04 c7 72 37 2e ab 13 b6 44 4c 50 37 90 8b f5 3d
       1.4470661e-05 -2.2004347e-06 1.2415523e-05 0.1198951
000260 58 c5 d7 36 5c bb 80 b7 2b 45 35 37 8b 6f 5c b7
       6.430473e-06 -1.5346035e-05 1.0804545e-05 -1.31389925e-05
000270 ea 7f c0 36 49 63 52 37 c2 e0 88 38 b4 1d 0b 3c
       5.736937e-06 1.2540092e-05 6.52685e-05 0.0084909685
000280 9f ca 34 37 6d eb 9f b7 6b 1c 70 35 61 ad fe 36
       1.07760125e-05 -1.9063906e-05 8.944832e-07 7.589974e-06
000290 b5 51 2e 37 8b 48 3e 3c 22 58 8d b6 9d e3 d9 b6
       1.0390232e-05 0.011613975 -4.2123875e-06 -6.4936016e-06
0002a0 75 52 10 b7 51 91 18 b7 0e 01 8f b7 74 3a 76 37
       -8.602267e-06 -9.09374e-06 -1.704742e-05 1.4676352e-05
0002b0 3d b6 15 38 dd d8 38 b7 36 e0 c3 3d 31 df 9d 37
       3.569409e-05 -1.1017747e-05 0.09564249 1.881979e-05
0002c0 36 d8 64 3d 28 7e 6b 35 0c 8d 16 35 9f 60 94 3b
       0.055870257 8.7727904e-07 5.6084605e-07 0.0045281197
0002d0 6b ec 90 b7 18 fd dd 36 fc 46 8b 37 bb 3c 06 b7
       -1.7276228e-05 6.6157772e-06 1.6603146e-05 -8.001162e-06
0002e0 28 75 0e 37 93 90 b2 b6 ca 8c b1 38 55 97 2f b7
       8.491137e-06 -5.321644e-06 8.466242e-05 -1.0466048e-05
0002f0 61 af 9d 37 e4 aa 73 b5 65 eb 50 37 3b d0 a8 34
       1.8797526e-05 -9.077323e-07 1.2452573e-05 3.1443946e-07
000300 d1 19 97 37 2d d2 b1 3d 6e 86 c7 b6 e4 d7 52 37
       1.8012624e-05 0.08682666 -5.946312e-06 1.2567241e-05
000310 c1 2f 5a b1 27 e4 81 3d c1 d2 35 b7 60 ab 8f 36
       -3.175032e-09 0.06342345 -1.0837511e-05 4.281683e-06
000320 13 ca 84 37 42 57 15 b7 03 28 28 b6 40 b5 11 b5
       1.5829724e-05 -8.901408e-06 -2.505724e-06 -5.428046e-07
000330 7a 1c 85 b7 b2 ff e3 b7 34 13 aa 36 e6 cd 09 b7
       -1.5868096e-05 -2.7179576e-05 5.0686303e-06 -8.213776e-06
000340 26 2a c2 b6 6c 24 ce 37 e7 d0 93 b7 a0 c6 4a b6
       -5.7865573e-06 2.4574074e-05 -1.7621043e-05 -3.021596e-06
000350 38 24 19 36 57 64 22 35 d7 29 0b 37 21 ee 33 b6
       2.2819859e-06 6.0495717e-07 8.294787e-06 -2.6811688e-06
000360 fd 9b 0a b8 86 56 61 b5 6c 02 c3 b7 d6 66 b2 b7
       -3.304704e-05 -8.394494e-07 -2.324694e-05 -2.126714e-05
000370 73 8f 88 b7 8d 4a e4 b4 e0 3c ad b7 c5 e3 9e b7
       -1.6279262e-05 -4.2522552e-07 -2.0651554e-05 -1.8941131e-05
000380 29 f0 eb b6 72 46 c3 b4 a3 95 32 36 ff 82 3b 37
       -7.031504e-06 -3.6372836e-07 2.6611167e-06 1.11765685e-05
000390 58 c8 23 37 4c e1 ad b6 27 9e 29 b7 76 f8 11 36
       9.762203e-06 -5.18203e-06 -1.0110008e-05 2.1751307e-06
0003a0 a6 6f 8c b7 14 ce 7f 36 cc e8 ef b6 df 90 f1 b4
       -1.674129e-05 3.8117914e-06 -7.149856e-06 -4.4995156e-07
0003b0 f3 c7 2a 38 e0 8a dd b3 20 26 bf b6 41 00 bb b6
       4.0717376e-05 -1.0316376e-07 -5.696682e-06 -5.573064e-06
0003c0 0f b0 15 35 ae ba 54 37 4b e0 38 b7 84 8b 8b b6
       5.5763024e-07 1.2679649e-05 -1.1019477e-05 -4.1587646e-06
0003d0 56 8d 90 36 68 d2 26 b7 d7 d7 cc 37 c3 33 4d 37
       4.307988e-06 -9.94336e-06 2.4419203e-05 1.2231004e-05
0003e0 4d d6 9a 36 f8 42 29 37 de a8 23 b7 07 26 0e b6
       4.6145055e-06 1.0088777e-05 -9.754875e-06 -2.1181784e-06
0003f0 c4 14 4c 38 b4 d1 7b 37 97 b5 8d b5 aa c4 bf 37
       4.865673e-05 1.5009591e-05 -1.0558168e-06 2.2860553e-05

model.encoder.layers.2.0.bias f4 [100]
000000 00 3a 87 b7 39 8a db 3b 04 1e 0c b7 b7 43 05 38
       -1.6120262e-05 0.006699827 -8.351639e-06 3.1772735e-05
000010 9b be 0d b7 ac 5d d8 b7 54 4a 22 37 37 b1 8e 37
       -8.448634e-06 -2.5792826e-05 9.673258e-06 1.7010241e-05
000020 65 b1 12 36 83 d3 64 b7 b7 cc 95 35 86 10 38 3c
       2.1858953e-06 -1.3639105e-05 1.1160945e-06 0.011234408
000030 2e 2e 9a b5 7f f8 02 37 09 97 bd 3d cc 9f 6b b7
       -1.1487334e-06 7.806461e-06 0.09257323 -1.4044297e-05
000040 59 21 ed b6 e9 23 10 3e 32 15 b8 b7 42 ec 89 36
       -7.0670326e-06 0.14076199 -2.194438e-05 4.110422e-06
000050 50 7e dc 3d d6 19 a7 3c ba 63 71 3a aa a3 b6 b6
       0.1076628 0.020398062 0.0009208281 -5.4430757e-06
000060 84 e8 90 3b 7f de cf 3d 05 2d 3d b7 f4 21 44 3d
       0.0044222493 0.1014986 -1.127576e-05 0.047883943
000070 18 a4 e2 37 62 52 63 3d c5 04 b8 3c a4 e2 ef 36
       2.7017712e-05 0.05549849 0.022463212 7.1491395e-06
000080 5b ce ba b7 cc fb 1d b3 87 93 4e 36 ee d6 81 3d
       -2.226902e-05 -3.678342e-08 3.0782264e-06 0.06339823
000090 9d a6 44 b7 1e d8 28 37 e9 f1 1b b7 87 f4 51 b7
       -1.1721303e-05 1.0063899e-05 -9.295044e-06 -1.2514304e-05
0000a0 fe 85 94 b6 4a 32 d8 36 3f 80 2b 3d aa ca 12 b6
       -4.4263425e-06 6.443156e-06 0.041870352 -2.1873661e-06
0000b0 01 b8 08 b7 68 4e 0a 36 94 d4 70 b7 04 3e ea 35
       -8.149073e-06 2.060924e-06 -1.4354609e-05 1.7452408e-06
0000c0 5e e8 9a 35 70 d0 6f b7 96 94 8e 3d 94 91 c5 37
       1.1541522e-06 -1.4294041e-05 0.06961934 2.355202e-05
0000d0 02 2b f8 38 d8 fd 91 37 75 69 10 b7 a7 ca 75 b7
       0.00011833572 1.7403552e-05 -8.6076225e-06 -1.4650322e-05
0000e0 f4 e2 a3 3d 36 e1 a2 38 d8 51 86 b6 c5 d5 2d 35
       0.08002272 7.766711e-05 -4.003039e-06 6.47586e-07
0000f0 81 5f 5b 3c 12 bf 54 37 3b 30 0f 3d ca 20 a1 35
       0.013389469 1.2680672e-05 0.034958106 1.2004978e-06
000100 53 f4 d6 3b 13 80 ca 3d 66 64 31 b6 a2 b4 68 3d
       0.0065598874 0.098877095 -2.6433495e-06 0.05681289
000110 e1 85 a9 b7 e2 61 14 39 54 f1 10 37 0d c1 0b 37
       -2.0208712e-05 0.00014150844 8.639257e-06 8.329994e-06
000120 10 dd 52 35 e8 7c 8d b7 a9 3a e9 36 ad b5 8d 36
       7.8552785e-07 -1.6866674e-05 6.95077e-06 4.2232773e-06
000130 56 21 c1 b4 cb 6a 20 37 20 c7 64 b6 c9 6f d1 36
       -3.5973306e-07 9.561608e-06 -3.4090554e-06 6.241699e-06
000140 87 c8 9c 36 81 c2 d5 b6 83 f7 e4 b7 dd e9 25 b7
       4.6725067e-06 -6.370538e-06 -2.7294975e-05 -9.889217e-06
000150 b5 66 99 38 0c ef b0 37 a5 3c 8a 36 2a d7 c2 37
       7.314739e-05 2.109215e-05 4.1197804e-06 2.3226796e-05
000160 e5 cc 8f b4 8a 9c 97 3d 1a 3a e5 b6 81 c1 ab b7
       -2.6784906e-07 0.07402904 -6.8314957e-06 -2.0474896e-05
000170 5a 3f d8 37 6e cf d9 b7 5a 01 6b 37 bc 0d cc b7
       2.5778707e-05 -2.5965008e-05 1.4007406e-05 -2.432509e-05
000180 d5 76 bd 33 b2 8d 67 36 67 52 de b6 43 7b c4 b6
       8.822614e-08 3.450416e-06 -6.6257085e-06 -5.8556047e-06

model.encoder.layers.3.weight f4 [10, 100]
000000 0f f1 3e b6 b8 27 8d bd 92 ca 25 b7 3d 29 d3 b6
       -2.845252e-06 -0.068923414 -9.881931e-06 -6.293091e-06
000010 de cb 4f 36 d0 e9 55 b6 87 6d c4 b7 c1 48 84 b5
       3.096407e-06 -3.187557e-06 -2.3416023e-05 -9.85594e-07
000020 04 a4 ab b6 90 35 8c b7 f6 e8 8e b7 67 37 60 36
       -5.115291e-06 -1.6714243e-05 -1.70362e-05 3.341085e-06
000030 55 c1 89 b6 28 1d 29 b7 02 ec 05 3d 11 fa ea 36
       -4.105425e-06 -1.0079973e-05 0.032695778 7.002855e-06
000040 b8 41 1e 37 c7 28 8c 3d b4 f6 5a b7 fc 60 b5 b4
       9.432835e-06 0.06843715 -1.3051253e-05 -3.3784443e-07
000050 5a ae 3b 3d fd 19 9e 3d dc 97 b3 bd 06 93 a5 b6
       0.04582057 0.077198006 -0.08769199 -4.934499e-06
000060 f0 48 bd bc f3 3c 5a bc e1 db 24 b6 c3 22 32 ba
       -0.023106068 -0.0133201955 -2.456589e-06 -0.0006795341
000070 25 16 1d 37 65 b1 ae bd 48 99 0d bb 30 6a 6c b6
       9.363085e-06 -0.08529929 -0.0021606255 -3.522855e-06
000080 41 63 96 b5 97 b0 f2 b6 c3 78 06 b7 4c 2e 0d 3d
       -1.1204758e-06 -7.23272e-06 -8.015139e-06 0.03446798
000090 10 5d 64 37 fe 9a b8 34 6b 23 3f b7 2e 1a 93 37
       1.3611527e-05 3.4385442e-07 -1.13927335e-05 1.7535956e-05
0000a0 ba 81 3f 37 02 b4 5d 37 da 36 8d bd d6 af eb b6
       1.14146915e-05 1.3214538e-05 -0.06895228 -7.0240158e-06
0000b0 90 ea 54 b7 8d 85 6b 34 c5 93 47 b5 05 18 6c b6
       -1.2690798e-05 2.1934666e-07 -7.434831e-07 -3.5180722e-06
0000c0 aa d9 01 b6 6e df 0c b7 2e 34 1d 3d 9d d3 86 b7
       -1.9349195e-06 -8.396672e-06 0.03837984 -1.6072585e-05
0000d0 7a 92 82 bd 3e bd 12 b7 ef 41 67 36 0e 72 0a b7
       -0.063755944 -8.7463395e-06 3.446006e-06 -8.251996e-06
0000e0 86 3b 9b 3c b0 10 7e bd 02 be a7 b7 b6 ee 6a 36
       0.018949281 -0.062027633 -1.999643e-05 3.5007665e-06
0000f0 40 79 3a 3b 23 33 80 b5 dd 0b 82 3d 01 f9 bd 36
       0.0028453618 -9.551626e-07 0.06349919 5.661627e-06
000100 6a 6e af 35 51 fc 97 bd 18 1c b5 b6 67 af 43 3d
       1.3070651e-06 -0.074211724 -5.397491e-06 0.0477747
000110 09 0e 8d 37 7c ec 8a bd 12 2f 88 3c 5c bd 2f 37
       1.6815045e-05 -0.06783387 0.016624007 1.04749015e-05
000120 cf 9b b3 36 6d ba c9 b6 51 75 0a 37 42 0d 9f 36
       5.352754e-06 -6.0119696e-06 8.252756e-06 4.7401127e-06
000130 97 ff df 35 72 71 ec 36 33 7e 29 b5 0f ca 8e b7
       1.6689181e-06 7.046555e-06 -6.314105e-07 -1.702181e-05
000140 d3 2c 0e b7 4d e4 71 b7 88 9a a5 36 26 e7 a4 36
       -8.474296e-06 -1.4417875e-05 4.935373e-06 4.91449e-06
000150 d9 a6 10 bd 64 81 c7 b5 cb 2d 3b 36 fc cf a5 36
       -0.03531537 -1.4864313e-06 2.7891826e-06 4.9415958e-06
000160 20 1a e9 b6 90 9f 84 3d 77 1d 6d b5 95 e2 2b 36
       -6.9469825e-06 0.06475747 -8.8332257e-07 2.5612874e-06
000170 f9 e2 ee b6 8c f7 04 b7 3e 1c a0 37 eb fe 9a b6
       -7.119376e-06 -7.92545e-06 1.9086638e-05 -4.619234e-06
000180 a5 35 85 37 74 d3 92 37 0c 26 8c 37 8f 48 4d 36
       1.5879816e-05 1.7503022e-05 1.6707017e-05 3.0589615e-06
000190 bd bc 2c 36 a9 ba d7 b5 0e 95 c1 b6 1b a6 1b 36
       2.5739857e-06 -1.6073074e-06 -5.7692005e-06 2.3193486e-06
0001a0 47 1f 87 37 92 fb 02 37 16 58 d4 37 2c e0 85 37
       1.6107819e-05 7.807177e-06 2.5313388e-05 1.5959224e-05
0001b0 9b bb f3 36 0b 28 b3 b7 2c 7f c5 b7 60 b5 41 3c
       7.2638045e-06 -2.135711e-05 -2.3543449e-05 0.011823028
0001c0 bb 93 64 37 e6 7f 11 37 36 ae 61 32 62 2a 3a 35
       1.3624255e-05 8.672452e-06 1.3136335e-08 6.9352075e-07
0001d0 f1 e1 f8 b5 da e2 5a 35 ed d3 b1 b6 a3 06 a6 b7
       -1.8543197e-06 8.154144e-07 -5.2996825e-06 -1.9791833e-05
0001e0 06 f0 1b 3d 45 21 be bb 36 ad 84 b4 19 c0 fb 36
       0.0380707 -0.005802306 -2.4712944e-07 7.502746e-06
0001f0 df 4d 81 3c 20 e7 43 bd 26 82 fc 37 89 de bb 3c
       0.015784202 -0.04782784 3.0101346e-05 0.022933261
000200 b3 52 06 b6 a2 d9 6a 34 7a a7 27 3d cd 9a bd 36
       -2.0015693e-06 2.1872123e-07 0.040931202 5.65066e-06
000210 f4 68 c8 36 8a 6d 35 b7 78 18 e3 b7 4c f3 43 35
       5.9726826e-06 -1.0813945e-05 -2.7071903e-05 7.2997204e-07
000220 74 0c ec b6 f3 71 39 37 61 2b 48 b7 62 89 0c 36
       -7.034798e-06 1.105339e-05 -1.1931029e-05 2.0941593e-06
000230 cb 0c ad 36 d5 46 90 b6 0e cd 6e 3d e6 95 a5 36
       5.157291e-06 -4.2997804e-06 0.058301024 4.9348337e-06
000240 a7 a1 ae 36 83 40 ff 34 7a 08 c1 b6 5c 30 7b b7
       5.204423e-06 4.754439e-07 -5.752835e-06 -1.4972025e-05
000250 e4 d7 8b b6 32 8b 4a 37 4b 58 92 bd 29 49 98 37
       -4.167656e-06 1.2072547e-05 -0.07145747 1.815388e-05
000260 e4 37 b4 b4 51 f5 b3 b7 55 8b c9 36 fc 75 11 35
       -3.3568278e-07 -2.1452697e-05 6.006487e-06 5.41884e-07
000270 a2 b0 82 bd cc 14 86 b6 1d 28 64 b6 f5 5b 47 37
       -0.06381346 -3.9959323e-06 -3.3997997e-06 1.1882735e-05
000280 89 66 a5 33 1b d3 44 b6 38 8b b1 36 cf 65 5a b6
       7.702062e-08 -2.9329155e-06 5.2912183e-06 -3.2543792e-06
000290 f0 36 69 bd d7 cc f6 b5 d6 e7 d6 36 cd f4 ed 3c
       -0.056937158 -1.8388045e-06 6.4046862e-06 0.029047394
0002a0 ed 1b 6a b7 c6 89 33 bc 20 52 bd 35 61 90 d2 b5
       -1.3953989e-05 -0.010958141 1.4105499e-06 -1.5688239e-06
0002b0 72 df 73 36 14 ce 5d 37 72 2d d4 36 9e 9f 83 b7
       3.6339884e-06 1.3220608e-05 6.323383e-06 -1.5690744e-05
0002c0 88 60 bc b7 4d a4 bd 37 28 7a 09 37 7b b0 df b4
       -2.2456297e-05 2.2607064e-05 8.194278e-06 -4.1665393e-07
0002d0 50 15 88 36 75 1d 10 b6 22 32 05 b8 75 e5 4e 37
       4.055597e-06 -2.1474818e-06 -3.175636e-05 1.2331981e-05
0002e0 8d 2c 77 36 82 8f 8f b7 86 f2 28 36 9e 43 99 b7
       3.68318e-06 -1.7113754e-05 2.5175118e-06 -1.8270508e-05
0002f0 e5 83 6d 37 37 9c 88 36 4f 3c 2e b7 ba 70 8f 3a
       1.415701e-05 4.0713016e-06 -1.038525e-05 0.0010943629
000300 2c 76 ec 36 1b be 08 37 53 00 d5 36 05 84 5a 36
       7.047105e-06 8.150494e-06 6.3479324e-06 3.2561377e-06
000310 b7 e5 1b 38 14 bf 9a b7 f9 7b 0b b7 74 37 c1 b6
       3.716882e-05 -1.8447208e-05 -8.31391e-06 -5.758304e-06
000320 0d 63 53 b7 95 b8 44 3e 04 8a 76 b7 d9 e0 1c b7
       -1.2599642e-05 0.19211037 -1.4694877e-05 -9.350676e-06
000330 64 df 84 b6 b4 12 17 37 59 8d 7c b7 d7 6f aa 36
       -3.9599126e-06 9.004656e-06 -1.5053281e-05 5.0794147e-06
000340 1a 90 52 b6 5e 53 e4 36 c4 fe ed 36 65 88 06 3d
       -3.1376317e-06 6.8046347e-06 7.092809e-06 0.03284492
000350 83 5d ea b6 a8 76 f9 36 91 3a 45 3e 9c c8 32 b7
       -6.9846296e-06 7.4345917e-06 0.19260623 -1.0656335e-05
000360 3e 1c e6 36 18 b0 4a 3e e6 b2 2b b6 51 81 cb 37
       6.857822e-06 0.19793737 -2.5585118e-06 2.4259703e-05
000370 3b 3e 3f 3e d0 ae 46 3e 1a f3 44 3e 98 c7 ed b6
       0.18676083 0.19402623 0.19233361 -7.086386e-06
000380 b8 b4 47 3e 20 13 3b 3e 5e 9d 0f b7 ff 98 e4 3d
       0.19502532 0.18269014 -8.560104e-06 0.11161994
000390 9f b9 15 37 aa b8 35 3e b7 93 1d 3e 99 99 80 b7
       8.92431e-06 0.17746225 0.1538838 -1.5330314e-05
0003a0 ce 64 26 b7 b4 a3 1e 37 5d 25 87 36 c0 15 6e 3d
       -9.917841e-06 9.455649e-06 4.027663e-06 0.05812621
0003b0 23 85 71 37 79 d4 a8 36 6e 87 22 36 bc 9a 8f 37
       1.4395718e-05 5.0315252e-06 2.4218712e-06 1.7118982e-05
0003c0 7d f7 7e 36 b4 a1 cd b6 2a 47 38 3e a8 e9 02 36
       3.7993007e-06 -6.128301e-06 0.17995897 1.9507515e-06
0003d0 bc 58 73 b3 55 14 34 b6 d7 90 02 b6 b5 d9 01 37
       -5.665855e-08 -2.6833925e-06 -1.9455817e-06 7.739688e-06
0003e0 eb e1 1c 36 67 86 26 b5 71 5d 51 3e c3 e3 c0 b7
       2.3377313e-06 -6.20354e-07 0.20445801 -2.2994243e-05
0003f0 6e 2a dc 3d ab 54 e1 b6 c9 f3 10 b7 21 50 52 34
       0.1075028 -6.715379e-06 -8.6398295e-06 1.9586925e-07

model.encoder.layers.3.bias f4 [10]
000000 e7 f5 c3 3d 47 2e 99 34 99 8f 19 3e 1a e8 a1 b5
       0.095683865 2.8532142e-07 0.14996184 -1.2062985e-06
000010 d2 12 38 3d 28 fe b3 b6 5d f8 89 3d 35 a1 db 37
       0.044939823 -5.3642034e-06 0.06736825 2.6181902e-05
000020 8d 9c 88 3d 8b ea 7a 3d
       0.06670485 0.061258834

model.decoder_x.layers.0.weight f4 [10, 10]
000000 aa 8f 22 37 4b 47 93 36 aa 28 80 be 62 5a f3 b6
       9.689402e-06 4.389241e-06 -0.25031024 -7.2524863e-06
000010 e0 4b 82 b7 51 ea 12 37 51 4c 1f b9 c5 6e 0c b7
       -1.553254e-05 8.756834e-06 -0.00015191852 -8.370441e-06
000020 4b cf 5d bd 8e 4f 97 b8 62 7e ff b5 6c d3 75 3c
       -0.054152768 -7.215059e-05 -1.9035763e-06 0.01500402
000030 dc 0d b3 be 62 e4 ea b5 20 00 b4 37 db d0 c0 36
       -0.3497151 -1.7500827e-06 2.145773e-05 5.74636e-06
000040 a5 49 ba ba 02 54 93 37 86 46 c3 38 d6 43 1b ba
       -0.0014212622 1.7562885e-05 9.3114606e-05 -0.0005922889
000050 51 71 0a b7 91 f6 20 bc 98 f2 b8 3d c6 e7 5f b6
       -8.2518245e-06 -0.009824411 0.09030646 -3.33645e-06
000060 19 d4 1c b8 37 0e 08 b7 ca 1d 60 3d ce 2d f0 37
       -3.739083e-05 -8.109541e-06 0.05471591 2.8631559e-05
000070 47 c5 af 37 76 9d 2d 3c bf dd cf b7 04 4f 52 bd
       2.095349e-05 0.010596624 -2.4779582e-05 -0.051344886
000080 6f 43 7b 3e c5 da f3 b5 c3 a8 c8 37 38 69 d6 b7
       0.24537443 -1.8168581e-06 2.3920444e-05 -2.5559784e-05
000090 fd a3 c1 3e 4a ed 56 37 b4 6f 84 39 9d bd 39 3d
       0.37820426 1.2810642e-05 0.00025260227 0.045346845
0000a0 1f 4a 60 36 d5 25 5a 37 d2 c9 a4 3c 9e 95 5a 36
       3.3421745e-06 1.3002621e-05 0.020115767 3.257162e-06
0000b0 18 b8 8d 36 7a f0 2a b6 84 3c ba bd 4b f4 2d 37
       4.223559e-06 -2.547195e-06 -0.09093574 1.0368482e-05
0000c0 fd f3 aa 36 e5 0c 4d 37 5a ce 33 3c 94 26 c3 bd
       5.094799e-06 1.2221954e-05 0.010974491 -0.095288426
0000d0 aa 92 d9 3e dc c8 fe b5 26 97 89 37 85 79 4a 37
       0.42494708 -1.8982932e-06 1.6402057e-05 1.2068432e-05
0000e0 32 c1 24 3e 5d ab c5 37 c3 2e 1b 3d f3 4b d9 3e
       0.16089323 2.3564027e-05 0.037886392 0.42440757
0000f0 dc 23 1d b8 b7 59 a9 3b 3d cf ab 3e f9 4e 83 37
       -3.7465114e-05 0.0051681655 0.33556548 1.5653191e-05
000100 eb f7 20 b7 46 f0 49 b6 a2 b9 6c 3d e2 b0 04 b7
       -9.594466e-06 -3.0091192e-06 0.05779422 -7.908997e-06
000110 73 02 1d 3e c6 c5 c8 3c fd cd 24 b7 81 a6 37 be
       0.15332966 0.024508368 -9.823122e-06 -0.1793461
000120 b1 03 f9 be c4 01 45 b5 75 3e 07 b6 31 35 5b b7
       -0.4863563 -7.339079e-07 -2.0152922e-06 -1.3065802e-05
000130 b8 97 14 bd ee 44 e3 b6 6a af c3 bd e0 b5 53 be
       -0.036277503 -6.7731517e-06 -0.09554942 -0.20674849
000140 f7 a1 61 b7 a5 20 06 3e b3 ae 89 3e 46 0d bf b7
       -1.3448755e-05 0.1309839 0.26891097 -2.2775155e-05
000150 83 6e 0c 38 9b 1b f5 36 b0 6b b6 3e 8c 1d df 36
       3.3481523e-05 7.3047827e-06 0.35629034 6.6493576e-06
000160 1f 23 95 b8 4e 60 f8 3b 58 b8 22 37 c3 a3 6e b7
       -7.1114155e-05 0.00757984 9.698873e-06 -1.4224034e-05
000170 d3 65 93 3e ce a8 37 37 7a 4c ee 37 91 4d 89 b7
       0.28788623 1.0946953e-05 2.8407423e-05 -1.6367792e-05
000180 24 00 21 b8 4d be cf b6 5d cc bf b6 4e 72 24 b8
       -3.8385522e-05 -6.1912347e-06 -5.7160346e-06 -3.92071e-05

model.decoder_x.layers.0.bias f4 [10]
000000 f7 bb 18 be 90 55 ce b9 7d 56 70 bc cc 1e ae 3e
       -0.14915453 -0.0003935513 -0.014669058 0.3400787
000010 7e 53 22 36 c6 45 8b 3e 7a de ea 3d 17 20 18 be
       2.418848e-06 0.2720167 0.11468215 -0.14855991
000020 e4 65 3f 3a 53 6f 88 3c
       0.00073012547 0.016654646

model.decoder_x.layers.1.0.weight f4 [10, 10]
000000 dd c3 96 be 7e 8f 4e 3d 2d bc 63 3e 46 7c ff 3d
       -0.29446307 0.050429814 0.22239752 0.12474875
000010 58 7b d4 bc 13 6a 1f 3e d5 9e 9e 3e 56 a4 9a be
       -0.025937721 0.15567808 0.30980554 -0.30203503
000020 7b 41 75 3e 6b d2 31 39 18 ac 32 bc 99 fd c6 bd
       0.2395076 0.00016958422 -0.010905288 -0.09716339
000030 fa d9 c7 b6 a3 ca ca 3e ba 43 f0 bc c8 9f af 3e
       -5.956038e-06 0.39607725 -0.02932917 0.3430159
000040 fd a3 e3 3d 5c 79 c9 be d8 60 b3 3e b3 a4 05 3e
       0.11115263 -0.39350402 0.35034823 0.13051109
000050 2a 17 fc 33 47 c6 b4 b7 5b 13 73 b7 bb df 50 b6
       1.1738878e-07 -2.1550002e-05 -1.4488435e-05 -3.1124644e-06
000060 c5 cb 30 38 bf 35 5e b7 a2 f4 dd b7 fa 49 87 37
       4.2151445e-05 -1.3244745e-05 -2.6459169e-05 1.6127702e-05
000070 f3 32 03 37 36 50 fd 37 aa c4 c9 bd 73 bc 7d bc
       7.820071e-06 3.0197301e-05 -0.09851964 -0.015486824
000080 21 39 94 3d 01 b9 ab 3e 5e 96 09 b7 77 7a 90 3e
       0.07237459 0.33539584 -8.200846e-06 0.28218433
000090 5b 97 91 3b bd 06 8a bd 4f 4d b3 3d af 56 1e 39
       0.004443092 -0.067395665 0.0875498 0.00015100346
0000a0 44 c2 c7 ba c7 bb 8d be 64 9f bd 35 16 0a 94 3e
       -0.0015240391 -0.27682325 1.4127986e-06 0.28913945
0000b0 38 73 41 3d 9b 2d d6 3e b2 63 02 3c e4 27 06 be
       0.04722902 0.4183167 0.0079583395 -0.13101155
0000c0 1c 16 59 3d 5c 80 db 3a 8f b8 55 b7 0b 9d e8 36
       0.0529996 0.0016746628 -1.273876e-05 6.932421e-06
0000d0 13 41 33 b7 f1 8f 8b 37 93 37 ff b6 80 f3 21 37
       -1.0684383e-05 1.663712e-05 -7.606062e-06 9.653042e-06
0000e0 8b 53 d0 33 e9 a1 97 b7 99 9d 3d b7 42 78 c4 37
       9.700951e-08 -1.8075998e-05 -1.1301971e-05 2.342102e-05
0000f0 d9 fc e1 37 3e d1 29 b7 a0 ed 41 b6 4b a6 2e 37
       2.6939832e-05 -1.0121903e-05 -2.8897557e-06 1.0409926e-05
000100 f5 32 17 b8 a6 ef e7 37 43 e4 8d b6 23 1b f5 36
       -3.6048663e-05 2.764894e-05 -4.2287006e-06 7.304728e-06
000110 dd 2e 78 b6 f8 d8 0e 36 25 d9 c0 bd 6d 92 92 be
       -3.6982158e-06 2.1285941e-06 -0.09416417 -0.2862734
000120 fb 98 d7 b9 b8 66 34 3e 29 10 c2 36 32 9d 98 3e
       -0.00041121975 0.17617309 5.783532e-06 0.2980743
000130 55 4f c0 3e ef d2 9e be 6e 01 ab 3e 20 89 a9 3e
       0.37560526 -0.31020305 0.33399528 0.3311243
000140 a7 65 fd bc c9 07 1d b7 fa aa a0 36 32 6a c4 b5
       -0.03093226 -9.359742e-06 4.788276e-06 -1.4634045e-06
000150 95 20 ec bd a3 1f 1d 37 97 73 11 36 9c 96 5f b6
       -0.11529652 9.365295e-06 2.1673966e-06 -3.3317256e-06
000160 e9 fb 3f 37 04 a4 17 b7 02 e7 97 b6 c6 89 bf b7
       1.144314e-05 -9.038489e-06 -4.5270435e-06 -2.283313e-05
000170 c5 65 b1 37 d4 2f 89 35 fa d6 35 37 3d 3c 6c b7
       2.1147434e-05 1.0221215e-06 1.0838494e-05 -1.40807215e-05
000180 1c dc 72 b7 f5 a6 29 b6 fc 3b 0c 37 fb 0d 50 b6
       -1.4475572e-05 -2.5280144e-06 8.3586165e-06 -3.1002553e-06

model.decoder_x.layers.1.0.bias f4 [10]
000000 75 fe 6f 3e 76 ab 22 3e 01 ba 1a 37 fa bd 4f 3e
       0.23436911 0.1588572 9.222423e-06 0.20287314
000010 1a 73 31 3e 18 b7 c0 37 ce 1b 44 b7 f5 cd 55 3e
       0.17329064 2.2973443e-05 -1.1688984e-05 0.20879348
000020 9f 6a 45 be 5b c0 eb b6
       -0.19278954 -7.025939e-06

model.decoder_x.layers.2.0.weight f4 [10, 10]
000000 9b 38 c7 3e 31 db b6 3d de 6a b0 36 b3 17 8b 3d
       0.38910374 0.08928526 5.2576497e-06 0.0679163
000010 3f 55 c8 3d 1e fe 22 b7 4a 24 69 b7 ff 65 d8 3e
       0.097818844 -9.715119e-06 -1.3896331e-05 0.42265317
000020 7f de 00 37 64 8c a0 b5 64 42 e3 bd da 21 e8 3d
       7.681198e-06 -1.1961788e-06 -0.110966474 0.11334582
000030 f3 13 fb b3 67 42 f3 3d 4b 6a c5 3a 8b d5 0e 37
       -1.1691727e-07 0.118778996 0.0015061585 8.513579e-06
000040 6d 3f 65 37 32 57 cc 3e 02 5e 1a 38 1f a4 ed b6
       1.3664231e-05 0.39910275 3.6804013e-05 -7.0822566e-06
000050 99 37 7a 3e eb 87 a6 3d 29 80 40 36 8f be 78 3c
       0.24435271 0.08131393 2.8684829e-06 0.015182151
000060 fc 1d a5 3e c8 ab c4 b6 83 36 04 37 c0 45 2d bd
       0.3224944 -5.861253e-06 7.880505e-06 -0.042302847
000070 45 a6 0a 37 14 bc 03 37 e2 91 87 bd 42 23 01 3d
       8.264154e-06 7.851999e-06 -0.06619622 0.031527765
000080 2e da e4 b7 fb 74 8d 3d 2f 6f 11 3e 5a b0 1f 37
       -2.7281316e-05 0.06907078 0.1420257 9.518199e-06
000090 17 42 8a b7 ac 07 92 3e 78 c7 42 b7 fd 2b 39 b7
       -1.6481657e-05 0.28521478 -1.16097435e-05 -1.1037101e-05
0000a0 85 3b 35 37 79 a0 3b 37 bc 3e 9e 37 66 f9 3f b7
       1.0802299e-05 1.11834315e-05 1.886428e-05 -1.1442555e-05
0000b0 d8 87 ed 37 6b d2 bf b6 a7 8f 24 b7 dc ea 16 b6
       2.8315859e-05 -5.7167395e-06 -9.808608e-06 -2.2488448e-06
0000c0 ae 33 81 37 f6 92 b9 36 e2 1c 03 3e c1 48 e5 3d
       1.5402064e-05 5.530538e-06 0.12803987 0.11195517
0000d0 95 e2 72 b7 7d 9a b5 3e 45 1e 28 3b a3 1f 0f b7
       -1.4477079e-05 0.35469428 0.0025652808 -8.53083e-06
0000e0 ea 0e 92 b7 7c e0 d4 3d 52 77 47 b6 d4 6f 21 b5
       -1.7411501e-05 0.103943795 -2.9722764e-06 -6.0139905e-07
0000f0 3e 79 b9 3c f6 21 d6 3e 23 2e 5d b7 d4 8d 23 bd
       0.02264082 0.41822785 -1.31833685e-05 -0.03993018
000100 75 77 82 3e ac 69 2f b7 ae 7c 5e 35 e5 17 a5 3e
       0.25481763 -1.04554165e-05 8.288288e-07 0.32244793
000110 a4 bd 40 b6 a0 b9 af b6 f8 05 6e 3e 0b ce c7 3d
       -2.8720615e-06 -5.237016e-06 0.23244464 0.097560965
000120 84 e8 74 b7 a2 14 a7 3e 1c 79 b8 3e c7 0b 0d b6
       -1.459767e-05 0.3263293 0.360299 -2.1017493e-06
000130 34 43 77 b6 d9 d3 66 3b 77 3d fe b6 c0 f9 af b6
       -3.6844986e-06 0.0035221486 -7.5769453e-06 -5.244481e-06
000140 2b 72 2c bd 2c f2 c7 3e b8 e1 8c 36 72 f2 a8 3e
       -0.042101067 0.3905195 4.1986023e-06 0.3299747
000150 7d 9d f8 bc e2 0d 93 36 43 7a af b7 46 28 a2 3d
       -0.030348534 4.3825576e-06 -2.0918558e-05 0.07917838
000160 1e 36 56 b6 7a 06 30 35 4b 43 8a 3e 2a 24 6e 3e
       -3.1919985e-06 6.5574534e-07 0.27004465 0.23255983
000170 9e 71 cf b7 03 64 c9 3c 14 ed 8a 3e 2f c2 2c 36
       -2.472923e-05 0.024583822 0.27134 2.5743027e-06
000180 df 4c 02 b7 5c a0 96 3e c4 8f 82 b7 5b fa 95 b6
       -7.766502e-06 0.2941922 -1.5564154e-05 -4.4696912e-06

model.decoder_x.layers.2.0.bias f4 [10]
000000 9e 74 e7 3d 2e 66 a7 3e b1 7e 95 3d f3 55 4e 3e
       0.1130154 0.32695144 0.07299555 0.20149975
000010 57 ba 75 b7 8b 5a 60 3e 58 a4 1c 3e f9 be ca 3d
       -1.4646524e-05 0.2190954 0.15297067 0.098997064
000020 00 f4 3f 3e 93 78 5b 3a
       0.18745422 0.0008372154
