logs/l1_coef-0.0001/version_1/checkpoints/epoch=3609-step=3610.ckpt (torch, 518107 bytes, 30 tensors)

model.pi f4 [100, 1]
000000 a9 89 17 3f 73 ed 10 3f 12 6d 18 3f 52 21 1b 3f
       0.5919443 0.5661232 0.5954143 0.6059772
000010 80 51 ae 3e 65 e4 17 3f 4e 48 00 3f 3d 9f 22 3f
       0.34046555 0.5933288 0.5011033 0.6352423
000020 1a e5 eb 3e 6e 69 22 3f 34 82 34 3f 24 9c 25 3f
       0.46073228 0.6344212 0.70511174 0.64691377
000030 35 7c ea 3e 77 22 26 3f 8a 9f b4 3e c2 f3 10 3f
       0.45797887 0.6489634 0.3527797 0.56621945
000040 8a 1e df 3e a4 66 08 3f b2 0e 26 3f 37 46 2d 3f
       0.43577987 0.5328162 0.64866173 0.67685264
000050 45 0b de 3e 1e 3d d3 3e 5d f3 bf 3e 5e 21 b3 3e
       0.43367973 0.41257566 0.3749036 0.34986395
000060 1f dd e4 3e ee 70 d7 3e f8 69 c0 3e c6 4e ea 3e
       0.44699952 0.42078346 0.37580848 0.45763224
000070 83 0a bc 3e c8 43 b4 3e 26 dc a3 3e 66 31 ba 3e
       0.3672677 0.35207963 0.32003897 0.36365813
000080 b5 51 e4 3e 39 3f c7 3e 0d 99 c9 3e 4e d5 4e 3e
       0.44593588 0.38915423 0.3937458 0.20198557
000090 f2 1b ff 3e cf 52 cb 3e 7c 54 02 3f 73 e1 c1 3e
       0.49826008 0.39711615 0.5091016 0.37867317
0000a0 f7 5f e9 3e 20 0a cd 3e f1 25 de 3e 0c cc 67 3e
       0.45581028 0.40046787 0.43388322 0.22636431
0000b0 47 bc 7d 3e a9 92 cf 3e 7e 6a a1 3e bb c2 1e 3f
       0.24778853 0.4054158 0.3152656 0.62015885
0000c0 33 9d 89 3e f5 74 10 3f 81 90 92 3e 28 e6 1d 3f
       0.26877746 0.5642846 0.28625873 0.61679316
0000d0 6c 7e d3 3e 9e 3f 02 3f 8b c3 95 3e eb 4b bd 3e
       0.4130739 0.5087832 0.2925075 0.36971983
0000e0 10 43 8e 3e 0d ed 8b 3e bc 6e 89 3e 06 29 8f 3e
       0.2778554 0.27329293 0.26842296 0.27960986
0000f0 a9 49 c6 3e 4c 85 24 3f 61 dc 21 3f 1d c3 11 3f
       0.38728073 0.64265895 0.63226897 0.56938344
000100 0c a4 80 3e 23 26 8a 3e 04 91 5a 3e da 5d 5a 3e
       0.25125158 0.2698222 0.21344382 0.21324864
000110 77 12 92 3e 45 76 46 3e 32 cd 8a 3e 5d 33 93 3e
       0.28529713 0.19381054 0.27109677 0.28750125
000120 b6 c8 b2 3e b9 ef 00 3f 8c 36 56 3e cb 86 d6 3e
       0.34918755 0.5036579 0.20919245 0.41899714
000130 06 9b d8 3e c2 a7 bf 3e d8 0a c2 3e 45 92 c1 3e
       0.42305773 0.37432677 0.37898898 0.37806907
000140 82 13 e9 3e 0e cc 00 3f da 03 a6 3e 6f d5 c6 3e
       0.45522696 0.5031136 0.32424814 0.38834712
000150 53 e3 13 3f f7 ad 13 3f 41 2c d0 3e 89 e9 96 3e
       0.57768744 0.57687324 0.40658763 0.29475048
000160 5c 1b ef 3e e5 19 d2 3e 77 8b 14 3f 5b 04 00 3f
       0.4670056 0.4103538 0.58025306 0.50006646
000170 f6 77 fb 3e 7b 57 1e 3f 36 33 22 3f 82 92 15 3f
       0.4911496 0.61852235 0.6335939 0.5842668
000180 af 20 0d 3f af a0 23 3f ad 1b 15 3f a1 ef b8 3e
       0.55127996 0.6391706 0.58245355 0.36120322

model.encoder.layers.0.weight f4 [100, 100]
000000 16 56 b0 3c 63 c2 a5 3c 5b 68 c8 3c 9d ab e2 3c
       0.021525424 0.020234292 0.024463823 0.027669722
000010 3c 81 e8 bb ba c9 d7 3c 29 ea cc 3b 60 21 1f 3d
       -0.007095484 0.026341308 0.0062535 0.03885019
000020 0b 73 7b 3b 72 d4 09 3d 91 bd 97 bd 7b ec 48 bd
       0.0038368131 0.03364987 -0.07409204 -0.04905365
000030 ef 70 d7 bc 88 ff 46 bd 2f 8c 22 3c 14 23 24 bd
       -0.026298968 -0.048583537 0.009921118 -0.040072516
000040 53 1e ec bb 12 6e cd bc c6 e6 85 bd c2 5a 73 bd
       -0.0072057634 -0.0250769 -0.06538157 -0.059412725
000050 08 ea 5d bc 5b 80 4b bc 28 38 f4 bb b2 3e 21 bb
       -0.013544567 -0.012420739 -0.0074529834 -0.002460402
000060 b3 ad 80 bc 08 c3 bd 3c 19 27 ce bb 27 75 79 bc
       -0.015707826 0.023164287 -0.006291282 -0.015225685
000070 ec 28 a6 bb cd ef 65 3c fb d0 b6 3b 25 e6 20 bc
       -0.0050707962 0.014034224 0.0055791116 -0.009820496
000080 0e d5 98 3c 09 b0 70 3c e0 92 69 3c 5b d2 a6 39
       0.01865628 0.014690408 0.014256209 0.00031818714
000090 cf c6 d6 3c c4 33 56 3c 46 ce c5 bc b9 00 2b bc
       0.026217846 0.013073865 -0.02414621 -0.010437184
0000a0 b2 db 6d 3c cf 77 e4 3b 83 7f 49 3c f1 ef 7a b8
       0.0145177115 0.00697229 0.012298468 -5.9828108e-05
0000b0 10 48 18 3b 7c 10 33 3c 95 1f 65 bb bd 31 31 3d
       0.0023236312 0.010929223 -0.0034961451 0.043260325
0000c0 c6 2e bc bb d5 71 06 3d 4e 17 45 bb 9b 88 3e bd
       -0.0057428805 0.032823402 -0.0030073705 -0.046516996
0000d0 c3 56 63 bc b0 f8 eb 3c 2b d7 68 bb 90 f0 97 3c
       -0.013875666 0.028805107 -0.003552864 0.018547326
0000e0 0c ce 4c bb c0 3f b8 ba ce 55 28 3c 21 dd 1c 3c
       -0.0031250743 -0.0014057085 0.010274364 0.009574206
0000f0 a4 98 8c 3c 26 14 25 3d b7 be 1b 3d 84 80 0a 3d
       0.017162628 0.04030242 0.038023677 0.03381397
000100 3b 10 2a 3c 61 55 1d 3c cb b9 6b 3b 7c 28 5e 3b
       0.010379846 0.009602875 0.0035968896 0.0033898642
000110 a6 bc 25 3c e9 89 ac ba c8 c2 7f 3b 67 9e b4 3b
       0.010115778 -0.0013163659 0.003902601 0.005512047
000120 25 56 e1 bb d0 fb b9 3c e6 27 ba 3a 1a 35 3a 3c
       -0.0068767243 0.022703081 0.0014202564 0.011365199
000130 4f cf 84 bc bb 73 f5 bb 84 de cc 3b a8 b7 1a 3c
       -0.016212134 -0.007490603 0.006252112 0.009443201
000140 e4 49 be bb 09 1c 39 bc dc f3 68 3b c7 34 cd 3c
       -0.0058071483 -0.011298188 0.0035545742 0.02504958
000150 71 ca ec bc bc b5 ee bc 8d 59 7a bb ef a6 35 3c
       -0.028905125 -0.029139392 -0.003820035 0.011087163
000160 ab 35 0e bc 47 23 d7 ba 73 82 80 3c 69 b1 03 3c
       -0.008679788 -0.0016413712 0.015687203 0.008037903
000170 b4 02 fa 3a d1 44 c9 3c 58 47 02 3d 5a a9 89 3c
       0.0019074292 0.024568947 0.03180632 0.016804386
000180 86 cd 59 3c d5 38 0e 3d 8f 9a 93 3c 8d 58 c2 bb
       0.0132936295 0.034722168 0.018018035 -0.005930966
000190 9f 67 a8 3c e4 f1 9d 3c 19 e9 c0 3c 87 c0 db 3c
       0.020557223 0.019280382 0.02354865 0.026825203
0001a0 9b 83 09 bc 14 32 d0 3c c5 d6 a4 3b 3a 2d 1c 3d
       -0.008393194 0.025414504 0.0050304853 0.03812907
0001b0 51 01 2c 3b eb cd 06 3d 94 67 98 bd fa 17 4a bd
       0.0026245902 0.032911222 -0.07441631 -0.049339272
0001c0 a8 ea d5 bc 0e 24 49 bd 09 f7 16 3c 8c 78 24 bd
       -0.02611287 -0.04910665 0.009214171 -0.040154025
0001d0 da c6 e7 bb 0e 56 cb bc dc ba 86 bd 26 ba 73 bd
       -0.0070732655 -0.024821308 -0.06578609 -0.059503697
0001e0 b0 98 74 bc 32 ed 61 bc 29 aa 0f bc e5 5f 72 bb
       -0.014928982 -0.013789462 -0.008768597 -0.0036983427
0001f0 1e 63 8c bc 67 6a b7 3c a7 2f f6 bb e6 f2 87 bc
       -0.017137107 0.022389604 -0.007513005 -0.016595315
000200 0e 0d cd bb 1b 94 55 3c 2b b8 98 3b 18 5c 34 bc
       -0.0062576598 0.013035799 0.0046606264 -0.011008285
000210 2d fa 92 3c 1f bd 63 3c e2 84 5b 3c 87 3d 39 ba
       0.017941559 0.01390007 0.013398381 -0.0007066358
000220 76 e9 d0 3c 8d 4a 48 3c 09 68 d1 bc ef f7 3d bc
       0.025501948 0.012224806 -0.025562303 -0.0115947565
000230 52 f0 5e 3c b0 9d c3 3b 8b c7 3a 3c 0b a8 9d ba
       0.0136071015 0.0059697255 0.011400114 -0.001202823
000240 ff c2 9d 3a 11 51 23 3c 9a 65 9b bb 1a b6 2f 3d
       0.0012036263 0.009968058 -0.0047423365 0.042898275
000250 6c 02 e3 bb c6 04 04 3d fb 5b 88 bb c2 58 46 bd
       -0.006927779 0.032231115 -0.0041613556 -0.04842449
000260 14 18 7a bc 26 e5 e6 3c c7 2a 9b bb 2a d7 90 3c
       -0.01526453 0.028185438 -0.004735324 0.017680723
000270 2a 0b 8b bb 1f 02 2a bb 29 06 19 3c 82 71 0e 3c
       -0.004243274 -0.0025941206 0.009339848 0.008694055
000280 0f 4f 84 3c 54 93 22 3d ef 03 19 3d 92 65 07 3d
       0.01615098 0.039691284 0.037357267 0.03305585
000290 3d fb 1a 3c 6f a2 0c 3c 6f be 25 3b 11 ee 15 3b
       0.009459314 0.008583649 0.002529051 0.0022877494
0002a0 10 79 13 3c 6a 03 28 bb 0e 29 35 3b c5 24 91 3b
       0.0090010315 -0.00256368 0.0027642879 0.004429432
0002b0 92 86 04 bc d3 c5 b2 3c 14 f7 98 39 04 d8 29 3c
       -0.008088725 0.021822846 0.00029175787 0.010366444
0002c0 52 29 91 bc fd e2 0e bc 79 0a a7 3b 5f e1 09 3c
       -0.017719898 -0.00872111 0.005097684 0.008415549
0002d0 0b 55 e1 bb 7d 4b 4a bc 44 b6 2f 3b c1 4b c8 3c
       -0.006876593 -0.012347099 0.002681152 0.024450185
0002e0 f8 2b f8 bc 25 b3 fa bc af 3e a1 bb 13 39 28 3c
       -0.030294403 -0.030603 -0.0049208025 0.010267514
0002f0 ad 13 1f bc 7d 79 25 bb 9d c5 70 3c 66 a0 e4 3b
       -0.009709281 -0.0025249415 0.014695552 0.006977129
000300 2f 8e 39 3a 2d 3e c2 3c 9f 72 fe 3c 0a ce 81 3c
       0.0007078377 0.023711288 0.031060515 0.015845317
000310 63 5d 48 3c 33 6c 0b 3d 54 02 8c 3c 25 63 ed bb
       0.012229296 0.034038734 0.017090954 -0.007244485
000320 98 d8 b0 bc 75 25 a6 bc 76 ff c8 bc 29 5a e3 bc
       -0.021587655 -0.020281533 -0.024535876 -0.027752953
000330 c4 0e e5 3b 65 75 d8 bc 60 9a d0 bb ce 40 1f bd
       0.0069902856 -0.026423166 -0.006366059 -0.038880162
000340 8f 6d 80 bb 41 11 0a bd f8 b8 97 3d 27 2e 49 3d
       -0.0039193104 -0.03370786 0.07408327 0.04911628
000350 42 cd d7 3c de 0c 47 3d f1 6e 22 bc dc 4f 24 3d
       0.026342992 0.048596255 -0.009914146 0.040115222
000360 54 83 f0 3b ca 7c cd 3c 33 05 86 3d d9 82 73 3d
       0.0073398743 0.025083918 0.065439604 0.059450958
000370 a4 72 5c 3c 79 fe 49 3c 04 85 f1 3b b8 85 1b 3b
       0.013455067 0.012328737 0.007370593 0.0023730826
000380 da b9 7f 3c d6 2d be bc 8b 5a ca 3b 97 d3 77 3c
       0.015608275 -0.023215216 0.0061753443 0.015126131
000390 47 3e a3 3b cf 41 67 bc f7 c8 ba bb d3 64 1f 3c
       0.0049817893 -0.014114811 -0.0057002264 0.009728628
0003a0 c2 b6 99 bc a7 72 71 bc de 01 6b bc 62 68 e7 b9
       -0.018763904 -0.014736808 -0.014343707 -0.00044137525
0003b0 6c f2 d6 bc 4b 0b 58 bc 5f 9b c4 3c 26 0d 29 3c
       -0.026238643 -0.013186286 0.023999868 0.010318076
0003c0 41 18 6f bc 8e 40 e8 bb 71 df 4a bc 98 b5 fa b7
       -0.014593185 -0.0070877736 -0.012382374 -2.9886884e-05
0003d0 f5 4f 1d bb a8 c0 34 bc cb 30 60 3b e6 56 31 bd
       -0.0024003957 -0.011032261 0.003420877 -0.043295763
0003e0 9f 76 b8 3b 7f b3 06 bd 45 7c 3f 3b 12 0c 3e 3d
       0.005629375 -0.032886025 0.0029218358 0.04639823
0003f0 8c 89 61 3c 8b 97 ec bc 3b c5 63 3b ed a9 98 bc
       0.013765704 -0.028880855 0.003475501 -0.018635714

model.encoder.layers.0.bias f4 [100]
000000 e8 11 05 bc a1 93 17 bc e3 ef 03 3c 9b 3d 16 bc
       -0.008121945 -0.009251506 0.008052799 -0.009169961
000010 f2 c8 15 3c 9f f2 fe 3d d7 0e 05 3c 76 80 74 bb
       0.009142147 0.1244862 0.008121214 -0.0037308014
000020 75 ab 04 3c c1 c6 05 3c e4 f9 1c 3c c9 52 04 bc
       0.008097519 0.008165062 0.009581063 -0.008076378
000030 8e f1 04 3c 7c 1a 04 bc eb c3 04 bc 12 e7 09 3c
       0.008114232 -0.008062955 -0.008103351 0.008416908
000040 45 0a 0b 3c b8 aa 11 bc df 60 15 bc 88 86 11 bc
       0.008486335 -0.0088908 -0.009117334 -0.008882172
000050 5b f7 05 3c e0 70 0f 3c f9 3f 05 bc 88 84 11 3c
       0.00817665 0.008754939 -0.008132928 0.008881696
000060 82 5e 1a be a4 55 08 bc 26 25 11 3c a2 7f 07 bc
       -0.15075114 -0.0083212 0.0088589545 -0.008270176
000070 98 75 04 bc 5f 5b 05 3c 01 b0 15 3c 78 63 18 bc
       -0.008084677 0.00813946 0.009136201 -0.009301059
000080 d2 95 33 be 9b ae 26 bc d7 30 04 3c 5c b6 10 3c
       -0.1753762 -0.010173465 0.008068285 0.00883254
000090 f1 4d 07 3c 03 32 04 3c e7 d5 07 3c 70 50 05 3c
       0.008258329 0.008068564 0.008290744 0.008136854
0000a0 81 0d 05 bc ea 58 03 bc 32 8e 10 3c e8 35 17 3c
       -0.008120895 -0.008016804 0.0088229645 0.009229161
0000b0 ea 26 05 bc f8 da 1a 3c ff 62 11 bc 84 9b 19 3c
       -0.008126954 0.00945162 -0.0088737 0.009375457
0000c0 23 4a 04 3c b0 d5 04 3c 9f 54 3c 3e 64 aa 02 be
       0.008074316 0.008107588 0.18391655 -0.12760311
0000d0 82 a5 04 3c 22 21 03 bc 46 56 18 be 10 5b 06 3c
       0.008096101 -0.008003505 -0.1487666 0.008200422
0000e0 7f bd 0f 3c 3c 49 10 bc ee 13 0c bc 7d 5c 0b 3e
       0.008773207 -0.008806523 -0.0085496735 0.136095
0000f0 76 f7 10 3c 8d b3 10 3d 13 59 06 bc 05 d4 08 bc
       0.008848062 0.035327483 -0.008199948 -0.008351331
000100 b3 10 06 bc 6f 7b 05 bc f4 6c 14 3c f6 8b 06 bc
       -0.008182692 -0.008147105 0.00905918 -0.00821208
000110 5e 0a 05 3c d8 e5 06 3c 5a ed 09 bc 93 11 0f bc
       0.0081201475 0.00823351 -0.008418405 -0.008732217
000120 e9 4f 11 bc f2 2d 07 bc 95 2e 12 bc 20 6b 12 bc
       -0.00886915 -0.0082507 -0.008922239 -0.008936673
000130 14 82 04 bc b1 fc 08 3c be 20 19 3c ff 5e 04 3c
       -0.008087654 0.008361028 0.009346185 0.008079289
000140 65 d9 04 3c cb b1 16 3c 89 a7 77 bd 28 df 05 bc
       0.0081084715 0.009197663 -0.06046251 -0.00817088
000150 33 42 4b bc 17 9e 05 3c 69 b9 04 bc 14 ff f3 3b
       -0.01240592 0.008155367 -0.008100846 0.007446179
000160 5f 3c 06 3c 9d 88 93 3d 5a 13 89 bd ca 84 06 bc
       0.0081931045 0.07203791 -0.06693144 -0.00821037
000170 dc 38 05 bc ad 3b 06 3c 33 86 04 3c 4f ca 0d bc
       -0.008131232 0.008192939 0.008088636 -0.008654191
000180 e9 25 05 3c 5a db 18 bc dd 99 20 3c a3 b3 0d 3c
       0.008126714 -0.009329641 0.009802309 0.008648786

model.encoder.layers.1.0.weight f4 [100, 100]
000000 0f 74 7b 3d 9b 9e 8e 3d 73 9b 79 bd 0f bb 8c 3d
       0.06138998 0.06963845 -0.060939264 0.06871616
000010 56 48 8a bd c6 e8 b7 bc a2 f2 7a bd 72 39 7c 3d
       -0.06752078 -0.022449862 -0.06126655 0.06157822
000020 36 4f 7a bd b9 ab 7a bd df 04 97 bd db 4d 7a 3d
       -0.061110698 -0.061198924 -0.07373976 0.061109405
000030 38 b1 7a bd e9 8e 79 3d 32 6f 7a 3d 44 c5 7f bd
       -0.061204165 0.060927305 0.0611412 -0.062443987
000040 b1 b8 81 bd 18 00 86 3d bc 5a 8a 3d 2e b0 86 3d
       -0.06334055 0.06542987 0.067555875 0.06576572
000050 58 b7 7b bd ef c6 84 bd 2e f6 7a 3d 50 54 87 bd
       -0.061454147 -0.06483256 0.06126993 -0.06607878
000060 0a b9 13 3b 84 6e 7e 3d 17 db 86 bd 81 cd 7d 3d
       0.0022540712 0.062117115 -0.06584757 0.061963562
000070 8b f5 79 3d 98 84 7b bd 2f a9 8c bd ad 7b 8f 3d
       0.061025184 -0.061405748 -0.06868207 0.07006011
000080 c9 d3 b5 3b 51 73 b1 3d 06 d0 79 bd 24 03 86 bd
       0.0055489284 0.08664573 -0.060989402 -0.06543568
000090 8f 48 7c bd 7e ad 79 bd a5 f8 7d bd 83 7a 7b bd
       -0.061592635 -0.06095647 -0.062004704 -0.061396133
0000a0 63 c0 7a 3d 1f 23 79 3d 2a 6a 86 bd 75 b2 8b bd
       0.06121863 0.06082451 -0.06563218 -0.06821147
0000b0 ee dd 7a 3d 29 56 93 bd f2 a5 85 3d 10 c8 8f bd
       0.061246805 -0.07194168 0.06525792 -0.07020581
0000c0 d4 6b 7a bd 83 98 7a bd 5c 7a d2 bb e4 3f ac 3b
       -0.06113799 -0.061180603 -0.006423278 0.00525664
0000d0 60 b3 7a bd d9 82 78 3d c1 ed 61 3c c4 cd 7c bd
       -0.06120622 0.06067166 0.013789595 -0.06171967
0000e0 d0 a0 85 bd dc 37 85 3d e6 b9 81 3d 25 f8 ce 3b
       -0.06524813 0.06504795 0.063342854 0.006316202
0000f0 3b 70 86 bd 5e eb 8b bc 71 98 7c 3d b1 ca 7d 3d
       -0.06564375 -0.017080005 0.061668817 0.06196088
000100 5d 56 7c 3d 0c 8f 7b 3d b7 eb 88 bd 7a 6b 7b 3d
       0.0616058 0.061415717 -0.06685584 0.061381795
000110 0b 44 7b bd 7f 70 7d bd ff 79 7f 3d 70 73 84 3d
       -0.061344188 -0.061874863 0.062372204 0.064673305
000120 e9 3a 86 3d 7e 6d 7d 3d cd e8 86 3d 12 b5 87 3d
       0.06554205 0.061871998 0.06587372 0.06626333
000130 22 07 7a 3d 43 3a 80 bd 08 11 91 bd e8 14 7a bd
       0.06104196 -0.062611125 -0.070833266 -0.061055094
000140 53 c2 7a bd a1 46 8b bd 3a 9f 90 3d c5 a1 7b 3d
       -0.06122048 -0.06800581 0.0706162 0.061433572
000150 0b be 7b 3d d8 6e 7b bd 4b 84 7a 3d f2 a3 6b 3d
       0.061460536 -0.061385006 0.06116132 0.057529397
000160 cc 3b 7b bd 30 47 66 bb da 51 c0 3b c6 0b 7d 3d
       -0.061336324 -0.0035137646 0.0058691325 0.061778806
000170 c8 14 7b 3d 65 c2 7c bd 15 c4 79 bd 70 32 84 3d
       0.061299115 -0.061708827 -0.060978014 0.06454933
000180 bb 8b 7b bd 1a fc 90 3d 38 7e 9e bd f7 87 83 bd
       -0.061412554 0.070793346 -0.07738918 -0.064224176
000190 8f b3 50 bd 3a 8a 83 bd c9 64 4d 3d ab d7 80 bd
       -0.05095249 -0.06422849 0.050144944 -0.062911354
0001a0 46 6c 7c 3d f3 04 41 3d 64 cf 4f 3d 94 af 51 bd
       0.061626695 0.04712386 0.050734892 -0.051192835
0001b0 b3 80 4e 3d 8a e3 4f 3d cd 5e 8f 3d 7b 98 4e bd
       0.050415706 0.050754108 0.07000504 -0.050438385
0001c0 06 62 4f 3d a1 4c 4d bd da f0 4e bd f3 38 59 3d
       0.05063059 -0.050121907 -0.050522663 0.053032827
0001d0 b0 e4 5e 3d c7 d7 6e bd db 7f 7c bd 0e 24 6f bd
       0.054417312 -0.05831125 -0.06164537 -0.058383994
0001e0 55 82 51 3d 97 89 69 3d 60 e9 4f bd f5 6a 71 3d
       0.051149685 0.05701598 -0.050759673 0.058939893
0001f0 8c bf 88 bd 86 c4 56 bd 53 eb 6f 3d 55 2d 55 bd
       -0.0667716 -0.052433513 0.058574032 -0.052045185
000200 c5 f6 4d bd 9a df 50 3d 0e 9f 80 3d 05 b9 84 bd
       -0.050284166 0.050994493 0.06280337 -0.06480602
000210 44 7a 10 bd 26 ce ad bd b9 f5 4d 3d b3 59 6d 3d
       -0.03527285 -0.08486585 0.050283168 0.057946872
000220 6d d5 52 3d 0e 9e 4d 3d e6 9a 55 3d f1 da 50 3d
       0.05147307 0.05019956 0.052149676 0.05099005
000230 e4 60 4f bd d0 64 4c bd 2f eb 6e 3d fe 59 80 3d
       -0.05062951 -0.04990083 0.058329757 0.06267165
000240 55 a6 4f bd 8f 5f 8a 3d 3f 80 6d bd 15 14 86 3d
       -0.050695736 0.067565076 -0.057983633 0.06546799
000250 12 e3 4e 3d 0d 57 4f 3d d4 ed 0e 3d bb 2c c0 bd
       0.05050952 0.050620127 0.03489478 -0.09383532
000260 de 45 4f 3d 7f 6a 4b bd fd 95 27 bd df 4e 53 3d
       0.05060374 -0.04966211 -0.040914524 0.05158889
000270 32 1d 6c 3d d7 e7 6a bd a7 24 5f bd ac c2 2c 3e
       0.05764503 -0.057350006 -0.054478314 0.16871136
000280 ff 7c 6e 3d 15 68 2e 3d 49 ea 52 bd bc cd 55 bd
       0.058224674 0.04257973 -0.051492963 -0.052198157
000290 5f 95 52 bd d5 28 51 bd 46 65 78 3d ac 80 51 bd
       -0.051411983 -0.05106433 0.060643457 -0.0511481
0002a0 0c 74 50 3d 0e 8c 54 3d fb bc 58 bd e5 43 68 bd
       0.05089192 0.05189138 -0.0529146 -0.056705374
0002b0 c7 27 6f bd a8 87 54 bd 3f 38 72 bd 98 b6 72 bd
       -0.058387544 -0.051887184 -0.05913567 -0.059256166
0002c0 26 34 4e bd 28 d4 59 3d e1 08 87 3d 44 5e 4e 3d
       -0.0503427 0.053180844 0.065934904 0.050382867
0002d0 e0 97 4f 3d 3f 83 7f 3d 1e 2b a1 bd 61 2b 51 bd
       0.05068195 0.062381025 -0.07869552 -0.05106676
0002e0 ee fc 97 bd 35 be 50 3d 21 1f 4f bd c7 43 31 bd
       -0.074212894 0.050962646 -0.050566796 -0.043277528
0002f0 60 fc 50 3d e4 41 d6 3d 7e f3 cc bd 9d aa 53 bd
       0.051021934 0.104617864 -0.1000738 -0.05167638
000300 75 40 50 bd cb 6a 53 3d ec af 4d 3d 73 4a 67 bd
       -0.05084272 0.051615518 0.0502166 -0.056467485
000310 77 ec 50 3d ba d7 86 bd 45 f4 98 3d c0 e3 65 3d
       0.05100676 -0.06584115 0.07468466 0.056125402
000320 f4 09 5f 3d fe 33 3f 3d 3b 68 60 bd bf 6d 42 3d
       0.05445285 0.046680443 -0.054786902 0.047467943
000330 f4 87 42 bd d4 f8 84 3d 10 28 5f bd d0 90 5f 3d
       -0.047492936 0.06492773 -0.054481566 0.054581463
000340 da 2a 60 bd 3e 36 5f bd b6 15 2c bd 1d 24 60 3d
       -0.054728366 -0.05449509 -0.042012893 0.05472194
000350 08 7b 5f bd 4c 99 60 3d 1e d8 5f 3d 72 1a 5a bd
       -0.05456069 0.054833695 0.054649465 -0.053247876
000360 a6 7e 57 bd fd 70 4b 3d c1 67 42 3d a5 65 4e 3d
       -0.052611016 0.0496683 0.04746223 0.050389905
000370 81 06 5f bd 5c 23 51 bd a1 32 5f 3d 6d ce 4b bd
       -0.054449562 -0.051059112 0.054491643 -0.04975741
000380 39 05 83 bd 7a 91 5b 3d ff 2b 4d bd 40 70 5c 3d
       -0.063974805 0.053605534 -0.050090786 0.053817987
000390 f1 61 60 3d f8 fb 5d bd 9e 09 44 bd 88 57 3d 3d
       0.054780904 -0.054195374 -0.047860734 0.046226054
0003a0 1e 26 86 bd f0 5f dc 3c df 50 60 bd 81 60 4e bd
       -0.06550239 0.026901215 -0.054764625 -0.050385002
0003b0 c4 3a 5d bd d3 76 60 bd 5c e8 5b bd 8f d4 5e bd
       -0.05401112 -0.05480082 -0.053688392 -0.05440193
0003c0 49 81 5f 3d ee 15 61 3d 51 86 4d bd 1a bf 3e bd
       0.054566655 0.054952554 -0.050176922 -0.046568967
0003d0 58 5c 5f 3d 90 41 34 bd 45 7f 4d 3d 3f 84 37 bd
       0.054531425 -0.044007838 0.0501702 -0.044803854
0003e0 23 c1 5f bd e8 8f 5f bd b9 c8 85 3d 15 0a 83 bd
       -0.05462755 -0.0545806 0.065324254 -0.06398407
0003f0 b8 aa 5f bd e4 9b 61 3d 7c 81 85 bd cc 96 5d bd
       -0.05460617 0.05508031 -0.06518838 -0.05409889

model.encoder.layers.1.0.bias f4 [100]
000000 b2 23 30 3a fa 3d 9a 3d 80 38 86 3d ad 12 89 3d
       0.0006719186 0.07531352 0.06553745 0.06693015
000010 b5 43 d2 3c 8b 99 3c 3a a0 57 63 3d c1 33 0d 3e
       0.02566705 0.00071945105 0.055503488 0.13789274
000020 66 a4 84 3d df 2f 06 80 47 cf 17 3e d2 dc 97 38
       0.06476669 -5.68186e-40 0.14825164 7.241372e-05
000030 74 81 32 3d 88 b4 04 00 37 76 3f 3a 8c 2e a3 3a
       0.043580487 4.32104e-40 0.0007303687 0.0012449785
000040 d4 30 89 38 f9 80 8c 38 ac f8 5b ba 95 11 ac 3a
       6.541764e-05 6.699743e-05 -0.0008391242 0.0013127798
000050 18 29 a3 3a 28 da 33 3a cc 43 b5 3c 79 5c 40 3a
       0.001244816 0.0006860816 0.022127055 0.0007337998
000060 40 a3 38 3a 21 25 99 3a 24 3f f1 38 f2 4a 43 3a
       0.0007043369 0.0011684039 0.000115035364 0.00074498274
000070 9f 31 08 80 b7 d4 93 3d 32 14 18 3e d7 06 3b 3a
       -7.52485e-40 0.072183065 0.14851454 0.0007134503
000080 a1 f9 b7 39 b5 74 8e 3c 9c 22 c0 3c 67 97 a5 38
       0.00035090468 0.017389635 0.023454003 7.896014e-05
000090 c6 11 43 38 64 d8 aa 38 67 55 1a 3e f2 bd b6 3c
       4.6508176e-05 8.1465376e-05 0.15071641 0.02230737
0000a0 7a 2b 91 38 de ef d7 3c 6d af 9c ba 5d 8b 39 3a
       6.922237e-05 0.026359495 -0.0011954136 0.00070779567
0000b0 5f c1 96 3a 11 28 41 38 4f 8b 13 ba 4c 86 8e 3a
       0.0011501721 4.60521e-05 -0.00056283636 0.0010873764
0000c0 7a 27 05 80 58 1d 79 ba 16 e3 30 3a 16 8f 5d 3d
       -4.73339e-40 -0.0009502969 0.00067477056 0.054091536
0000d0 24 99 40 3a d6 10 3e 3a 01 cb 57 39 6c ee 4a ba
       0.00073470385 0.00072504336 0.00020579623 -0.0007741216
0000e0 26 5d 42 3a 38 9e 34 ba 5b e3 ab 3d 23 59 07 3e
       0.0007414393 -0.00068900315 0.08392974 0.13217597
0000f0 f8 f9 79 38 09 d4 9e 3a 33 b5 3b 3a 03 5c 92 38
       5.9599028e-05 0.0012117635 0.00071604847 6.978961e-05
000100 e7 3a 04 80 f1 83 cd 3c e3 43 00 ba ed a9 b3 38
       -3.88472e-40 0.025087329 -0.00048929284 8.567036e-05
000110 f4 2c 05 00 8a 3f 98 38 42 6d be 39 66 00 a6 3d
       4.75304e-40 7.25976e-05 0.00036321027 0.08105545
000120 2b 95 3d 3a f4 aa 3a 38 09 17 1e 3e a4 70 31 3d
       0.00072320056 4.450507e-05 0.15438475 0.043320313
000130 80 88 89 3d 85 f0 3b 3a c9 60 49 3a 71 47 4b 3d
       0.067154884 0.0007169324 0.00076819636 0.04962868
000140 e4 7b 07 80 dd e2 3e 3a 0d 60 8d 3a 19 aa 28 3a
       -6.87292e-40 0.000728173 0.0010786072 0.0006434038
000150 a9 79 ec 38 66 ed 99 3a 6a aa f3 3c a9 db 4b ba
       0.00011276018 0.0011743724 0.029744346 -0.00077765674
000160 77 f1 4d ba 4f f7 00 00 4a d8 a6 38 5c 85 3c 3a
       -0.00078561105 8.8718e-41 7.955784e-05 0.0007191503
000170 f6 ae 3c 3a 24 f9 ba 3d 0f 63 6f ba 66 96 8d 3a
       0.0007197702 0.09129551 -0.00091318873 0.0010802269
000180 15 36 98 3a f2 01 56 3d b9 89 07 80 c8 e2 07 00
       0.0011612797 0.05224795 -6.92254e-40 7.24202e-40

model.encoder.layers.2.0.weight f4 [100, 100]
000000 77 9a 02 00 de 82 05 00 79 21 05 00 e0 c3 02 00
       2.39083e-40 5.06124e-40 4.71185e-40 2.53938e-40
000010 32 e3 05 00 40 dc 01 00 aa f5 01 80 bb d7 03 00
       5.4068e-40 1.70846e-40 -1.79963e-40 3.52896e-40
000020 58 49 06 00 e0 ae 06 80 3f e8 03 80 17 c8 07 80
       5.77324e-40 -6.13746e-40 -3.5882e-40 -7.14627e-40
000030 df cb 03 80 a1 ad 03 00 00 e1 07 80 44 b7 01 00
       -3.48642e-40 3.37793e-40 -7.23563e-40 1.57579e-40
000040 53 12 02 80 30 80 04 00 c3 40 01 00 29 ae 01 80
       -1.90244e-40 4.13327e-40 1.15068e-40 -1.54312e-40
000050 a1 57 04 80 b4 f3 05 80 b0 95 01 80 52 87 05 00
       -3.98777e-40 -5.46602e-40 -1.45533e-40 5.07721e-40
000060 66 96 01 00 59 ee 00 80 5e d5 02 80 5f f6 01 00
       1.45788e-40 -8.5503e-41 -2.60213e-40 1.80217e-40
000070 86 54 01 80 b3 65 04 00 83 e9 06 00 e4 6b 04 80
       -1.22157e-40 4.03825e-40 6.34781e-40 -4.06046e-40
000080 53 67 05 00 05 bb 05 00 4c 8e 07 80 15 43 03 80
       4.96243e-40 5.26267e-40 -6.93895e-40 -2.99571e-40
000090 5e 43 05 00 a8 7f 02 00 77 16 08 00 07 e0 05 00
       4.83344e-40 2.29465e-40 7.42743e-40 5.39543e-40
0000a0 45 60 05 80 c7 4c 01 00 3f ec 01 80 34 1f 01 80
       -4.93712e-40 1.19378e-40 -1.76585e-40 -1.03029e-40
0000b0 b0 52 02 00 c4 8a 02 80 5a aa 02 00 94 e7 07 80
       2.13334e-40 -2.33451e-40 2.44782e-40 -7.25923e-40
0000c0 cb 69 04 80 f2 28 05 80 8c 2a 07 80 5a be 02 80
       -4.05293e-40 -4.73866e-40 -6.58111e-40 -2.51956e-40
0000d0 e1 a1 07 00 68 a4 03 80 11 36 02 00 11 55 03 80
       7.0092e-40 -3.34484e-40 2.03066e-40 -3.06023e-40
0000e0 44 b1 00 80 05 39 08 00 d1 4e 05 80 df 6a 00 00
       -6.3591e-41 7.55139e-40 -4.87451e-40 3.8338e-41
0000f0 81 9b 01 80 cb 42 02 80 90 ba 03 80 26 76 05 00
       -1.4762e-40 -2.07632e-40 -3.42433e-40 5.01561e-40
000100 32 05 01 00 54 27 06 80 1f b3 00 00 f8 2b 02 00
       9.3699e-41 -5.65121e-40 6.4257e-41 1.99444e-40
000110 84 e4 05 80 b0 ef 01 00 8a 88 02 80 07 d8 04 80
       -5.41153e-40 1.77819e-40 -2.32652e-40 -4.44838e-40
000120 f9 b5 01 80 50 2f 01 80 91 f8 05 00 6f 3c 01 80
       -1.57115e-40 -1.08808e-40 5.48346e-40 -1.13515e-40
000130 83 17 01 80 39 d8 01 00 dc 9f 02 00 7b 25 00 00
       -1.0027e-40 1.69402e-40 2.41018e-40 1.3445e-41
000140 76 b4 03 00 3d 39 03 00 a9 c1 02 00 26 a2 00 00
       3.40244e-40 2.9604e-40 2.53143e-40 5.8168e-41
000150 7d 27 07 00 4d 22 07 80 cb 40 01 80 b5 13 02 00
       6.57014e-40 -6.55153e-40 -1.15079e-40 1.9074e-40
000160 83 ed 01 80 a7 11 02 00 43 87 02 00 cb c8 07 00
       -1.77039e-40 1.90003e-40 2.32194e-40 7.1488e-40
000170 4a b5 04 00 3a 33 06 80 f2 44 04 00 21 6d 07 80
       4.32376e-40 -5.6939e-40 3.92075e-40 -6.81997e-40
000180 65 87 00 80 bc a9 07 00 93 5f 04 80 43 72 03 80
       -4.857e-41 7.03738e-40 -4.01628e-40 -3.16496e-40
000190 f5 0c 69 bd 31 d8 60 3d 40 44 d8 3c 2c 7f 25 3e
       -0.056897122 0.054893676 0.026399732 0.16161793
0001a0 a6 7c 6a 3d 2d 70 6a bd 92 fb 96 3b d8 4a e0 3d
       0.05724778 -0.057235885 0.0046076262 0.10951775
0001b0 d4 c0 84 3d 5a 23 07 80 d3 50 33 3e 20 c7 6e bd
       0.064820915 -6.5553e-40 0.175113 -0.05829537
0001c0 b2 87 ad 3c 7c 3a 03 00 6a 25 6a bd 3a f3 61 bd
       0.021182869 2.96487e-40 -0.057164587 -0.0551636
0001d0 06 e1 6e bd a7 d2 6e bd dc f5 76 bd 12 95 61 bd
       -0.058320068 -0.058306362 -0.060293064 -0.055073805
0001e0 10 62 62 bd b8 61 6a bd 2f 22 0f 3e a6 36 6a bd
       -0.0552693 -0.057222098 0.13977884 -0.057181023
0001f0 09 74 6a bd 3d 82 62 bd 25 74 6e bd f0 2f 6a bd
       -0.057239566 -0.055299986 -0.058216233 -0.057174623
000200 08 db 07 00 79 aa 55 3d a4 1e 64 3d 01 64 6a bd
       7.21422e-40 0.05216453 0.055693284 -0.057224277
000210 b1 b0 6c bd 27 a4 1b bc 40 38 1b 3e 11 c6 6e bd
       -0.057785694 -0.009499586 0.15158176 -0.05829436
000220 b4 00 6f bd ea c2 6e bd 4a 50 0e 3e 79 3f f4 3d
       -0.05835028 -0.058291353 0.13897815 0.11926169
000230 a6 d1 6e bd 94 13 9f 3d 82 d0 77 bd eb 56 6a bd
       -0.058305405 0.07767406 -0.060501583 -0.057211798
000240 be 9b 63 bd 02 03 6f bd 4b 59 74 bd 9f aa 63 bd
       -0.05556845 -0.058352478 -0.05965547 -0.05558264
000250 4e d7 05 80 4b ae 76 bd 72 47 6a bd 9f 0b 30 3e
       -5.36414e-40 -0.060224812 -0.05719704 0.17191933
000260 f9 3d 6a bd 42 5b 6a bd 00 c0 6d bd 4f 26 76 bd
       -0.057188008 -0.057215936 -0.058044434 -0.060095128
000270 f8 43 6a bd 25 e4 75 bd 61 72 78 3d 2e 1e 6f 3d
       -0.057193726 -0.06003203 0.060655955 0.05837839
000280 b2 e4 6e bd 6d 74 62 bd a9 5c 6a bd 8b d4 6e bd
       -0.05832357 -0.055286814 -0.057217274 -0.058308166
000290 f9 63 05 00 53 6e 95 3d f8 18 75 bd 27 b5 6e bd
       4.95041e-40 0.07296433 -0.059838265 -0.05827823
0002a0 02 d1 07 80 9c d0 6e bd 71 da 6a bd cb 0b 45 3d
       -7.17826e-40 -0.058304414 -0.05733723 0.04810695
0002b0 fd 28 6a bd a2 02 6f bd 48 18 15 3e 28 9f ac 3c
       -0.057167996 -0.05835212 0.14560044 0.021071985
0002c0 7a 45 d5 3d ba 35 6a bd 7c f8 69 bd 76 c6 fc bb
       0.10413642 -0.057180144 -0.05712174 -0.007714088
0002d0 71 dd 00 80 db 4a 6a bd 60 c5 63 bd 55 63 6a bd
       -7.9438e-41 -0.057200294 -0.055608153 -0.057223637
0002e0 b1 84 6e bd 79 c9 62 bd 51 7f 63 3d d9 2b 76 bd
       -0.058232013 -0.05536792 0.05554134 -0.06010041
0002f0 43 f1 75 bd b8 dc 04 00 c7 c2 6e bd f0 58 6a bd
       -0.06004454 4.46521e-40 -0.058291223 -0.057213724
000300 d4 5c 6a bd e6 c4 17 3e 13 23 77 bd f0 4f 63 bd
       -0.057217434 0.14821205 -0.060336184 -0.055496156
000310 90 f3 62 bd 10 3c ef 3d bf fa 04 00 21 c8 04 00
       -0.05540806 0.11681378 4.57293e-40 4.39135e-40
000320 f6 85 87 3d 15 50 ae bc d7 6f a8 3c 07 28 0c bc
       0.06617348 -0.02127842 0.020561142 -0.008554465
000330 1c 02 df bc ad e5 87 3d ba d5 44 3d 00 2b 1a bc
       -0.027222686 0.06635604 0.048055388 -0.009409666
000340 dd 9d 3a bc 76 cc 07 00 22 cd 1c bc 42 6d 8a 3d
       -0.011390177 7.16195e-40 -0.009570392 0.067591205
000350 bc 28 12 3d b9 7e 04 80 36 e2 87 3d 30 f7 7d 3d
       0.03568338 -4.12802e-40 0.06634943 0.062003314
000360 a3 76 8a 3d 6c 72 8a 3d 77 5b 8b 3d f0 6d 7d 3d
       0.067609094 0.067601055 0.06804555 0.061872423
000370 a8 14 7e 3d 9d eb 87 3d 6d 4c 02 bd 1b e5 87 3d
       0.062031418 0.066367365 -0.031811167 0.06635495
000380 f6 e8 87 3d e7 58 7e 3d b0 57 8a 3d f9 e3 87 3d
       0.06636231 0.062096503 0.06755006 0.06635279
000390 05 58 02 00 68 21 52 bc 87 d4 bd bc 13 e9 87 3d
       2.15246e-40 -0.0128253475 -0.02317263 0.06636252
0003a0 4d 84 89 3d fd 65 54 3d e3 46 0b bd 7c 6d 8a 3d
       0.067146875 0.051855076 -0.03400315 0.06759164
0003b0 32 77 8a 3d 23 6f 8a 3d d4 2d 06 bc 88 66 23 bd
       0.06761016 0.06759479 -0.008189637 -0.039892703
0003c0 24 71 8a 3d e1 b3 36 bd fc 8e 89 3d d1 e3 87 3d
       0.06759861 -0.04460514 0.06716725 0.066352494
0003d0 f8 00 7f 3d 97 7c 8a 3d e8 12 8b 3d 23 12 7f 3d
       0.062256783 0.06762045 0.067907155 0.062273156
0003e0 d7 0f 08 80 23 f1 88 3d 3e e4 87 3d c2 77 65 bc
       -7.40366e-40 0.06686618 0.066353306 -0.014005603
0003f0 98 e6 87 3d 6a e2 87 3d fc 16 8a 3d 2d 13 8b 3d
       0.06635779 0.06634982 0.06742665 0.06790767

model.encoder.layers.2.0.bias f4 [100]
000000 dd f1 01 80 22 a0 19 3d 00 e0 56 3c f9 67 42 3c
       -1.786e-40 0.03750623 0.013114929 0.011865609
000010 0b 43 56 3c f4 81 58 3c bb 0d 42 3c c7 66 0f 3d
       0.013077508 0.013214577 0.011844094 0.035010125
000020 bb 87 03 80 18 24 56 3c cb d6 59 3c fd a1 9f 3c
       -3.24197e-40 0.013070129 0.01329584 0.019486422
000030 af 35 59 3c 59 2c 70 3c 68 cf 04 3e a4 28 56 3c
       0.013257428 0.014659011 0.12969744 0.013071213
000040 68 4e 56 3c 58 cb 3c 3e 15 ea 56 3c 9a db 02 80
       0.013080217 0.18436944 0.013117333 -2.62449e-40
000050 2b 24 16 3e f0 5e 85 3d 62 0c d5 3c e4 46 73 3c
       0.14662234 0.065122485 0.026006881 0.014848445
000060 b3 45 15 3d 03 bd 02 3e 25 e6 56 3c 99 a5 a6 3d
       0.036443423 0.12767415 0.013116394 0.08137054
000070 26 f7 a9 3c ab 66 ab 3d 0c b9 a8 3d 39 18 42 3c
       0.020747732 0.08369192 0.0823842 0.011846595
000080 71 20 8e ac 30 d3 ab 3c af f8 41 3c 5a ef 99 3d
       -4.0394845e-12 0.020974725 0.011839076 0.07516356
000090 49 e0 56 3c 8d f1 00 00 8a 83 de 90 ba 6c 23 3d
       0.013114997 8.6652e-41 -8.776623e-29 0.03989861
0000a0 0a 2d 56 3c 95 9b 59 3c e7 d9 a2 3d 8e 8a 58 3c
       0.013072262 0.013281723 0.07951718 0.013216628
0000b0 90 ea 14 3d d2 e7 41 3c d9 33 56 3c 6a bb 40 3c
       0.03635651 0.011835055 0.013073885 0.011763433
0000c0 d6 b7 72 3c 6c a2 42 3c 3f 00 d9 3d 57 40 42 3c
       0.014814338 0.011879545 0.1059575 0.01185616
0000d0 d5 9c 60 3c 24 41 73 3c e9 e1 56 3c 47 aa a1 8f
       0.013709267 0.014847074 0.013115385 -1.5941414e-29
0000e0 fa 25 e0 3d 33 0e cf 3c ff c7 f0 3c cd 12 00 80
       0.109447435 0.025275325 0.02939224 -6.744e-42
0000f0 4c 8b 44 3d 5a 7e 58 3c 8d 0d 4b 3d 44 18 42 3c
       0.047984406 0.013213718 0.04957347 0.011846606
000100 df e5 14 3d df 76 02 3e da c1 a8 3c 0c 1f bb 3d
       0.036352035 0.12740658 0.020600248 0.09136781
000110 88 3c 79 3c 9b 68 d4 3c 58 d7 05 b9 d7 1f 59 3c
       0.015212186 0.025928786 -0.0001276409 0.01325222
000120 5e de 21 3c c5 81 41 3c 11 03 73 3c 7a 29 72 3c
       0.009879677 0.011810725 0.014832274 0.014780397
000130 3e 1b 00 00 46 84 82 3c 6b 14 41 3c f7 ea 56 3c
       9.773e-42 0.015932214 0.011784653 0.013117543
000140 4d 6c 6f 3c 7c 31 56 3c e6 c1 73 3c c2 3f 56 3c
       0.014613223 0.013073321 0.014877772 0.0130767245
000150 8f f0 db 3c 5a 97 06 00 a2 27 56 3c 1f e7 a2 3c
       0.026848106 6.05308e-40 0.013070973 0.019885598
000160 d9 1b 56 3c 3e 13 db 3d 8e 30 59 3c eb 97 76 b8
       0.013068163 0.106970295 0.013256205 -5.8792455e-05
000170 16 20 43 3c 6c af 7a 3c 6c 93 42 3c c7 1f 56 3c
       0.011909505 0.015300613 0.011875968 0.0130691
000180 bd de 05 00 22 bb 69 3c a3 01 17 3c df 8c 4b 3c
       5.39081e-40 0.014265807 0.009216699 0.012423723

model.encoder.layers.3.weight f4 [10, 100]
000000 be cf 05 00 7a 24 bb bd bc ac 88 3d d0 69 81 3d
       5.33701e-40 -0.09137817 0.066735715 0.0631901
000010 ea a5 88 3d cc b5 88 3d 9c 65 81 3d 86 27 11 bd
       0.066722706 0.066753 0.063182086 -0.035438083
000020 05 de 06 00 0b a2 88 3d b1 24 89 3d 38 5f 7d 3d
       6.30659e-40 0.06671532 0.066964515 0.061858386
000030 74 c3 88 3d 59 de 91 3d 21 30 79 3c 42 a6 88 3d
       0.06677905 0.071224876 0.015209229 0.06672336
000040 a1 8d 88 3d 10 e2 aa 3d 94 ac 88 3d bc 13 03 80
       0.066676386 0.08343899 0.06673542 -2.82586e-40
000050 10 b8 d7 3c ac 3a c8 3d 17 59 d6 bd b6 34 92 3d
       0.026332885 0.09776816 -0.10466211 0.0713896
000060 57 e5 3d bd b0 11 02 bd 86 9f 88 3d 79 cf e6 bc
       -0.046361294 -0.03175515 0.06671052 -0.028175103
000070 ab 6b 8c 3d 8e ca e7 bd 11 49 cc 3c 54 6f 81 3d
       0.068564735 -0.11317931 0.024937185 0.06320062
000080 51 c7 07 80 b3 7f 8c 3d 3e 6c 81 3d fe 33 bb 3d
       -7.1435e-40 0.06860294 0.06319474 0.09140776
000090 0e a2 88 3d a3 58 04 80 96 f3 07 80 d7 dc fa bb
       0.066715345 -3.99139e-40 -7.3023e-40 -0.0076557207
0000a0 44 ac 88 3d 89 bb 89 3d ed e2 55 bd 0e c3 88 3d
       0.06673482 0.067252226 -0.052218366 0.06677829
0000b0 55 9a c5 bc 28 78 81 3d 6f ae 88 3d 60 83 81 3d
       -0.024121443 0.06321746 0.066738956 0.06323886
0000c0 d4 1a 92 3d a7 b3 81 3d 58 cf ad 3c c0 bb 81 3d
       0.07134023 0.06333094 0.021217033 0.063346386
0000d0 8c 4a b9 bd e8 37 92 3d c7 ac 88 3d ba 75 00 80
       -0.09047422 0.071395695 0.0667358 -4.2232e-41
0000e0 24 a2 0f bc 75 df c7 bd 67 35 61 bc c9 93 06 00
       -0.008766685 -0.09759418 -0.013745642 6.04028e-40
0000f0 69 1e be bc 5e c8 88 3d a8 4e f9 3d 9e 78 81 3d
       -0.02320786 0.06678842 0.121732056 0.06321834
000100 e2 22 d2 bc 64 93 ca bd c6 b0 8c 3d b7 fd 9f 3c
       -0.025651399 -0.09891394 0.06869654 0.01953016
000110 6f 13 92 3d 67 e8 c7 bd 8e 6a 07 00 b9 d9 88 3d
       0.07132613 -0.09761124 6.81073e-40 0.06682152
000120 b9 89 82 3d 22 7d 81 3d 29 25 92 3d 07 24 92 3d
       0.06373925 0.06322695 0.07135994 0.07135778
000130 42 f7 04 80 ba 0b 90 3d ea f3 81 3d d4 a9 88 3d
       -4.56041e-40 0.07033487 0.06345351 0.06673017
000140 d3 e1 91 3d d7 a7 88 3d a6 3d 92 3d 6a aa 88 3d
       0.07123151 0.06672638 0.07140665 0.06673129
000150 e1 8c 8b bd 0b 32 07 80 73 b1 88 3d 01 34 8c 3d
       -0.0681398 -6.608e-40 0.06674471 0.068458565
000160 49 af 88 3d dd 3a 24 3d b8 c0 88 3d b4 1c 00 00
       0.06674058 0.0400952 0.06677383 1.0297e-41
000170 5e 9d 81 3d 5f a1 91 3d b9 9f 81 3d af a6 88 3d
       0.063288435 0.07110857 0.06329293 0.06672417
000180 cf ab 00 00 e1 39 91 3d 96 c4 88 3d 04 f9 85 3d
       6.1633e-41 0.07091118 0.06678121 0.065416366
000190 72 fb 01 80 52 03 d1 bc f7 91 86 3d ef 03 84 3d
       -1.82037e-40 -0.025514279 0.06570809 0.06446063
0001a0 4c 90 86 3d 0c 9e 86 3d e6 06 84 3d a5 ec 26 bd
       0.06570491 0.06573114 0.06446628 -0.040753026
0001b0 8d bc 04 00 43 8e 86 3d 73 bc 86 3d 7e e7 8f 3d
       4.34981e-40 0.06570103 0.065789126 0.070265755
0001c0 f8 95 86 3d 04 dc 91 3d af 72 9d bc fc 90 86 3d
       0.06571573 0.07122043 -0.019219724 0.06570622
0001d0 5f 83 86 3d d2 6d 8a 3c 40 8d 86 3d 52 d6 00 00
       0.06568026 0.01689807 0.0656991 7.6884e-41
0001e0 17 3f 30 3c a5 f7 ae 3c 45 a5 9a bc 1f ad 91 3d
       0.010757229 0.02135832 -0.018877635 0.07113098
0001f0 6f fb 85 bc 42 4b 7d bd a8 82 86 3d c2 c1 6f bc
       -0.016355244 -0.06183935 0.065678895 -0.014633598
000200 21 93 8d 3d 2c 05 01 bd ef 3b 84 3d 27 04 84 3d
       0.06912828 -0.031499073 0.06456744 0.064461045
000210 7e d2 03 80 73 ca 8d 3d 04 06 84 3d de 46 77 3d
       -3.51017e-40 0.0692338 0.0644646 0.06037032
000220 ed 84 86 3d a4 41 03 80 ac 6d 04 00 eb cc 51 bc
       0.06568322 -2.99054e-40 4.06685e-40 -0.012805204
000230 f7 92 86 3d a2 f2 86 3d 91 fc 91 3d 73 98 86 3d
       0.06571 0.06589247 0.07128251 0.06572046
000240 eb 7f f5 bc 85 09 84 3d c2 95 86 3d 69 13 84 3d
       -0.029968223 0.06447128 0.06571533 0.06449015
000250 f9 b6 91 3d 91 30 84 3d 57 50 ad bd 05 41 84 3d
       0.071149774 0.06454576 -0.08462589 0.06457714
000260 7c ab dc bc 08 ad 91 3d ff 89 86 3d 53 3b 07 00
       -0.026937239 0.07113081 0.065692894 6.6413e-40
000270 9a 08 b6 bd 26 5d 17 bd fd f1 96 bc 82 a7 04 80
       -0.08888359 -0.036954068 -0.018425936 -4.27432e-40
000280 08 bd f8 bc de 99 86 3d ee e6 7f 3d 86 03 84 3d
       -0.030363575 0.065723166 0.06247609 0.064459845
000290 d8 6f a5 bd 28 05 df bc 01 1a 8e 3d 7e 41 54 bc
       -0.08077973 -0.027224138 0.069385536 -0.012955068
0002a0 e0 ff 91 3d 05 ff 28 bd 10 32 01 00 4d 98 86 3d
       0.071288824 -0.04125883 1.09795e-40 0.06572018
0002b0 a1 ac 84 3d 00 0e 84 3d 18 b5 91 3d 99 bf 91 3d
       0.06478239 0.06447983 0.07114619 0.071166225
0002c0 fb 4d 04 80 7d 17 92 3d 5f 55 84 3d 87 8b 86 3d
       -3.95316e-40 0.07133386 0.06461596 0.065695815
0002d0 52 af 91 3d d5 90 86 3d 6a 9a 91 3d 3d 93 86 3d
       0.07113518 0.06570593 0.0710953 0.06571052
0002e0 9b e9 23 bd 67 7b 07 00 9c 96 86 3d 27 8a 8d 3d
       -0.040017705 6.87117e-40 0.06571695 0.06911116
0002f0 f4 95 86 3d 15 e5 e8 bc 32 93 86 3d c6 69 04 00
       0.0657157 -0.028429547 0.06571044 4.05286e-40
000300 68 28 84 3d a4 13 91 3d 01 10 84 3d b9 91 86 3d
       0.064530194 0.07083824 0.06448365 0.06570763
000310 ff c1 05 00 b4 01 8b 3d 7f 71 88 3d cd af 85 3d
       5.2877e-40 0.06787434 0.06662273 0.06527672
000320 f1 7c 06 80 48 ea 83 3e db f3 95 bd 30 8a 95 bd
       -5.95834e-40 0.2576468 -0.07321902 -0.07301748
000330 c6 0f 96 bd 50 03 96 bd d0 92 95 bd ba 66 b5 3d
       -0.07327227 -0.073248506 -0.07303393 0.08857484
000340 42 cd 05 80 f5 04 96 bd 93 fb 95 bd 70 de 1d bd
       -5.3281e-40 -0.07325164 -0.073233746 -0.03854221
000350 e4 f4 95 bd 24 8c 8f bd b4 90 83 3e 86 05 96 bd
       -0.073221 -0.070091516 0.25696337 -0.07325272
000360 84 fb 95 bd d7 d6 81 3e 31 f4 95 bd 8f f2 05 00
       -0.073233634 0.25359222 -0.073219664 5.46191e-40
000370 2c 07 82 3e 87 5f 7c 3e 3c a1 82 3e a7 e1 8f bd
       0.25396097 0.24645816 0.25513637 -0.07025462
000380 78 6b 86 3e d6 ce 7c 3e ba ef 95 bd e0 03 3e 3e
       0.26253867 0.24688277 -0.07321115 0.18556166
000390 53 ba 89 bd b0 2b 7d 3e aa 32 51 3e f1 8e 95 bd
       -0.06724992 0.24723697 0.20429483 -0.073026545
0003a0 62 f8 07 00 fa cb 89 bd 76 88 95 bd 4d 5e e5 bb
       7.31951e-40 -0.067283586 -0.073014185 -0.006999767
0003b0 1c f2 95 bd fa b2 06 80 27 da 04 00 c8 5d ab 3d
       -0.07321569 -6.15218e-40 4.456e-40 0.08367497
0003c0 66 09 96 bd 2e f9 95 bd f1 93 70 3e 46 05 96 bd
       -0.07326011 -0.07322918 0.23493935 -0.073252246
0003d0 d2 eb b2 3d 59 91 95 bd 36 15 96 bd 89 8e 95 bd
       0.087363854 -0.073031135 -0.073282644 -0.07302577
0003e0 3f c5 8f bd 8b cb 95 bd c3 51 89 3e 63 bd 95 bd
       -0.070200436 -0.07314213 0.26820192 -0.07311513
0003f0 c1 e9 34 3e 0f e6 8f bd d5 f5 95 bd c0 22 02 80
       0.17667295 -0.07026302 -0.07322279 -1.96137e-40

model.encoder.layers.3.bias f4 [10]
000000 cc 1b e7 3d 8a e0 a6 3c ae 86 3c 3e f3 b8 90 3c
       0.11284599 0.02037074 0.18410751 0.017666316
000010 0d fa 26 3d 88 c8 1b ba 0c 6e 18 3d 4a 77 12 ba
       0.04076581 -0.0005942662 0.037214324 -0.00055872335
000020 1a e7 44 3d de ec 0b 3d
       0.048071958 0.03416144

model.predictor_linear.0.weight f4 [1, 10]
000000 4f 18 99 3e d0 ca 62 3e 63 80 a2 be 82 7b b0 3e
       0.29901358 0.2214768 -0.31738576 0.3446923
000010 26 7e a8 3e b6 ae 35 bd 43 6b 4c 3e 18 d7 ee bb
       0.32908744 -0.04435607 0.19962792 -0.0072888248
000020 70 b0 10 3e 73 48 ce 3d
       0.14129806 0.10072412

exp_avg f4 [100, 1]
000000 98 82 2c ba a5 bf 8c 38 22 89 43 ba 34 80 c9 ba
       -0.0006580739 6.711417e-05 -0.0007459094 -0.001537329
000010 51 97 39 3a db 96 84 ba 66 9a 23 3a d2 cc 4f bb
       0.0007079738 -0.0010115759 0.00062409637 -0.0031707776
000020 26 99 25 3a b3 39 17 bb 0a 08 46 bb 16 b2 5f ba
       0.00063170714 -0.0023075163 -0.0030217194 -0.0008533312
000030 86 5e ab 3a 27 7e 0d b9 ac 12 12 3a 42 b7 7e 3a
       0.0013074435 -0.00013493803 0.00055722403 0.00097166386
000040 32 95 80 3a cc d7 90 3a 48 c1 64 b8 d0 af 0f bb
       0.0009810089 0.0011050641 -5.4539443e-05 -0.002192486
000050 1b ec 16 39 62 1a 02 3a 63 ce 07 3a e4 73 29 3a
       0.00014393071 0.0004963038 0.00051805953 0.00064641074
000060 df ba 9e b9 b0 41 a7 3a 2d 77 00 3a b4 b3 1a 35
       -0.00030275338 0.0012760665 0.0004900571 5.7630973e-07
000070 53 b1 0d 3a 84 61 9f 3a 2a 63 05 3a 63 27 8f 3a
       0.00054051465 0.0012159799 0.0005088324 0.0010921772
000080 75 9f 08 ba ca 89 66 b9 60 b3 60 b8 3b 5e 4b 3a
       -0.0005211749 -0.0002198584 -5.3572818e-05 0.0007757877
000090 f1 14 28 ba 86 9f 0b b7 02 4b b1 3a d5 8e a9 3a
       -0.0006411812 -8.322188e-06 0.0013526382 0.0012936244
0000a0 26 6d 60 3a bf 71 51 3a 87 e2 68 3a ce fa 43 3a
       0.0008561186 0.0007989667 0.0008883853 0.00074760325
0000b0 9b 5b 40 3a c0 26 63 3a c9 83 3e 3a e8 1e 04 b8
       0.0007337869 0.0008665137 0.00072675623 -3.1500036e-05
0000c0 e7 ff 1d 3a ff d6 78 3a d1 d6 0c 3a 61 75 82 bb
       0.0006027207 0.0009492486 0.00053725863 -0.003981278
0000d0 af ed 61 b9 e4 fd 73 3a ba 2a f5 39 ea 2a 9f 3a
       -0.00021546216 0.0009307547 0.00046761875 0.0012143527
0000e0 c3 96 08 3a 26 15 22 3a de 58 6e 3a 56 7d 88 3a
       0.00052104535 0.0006182961 0.0009092222 0.001041333
0000f0 6d 30 e9 39 82 ef db ba d4 d2 e7 b8 8e b7 52 3a
       0.00044477303 -0.0016779753 -0.00011054208 0.0008038216
000100 00 35 e0 39 93 34 19 3a 92 65 35 3a 35 42 47 3a
       0.00042764097 0.0005844321 0.0006919737 0.0007601113
000110 4b a7 3d 3a 28 6d 2e 3a 22 39 28 3a 30 7a 32 3a
       0.00072347064 0.0006653839 0.0006417205 0.00068083685
000120 81 7e 8c 3a c4 e4 94 39 8e be 44 3a 88 11 a6 39
       0.0010718853 0.00028399203 0.00075052015 0.0003167505
000130 4e 4e 9a 39 72 e2 9c 3a ad 81 2b 3a 51 86 d8 39
       0.0002943151 0.0011969341 0.00065424555 0.00041298804
000140 78 41 30 b8 4e 1e ba b8 0a 53 5f 3a fa 55 1b 3b
       -4.2022642e-05 -8.874816e-05 0.00085191487 0.002370237
000150 53 7a 3f bb 08 01 3c bb 5a ac 6e 38 dc 98 dd 3a
       -0.0029217198 -0.0028687138 5.6904137e-05 0.0016906518
000160 0a 4b 75 b9 1f a3 f9 39 9e ab 76 3a d9 40 56 3a
       -0.00023392975 0.00047614516 0.0009409728 0.0008173115
000170 ae 38 40 3a f7 17 99 3a 52 9e 52 3a 7c 0b 69 3a
       0.00073326647 0.0011680116 0.0008034456 0.0008889956
000180 39 e5 8e 3a 23 dc ce 39 d4 b4 7a 3a d5 39 0a 3a
       0.0010902054 0.00039455396 0.00095636887 0.00052729

exp_avg_sq f4 [100, 1]
000000 0b 90 26 38 e7 48 78 37 b9 f5 14 38 7c e2 4c 38
       3.9711635e-05 1.4798926e-05 3.5514797e-05 4.884832e-05
000010 3c f2 cd 35 5c 52 33 38 8c 31 11 37 57 81 c6 38
       1.534419e-06 4.275363e-05 8.6542095e-06 9.465467e-05
000020 d2 a9 36 36 6c b8 e8 38 cf 8c 35 39 ae df 37 38
       2.7218962e-06 0.00011096973 0.0001731396 4.3838918e-05
000030 26 97 60 37 24 8e 16 38 b6 5d 19 36 c9 3b a5 37
       1.3386632e-05 3.5895166e-05 2.2853324e-06 1.9697372e-05
000040 a2 99 2f 37 78 24 cd 37 29 37 a0 38 c8 0a f8 38
       1.0466583e-05 2.4454886e-05 7.639669e-05 0.0001182757
000050 b3 8b cf 36 0f 78 ae 36 af 89 29 36 fe 2b eb 35
       6.185344e-06 5.1995808e-06 2.5263105e-06 1.7521668e-06
000060 7b b2 ce 36 30 8c 33 37 6c 93 2d 36 32 59 ff 36
       6.1600563e-06 1.0701871e-05 2.586482e-06 7.609976e-06
000070 e2 bd 33 36 b1 31 bd 36 08 25 da 35 a2 82 a4 36
       2.6783605e-06 5.6384238e-06 1.6253043e-06 4.9027885e-06
000080 e9 7d 53 37 d3 66 aa 36 07 2a b7 36 45 9f 37 35
       1.2605896e-05 5.078365e-06 5.4587176e-06 6.840458e-07
000090 c7 62 b3 37 2a e3 c4 36 ae e8 c4 37 70 cf e7 36
       2.138446e-05 5.8677006e-06 2.347337e-05 6.9084854e-06
0000a0 97 7b ad 36 05 75 18 36 75 5e 86 36 72 05 38 35
       5.1701895e-06 2.271788e-06 4.0045074e-06 6.8553265e-07
0000b0 d1 5f 30 35 bf f4 3c 36 5d 9f 9d 35 0c 28 14 38
       6.570454e-07 2.8156644e-06 1.1743792e-06 3.5323246e-05
0000c0 6a 5d e8 35 7b f2 a4 37 b1 70 8d 35 89 79 5b 38
       1.7312534e-06 1.9663237e-05 1.0538116e-06 5.2326857e-05
0000d0 81 0c a9 36 6f 27 22 37 53 45 a1 35 f8 3a 68 36
       5.038048e-06 9.665134e-06 1.2015611e-06 3.4605018e-06
0000e0 4e f6 7a 35 99 0e 70 35 e0 a5 be 35 8e ac d6 35
       9.349068e-07 8.942821e-07 1.4204379e-06 1.5994463e-06
0000f0 ef b1 e7 35 17 f4 82 37 49 68 61 37 7e d6 12 37
       1.7262627e-06 1.561087e-05 1.3435326e-05 8.7522185e-06
000100 1e 38 34 35 33 53 92 35 06 8f 29 35 21 22 35 35
       6.7136887e-07 1.0902062e-06 6.316553e-07 6.747742e-07
000110 95 39 bd 35 50 e6 1b 35 8c b4 84 35 0a 5c b2 35
       1.4098356e-06 5.807715e-07 9.887312e-07 1.328882e-06
000120 85 74 9c 36 d8 e9 d8 37 8b 96 23 35 02 f0 d4 36
       4.662727e-06 2.5858099e-05 6.09413e-07 6.346033e-06
000130 09 ef bc 37 ed 66 d9 36 6a b8 3f 36 cc 63 84 36
       2.2522656e-05 6.479086e-06 2.856856e-06 3.9455244e-06
000140 2a dc bd 36 04 18 54 37 27 58 7f 35 6d c5 cc 37
       5.6582694e-06 1.2641776e-05 9.512318e-07 2.4410629e-05
000150 a3 42 8f 38 5b a9 a1 38 c7 db 82 36 dd 47 8f 36
       6.8311834e-05 7.708623e-05 3.8998874e-06 4.270098e-06
000160 d3 33 f3 36 c0 f4 22 36 12 89 81 37 d7 45 75 36
       7.2479975e-06 2.4282344e-06 1.5441827e-05 3.6548497e-06
000170 7a 7b 40 36 38 bd 2a 38 6b 0f 7e 38 1d ea 99 37
       2.8682102e-06 4.0707382e-05 6.057268e-05 1.8348039e-05
000180 07 52 44 37 75 dc 83 38 61 20 84 37 f3 5c 59 36
       1.1701609e-05 6.28763e-05 1.5750704e-05 3.2389623e-06
