logs/l1_coef-0.1/version_0/checkpoints/epoch=4419-step=4420.ckpt (torch, 566207 bytes, 72 tensors)

model.encoder.layers.0.weight f4 [100, 100]
-4.6141854e-06 7.9326555e-06 4.0600726e-06 -4.308466e-06 1.2710748e-05 6.735162e-08 7.97476e-06 2.3385623e-05
3.2879037e-05 1.3838544e-05 -7.868811e-06 4.286426e-05 1.8437351e-05 1.2285152e-05 1.3767456e-05 -1.2677137e-05
-2.6593284e-06 1.7126744e-05 -6.9107176e-07 -2.3565635e-06 3.2582361e-06 5.137285e-06 -1.5417063e-05 1.129261e-06
2.19485e-05 -4.213839e-06 -3.529033e-06 -8.2567124e-07 -1.4950645e-05 1.9149718e-05 1.6228192e-05 1.8647444e-06
5.0559447e-06 1.7847795e-05 -8.9185954e-07 -2.5454437e-05 5.093881e-06 1.9632131e-07 5.8715127e-06 3.8090575e-06
6.405347e-06 -1.3958369e-05 2.3876808e-06 -1.51761415e-05 4.5235597e-06 1.8731329e-05 1.6307695e-06 -1.3780807e-05
-1.9413276e-06 -1.8303916e-06 -6.528753e-06 2.902748e-05 -4.3376312e-07 3.5727078e-07 2.4855442e-05 -3.4428758e-06
-2.0125559e-05 9.747128e-06 1.0477528e-05 1.0645408e-05 -1.2810112e-05 2.4938313e-06 1.4960852e-05 -2.7313605e-05
-6.965457e-06 1.5694056e-06 -1.885857e-05 -1.0911882e-05 2.2075097e-05 1.41793735e-05 2.8591838e-05 -4.4198587e-06
2.8078377e-05 7.654319e-06 6.9575053e-06 5.969975e-06 2.2424332e-05 -2.2258482e-05 -3.167486e-06 -7.639378e-06
-1.3127239e-05 4.317183e-05 6.8480017e-07 2.5391308e-05 1.9653511e-05 1.1959595e-05 -2.1295456e-05 -6.2776935e-06
-1.8141825e-05 -5.483528e-07 -1.077993e-05 -1.26560435e-05 -3.4910263e-06 -1.6613562e-06 1.4245471e-05 5.9243143e-06
1.6376247e-05 -2.0057898e-09 1.3465077e-05 -2.8957837e-05 -2.2227375e-06 -1.2994711e-05 7.909288e-06 3.1040768e-06
1.7038063e-05 -1.7583084e-06 1.528048e-05 2.8258095e-05 -1.4659083e-05 1.5470845e-05 1.5465272e-05 5.325928e-07
2.6859509e-05 -7.179322e-06 8.9464174e-07 6.964881e-06 6.1196383e-06 5.4267452e-06 -6.847425e-06 2.926182e-07
8.245547e-07 4.5361878e-05 -1.2115394e-06 -1.827149e-05 6.246154e-06 1.1937381e-05 -1.5451573e-05 -1.7573748e-05
2.6005202e-07 -7.576297e-06 1.4188923e-05 -8.882966e-06 1.9715944e-05 -2.8646025e-05 3.1027766e-06 7.912223e-06
-1.4204984e-05 -7.96768e-06 -3.2930568e-06 2.7368458e-06 -2.780332e-05 -3.9486636e-06 6.942879e-06 8.7476665e-06
-1.7151888e-05 -3.7838137e-07 2.896103e-06 4.157904e-06 4.1903954e-06 -3.3202216e-06 1.3717552e-06 4.2414213e-06
-2.8460123e-05 2.0289759e-05 3.8152175e-05 9.3104145e-06 2.55629e-05 -1.1980572e-05 -1.1798572e-05 -1.4874995e-05
3.6482626e-05 7.981386e-06 4.1371122e-06 4.04654e-06 2.5967642e-05 -6.7799954e-07 1.6586926e-05 6.145101e-07
1.2974422e-05 3.6376558e-05 1.4149792e-05 3.210756e-05 1.2034745e-05 -1.908301e-06 -9.341857e-06 -3.973415e-06
-9.628587e-07 1.3816168e-08 7.905725e-06 -1.2355957e-05 1.2247526e-06 5.819994e-06 -8.571413e-06 -7.2122947e-07
-1.9532183e-06 -3.188781e-06 1.748478e-06 -3.5051475e-05 -4.252309e-06 2.0576734e-05 1.8388217e-05 -2.8612967e-06
9.811004e-06 -3.5404486e-05 5.246108e-06 2.6424033e-05 -1.5015606e-05 -2.2704966e-05 -3.6595652e-06 -2.0867512e-06
-8.629393e-06 -1.1445317e-06 -1.3773884e-05 1.1172402e-05 7.0298927e-07 1.2113661e-05 2.3880633e-05 3.1925752e-05
1.3829282e-05 -2.2420256e-06 6.1474625e-06 -1.3310751e-05 6.537173e-06 1.4588861e-06 1.3503319e-05 3.7440518e-06
1.6874782e-06 2.1848568e-06 2.4746501e-05 -2.03723e-06 -1.9937635e-05 -1.6226495e-05 -6.1419396e-06 -1.38955775e-05
-3.398926e-05 2.3234863e-05 -1.9306435e-05 -2.3086761e-08 1.3034723e-05 3.661782e-05 5.149595e-05 2.857009e-05
1.5249637e-06 -3.282453e-07 -2.0537103e-05 1.8950768e-05 -3.672543e-05 -4.384732e-05 1.6757234e-05 -1.6741578e-05
1.3026369e-05 1.627797e-05 -1.3812972e-07 7.3822166e-06 -1.4571162e-05 -2.4329489e-05 4.188138e-06 2.4879137e-06
-1.3435665e-05 -1.1915569e-06 -1.1854856e-05 -1.1975761e-06 -1.9756522e-05 3.902228e-06 1.9719735e-06 -1.2893129e-05
00000000: 8dd3 9ab6 7f16 0537 c23b 8836 7191 90b6
00000010: 3f40 5537 f2a2 9033 55cb 0537 3e2c c437
00000020: 99e7 0938 182c 6837 4904 04b7 26c9 3338
00000030: e9a9 9a37 531c 4e37 c6fa 6637 e4af 54b7
00000040: ea76 32b6 67ab 8f37 1782 39b5 7425 1eb6
00000050: 12a8 5a36 f160 ac36 e453 81b7 1d91 9735
00000060: 0b1e b837 9a64 8db6 53d4 6cb6 b2a3 5db5
00000070: 88d4 7ab7 b5a3 a037 c721 8837 2148 fa35
00000080: 3ca6 a936 d9b7 9537 1f68 6fb5 fd86 d5b7
00000090: 1bec aa36 64cc 5234 e903 c536 1c9f 7f36
000000a0: 83ed d636 bd2e 6ab7 0b3c 2036 089d 7eb7
000000b0: 15c9 9736 3921 9d37 d0e0 da35 1e34 67b7
000000c0: c147 02b6 c7ab f5b5 9011 dbb6 0a80 f337
000000d0: f3df e8b4 ecce bf34 a880 d037 280c 67b6
000000e0: 4fd3 a8b7 9987 2337 a4c8 2f37 ae99 3237
000000f0: 03eb 56b7 b25b 2736 5f00 7b37 851f e5b7
00000100: d2b8 e9b6 5ea4 d235 7832 9eb7 2d12 37b7
00000110: e92d b937 f2e3 6d37 81d8 ef37 4c4e 94b6
00000120: db89 eb37 0d6b 0037 8474 e936 b251 c836
00000130: e31b bc37 bab7 bab7 ff90 54b6 e12a 00b7
00000140: 103d 5cb7 6613 3538 1cd3 3735 6bff d437
00000150: 98dd a437 12a6 4837 a5a3 b2b7 faa4 d2b6
00000160: 462f 98b7 8432 13b5 72db 34b7 4b55 54b7
00000170: 6047 6ab6 c4fb deb5 d5ff 6e37 79c9 c636
00000180: b95f 8937 3ad6 09b1 11e8 6137 7bea f2b7
00000190: 572a 15b6 dc03 5ab7 22b2 0437 a24f 5036
000001a0: f6ec 8e37 04ff ebb5 952e 8037 cc0b ed37
000001b0: 48f0 75b7 63c7 8137 6bbb 8137 80f7 0e35
000001c0: 5b50 e137 e8e5 f0b6 5027 7035 dfb3 e936
000001d0: 4b57 cd36 6317 b636 efc2 e5b6 2419 9d34
000001e0: f856 5d35 f242 3e38 2d9c a2b5 ba45 99b7
000001f0: 0e96 d136 a946 4837 009e 81b7 566b 93b7
00000200: 479d 8b34 e537 feb6 f60c 6e37 0c08 15b7
00000210: ab63 a537 df4c f0b7 4c39 5036 bdbe 0437
00000220: f151 6eb7 edac 05b7 49fe 5cb6 a7aa 3736
00000230: 2d3b e9b7 c37e 84b6 e0f6 e836 f1c2 1237
00000240: 66e1 8fb7 5724 cbb4 ac5a 4236 2084 8b36
00000250: 399b 8c36 f9d0 5eb6 261d b835 8851 8e36
00000260: a6bd eeb7 ed33 aa37 9605 2038 ed33 1c37
00000270: e96f d637 2a00 49b7 7bf2 45b7 9e8f 79b7
00000280: ec04 1938 cbe7 0537 86d1 8a36 84c7 8736
00000290: 16d5 d937 c6ff 35b5 2724 8b37 d0f4 2435
000002a0: b8ac 5937 0893 1838 e564 6d37 3bab 0638
000002b0: d6e8 4937 5d10 00b6 f8ba 1cb7 6053 85b6
000002c0: 933b 81b5 265c 6d32 d5a2 0437 6e4c 4fb7
000002d0: 2e62 a435 5e49 c336 f0cd 0fb7 839a 41b5
000002e0: 0914 03b6 d7fe 55b6 3fad ea35 3c04 13b8
000002f0: 0eaf 8eb6 339c ac37 6540 9a37 b404 40b6
00000300: f199 2437 477f 14b8 b907 b036 2ea9 dd37
00000310: 89eb 7bb7 8b76 beb7 da96 75b6 1d0a 0cb6
00000320: f6c6 10b7 cf9d 99b5 6216 67b7 1a71 3b37
00000330: 0eb5 3c35 c73b 4b37 4553 c837 04e8 0538
00000340: 5004 6837 b575 16b6 4d46 ce36 3d51 5fb7
00000350: e359 db36 f2ce c335 508c 6237 5242 7b36
00000360: 4f7d e235 8e9f 1236 b596 cf37 58b7 08b6
00000370: bf3f a7b7 221e 88b7 dc16 ceb6 0d21 69b7
00000380: b18f 0eb8 7de8 c237 41f4 a1b7 5350 c6b2
00000390: b6af 5a37 1696 1938 5bfd 5738 cda9 ef37
000003a0: 5bad cc35 b139 b0b4 1847 acb7 77f8 9e37
000003b0: a109 1ab8 b4e8 37b8 e391 8c37 4470 8cb7
000003c0: d48b 5a37 ad8c 8837 cf50 14b4 c2b4 f736
000003d0: aa76 74b7 2e17 ccb7 d587 8c36 08f6 2636
000003e0: be69 61b7 95ed 9fb5 38e4 46b7 67bc a0b5
000003f0: cfba a5b7 e2ef 8236 3f56 0436 914f 58b7

model.encoder.layers.0.bias f4 [100]
2.808104e-05 2.148488e-05 1.2799955e-05 -2.7812296e-06 -2.8636563e-05 -2.537577e-06 2.2683596e-05 -1.0463064e-05
-1.8950137e-05 1.6798323e-06 1.2730115e-05 1.860228e-05 -6.8113864e-06 1.33521135e-05 4.0565055e-06 2.8035658e-05
-1.8750929e-05 -3.9117986e-06 4.423128e-06 6.304259e-06 1.7652572e-05 -2.741636e-07 -3.762742e-07 -1.1096327e-05
1.3900924e-05 8.867843e-06 -5.5090586e-06 -1.529539e-05 1.971593e-06 -2.3467344e-06 -2.2215398e-05 -4.3429936e-05
8.907305e-06 3.5230785e-06 -3.6225047e-06 2.0811999e-07 -5.9265733e-07 -4.5995776e-08 6.3427856e-06 1.1467323e-05
-2.7140431e-05 -9.134289e-06 -1.2221012e-05 -1.8935394e-05 9.230587e-06 -4.0923755e-06 5.0301437e-06 6.6590983e-06
5.7458406e-06 2.9942266e-05 1.2636744e-05 -4.3430762e-05 -1.7658569e-05 -5.7468344e-07 4.6336842e-07 4.4905308e-05
2.2037273e-05 6.022249e-06 -3.4311647e-06 -1.2420795e-05 3.2965388e-06 -1.328596e-05 1.3350082e-05 -1.0744541e-05
-2.2115139e-05 1.1347341e-05 1.6411615e-05 3.839542e-06 -5.5353994e-06 -5.805176e-06 1.2268283e-05 -2.0185844e-06
6.193251e-06 -1.4068486e-05 1.7065953e-05 7.0477163e-06 -1.17431255e-05 3.2588807e-06 -1.4029788e-06 -4.626658e-06
-8.744938e-06 -9.984941e-06 -9.3317266e-07 5.2427484e-05 4.3995144e-05 -5.086829e-06 1.8383107e-05 2.7794109e-05
2.1656845e-06 1.1459371e-06 -1.618632e-05 4.8718252e-06 -6.362779e-06 3.900955e-06 -1.2303507e-05 1.7366634e-05
1.5973108e-05 -1.5675378e-06 6.938869e-06 -1.9929472e-05
00000000: 938f eb37 6e3a b437 63bf 5637 29a5 3ab6
00000010: 8d38 f0b7 3e4b 2ab6 a748 be37 858a 2fb7
00000020: 1cf7 9eb7 9976 e135 6d93 5537 180c 9c37
00000030: 5d8d e4b6 e402 6037 1e1d 8836 1e2e eb37
00000040: 504b 9db7 1842 83b6 616a 9436 2c89 d336
00000050: 9c14 9437 c230 93b4 bb02 cab4 5d2a 3ab7
00000060: 0438 6937 18c7 1437 74da b8b6 9a4e 80b7
00000070: b64f 0436 977c 1db6 345b bab7 8a28 36b8
00000080: 9570 1537 076e 6c36 281a 73b6 9677 5f34
00000090: 1a17 1fb5 e48c 45b3 1dd4 d436 c763 4037
000000a0: a2ab e3b7 793f 19b7 d908 4db7 73d7 9eb7
000000b0: 12dd 1a37 3d51 89b6 9bc8 a836 3871 df36
000000c0: 65cc c036 872c fb37 6702 5437 6d29 36b8
000000d0: 7d21 94b7 f243 1ab5 dfc4 f834 b558 3c38
000000e0: afdc b837 ba12 ca36 f642 66b6 e962 50b7
000000f0: 1b3a 5d36 c4e6 5eb7 2afa 5f37 7443 34b7
00000100: e683 b9b7 7560 3e37 adab 8937 6ad5 8036
00000110: b8bc b9b6 15ca c2b6 e0d3 4d37 0477 07b6
00000120: 9fcf cf36 b007 6cb7 db28 8f37 6c7b ec36
00000130: 5704 45b7 25b3 5a36 fc4d bcb5 b13e 9bb6
00000140: 39b7 12b7 ff84 27b7 237f 7ab5 95e5 5b38
00000150: 6d87 3838 87af aab6 6c35 9a37 6527 e937
00000160: 2d56 1136 19ce 9935 dcc7 87b7 a978 a336
00000170: db7f d5b6 f3e4 8236 296b 4eb7 90ae 9137
00000180: fdfd 8537 3064 d2b5 6ed4 e836 372e a7b7

model.encoder.layers.1.0.weight f4 [100, 100]
-1.4514522e-05 1.8626457e-05 5.058172e-06 -1.3213196e-06 -2.5887607e-06 -1.3428341e-05 -3.1864063e-06 6.72124e-06
1.3716402e-05 1.4929172e-05 -1.4925542e-05 2.2383749e-05 2.9738312e-05 2.589411e-06 5.1498555e-06 1.3300415e-05
3.6831094e-05 -1.2698896e-05 -2.7405779e-06 4.7896315e-06 5.9229405e-06 3.5219348e-06 8.6411865e-06 -2.7585536e-05
-1.3669881e-05 2.0235246e-05 2.2475562e-05 9.216921e-06 1.9558704e-05 6.492089e-06 1.5065407e-05 -1.6197604e-05
-1.4303776e-05 8.168697e-06 1.2917794e-06 -1.4412657e-05 -7.405396e-07 3.003972e-06 -1.3209009e-05 -1.120141e-05
-6.8760473e-06 2.0435742e-05 -8.636562e-06 1.96842e-05 1.3971268e-05 1.6231861e-05 -6.294379e-06 -7.262363e-06
-1.9527242e-05 -5.734472e-06 -4.1608973e-06 -3.1315724e-06 -1.2751271e-05 5.475295e-07 -2.3939452e-05 2.3284816e-05
-1.129606e-05 -5.0977025e-05 1.813278e-05 2.2994855e-05 1.2413759e-05 1.97487e-05 -5.653348e-06 -2.566372e-05
-3.1904983e-05 -8.436699e-06 1.176258e-05 -8.881929e-06 4.735022e-06 -5.8358123e-06 -1.9038243e-05 -1.323031e-05
1.2905679e-05 1.0543624e-06 -1.0992439e-05 -6.382089e-06 3.6394192e-06 -3.1395455e-05 9.6798085e-06 -5.7622736e-07
-1.3598847e-06 2.3050661e-05 9.944717e-06 -4.7465064e-06 2.1056705e-06 5.5233177e-06 -2.0277126e-05 -1.2760299e-05
-1.586867e-05 2.3435272e-05 1.1657406e-05 2.608331e-06 -6.561863e-06 2.648781e-06 -1.5190516e-05 6.1170867e-06
-1.3063937e-05 -1.2425357e-06 1.599361e-05 1.7234743e-05 2.8110182e-05 -1.857114e-05 1.4562714e-05 7.313051e-06
3.4637452e-08 7.5673343e-06 -2.6972168e-07 -3.3549204e-06 -2.1541433e-05 -5.525318e-06 -6.616487e-06 -1.4093668e-05
-1.8165838e-05 -2.5742568e-06 4.0227724e-06 -2.284207e-05 -3.9140978e-05 4.4574786e-06 -8.576962e-06 -2.6071802e-05
-5.246175e-06 9.273369e-06 -3.6937538e-06 6.921632e-07 -2.8291277e-05 3.143585e-05 -5.8523483e-06 -8.500184e-06
-2.6746916e-06 1.6959026e-06 1.7018156e-05 2.9160095e-05 -1.8616727e-05 -1.0126042e-05 -3.28862e-05 1.2847171e-05
-3.271589e-06 -4.7986673e-06 -1.6190841e-05 1.0441331e-05 -1.2004331e-05 7.4504173e-06 8.592969e-07 -7.2378916e-06
-6.852309e-06 -6.6174352e-06 -8.95038e-06 -9.285473e-06 2.7201218e-06 -4.328736e-06 1.8336736e-05 -1.2275508e-06
-1.176116e-05 -1.2860679e-05 -3.0884963e-05 7.800857e-06 1.8235385e-05 3.8954386e-06 6.614675e-06 -3.160898e-05
-6.0967113e-06 -2.287947e-05 -1.9743336e-06 2.116073e-05 7.2220956e-07 -1.9475792e-05 -2.1795795e-05 -1.790473e-05
3.19744e-05 1.5330766e-05 -2.8424001e-06 8.144588e-06 5.0828153e-06 -1.5141342e-06 2.3596865e-06 -2.1859785e-05
2.4197075e-06 -8.108681e-06 -3.777239e-06 3.1338618e-06 4.002456e-06 4.993502e-06 9.73185e-06 -4.70778e-06
5.1401776e-06 1.8296116e-05 1.4729692e-05 2.8921488e-05 -1.3573208e-05 1.4635823e-05 7.937278e-06 9.934632e-06
-1.5324893e-05 1.4226564e-05 4.4378144e-06 -9.98198e-07 -7.1225872e-06 1.3316938e-05 2.0454909e-06 1.3156156e-06
1.074983e-05 1.7982264e-05 -2.3041941e-05 -1.8241304e-05 -6.9865496e-07 7.89988e-06 -2.675177e-06 1.7596454e-05
8.552145e-06 1.6752623e-05 -3.1453692e-05 2.6011367e-05 -2.3957919e-05 -1.11754825e-05 -1.5136806e-06 3.96398e-06
-1.8011366e-05 -6.7305946e-06 -1.44263795e-05 1.6983942e-05 2.5389e-05 1.0066052e-05 -1.6943393e-05 3.406873e-05
4.3924792e-06 1.7504848e-05 3.6998094e-06 3.5129317e-06 7.3214283e-06 4.8891693e-06 1.28989595e-05 1.3516549e-05
1.6105869e-05 -1.00055e-06 -1.021424e-06 1.5077267e-05 2.595786e-06 -8.440091e-06 -1.3494218e-05 1.2136916e-05
6.6194116e-06 -3.845434e-06 -2.262483e-06 6.499444e-06 4.9900854e-07 1.0211949e-05 1.3164605e-06 2.0222153e-05
1.1615333e-05 9.038825e-06 -1.2864919e-05 1.6872355e-05 1.2296341e-05 -7.0126716e-06 -5.690892e-06 -2.6426167e-06
00000000: 6683 73b7 0340 9c37 5eb9 a936 3258 b1b5
00000010: 92ba 2db6 494a 61b7 0bd6 55b6 0387 e136
00000020: 7f1f 6637 4e78 7a37 b768 7ab7 bcc4 bb37
00000030: 8a76 f937 bec5 2d36 eccc ac36 d924 5f37
00000040: 167b 1a38 580d 55b7 c5ea 37b6 9fb6 a036
00000050: acbd c636 615a 6c36 9df9 1037 7d67 e7b7
00000060: b157 65b7 dcbe a937 e789 bc37 60a2 1a37
00000070: ff11 a437 9fd6 d936 6ec1 7c37 17e0 87b7
00000080: 40fa 6fb7 490c 0937 3461 ad35 e4cd 71b7
00000090: 7ec9 46b5 d997 4936 439c 5db7 b1ed 3bb7
000000a0: ccb8 e6b6 6c6d ab37 c0e5 10b7 7f1f a537
000000b0: 2466 6a37 a829 8837 4e34 d3b6 39af f3b6
000000c0: 6fce a3b7 bd6a c0b6 d69d 8bb6 0128 52b6
000000d0: 4bee 55b7 f1f9 1235 95d1 c8b7 c353 c337
000000e0: 3584 3db7 2ad0 55b8 d91b 9837 13e5 c037
000000f0: b044 5037 03aa a537 e4b1 bdb6 6b48 d7b7
00000100: b7d1 05b8 598b 0db7 e557 4537 9803 15b7
00000110: 87e1 9e36 3fd1 c3b6 51b4 9fb7 c0f7 5db7
00000120: 7885 5837 9e83 8d35 2a6c 38b7 ba25 d6b6
00000130: bf3c 7436 9dae 03b8 7666 2237 0bae 1ab5
00000140: 4885 b6b5 eb5c c137 3cd8 2637 2e44 9fb6
00000150: 254f 0d36 f054 b936 cc18 aab7 1115 56b7
00000160: b61d 85b7 dd96 c437 2d94 4337 c90a 2f36
00000170: f92d dcb6 b6c1 3136 c5da 7eb7 6041 cd36
00000180: 2f2d 5bb7 34c5 a6b5 042a 8637 5493 9037
00000190: 28ce eb37 38c9 9bb7 6152 7437 a162 f536
000001a0: 48c4 1433 e8ea fd36 44ce 90b4 1825 61b6
000001b0: e0b3 b4b7 1f66 b9b6 3103 deb6 d873 6cb7
000001c0: d762 98b7 65c1 2cb6 5afb 8636 f99c bfb7
000001d0: 4e2b 24b8 7391 9536 c5e5 0fb7 c5b4 dab7
000001e0: 4d08 b0b6 d194 1b37 35e2 77b6 18cd 3935
000001f0: 0e53 edb7 fdd9 0338 4a5f c4b6 039c 0eb7
00000200: da7e 33b6 c59e e335 36c2 8e37 d49c f437
00000210: 1e2b 9cb7 05e3 29b7 4aef 09b8 2e8a 5737
00000220: 798d 5bb6 3d04 a1b6 91d1 87b7 2d2d 2f37
00000230: 3666 49b7 99fe f936 6faa 6635 04dd f2b6
00000240: e3ec e5b6 560b deb6 9729 16b7 cec8 1bb7
00000250: 568b 3636 8f3f 91b6 d7d1 9937 53c2 a4b5
00000260: cc51 45b7 32c4 57b7 7a8a 01b8 6de0 0237
00000270: 31f8 9837 90b5 8236 a0f3 dd36 e293 04b8
00000280: 5a92 ccb6 4aed bfb7 cb7e 04b6 5282 b137
00000290: dddd 4135 f25f a3b7 1dd6 b6b7 1d32 96b7
000002a0: 401c 0638 929a 8037 10c0 3eb6 bda4 0837
000002b0: 0d8d aa36 4139 cbb5 1b5b 1e36 885f b7b7
000002c0: 4262 2236 850a 08b7 797c 7db6 564f 5236
000002d0: d64c 8636 db8d a736 fa45 2337 86f7 9db6
000002e0: ca79 ac36 9c7a 9937 8c1f 7737 6c9c f237
000002f0: 7cb8 63b7 628c 7537 592a 0537 ebac 2637
00000300: f58d 80b7 a1ae 6e37 89e8 9436 d2f9 85b5
00000310: 8ffe eeb6 d06b 5f37 4445 0936 3594 b035
00000320: 2b5a 3437 9ed8 9637 314a c1b7 e704 99b7
00000330: 348b 3bb5 ba89 0437 3187 33b6 199c 9337
00000340: 2f7b 0f37 fc87 8c37 25ed 03b8 fc32 da37
00000350: 3df9 c8b7 557e 3bb7 ab29 cbb5 5402 8536
00000360: 1d17 97b7 5ed7 e1b6 d408 72b7 bd78 8e37
00000370: 76fa d437 5de1 2837 a921 8eb7 05e5 0e38
00000380: 1c63 9336 60d7 9237 3e4a 7836 b5bf 6b36
00000390: 97aa f536 a50d a436 9c68 5837 23c5 6237
000003a0: 171b 8737 a34a 86b5 dd17 89b5 5ef4 7c37
000003b0: 4433 2e36 ea99 0db7 3a65 62b7 a89f 4b37
000003c0: 501c de36 0708 81b6 29d5 17b6 cd15 da36
000003d0: 9bf3 0535 fd53 2b37 3db1 b035 bea2 a937
000003e0: 7adf 4237 75a5 1737 68d6 57b7 1b89 8d37
000003f0: 624c 4e37 644e ebb6 64f4 beb6 cf57 31b6

model.encoder.layers.1.0.bias f4 [100]
1.0586182e-05 -3.787413e-06 1.4308793e-06 8.039181e-06 1.1459849e-06 1.8829212e-05 8.705026e-06 8.2490815e-06
-1.4707005e-05 -2.8546501e-06 -6.0562893e-06 1.1204356e-05 -1.4795333e-05 2.949384e-06 6.5504487e-06 2.2056936e-05
5.6844833e-06 2.4758443e-05 -1.394037e-05 1.2213602e-05 1.0970637e-05 -9.237254e-06 -3.9837946e-06 -1.2054693e-05
1.181062e-05 -3.168555e-06 -2.9408557e-06 -1.0357601e-05 -1.4324213e-05 -2.4298999e-05 -1.2908844e-06 -5.010701e-07
-4.5412094e-06 -1.9934048e-06 -6.2841536e-06 -4.6098753e-06 -4.384165e-05 -1.1770542e-05 1.5994441e-05 3.7759373e-06
5.138126e-05 4.3204072e-06 2.9039049e-05 8.6738855e-06 7.2506964e-06 -6.8740187e-06 7.713007e-06 1.06850885e-05
-2.4379904e-05 1.2344629e-05 -1.5896787e-05 -1.0649262e-05 7.167045e-06 4.6115005e-05 -5.8776955e-06 -9.922863e-06
2.9550047e-06 -1.1841827e-05 7.3354176e-06 -1.1493762e-05 3.155698e-05 -6.5413747e-06 -1.4939939e-05 2.3625804e-05
-4.05072e-06 -3.7295813e-06 3.14341e-05 1.8818308e-05 8.22428e-06 4.1530322e-05 7.926603e-06 2.883112e-06
1.696003e-05 7.712191e-06 -3.4742593e-06 -3.6481727e-06 -8.621616e-06 -1.144096e-05 -2.7521975e-05 2.1881588e-05
-6.1631913e-06 -3.0515066e-05 -1.3290121e-05 -3.6343826e-07 1.245979e-05 4.2428187e-06 4.423046e-06 -1.0458106e-05
-7.980503e-06 -2.5679e-08 -3.367931e-05 -4.5761153e-06 -3.1833126e-05 9.942257e-06 -2.7406011e-05 -1.1348681e-05
-1.030757e-05 5.676673e-06 1.914822e-05 -1.535503e-05
00000000: 4e9b 3137 432b 7eb6 a30c c035 05e0 0637
00000010: becf 9935 6df3 9d37 cd0b 1237 8965 0a37
00000020: 1bbe 76b7 8492 3fb6 2137 cbb6 58fa 3b37
00000030: 7939 78b7 08ee 4536 edcb db36 e906 b937
00000040: 57bd be36 5ab0 cf37 6fe1 69b7 05e9 4c37
00000050: 870e 3837 b4f9 1ab7 89ac 85b6 833e 4ab7
00000060: 3a26 4637 5ca3 54b6 845b 45b6 8fc5 2db7
00000070: 0752 70b7 b4d5 cbb7 7342 adb5 4681 06b5
00000080: b160 98b6 6fc6 05b6 78dc d2b6 87ae 9ab6
00000090: 9de2 37b8 187a 45b7 cd2b 8637 1c66 7d36
000000a0: 3582 5738 04f8 9036 e298 f337 0e86 1137
000000b0: 024b f336 5fa7 e6b6 1d67 0137 1b44 3337
000000c0: 7283 ccb7 c71b 4f37 175a 85b7 3baa 32b7
000000d0: 737c f036 9c6b 4138 0539 c5b6 5f7a 26b7
000000e0: 984e 4636 42ac 46b7 c222 f636 55d5 40b7
000000f0: 0d5c 0438 fb7d dbb6 8da6 7ab7 0730 c637
00000100: 6beb 87b6 b849 7ab6 1cd8 0338 02dc 9d37
00000110: 03fb 0937 d830 2e38 80fc 0437 7d7b 4136
00000120: 6345 8e37 9c63 0137 5227 69b6 21d3 74b6
00000130: 8fa5 10b7 8df2 3fb7 fede e6b7 5a8e b737
00000140: 69cd ceb6 9bfa ffb7 a3f8 5eb7 931e c3b4
00000150: 640a 5137 895d 8e36 ad69 9436 3975 2fb7
00000160: 00e4 05b7 b894 dcb2 e242 0db8 888c 99b6
00000170: 8f84 05b8 abcd 2637 f6e5 e5b7 3766 3eb7
00000180: adee 2cb7 407a be36 7da0 a037 adce 80b7

model.encoder.layers.2.0.weight f4 [100, 100]
-3.582063e-05 3.7015857e-07 -2.0926134e-05 2.0403531e-06 -1.4856489e-05 7.55697e-06 9.663886e-06 -1.4001572e-05
4.8885175e-07 3.655484e-06 -1.4281063e-05 -8.416369e-06 1.690684e-05 -6.5828556e-07 -3.1674826e-05 1.3196101e-06
1.5806276e-05 -4.2604455e-08 2.9128603e-06 -5.3858747e-07 -1.754228e-05 -2.3647674e-05 2.2033671e-05 -1.4802449e-05
6.1464225e-06 -2.6506922e-07 -5.5476817e-06 1.0677649e-05 3.5389397e-07 -3.2089047e-05 -2.0396908e-06 8.075391e-06
1.930007e-05 -2.115604e-06 -1.6836013e-05 1.9104773e-06 1.3052975e-05 -1.642015e-06 2.7908234e-05 8.284321e-06
-1.540781e-05 4.107295e-06 -3.6742586e-05 -2.1605194e-06 2.0932273e-06 -6.4765945e-06 -6.9999555e-06 1.6608714e-05
1.1149728e-05 7.884248e-07 -4.16426e-06 -2.773399e-06 -1.3143426e-05 2.7513463e-06 2.780612e-05 9.365394e-06
1.109019e-05 1.712131e-08 8.022719e-06 1.9661682e-05 -6.9301973e-06 -2.4426295e-06 1.341292e-05 1.5352862e-05
-1.1908475e-05 3.0397794e-06 3.6394842e-05 -1.9405026e-05 -1.7518027e-05 2.9627008e-05 -1.319007e-05 -1.4732954e-05
1.915442e-05 1.0262839e-05 -1.5361815e-05 -1.3346692e-05 -6.9944786e-06 1.4993952e-05 -5.1233246e-06 1.2653409e-05
4.114308e-06 3.05631e-05 1.7917922e-05 -5.6832175e-07 5.250249e-07 -7.5457788e-06 -4.1505496e-05 2.150514e-05
6.9503074e-07 -1.8156263e-05 1.4372541e-06 1.0067385e-05 5.5748737e-06 -7.405626e-06 -6.9342514e-06 1.2729959e-05
-6.519592e-06 8.6929896e-07 1.6990662e-05 -6.8857657e-06 -1.6439384e-05 -1.2991846e-05 -1.3029061e-05 -1.8740075e-05
-6.050335e-07 8.698101e-07 -3.496487e-05 6.8310214e-06 -2.9258806e-06 9.542709e-06 7.1007007e-06 4.995592e-05
7.391809e-06 -4.1929443e-06 1.1897303e-05 6.249955e-06 -6.3710772e-06 7.0251413e-06 -1.6867525e-05 2.3029896e-05
-1.8823352e-05 2.0086067e-05 -2.09524e-06 -2.6872347e-05 1.3339196e-05 -1.3531914e-05 -2.4800204e-06 -6.4349338e-06
1.4650579e-05 8.583324e-06 -1.987976e-05 -8.66825e-06 6.5939907e-06 4.820911e-06 -1.6211898e-05 -1.5160892e-05
1.0631446e-05 -5.723659e-06 -2.9085946e-05 -9.594953e-07 8.870331e-06 3.0120029e-05 -8.692227e-06 -3.6980252e-06
-7.94322e-06 5.6753856e-06 1.09061275e-05 3.5626877e-06 -1.9886984e-06 -6.6139415e-07 1.6180156e-05 -3.096772e-05
5.178375e-06 -1.7447099e-05 -3.3121418e-05 2.3318942e-05 -1.9700348e-05 -2.613103e-05 -8.275952e-06 1.1145452e-05
-4.8386028e-06 -1.8866953e-06 -2.8872972e-05 1.2288376e-05 -1.0636689e-05 1.6619127e-06 2.8384613e-06 8.501224e-06
7.1137406e-06 -1.8064362e-05 8.749443e-06 -1.8702756e-05 3.572538e-06 -6.0042644e-06 5.3383833e-06 -7.781763e-06
3.911946e-06 1.2658991e-06 -4.175707e-05 -9.160197e-06 -3.0091622e-05 -6.101764e-06 2.746073e-07 1.7231217e-05
-1.2548935e-05 7.972734e-06 -1.8460959e-06 2.9314435e-06 1.2929673e-05 1.1969396e-06 -9.122948e-06 -6.946056e-06
-1.3605536e-05 4.040923e-06 -4.019113e-05 2.2421766e-05 -4.896583e-06 -6.3621496e-06 2.26948e-06 -1.9202844e-06
2.1260234e-05 -4.9809832e-06 8.102618e-06 -3.0292665e-06 1.4010527e-07 1.6219412e-05 1.9167595e-05 -6.6805314e-06
-1.1084594e-06 5.171786e-06 -1.393695e-05 -3.2806318e-05 1.8921695e-05 2.4253608e-05 -1.3486897e-06 -3.4980987e-06
1.2909872e-05 -2.7055541e-05 2.2798226e-06 -1.910766e-05 -1.9359777e-05 -7.50923e-06 -3.8081045e-05 -2.1776568e-06
1.2298839e-05 -1.1207818e-06 2.2195823e-05 -4.113007e-07 -1.1743176e-05 -1.8149074e-05 -4.105241e-06 -9.1620705e-06
-3.871297e-06 6.891304e-06 -6.724977e-06 -1.851798e-05 -2.6688228e-06 -1.5841748e-05 1.6507618e-06 -1.0108869e-05
-2.3278446e-05 1.9714666e-05 1.665264e-05 5.1732195e-06 -4.9028063e-06 -4.6352732e-05 -1.1179048e-06 -3.5769783e-06
2.40636e-05 -8.997152e-06 2.019726e-06 8.698243e-06 -8.916168e-06 1.4765244e-05 2.0267438e-05 -9.888282e-06
00000000: 1c3e 16b8 35ba c634 888a afb7 00ed 0836
00000010: 2240 79b7 e191 fd36 1322 2237 4be8 6ab7
00000020: a339 0335 bd50 7536 b398 6fb7 0834 0db7
00000030: 2ad3 8d37 0ab5 30b5 96da 04b8 751d b135
00000040: b897 8437 18fc 36b3 8f7a 4336 7393 10b5
00000050: c227 93b7 fe5e c6b7 f3d4 b837 0958 78b7
00000060: 5e3d ce36 d64e 8eb4 3926 bab6 2724 3337
00000070: d1fe bd34 5a97 06b8 9fe1 08b6 8a7b 0737
00000080: 96e6 a137 cdf9 0db6 103b 8db7 c035 0036
00000090: 1afe 5a37 3563 dcb5 7a1c ea37 e3fc 0a37
000000a0: 0540 81b7 65d1 8936 0d1c 1ab8 71fd 10b6
000000b0: 5f79 0c36 8651 d9b6 29e1 eab6 f152 8b37
000000c0: b80f 3b37 24a4 5335 b9ba 8bb6 a21e 3ab6
000000d0: 9682 5cb7 c5a3 3836 3041 e937 1020 1d37
000000e0: 0110 3a37 2912 9332 5199 0637 24ef a437
000000f0: f189 e8b6 0eec 23b6 0e08 6137 05ca 8037
00000100: 83ca 47b7 03ff 4b36 aaa6 1838 fac7 a2b7
00000110: adf3 92b7 8487 f837 eb4a 5db7 8e2d 77b7
00000120: cead a037 8f2e 2c37 3fdd 80b7 9beb 5fb7
00000130: 1db2 eab6 898e 7b37 06e9 abb6 fa49 5437
00000140: a30d 8a36 e130 0038 724e 9637 c68e 18b5
00000150: 70ef 0c35 bf31 fdb6 3016 2eb8 f065 b437
00000160: 2692 3a35 474e 98b7 ade7 c035 17e7 2837
00000170: cd0f bb36 d87d f8b6 c4ac e8b6 c292 5537
00000180: dec2 dab6 c559 6935 2b87 8e37 470c e7b6
00000190: 4fe7 89b7 8ef7 59b7 6497 5ab7 0134 9db7
000001a0: 9669 22b5 e57c 6935 3ea7 12b8 0736 e536
000001b0: 3f5a 44b6 a019 2037 8e42 ee36 c387 5138
000001c0: 2807 f836 1eb1 8cb6 879a 4737 b4b6 d136
000001d0: 23c7 d5b6 81b9 eb36 bc7e 8db7 5330 c137
000001e0: d7e6 9db7 807e a837 f39b 0cb6 ed6b e1b7
000001f0: 69cb 5f37 2107 63b7 6d6e 26b6 a9eb d7b6
00000200: c2cb 7537 1901 1037 76c3 a6b7 da6d 11b7
00000210: f341 dd36 4fc3 a136 c9fe 87b7 895b 7eb7
00000220: b65d 3237 db0d c0b6 98fd f3b7 02c8 80b5
00000230: c8d1 1437 45aa fc37 d5d4 11b7 972b 78b6
00000240: df43 05b7 316f be36 76f9 3637 8216 6f36
00000250: 9475 05b6 a98a 31b5 9fba 8737 56e3 01b8
00000260: e7c1 ad36 5c5b 92b7 daeb 0ab8 0c9d c337
00000270: 2d42 a5b7 f633 dbb7 f1d8 0ab7 5afd 3a37
00000280: 485b a2b6 5b3a fdb5 3c34 f2b7 2c2a 4e37
00000290: 3b74 32b7 e30e df35 657c 3e36 7ba0 0e37
000002a0: 91b2 ee36 ec88 97b7 92ca 1237 dde3 9cb7
000002b0: bcbf 6f36 3d78 c9b6 5d20 b336 6b8e 02b7
000002c0: 5c43 8336 f6e7 a935 5024 2fb8 bfae 19b7
000002d0: 446d fcb7 c1bd ccb6 bd6d 9334 c28b 9037
000002e0: 4489 52b7 a2c2 0537 5fc7 f7b5 d1b9 4436
000002f0: 86ec 5837 88a6 a035 c30e 19b7 2b12 e9b6
00000300: 5543 64b7 4497 8736 e692 28b8 6016 bc37
00000310: 544d a4b6 737a d5b6 5f4d 1836 3cde 00b6
00000320: 0158 b237 5222 a7b6 7bf0 0737 674a 4bb6
00000330: d86f 1634 ec0e 8837 19ca a037 5429 e0b6
00000340: 60c6 94b5 4e89 ad36 bfd2 69b7 8499 09b8
00000350: 08ba 9e37 3a74 cb37 a004 b5b5 e1c0 6ab6
00000360: 7a97 5837 55f5 e2b7 0eff 1836 6349 a0b7
00000370: ce66 a2b7 cbf7 fbb6 36b9 1fb8 dc23 12b6
00000380: 1c57 4e37 c56d 96b5 2b31 ba37 bdd0 dcb4
00000390: 8f04 45b7 d73e 98b7 c0bf 89b6 cbb6 19b7
000003a0: 30e6 81b6 da3b e736 1da7 e1b6 0f57 9bb7
000003b0: 071a 33b6 e5e3 84b7 be8f dd35 4399 29b7
000003c0: 1546 c3b7 ec60 a537 46b1 8b37 9e95 ad36
000003d0: c982 a4b6 de6a 42b8 eb0a 96b5 050c 70b6
000003e0: 30dc c937 79f2 16b7 a18a 0736 abee 1137
000003f0: a696 15b7 3db8 7737 fe03 aa37 d9e5 25b7

model.encoder.layers.2.0.bias f4 [100]
4.79222e-06 9.980905e-06 -1.7116072e-05 -3.415601e-05 1.2556585e-05 -3.7738466e-06 1.8063976e-05 4.5828154e-05
-1.50672595e-05 -1.1515593e-05 -1.29701175e-05 6.0843213e-06 3.042363e-06 1.4371348e-05 -3.243979e-05 2.9002083e-05
-3.8565277e-06 -4.60686e-05 8.844431e-06 1.9727078e-07 9.815933e-06 -2.275484e-06 -1.2040798e-05 -6.7688848e-06
4.0656023e-06 1.2319514e-06 7.2311686e-06 2.2879853e-05 -2.0935382e-05 -2.5114463e-05 3.6152087e-06 2.2686415e-06
-1.3539959e-05 4.2339463e-05 -4.293063e-06 1.1377482e-05 2.3916232e-06 -1.2878946e-05 1.5863285e-05 -7.5066605e-06
-4.4143458e-06 6.764703e-06 -3.5401524e-07 -3.7898599e-06 1.883906e-06 -1.3522605e-05 -4.7342382e-06 8.191768e-06
-1.5570058e-05 5.8954934e-06 6.618353e-06 5.6160798e-06 5.4183206e-06 -1.2632735e-05 6.546735e-06 7.518643e-06
2.5582585e-05 4.740024e-06 -3.0213557e-06 -5.977446e-06 5.251923e-06 -3.540836e-06 -4.172119e-06 2.5237944e-06
-1.3846973e-05 7.965262e-06 1.1822495e-05 -2.3006747e-05 -1.0454479e-05 3.4726704e-06 1.3627079e-05 -1.22123865e-05
1.1153082e-05 -6.7584833e-06 -1.9541754e-05 1.182618e-05 -8.194797e-06 -3.4863447e-06 1.529035e-05 1.5090212e-05
3.582091e-06 1.7403712e-05 2.9789958e-06 -2.3561812e-05 -1.5007169e-05 4.14035e-07 7.786099e-06 -7.0994793e-06
-1.5875389e-06 -6.4345286e-06 -1.6849979e-06 -1.4874096e-06 2.6075779e-05 -2.3189166e-06 1.1102033e-05 -1.5120015e-05
-5.4923606e-07 -1.1825675e-05 -3.9666816e-06 8.857023e-06
00000000: dbcc a036 a973 2737 7c94 8fb7 bd42 0fb8
00000010: 1faa 5237 3142 7db6 1888 9737 9b37 4038
00000020: 63c9 7cb7 1833 41b7 3b9a 59b7 ec27 cc36
00000030: 662b 4c36 781c 7137 f60f 08b8 8049 f337
00000040: 5267 81b6 c839 41b8 8b62 1437 61d1 5334
00000050: 1caf 2437 84b4 18b6 d502 4ab7 4720 e3b6
00000060: 426b 8836 8759 a535 44a3 f236 1cee bf37
00000070: 649e afb7 e6ac d2b7 d09c 7236 f73e 1836
00000080: ae29 63b7 a795 3138 210d 90b6 eae1 3e37
00000090: c67f 2036 a712 58b7 2512 8537 b9e1 fbb6
000000a0: f11e 94b6 5bfc e236 7c0f beb4 4c55 7eb6
000000b0: 84da fc35 25df 62b7 ccda 9eb6 606f 0937
000000c0: 729c 82b7 e7d1 c536 3813 de36 c271 bc36
000000d0: 05cf b536 2ff1 53b7 07ac db36 a748 fc36
000000e0: 2f9a d637 7f0c 9f36 7fc2 4ab6 df91 c8b6
000000f0: ad39 b036 199f 6db6 3bfe 8bb6 755e 2936
00000100: 4c50 68b7 8aa2 0537 3b59 4637 9dfe c0b7
00000110: a565 2fb7 060c 6936 dc9f 6437 cde3 4cb7
00000120: 1f1e 3b37 eec6 e2b6 99ed a3b7 0e69 4637
00000130: 637c 09b7 f2f6 69b6 c743 8037 f82b 7d37
00000140: db63 7036 30fe 9137 c2ea 4736 9ba6 c5b7
00000150: 4dc7 7bb7 8948 de34 0aa1 0237 1038 eeb6
00000160: 6c13 d5b5 2ee8 d7b6 1628 e2b5 01a3 c7b5
00000170: 4fbd da37 af9e 1bb6 de42 3a37 f8ab 7db7
00000180: 376f 13b5 e366 46b7 8919 85b6 a098 1437

model.encoder.layers.3.weight f4 [10, 100]
-8.012851e-06 -1.2592455e-05 -2.3457033e-05 -1.41152395e-05 -3.308076e-06 5.7837374e-06 -1.4228551e-05 1.149482e-05
-1.7709573e-06 1.9379358e-05 9.849476e-06 6.3449734e-06 2.4957872e-05 1.18096e-05 -2.1754201e-06 -2.8092396e-07
1.077853e-05 -5.1638904e-06 -1.1130626e-05 9.95657e-06 -2.3301029e-05 1.3925277e-05 -3.9083923e-05 -1.627982e-05
5.7775683e-06 -6.9227103e-06 9.769775e-06 1.365946e-05 -2.5173788e-06 -1.3006878e-06 1.2972885e-05 -1.1419991e-05
1.6001411e-05 -7.1213967e-06 1.7747374e-05 -2.0401985e-05 1.1560683e-06 -3.6168745e-05 2.0250327e-06 -5.999318e-06
-1.1525963e-05 -2.2411734e-06 1.8344319e-05 1.3555297e-06 2.5112079e-06 4.9897694e-06 -3.7124432e-06 1.8204946e-05
-2.7682616e-05 -1.1224572e-05 1.5570793e-05 -5.0283497e-06 2.1539336e-05 9.660416e-07 6.8192644e-06 -7.922634e-06
5.552223e-06 8.497054e-07 -3.4660745e-06 -4.2931074e-06 1.6484893e-05 1.0312797e-05 2.5710942e-06 -1.8335435e-05
1.2996676e-05 -3.497042e-05 1.1910583e-05 1.0408819e-05 5.328126e-06 -1.9814386e-05 6.4027954e-06 3.2651336e-05
1.4946164e-05 2.0599355e-05 -4.571135e-06 1.6821753e-06 -3.5180308e-06 2.0187217e-05 -3.267331e-05 2.7033637e-05
3.001096e-06 2.077582e-05 4.1885964e-06 -1.0383534e-05 3.3169872e-05 1.2856439e-05 -1.0562991e-06 -1.1852666e-05
8.340304e-06 -2.3198772e-06 -2.6169386e-05 9.057906e-06 -1.5734875e-05 1.0664661e-05 -1.9901559e-07 2.1645654e-05
1.1092931e-05 1.0680764e-05 -4.017406e-06 -5.3622366e-06 -9.110018e-06 -1.5546175e-05 -1.0395959e-05 2.159126e-06
-2.6049674e-06 -3.3581164e-06 -1.4259609e-05 1.8026176e-05 1.923371e-05 -2.1447138e-06 1.8573843e-05 3.048965e-06
5.128499e-07 -7.509558e-06 -2.1217784e-05 1.8078443e-06 -5.6934493e-07 -1.0181373e-05 -1.7360717e-05 2.0787e-05
2.8484174e-05 1.8155805e-06 2.372521e-06 4.7594567e-06 -2.730921e-05 2.3643922e-07 -2.841915e-05 -8.07177e-06
9.240347e-06 1.2724215e-05 1.1571726e-05 4.2418816e-07 4.919067e-06 8.979405e-06 -6.6180496e-06 9.3433155e-06
9.298056e-06 1.8424935e-05 2.7263166e-05 8.729793e-06 -1.7720327e-05 3.7221816e-06 1.5874633e-05 6.8006716e-06
-1.2220221e-05 5.4095535e-06 5.8738187e-06 -2.733348e-06 -8.373021e-06 -1.23081145e-05 -4.5512115e-05 -1.1868177e-05
3.8036485e-06 -2.8202467e-05 -2.6309397e-06 3.8785556e-06 -2.9177086e-06 1.0282947e-05 -1.9934887e-05 1.2046949e-05
3.413839e-06 -4.9130413e-06 -4.4470335e-06 -1.40765405e-05 1.3518782e-06 -3.2469143e-05 -2.0491249e-05 1.690983e-05
1.3321636e-05 3.3107128e-06 8.821684e-06 -7.4163454e-06 1.0852411e-05 1.8734781e-06 6.961214e-07 1.8107903e-06
-1.6968892e-05 4.7974213e-06 2.2240225e-05 3.5326528e-05 -4.2417614e-05 -5.155678e-06 -2.579776e-07 5.8045913e-07
-1.7620156e-05 2.6749538e-05 1.8580893e-05 -1.3083452e-07 -2.1726967e-06 2.350095e-05 -2.3038649e-05 9.342067e-06
-2.7598577e-05 -3.239311e-05 1.7689275e-05 5.145272e-06 1.7306182e-05 -2.2693469e-06 -7.1414297e-06 -1.2647398e-05
9.05055e-06 -1.0302362e-05 -6.1271685e-06 -1.7610872e-06 2.9153856e-05 -5.177088e-06 -4.1636576e-06 8.964151e-06
8.4709845e-06 3.8900836e-07 1.7292545e-05 -1.0399832e-05 -9.913054e-06 8.3798295e-06 -7.869735e-06 -4.9628816e-06
-1.38442165e-05 8.121339e-06 1.0357715e-05 -2.779081e-05 6.3156444e-06 -1.4728458e-05 -6.1249384e-06 -1.5513495e-05
1.706216e-05 1.6624865e-05 -5.5466085e-08 -8.04537e-06 -2.4347157e-05 -5.0596054e-06 8.790195e-06 1.8450046e-05
1.2395114e-06 -2.0100932e-05 2.6254218e-05 -6.842301e-06 -2.1565604e-05 -4.0545156e-06 -1.8903924e-05 -7.0064193e-06
8.635275e-06 8.931438e-07 -1.3049093e-05 -1.2801639e-06 -3.3203569e-06 -8.240367e-06 -1.517086e-05 9.502963e-07
1.3323459e-05 -7.5203234e-06 -1.9261486e-05 2.9847786e-06 -1.261695e-06 -1.8180237e-06 -1.9636615e-05 -1.7551221e-05
00000000: ef6e 06b7 2f44 53b7 98c5 c4b7 7ed0 6cb7
00000010: 5000 5eb6 ed11 c236 29b7 6eb7 e0d9 4037
00000020: a1b1 edb5 db90 a237 2d3f 2537 e8e6 d436
00000030: 9f5c d137 d921 4637 6ffd 11b6 e5d1 96b4
00000040: 6fd5 3437 7b45 adb6 adbd 3ab7 240b 2737
00000050: 9476 c3b7 9ca0 6937 0bee 23b8 a690 88b7
00000060: efdc c136 a149 e8b6 dde8 2337 ef2a 6537
00000070: 3df0 28b6 4b93 aeb5 1ea6 5937 7d98 3fb7
00000080: c53a 8637 55f4 eeb6 32e0 9437 ee24 abb7
00000090: 342a 9b35 e5b3 17b8 cce5 0736 c04d c9b6
000000a0: a25f 41b7 1167 16b6 20e2 9937 a5ef b535
000000b0: 3986 2836 cb6d a736 4a23 79b6 d3b6 9837
000000c0: f737 e8b7 2b51 3cb7 069e 8237 32b9 a8b6
000000d0: 5faf b437 f0a8 8135 09d1 e436 74eb 04b7
000000e0: 3b4d ba36 4f17 6435 b59a 68b6 830d 90b6
000000f0: 0a49 8a37 2005 2d37 108b 2c36 0ccf 99b7
00000100: 4c0c 5a37 34ad 12b8 91d3 4737 8aa1 2e37
00000110: 41c8 b236 1237 a6b7 98d7 d636 1bf3 0838
00000120: 49c1 7a37 c7cc ac37 c061 99b6 1ac7 e135
00000130: 4f17 6cb6 b857 a937 b30a 09b8 4bc6 e237
00000140: 7066 4936 bc47 ae37 c58b 8c36 f034 2eb7
00000150: e11f 0b38 fcb1 5737 29c6 8db5 d0da 46b7
00000160: 55ed 0b37 30af 1bb6 5486 dbb7 69f7 1737
00000170: 63fe 83b7 5fec 3237 fdb0 55b4 b093 b537
00000180: c71b 3a37 8831 3337 41cd 86b6 43ed b3b6
00000190: 3bd7 18b7 2869 82b7 4e6a 2eb7 81e5 1036
000001a0: 00d1 2eb6 005c 61b6 8e3c 6fb7 eb36 9737
000001b0: 1458 a137 e7ed 0fb6 06cf 9b37 d29c 4c36
000001c0: c7aa 0935 9dfa fbb6 d8fc b1b7 0fa5 f235
000001d0: 16d5 18b5 aad0 2ab7 dba1 91b7 be5f ae37
000001e0: 4cf1 ee37 dfae f335 9a37 1f36 6cb3 9f36
000001f0: 1516 e5b7 ebdf 7d34 a965 eeb7 fd6b 07b7
00000200: fd06 1b37 167a 5537 2f24 4237 fabb e334
00000210: 770e a536 40a6 1637 9d10 deb6 3cc1 1c37
00000220: d9fe 1b37 3f8f 9a37 34b3 e437 2d76 1237
00000230: 1da6 94b7 98ca 7936 842a 8537 5331 e436
00000240: 7305 4db7 b683 b536 b817 c536 906e 37b6
00000250: da79 0cb7 f37e 4eb7 43e4 3eb8 6f1d 47b7
00000260: 2f42 7f36 5694 ecb7 338f 30b6 8a24 8236
00000270: dacd 43b6 ec84 2c37 d839 a7b7 411d 4a37
00000280: 4f19 6536 b4da a4b6 ba37 95b6 482a 6cb7
00000290: 2e72 b535 7a2f 08b8 9fe4 abb7 95d9 8d37
000002a0: fe7f 5f37 9d2d 5e36 d800 1437 ecd9 f8b6
000002b0: c012 3637 3874 fb35 19dd 3a35 480a f335
000002c0: 6b58 8eb7 89f9 a036 8590 ba37 922b 1438
000002d0: 91e9 31b8 f0fe acb6 2c80 8ab4 d9d0 1b35
000002e0: ffce 93b7 3264 e037 2ade 9b37 857b 0cb4
000002f0: a5ce 11b6 e823 c537 1f43 c1b7 dfbb 1c37
00000300: 7e83 e7b7 d6dd 07b8 6e63 9437 8da5 ac36
00000310: be2c 9137 154b 18b6 6aa0 efb6 2930 54b7
00000320: d1d7 1737 4fd8 2cb7 fa97 cdb6 7f5e ecb5
00000330: 6e8f f437 d9b6 adb6 8cb5 8bb6 bc64 1637
00000340: 9a1e 0e37 e7d8 d034 750f 9137 f07a 2eb7
00000350: 3e50 26b7 1897 0c37 4108 04b7 d486 a6b6
00000360: 7544 68b7 e340 0837 0cc6 2d37 4f20 e9b7
00000370: f9ea d336 3f1a 77b7 d284 cdb6 fa22 82b7
00000380: b620 8f37 a075 8b37 9b39 6eb3 9afa 06b7
00000390: 1f3d ccb7 aec5 a9b6 9a79 1337 2cc5 9a37
000003a0: 4a5d a635 6c9e a8b7 813c dc37 eb96 e5b6
000003b0: c8e7 b4b7 060c 88b6 de93 9eb7 af18 ebb6
000003c0: 39e0 1037 60c0 6f35 6ded 5ab7 19d2 abb5
000003d0: 4cd3 5eb6 1b40 0ab7 5986 7eb7 dd17 7f35
000003e0: d287 5f37 1657 fcb6 ba93 a1b7 1b4e 4836
000003f0: 8357 a9b5 d202 f4b5 4fb9 a4b7 f63a 93b7

model.encoder.layers.3.bias f4 [10]
1.7427654e-05 -6.695946e-06 -7.642407e-06 -2.0123807e-06 -8.322757e-06 9.302993e-06 -6.6513276e-06 3.0398755e-06
1.3249372e-05 1.5133958e-05
00000000: 9a31 9237 bdad e0b6 e337 00b7 700c 07b6
00000010: f8a1 0bb7 0d14 1c37 782e dfb6 aa00 4c36
00000020: 9f49 5e37 dbe7 7d37

model.decoder_x.layers.0.weight f4 [10, 10]
9.335146e-06 2.865018e-06 8.888366e-06 -1.0629681e-05 -4.8613645e-05 -4.4257085e-06 5.329063e-06 -2.0443384e-05
1.27099365e-05 -1.75898e-05 9.695154e-06 1.1989536e-05 -8.892335e-06 -3.2592034e-05 -2.8323533e-05 -2.894518e-05
2.1238442e-05 -3.711973e-06 1.7330214e-05 -1.4870827e-06 -8.577668e-06 -5.241425e-07 -7.180327e-06 -6.9724297e-06
4.9026e-06 1.801495e-05 1.9202285e-05 3.8050442e-07 2.0358102e-05 9.830803e-06 -1.0941297e-05 2.856675e-05
-2.4697316e-05 -9.560524e-06 4.2135193e-06 2.1804517e-05 1.716832e-06 -1.5785668e-05 -1.8672238e-06 9.055645e-06
9.326963e-06 -5.6739163e-06 -1.9641513e-07 4.3231757e-06 -2.3587816e-05 1.5449168e-05 -2.0486188e-05 2.8090972e-05
-1.1104215e-05 7.735508e-06 3.091335e-06 1.9914896e-06 -1.3659595e-05 -2.8415133e-07 3.0735195e-05 -6.269413e-06
1.1662386e-05 -7.946334e-06 -2.4818331e-05 5.135472e-06 -1.0325505e-05 1.0052268e-05 2.5233996e-05 -5.7158063e-06
-1.9091342e-05 -3.337872e-05 -2.8975024e-05 -8.015369e-07 -1.1432968e-05 2.7827457e-07 -1.8045914e-06 -3.1072504e-05
3.709125e-06 -4.3141992e-07 1.1123028e-05 8.270831e-06 -1.265785e-05 2.9462437e-06 -1.49350535e-05 4.447734e-07
-1.8978742e-05 -1.2399624e-05 -1.5424894e-05 -1.7888256e-05 5.4793873e-06 -5.0000144e-06 -1.02762615e-05 -1.6057142e-05
-2.5792976e-06 2.8795173e-06 7.433926e-06 -2.088027e-06 -2.4317274e-05 4.5280223e-05 -2.3972257e-06 3.4892182e-06
-1.2904244e-05 2.1893109e-06 9.0324335e-07 -5.6935227e-07
00000000: 269e 1c37 a244 4036 3e1f 1537 2256 32b7
00000010: 81e6 4bb8 8c80 94b6 4dd0 b236 d57d abb7
00000020: c33c 5537 cf8d 93b7 5fa8 2237 aa26 4937
00000030: 4a30 15b7 6eb3 08b8 5398 edb7 4dcf f2b7
00000040: 3529 b237 361b 79b6 5a60 9137 c697 c7b5
00000050: cee8 0fb7 ccb2 0cb5 8aee f0b6 b7f4 e9b6
00000060: 0381 a436 cf1e 9737 9814 a137 2148 cc34
00000070: b1c6 aa37 faee 2437 8390 37b7 a1a2 ef37
00000080: 152d cfb7 2366 20b7 db61 8d36 d8e8 b637
00000090: e66d e635 776b 84b7 529d fab5 b3ed 1737
000000a0: 007b 1c37 9262 beb6 2ee6 52b4 cc0f 9136
000000b0: 73de c5b7 d698 8137 c1d9 abb7 e7a4 eb37
000000c0: 3e4c 3ab7 c1c7 0137 bb74 4f36 88a5 0536
000000d0: 842b 65b7 768d 98b4 aae9 0038 d95d d2b6
000000e0: 91a9 4337 3f51 05b7 f630 d0b7 5e51 ac36
000000f0: b53b 2db7 2aa6 2837 98ad d337 67ca bfb6
00000100: 5826 a0b7 2100 0cb8 640f f3b7 3229 57b5
00000110: 39d0 3fb7 c465 9534 4a35 f2b5 d953 02b8
00000120: 48ea 7836 e79d e7b4 0b9d 3a37 f3c2 0a37
00000130: 0d5d 54b7 15b8 4536 9191 7ab7 31c9 ee34
00000140: 8a34 9fb7 fb07 50b7 b564 81b7 bd0e 96b7
00000150: 94db b736 ccc5 a7b6 3568 2cb7 73b2 86b7
00000160: ff17 2db6 bb3d 4136 f070 f936 0820 0cb6
00000170: f3fc cbb7 45eb 3d38 06e0 20b6 5028 6a36
00000180: 4e7f 58b7 13ec 1236 6976 7235 97d5 18b5

model.decoder_x.layers.0.bias f4 [10]
9.738558e-07 2.4334951e-05 1.6534463e-05 -3.131118e-05 -1.6423392e-05 7.5801063e-06 2.551188e-06 7.493046e-06
-1.0367652e-05 8.142051e-06
00000000: 6eb5 8235 e922 cc37 7db3 8a37 2054 03b8
00000010: f7c4 89b7 9e58 fe36 1335 2b36 c66c fb36
00000020: baf0 2db7 d899 0837

model.decoder_x.layers.1.0.weight f4 [10, 10]
1.1228353e-05 7.0038577e-06 -7.830843e-06 4.4574765e-05 -2.343835e-05 -4.565222e-07 3.9254687e-06 -3.899606e-05
2.627642e-05 1.555985e-07 -9.872178e-06 8.233496e-06 1.0912769e-05 -1.8219893e-05 -6.2812633e-06 3.6522295e-06
-4.4208267e-05 2.1513672e-05 -2.3415192e-05 -4.2522015e-06 -1.6209473e-05 1.5444068e-05 -1.4311051e-06 -7.936752e-06
-7.668556e-06 -5.400241e-07 -1.829466e-05 -5.0457625e-06 -8.707261e-06 -4.0564857e-05 -1.6578502e-05 1.3256e-05
8.784843e-06 3.5460827e-05 3.139511e-06 -1.8456634e-05 -2.7257342e-06 -1.0108671e-05 1.5395815e-05 -2.595567e-06
3.812487e-05 -1.0685111e-05 -4.706434e-05 -2.1914379e-05 -1.1086504e-05 -2.7061918e-05 -8.841835e-06 -1.3839133e-05
7.281048e-06 1.0136601e-05 -1.1091141e-05 1.674692e-05 -5.710787e-07 8.878317e-06 -1.3756772e-05 8.706058e-06
5.8177948e-06 3.2110805e-05 2.639044e-05 -1.8436673e-05 1.9119602e-06 7.7409304e-08 1.5007854e-05 -1.9860452e-05
2.5114046e-05 -2.1808282e-05 1.1241948e-05 2.1598215e-05 2.018965e-05 7.30496e-06 -1.0417423e-05 1.8594954e-05
1.2101724e-05 3.0386673e-05 1.4736948e-05 2.5905269e-05 -3.5277062e-06 8.089143e-06 -2.519805e-07 -5.66015e-06
4.936536e-05 -8.594918e-06 8.813381e-06 -1.9796857e-05 2.6937166e-06 -3.4864095e-06 -3.0054494e-05 2.5221589e-06
2.2507425e-06 -2.1631471e-05 2.911643e-06 -3.2525397e-05 -3.1969208e-05 -1.5223726e-06 8.082464e-06 1.4131238e-06
-2.4518336e-06 -1.3596359e-05 1.3294475e-06 1.6816122e-05
00000000: 6961 3c37 ae02 eb36 3761 03b7 caf5 3a38
00000010: 799d c4b7 ef17 f5b4 85b7 8336 b38f 23b8
00000020: 2f6c dc37 9712 2734 afa0 25b7 9922 0a37
00000030: fc15 3737 ecd6 98b7 a4c3 d2b6 d318 7536
00000040: 446c 39b8 4278 b437 be6b c4b7 22ae 8eb6
00000050: 94f9 87b7 e28d 8137 6614 c0b5 1728 05b7
00000060: 32a8 00b7 2cf6 10b5 7c77 99b7 c54e a9b6
00000070: 6715 12b7 2f24 2ab8 1012 8bb7 1666 5e37
00000080: 9d62 1337 c6bb 1438 63b0 5236 52d3 9ab7
00000090: c2eb 36b6 6998 29b7 4326 8137 802f 2eb6
000000a0: 44e8 1f38 3444 33b7 f366 45b8 c5d4 b7b7
000000b0: 2c00 3ab7 0703 e3b7 6457 14b7 a02e 68b7
000000c0: ba4f f436 5f10 2a37 1614 3ab7 bd7b 8c37
000000d0: 3b4c 19b5 15f4 1437 e3cc 66b7 3c10 1237
000000e0: 7a36 c336 b7ae 0638 0a61 dd37 74a8 9ab7
000000f0: 3a4f 0036 373c a633 3eca 7b37 ff99 a6b7
00000100: 01ac d237 eef0 b6b7 cd9b 3c37 d02d b537
00000110: f15c a937 211d f536 7ec6 2eb7 5cfc 9b37
00000120: 8208 4b37 e2e6 fe37 b63e 7737 244f d937
00000130: 88bd 6cb6 9bb6 0737 f047 87b4 51ec bdb6
00000140: a70d 4f38 e432 10b7 2fdd 1337 6d11 a6b7
00000150: b3c5 3436 0ff8 69b6 891d fcb7 5c42 2936
00000160: 760b 1736 3b75 b5b7 a565 4336 e16b 08b8
00000170: ad16 06b8 5354 ccb5 eb99 0737 90aa bd35
00000180: 2e8a 24b6 eb1b 64b7 786f b235 5910 8d37

model.decoder_x.layers.1.0.bias f4 [10]
-9.60756e-06 -2.9430461e-05 8.335558e-07 -1.4350497e-05 9.832204e-06 2.097584e-05 9.9275585e-06 -2.5129422e-05
-3.0667547e-06 1.7574257e-05
00000000: 2830 21b7 6fe1 f6b7 85c1 5f35 eac2 70b7
00000010: fff4 2437 46f5 af37 8a8e 2637 06cd d2b7
00000020: 72ce 4db6 6e6c 9337

model.decoder_x.layers.2.0.weight f4 [10, 10]
-4.552434e-06 -8.5766835e-08 1.1994869e-05 -4.4873857e-05 1.5121622e-06 -1.4020723e-05 1.15063285e-05 2.6894659e-05
1.2206022e-05 -2.0058413e-05 -1.2786725e-05 1.6500571e-05 -7.815174e-06 1.039083e-05 -1.2244288e-05 -1.0404854e-05
-1.4413059e-05 -2.0093796e-05 2.2006647e-05 -2.173717e-05 3.9669223e-05 -6.8597756e-06 -8.998437e-06 -1.1331494e-05
1.6520791e-05 1.080234e-05 -1.1219774e-05 7.5033677e-06 -1.9777524e-06 -5.4610523e-06 -2.9944307e-05 1.2228666e-05
6.502794e-07 2.0248614e-05 8.9313835e-06 -1.619463e-06 3.818614e-06 -1.00912885e-05 1.2394836e-05 7.085947e-06
-7.648619e-06 9.83932e-06 -6.9999996e-06 -9.766444e-06 1.39287595e-05 -4.850789e-06 4.879491e-06 1.3893351e-05
1.8110306e-05 -1.8531447e-05 4.062651e-06 4.6388927e-06 5.5338814e-06 -9.296614e-06 3.6140382e-06 -1.6944055e-05
1.6737941e-07 2.5058487e-06 -7.804456e-06 -2.3813907e-05 -2.8238472e-05 7.262265e-07 1.04842875e-05 -2.0612451e-05
1.9531517e-05 2.9018169e-05 -1.4226445e-05 -3.6869603e-06 -3.5520661e-06 9.558661e-07 -5.584167e-06 -6.2450263e-06
3.6047425e-06 6.050396e-06 2.4721081e-05 -1.8447361e-06 1.3582492e-05 1.0391156e-05 2.2900553e-05 3.4154116e-06
7.2638286e-06 8.303497e-06 -5.050542e-06 -2.8194698e-05 3.491442e-05 1.9714274e-05 -1.2038935e-05 2.1451033e-05
-4.8952872e-05 6.4701153e-06 -2.9563969e-06 -3.5621588e-06 -1.6041512e-06 6.6820144e-06 -2.7261141e-05 3.3883523e-05
3.1792124e-06 -1.8212217e-05 -4.5839956e-06 1.3115323e-05
00000000: 1cc1 98b6 d12e b8b3 923d 4937 f036 3cb8
00000010: 7ff5 ca35 8c3a 6bb7 4e0b 4137 d79b e137
00000020: 77c8 4c37 1d43 a8b7 9186 56b7 b56a 8a37
00000030: eb1d 03b7 4654 2e37 d16c 4db7 8290 2eb7
00000040: 9ecf 71b7 198f a8b7 ea9a b837 3858 b6b7
00000050: 8162 2638 062d e6b6 fef7 16b7 651c 3eb7
00000060: 2196 8a37 b23b 3537 903c 3cb7 70c5 fb36
00000070: 87b9 04b6 153e b7b6 e930 fbb7 b829 4d37
00000080: dc8e 2e35 91db a937 00d8 1537 535c d9b5
00000090: a521 8036 c14d 29b7 6af3 4f37 d2c3 ed36
000000a0: 9252 00b7 8f13 2537 8ae1 eab6 8fda 23b7
000000b0: 91af 6937 f6c3 a2b6 82ba a336 7d17 6937
000000c0: 96eb 9737 fb73 9bb7 e851 8836 c9a7 9b36
000000d0: aeaf b936 a7f8 1bb7 b488 7236 1523 8eb7
000000e0: e7b8 3334 272a 2836 e2ef 02b7 fac3 c7b7
000000f0: a8e1 ecb7 e8f1 4235 ace5 2f37 e7e8 acb7
00000100: 9dd7 a337 0b6c f337 1eae 6eb7 7f6d 77b6
00000110: 0860 6eb6 4f4b 8035 a15f bbb6 5e8c d1b6
00000120: 01e9 7136 8204 cb36 1e60 cf37 a698 f7b5
00000130: 5ce0 6337 ad55 2e37 901a c037 5334 6536
00000140: d0bb f336 404f 0b37 d377 a9b6 a783 ecb7
00000150: 1371 1238 1560 a537 d5fa 49b7 bef1 b337
00000160: bf52 4db8 de19 d936 8366 46b6 6c0d 6fb6
00000170: 374e d7b5 1136 e036 dbae e4b7 281e 0e38
00000180: 745a 5536 70c6 98b7 39d0 99b6 e209 5c37

model.decoder_x.layers.2.0.bias f4 [10]
3.7212935e-06 -2.0044092e-06 -1.8265788e-05 -9.142049e-06 -5.74339e-07 -1.09827315e-05 -1.7690998e-05 -2.3918465e-05
-1.00830675e-05 -1.4797321e-05
00000000: 56bb 7936 7d83 06b6 7b39 99b7 cd60 19b7
00000010: 472c 1ab5 7942 38b7 2167 94b7 83a4 c8b7
00000020: 722a 29b7 0242 78b7
