logs/l1_coef-0.1/version_1/checkpoints/epoch=2019-step=2020.ckpt (torch, 518107 bytes, 30 tensors)

model.pi f4 [100, 1]
0.5590863 0.51068133 0.5420838 0.5528768 0.39190108 0.5530531 0.5159638 0.5689101
0.48241776 0.57728314 0.64671963 0.5844155 0.5134427 0.6090097 0.37496573 0.60047346
0.49028435 0.5377201 0.6155481 0.607764 0.4055919 0.3948784 0.37394872 0.38342664
0.38629514 0.38467154 0.37661296 0.4148892 0.3919449 0.4202058 0.36369225 0.3390731
0.42890674 0.36446032 0.37979332 0.32415 0.45975822 0.39042267 0.3785229 0.3326917
0.392606 0.34701037 0.3779962 0.3198427 0.3190763 0.3787337 0.3342562 0.47637618
0.32284617 0.46460417 0.3538877 0.5201876 0.39221868 0.45862448 0.3447024 0.37735307
0.32348123 0.34539667 0.32722536 0.33186767 0.40187132 0.5465492 0.5310406 0.5124054
0.3250181 0.35828048 0.3175053 0.3239917 0.3510343 0.31200588 0.3430722 0.33634946
0.3318277 0.47819567 0.3405646 0.4028472 0.39456838 0.36345503 0.39220122 0.37578744
0.38544568 0.4109368 0.33608413 0.39329425 0.4838121 0.46406105 0.38988572 0.34401643
0.41396686 0.35136262 0.5271433 0.49175557 0.4988018 0.54933894 0.5618031 0.53370935
0.5071545 0.56238174 0.52573824 0.47001714
00000000: 4820 0f3f 03bc 023f 01c6 0a3f 5589 0d3f
00000010: 42a7 c83e e394 0d3f 3416 043f 18a4 113f
00000020: 76ff f63e d4c8 133f 6b8f 253f 419c 153f
00000030: fb70 033f 0fe8 1b3f 82fb bf3e a1b8 193f
00000040: 8d06 fb3e 06a8 093f 8f94 1d3f 6c96 1b3f
00000050: bea9 cf3e 802d ca3e 3576 bf3e 7f50 c43e
00000060: 7ac8 c53e abf3 c43e 6ad3 c03e 5b6c d43e
00000070: 00ad c83e 3725 d73e df35 ba3e fd9a ad3e
00000080: aa99 db3e 8b9a ba3e 4574 c23e fdf6 a53e
00000090: 6e65 eb3e 7be5 c73e c1cd c13e 9156 aa3e
000000a0: a703 c93e 58ab b13e b888 c13e 6cc2 a33e
000000b0: f85d a33e 62e9 c13e a123 ab3e 94e7 f33e
000000c0: 184c a53e 99e0 ed3e c530 b53e 042b 053f
000000d0: e3d0 c83e d4d0 ea3e d57c b03e 6c34 c13e
000000e0: 559f a53e d5d7 b03e 158a a73e 8fea a93e
000000f0: 14c2 cd3e a6ea 0b3f 47f2 073f 002d 033f
00000100: c668 a63e 8a70 b73e 0e90 a23e 3de2 a53e
00000110: c5ba b33e 3cbf 9f3e 29a7 af3e ff35 ac3e
00000120: 52e5 a93e 10d6 f43e 7c5e ae3e fd41 ce3e
00000130: de04 ca3e c716 ba3e 99ce c83e 3667 c03e
00000140: 2359 c53e 4f66 d23e 3813 ac3e dd5d c93e
00000150: 38b6 f73e 6999 ed3e 1a9f c73e ec22 b03e
00000160: 77f3 d33e cde5 b33e ddf2 063f 63c7 fb3e
00000170: f362 ff3e 7aa1 0c3f 54d2 0f3f 2da1 083f
00000180: e1d4 013f 40f8 0f3f c896 063f 16a6 f03e

model.encoder.layers.0.weight f4 [100, 100]
0.041549608 0.024281718 0.029153159 0.03550123 0.004134619 0.033342 0.029195907 0.034186184
0.014131171 0.04575516 -0.08078307 -0.05730964 -0.05078814 -0.06066998 -0.023694497 -0.059475914
-0.03958814 -0.04762485 -0.07070984 -0.06627648 -0.01803067 -0.021032536 -0.009733599 -0.007462348
-0.012355689 0.010975797 -0.007258951 -0.017317913 -0.01769309 0.015912374 0.0055085383 -0.005332364
0.014655193 0.007058175 0.009072757 0.0017474096 0.020416459 0.010347032 -0.010327972 -0.004549541
0.009060684 0.0034911986 0.0073996517 -0.000540123 0.00020611448 0.0077325543 -0.0018445706 0.022116441
-0.0021558683 0.019818217 -0.006963844 -0.0424793 -0.013745122 0.017234495 -0.007241612 0.011411393
-0.0017779302 -0.005535415 0.0034110467 0.001234428 0.01418447 0.02681572 0.022925235 0.024345145
0.0041883085 0.008791686 0.00016603753 -0.0020075906 0.010410009 0.0019570761 0.004999378 0.004581553
-0.0026719526 0.020749824 0.0050191856 0.011309093 -0.010668519 -0.0056487177 0.009969741 0.00849967
-0.008967891 -0.01220241 -0.004589636 0.010640612 -0.02187915 -0.01921145 -0.009745872 0.0024851507
-0.012273844 -0.005791062 0.022110974 0.0160123 0.01653146 0.026134681 0.031582795 0.02287752
0.01900708 0.03215012 0.02177051 0.010975102 0.041658767 0.024222055 0.029108457 0.035532087
0.0040902803 0.033316787 0.029244862 0.034122005 0.01420224 0.045814417 -0.080794655 -0.05736161
-0.05085973 -0.060709134 -0.023789378 -0.059516232 -0.03967213 -0.047710583 -0.07072426 -0.066304915
-0.018115425 -0.021116978 -0.009844248 -0.007575446 -0.012462088 0.010816556 -0.007378114 -0.017409276
-0.017779408 0.015761686 0.0054096086 -0.0054183076 0.014543316 0.0069523077 0.008961402 0.001640747
0.02029161 0.010246959 -0.010407701 -0.004636652 0.008938781 0.0033822798 0.0072820047 -0.00064840616
8.8009576e-05 0.0076150447 -0.0019448145 0.02196972 -0.0022586277 0.019685619 -0.007087009 -0.04251755
-0.013845093 0.017062739 -0.0073721996 0.011261725 -0.0019164166 -0.0056632855 0.0032656526 0.001095535
0.014026491 0.026641272 0.0227459 0.024177646 0.004035626 0.0086417785 1.979218e-05 -0.0021497593
0.010270404 0.0018269997 0.0048456895 0.0044291317 -0.0028103841 0.020586673 0.0048668417 0.011159141
-0.010790696 -0.0057840203 0.009819187 0.008341128 -0.00905979 -0.012280279 -0.0046960167 0.010535083
-0.021942882 -0.019281713 -0.009814386 0.0023813758 -0.01236926 -0.0058877966 0.021976832 0.015878221
0.016418174 0.025994208 0.031429578 0.022740033 0.018885909 0.032007676 0.02163713 0.010850297
-0.041130718 -0.02449518 -0.02929266 -0.035351407 -0.004287138 -0.03342347 -0.029017175 -0.034402832
-0.013857035 -0.04552499 0.0807128 0.05711377 0.05052601 0.060518995 0.023347521 0.059320588
0.039267693 0.04732343 0.07063798 0.06614554 0.017694158 0.020719653 0.009307949 0.0070426865
0.011933868 -0.011575036 0.0068103937 0.016964398 0.01736049 -0.01646417 -0.005882873 0.0049987445
-0.015070027 -0.007453761 -0.0094972905 -0.0021468278 -0.020865042 -0.0107161 0.010022784 0.004204191
-0.009487469 -0.003899316 -0.007820796 0.00013717165 -0.0006243613 -0.008151885 0.0014856906 -0.0226445
0.0017761127 -0.020283444 0.0065086945 0.042320695 0.013364914 -0.017863411 0.0067635844 -0.011977111
00000000: ec2f 2a3d 74ea c63c 9bd2 ee3c bd69 113d
00000010: b37b 873b 9f91 083d 412c ef3c d006 0c3d
00000020: 6d86 673c c369 3b3d 9871 a5bd 83bd 6abd
00000030: 3a07 50bd 1681 78bd f61a c2bc 049d 73bd
00000040: 2c27 22bd 4612 43bd 52d0 90bd f7bb 87bd
00000050: 0eb5 93bc 6d4c acbc ac79 1fbc b686 f4bb
00000060: 846f 4abc d4d3 333c 7fdc edbb 4cde 8dbc
00000070: 19f1 90bc ab5a 823c f880 b43b 1cbb aebb
00000080: 561c 703c 4348 e73b e7a5 143c 5609 e53a
00000090: 6b40 a73c 9986 293c a736 29bc 5114 95bb
000000a0: 4373 143c 98cc 643b c778 f23b 0a97 0dba
000000b0: 6f20 5839 5e61 fd3b 85c5 f1ba 8a2d b53c
000000c0: 7849 0dbb d059 a23c f530 e4bb c6fe 2dbd
000000d0: 3833 61bc 5b2f 8d3c 0b4b edbb daf6 3a3c
000000e0: 7009 e9ba 6d62 b5bb de8b 5f3b 88cc a13a
000000f0: fb65 683c a4ac db3c b4cd bb3c 786f c73c
00000100: 143e 893b 010b 103c 5c1a 2e39 c891 03bb
00000110: be8e 2a3c 4a42 003b d3d1 a33b da20 963b
00000120: ed1b 2fbb 89fb a93c fb77 a43b c649 393c
00000130: 03cb 2ebc e118 b9bb 2058 233c 3342 0b3c
00000140: 10ee 12bc 9eec 47bc a864 96bb f655 2e3c
00000150: e73b b3bc 5561 9dbc 26ad 1fbc e9dd 223b
00000160: 3c18 49bc f3c2 bdbb 1322 b53c 3a2c 833c
00000170: fc6c 873c 6618 d63c f65c 013d a369 bb3c
00000180: bcb4 9b3c d8af 033d 1258 b23c ead0 333c
00000190: 62a2 2a3d 556d c63c dc74 ee3c 188a 113d
000001a0: c207 863b 2f77 083d ec92 ef3c 84c3 0b3d
000001b0: 83b0 683c e6a7 3b3d ab77 a5bd 02f4 6abd
000001c0: 4b52 50bd 24aa 78bd f1e1 c2bc 4bc7 73bd
000001d0: 3e7f 22bd 2c6c 43bd e1d7 90bd dfca 87bd
000001e0: cd66 94bc 83fd acbc c549 21bc 723b f8bb
000001f0: c92d 4cbc ed37 313c 1bc4 f1bb e69d 8ebc
00000200: 1fa6 91bc a71e 813c 1643 b13b 0f8c b1bb
00000210: 1747 6e3c 2fd0 e33b d8d2 123c 550e d73a
00000220: 973a a63c dce2 273c 1085 2abc 0eef 97bb
00000230: f773 123c 3da9 5d3b e29d ee3b cdf9 29ba
00000240: c891 b838 a087 f93b 25e9 feba d8f9 b33c
00000250: 7c05 14bb bc43 a13c 243a e8bb e226 2ebd
00000260: 87d6 62bc 28c7 8b3c 7e92 f1bb 1983 383c
00000270: 4530 fbba 1593 b9bb 8f04 563b 0e98 8f3a
00000280: 5ecf 653c cc3e da3c 9c55 ba3c 3310 c63c
00000290: 493d 843b 3f96 0d3c 6207 a637 fae2 0cbb
000002a0: 3245 283c f077 ef3a 97c8 9e3b 4022 913b
000002b0: 6c2e 38bb 62a5 a83c 077a 9f3b d4d4 363c
000002c0: 76cb 30bc e187 bdbb a8e0 203c 3aa9 083c
000002d0: 836f 14bc 3933 49bc 0be1 99bb 579b 2c3c
000002e0: 8fc1 b3bc aff4 9dbc 85cc 20bc db10 1c3b
000002f0: 70a8 4abc 6bee c0bb c208 b43c 0b13 823c
00000300: 687f 863c cef1 d43c 4dbc 003d 4e49 ba3c
00000310: 9fb6 9a3c 7b1a 033d 5a40 b13c 72c5 313c
00000320: af78 28bd 1eaa c8bc 29f7 efbc a3cc 10bd
00000330: 1f7b 8cbb 0ce7 08bd 6db5 edbc fce9 0cbd
00000340: 9e08 63bc 6978 3abd c14c a53d 21f0 693d
00000350: 5df4 4e3d c4e2 773d 4d43 bf3c 25fa 723d
00000360: 29d7 203d 37d6 413d a5aa 903d 5077 873d
00000370: 57f3 903c 43bc a93c 5e80 183c 56c6 e63b
00000380: 4586 433c 38a5 3dbc b929 df3b ecf8 8a3c
00000390: 9637 8e3c dedf 86bc 1ec5 c0bb 82cc a33b
000003a0: 46e8 76bc ae3e f4bb 869a 1bbc cbb1 0cbb
000003b0: 2aed aabc 9592 2fbc 9a36 243c 4fc3 893b
000003c0: 5471 1bbc ab8b 7fbb cc22 00bc bcd5 0f39
000003d0: 2dac 23ba 7c8f 05bc 81bb c23a f580 b9bc
000003e0: 74cc e83a 7729 a6bc e346 d53b 7758 2d3d
000003f0: 83f8 5a3c 4a56 92bc 0fa1 dd3b a53b 44bc

model.encoder.layers.0.bias f4 [100]
-0.008997505 -0.009141671 0.008473354 -0.0087096905 0.008864798 -0.008419736 0.008788118 0.007851375
-0.00869292 -0.008641135 0.007644252 -0.008424298 -0.008506445 -0.009020802 0.008920397 -0.008580316
0.009026267 0.008752214 0.008255483 0.008441279 0.008203849 -0.009125736 0.008083664 -0.00808567
-0.007649608 0.008539393 0.008829587 0.008418158 -0.008649443 -0.008672016 -0.008745198 0.009001839
0.008648867 -0.008625698 -0.008536317 0.008740397 0.008960231 -0.00878146 -0.00873968 -0.0084541375
0.009011929 -0.007930478 0.008817286 0.008874983 0.008710009 0.009107735 -0.008680668 0.00878802
-0.008773156 -0.008738563 -0.008633665 0.008340222 -0.008867984 0.0086261965 -0.008958049 -0.009024694
-0.009059462 0.0089310575 0.00872436 0.008651025 0.008650328 0.008647842 -0.008694682 0.008340158
0.008210007 0.009029272 0.008342959 0.008498454 0.008106764 0.008680417 -0.008989226 0.008850841
-0.008462162 -0.008920021 0.008773351 0.00846732 0.008774783 -0.008712821 0.008973342 -0.008448365
0.008744919 -0.008690145 0.008983249 0.00868947 -0.008755803 -0.009015705 -0.0084954705 0.008782452
0.008670311 -0.009036275 0.008619091 0.009172975 -0.0088844 -0.009107715 -0.008626412 -0.008937493
-0.008823761 0.0089620715 -0.008911601 0.008158219
00000000: 456a 13bc f2c6 15bc d3d3 0a3c 17b3 0ebc
00000010: a83d 113c eff2 09bc 0afc 0f3c 0ea3 003c
00000020: c06c 0ebc 8c93 0dbc a27c fa3b 1106 0abc
00000030: 9e5e 0bbc fccb 13bc db26 123c 7494 0cbc
00000040: e8e2 133c 7265 0f3c 0142 073c 4a4d 0a3c
00000050: 7069 063c 1c84 15bc 5871 043c c279 04bc
00000060: 90a9 fabb cfe8 0b3c f9a9 103c 50ec 093c
00000070: 65b6 0dbc 1215 0ebc 0548 0fbc 737c 133c
00000080: fab3 0d3c cd52 0dbc e9db 0bbc e233 0f3c
00000090: efcd 123c 1de0 0fbc e030 0fbc 3983 0abc
000000a0: c5a6 133c d6ee 01bc 6176 103c 6068 113c
000000b0: 6db4 0e3c 9c38 153c 5c39 0ebc a1fb 0f3c
000000c0: 49bd 0fbc 312c 0fbc 3774 0dbc 6da5 083c
000000d0: 054b 11bc e454 0d3c c8c4 12bc 4fdc 13bc
000000e0: 236e 14bc 9253 123c 9ef0 0e3c 07bd 0d3c
000000f0: 1bba 0d3c aeaf 0d3c 2474 0ebc 28a5 083c
00000100: 4483 063c 83ef 133c e8b0 083c 193d 0b3c
00000110: 3cd2 043c 4f38 0e3c 8c47 13bc 1e03 113c
00000120: e1a4 0abc 4825 12bc 1abe 0f3c 84ba 0a3c
00000130: 1cc4 0f3c 38c0 0ebc ed04 133c 036b 0abc
00000140: d946 0f3c 1c61 0ebc 7a2e 133c 475e 0e3c
00000150: 8074 0fbc 9cb6 13bc 9630 0bbc 46e4 0f3c
00000160: ec0d 0e3c e20c 14bc 1637 0d3c 3f4a 163c
00000170: e08f 11bc 8738 15bc cb55 0dbc 906e 12bc
00000180: 8991 10bc a7d5 123c f701 12bc 0daa 053c

model.encoder.layers.1.0.weight f4 [100, 100]
-0.07270518 -0.07136219 0.07731663 -0.07541251 0.07395676 -0.07764725 0.07470692 0.077393174
-0.075600706 -0.076041274 0.0761787 -0.07760582 -0.07711676 -0.07249319 0.073456064 -0.0765158
0.072436005 0.07507071 0.078243695 0.0775297 0.07830764 -0.0714811 0.07823307 -0.07824831
-0.07622772 0.07686875 0.074310705 0.07765468 -0.07596709 -0.075794525 -0.07514599 0.072675884
0.07599064 -0.07618889 -0.07688299 0.07518414 0.07307969 -0.07475105 -0.07517677 -0.07744395
0.072544225 -0.07777125 0.07447909 0.07391988 0.075404435 0.07166891 -0.07570678 0.074710086
-0.07484427 -0.07519253 -0.07612222 0.077988796 -0.07394705 0.07618578 -0.07306902 -0.07246579
-0.07211955 0.07335754 0.07531483 0.075956866 0.075959876 0.07598575 -0.07557009 0.07801174
0.07832341 0.0724125 0.078011826 0.07716985 0.0782952 0.07570386 -0.07280061 0.074118994
-0.07739192 -0.07347862 0.07484058 0.07735513 0.074809 -0.07539037 0.072913826 -0.07747937
0.07513567 -0.075616665 0.07283665 0.07566371 -0.07502964 -0.072577655 -0.077176526 0.07476068
0.075780354 -0.07229994 0.07625141 0.07103405 -0.07378802 -0.07164873 -0.07618154 -0.07329622
-0.074374154 0.07302216 -0.07353186 0.07833437 -0.07291447 -0.0715706 0.07751365 -0.075619236
0.07416659 -0.07783916 0.07491664 0.07752421 -0.07580962 -0.07624791 0.076290324 -0.0777991
-0.07731647 -0.07270283 0.07366758 -0.07671969 0.07264407 0.07528043 0.07841888 0.07772281
0.07847773 -0.07168928 0.07839053 -0.07840557 -0.07634106 0.07706936 0.074520886 0.07784622
-0.076172054 -0.07600246 -0.075354226 0.07288761 0.0761972 -0.07639382 -0.07708519 0.0753948
0.073291115 -0.0749622 -0.07538526 -0.077638574 0.07275335 -0.077910945 0.07468921 0.07413035
0.07561246 0.07187842 -0.07591429 0.074919425 -0.07505502 -0.07540144 -0.076327264 0.07817569
-0.07415715 0.076391965 -0.07328044 -0.07267637 -0.07232811 0.07356857 0.07552389 0.076163344
0.0761664 0.07619115 -0.07577892 0.078199014 0.07849552 0.07262247 0.07819731 0.07736882
0.07845616 0.07591211 -0.07301045 0.07432954 -0.07758811 -0.07368997 0.07505113 0.07755153
0.07501807 -0.0755981 0.07312274 -0.07767375 0.07534473 -0.07582317 0.073049024 0.07587227
-0.075239 -0.072788715 -0.07737303 0.07497029 0.07598741 -0.07250992 0.07645593 0.07124308
-0.07399738 -0.07185585 -0.076385535 -0.073509015 -0.07458456 0.07323233 -0.073743954 0.07850049
-5.66878e-40 -6.02166e-40 7.48334e-40 6.76868e-40 5.47469e-40 9.5136e-41 -6.82533e-40 -7.06585e-40
-7.61508e-40 -7.07502e-40 4.95579e-40 -7.45607e-40 7.68912e-40 5.03408e-40 2.88118e-40 -7.18559e-40
6.61716e-40 5.64048e-40 7.17794e-40 -6.78946e-40 -7.51535e-40 -7.48384e-40 -3.64356e-40 -5.18066e-40
-7.65587e-40 -6.05058e-40 -6.80001e-40 -5.12018e-40 -7.1067e-41 2.9167e-41 4.17473e-40 -5.46277e-40
2.41535e-40 6.08888e-40 3.9678e-41 -7.15231e-40 -3.26214e-40 7.69443e-40 -4.67399e-40 4.33047e-40
-1.48791e-40 7.46392e-40 3.2322e-40 -1.50888e-40 -2.18118e-40 3.05675e-40 -6.04711e-40 -7.40958e-40
-4.52628e-40 -6.71459e-40 5.66541e-40 2.96675e-40 4.62707e-40 4.11818e-40 2.58388e-40 -7.08192e-40
00000000: 74e6 94bd 5726 92bd 2e58 9e3d e071 9abd
00000010: a476 973d 8505 9fbd f1ff 983d 5080 9e3d
00000020: 8bd4 9abd 87bb 9bbd 9403 9c3d cdef 9ebd
00000030: 64ef 9dbd 4f77 94bd 2270 963d 51b4 9cbd
00000040: 5459 943d acbe 993d 3b3e a03d e4c7 9e3d
00000050: c25f a03d af64 92bd a938 a03d a640 a0bd
00000060: 471d 9cbd 5d6d 9d3d 3630 983d 6b09 9f3d
00000070: a294 9bbd 293a 9bbd 24e6 99bd 18d7 943d
00000080: fba0 9b3d ec08 9cbd d474 9dbd 24fa 993d
00000090: ceaa 953d 1417 99bd 47f6 99bd ef9a 9ebd
000000a0: 1192 943d 8846 9fbd 7e88 983d 4e63 973d
000000b0: a46d 9a3d 26c7 923d 280c 9bbd 9a01 993d
000000c0: f447 99bd 8bfe 99bd f7e5 9bbd 97b8 9f3d
000000d0: 8d71 97bd 4a07 9c3d 36a5 95bd f268 94bd
000000e0: 6ab3 93bd 7a3c 963d a93e 9a3d 468f 9b3d
000000f0: da90 9b3d 6b9e 9b3d 7ec4 9abd 9fc4 9f3d
00000100: 0668 a03d 014d 943d aac4 9f3d 3a0b 9e3d
00000110: 3c59 a03d a00a 9b3d 7c18 95bd b3cb 973d
00000120: a87f 9ebd f57b 96bd 0546 993d 5e6c 9e3d
00000130: 7635 993d 4466 9abd d853 953d 81ad 9ebd
00000140: bbe0 993d e9dc 9abd 622b 953d 93f5 9a3d
00000150: 24a9 99bd 98a3 94bd ba0e 9ebd 211c 993d
00000160: bb32 9b3d fe11 94bd b329 9c3d 4d7a 913d
00000170: 2c1e 97bd 92bc 92bd 1105 9cbd 541c 96bd
00000180: 7a51 98bd a48c 953d df97 96bd c56d a03d
00000190: 2f54 95bd 9b93 92bd 7abf 9e3d 42de 9abd
000001a0: a7e4 973d 236a 9fbd e56d 993d 03c5 9e3d
000001b0: 1342 9bbd dd27 9cbd 1a3e 9c3d 2255 9fbd
000001c0: 1958 9ebd 39e5 94bd 07df 963d 361f 9dbd
000001d0: 6ac6 943d a02c 9a3d 149a a03d 232d 9f3d
000001e0: efb8 a03d d4d1 92bd 378b a03d 1993 a0bd
000001f0: b458 9cbd 8ad6 9d3d 689e 983d d76d 9f3d
00000200: 1800 9cbd 2ea7 9bbd 5153 9abd 1946 953d
00000210: 470d 9c3d 5d74 9cbd d7de 9dbd 9768 9a3d
00000220: a719 963d c885 99bd 9663 9abd f900 9fbd
00000230: b5ff 943d c68f 9fbd a8f6 983d a7d1 973d
00000240: b5da 9a3d fe34 933d f478 9bbd 5b6f 993d
00000250: 72b6 99bd 126c 9abd 7851 9cbd 931a a03d
00000260: b4df 97bd 6473 9c3d 0e14 96bd 59d7 94bd
00000270: c320 94bd 1eab 963d 45ac 9a3d 87fb 9b3d
00000280: 21fd 9b3d 1b0a 9c3d fa31 9bbd ce26 a03d
00000290: 42c2 a03d 17bb 943d e925 a03d 8b73 9e3d
000002a0: a0ad a03d cf77 9b3d 8186 95bd 163a 983d
000002b0: 84e6 9ebd c4ea 96bd 68b4 993d 56d3 9e3d
000002c0: 13a3 993d 2dd3 9abd 60c1 953d 6a13 9fbd
000002d0: 564e 9a3d 2e49 9bbd ba9a 953d ec62 9b3d
000002e0: e816 9abd 4012 95bd c075 9ebd 068a 993d
000002f0: 4a9f 9b3d 1580 94bd ed94 9c3d e4e7 913d
00000300: f08b 97bd 2929 93bd 0570 9cbd e58b 96bd
00000310: cabf 98bd d5fa 953d 1207 97bd ddc4 a03d
00000320: 3a2c 0680 988e 0680 0d26 0800 d55e 0700
00000330: 1ff6 0500 3309 0100 a06e 0780 acb1 0780
00000340: c64a 0880 3ab4 0780 7965 0500 731e 0880
00000350: 6a5f 0800 4c7b 0500 2823 0300 0dd3 0780
00000360: 9834 0700 5624 0600 ebd0 0700 a064 0780
00000370: f92e 0880 3126 0880 adf7 0380 28a4 0580
00000380: 2556 0880 a896 0680 9167 0780 4c93 0580
00000390: 1bc6 0080 4e51 0000 bf8b 0400 ccf2 0580
000003a0: 4da1 0200 55a1 0600 9b6e 0000 c6c9 0780
000003b0: 5a8d 0380 e560 0800 eb16 0580 29b7 0400
000003c0: c59e 0180 a320 0800 0185 0300 9da4 0180
000003d0: 0660 0280 1954 0300 b095 0680 7d11 0880
000003e0: beed 0480 c14f 0780 492b 0600 023b 0300
000003f0: d709 0500 fb7b 0400 48d0 0200 27b6 0780

model.encoder.layers.1.0.bias f4 [100]
0.015297089 0.014851525 -3.69175e-40 0.013833276 0.015589053 0.01136669 0.01532164 0.010281064
0.014997515 0.01340987 3.7576e-40 0.01589871 0.01342941 0.015750272 0.015667198 0.015615988
-6.44394e-40 0.015828585 0.014988883 0.015391795 0.013856491 0.014809281 0.014888313 0.014904719
0.015229621 0.014789347 0.012961115 0.014815518 0.0130134495 0.014273467 0.012262558 0.014302869
0.013449048 0.012881473 -1.61041e-40 0.014285569 0.015010114 0.01493369 0.015566381 0.015080167
0.016042769 0.015337379 0.01570983 -7.08962e-40 0.015363818 0.014417026 0.013862998 0.01387067
6.9273e-40 0.015302242 0.014925089 0.014892899 0.014019533 0.015967717 0.013445194 0.014408914
0.015519987 0.014818631 0.01386707 0.013095395 0.01571213 0.014246044 0.014969036 0.015673175
0.014809758 0.014415988 0.015884358 0.015585935 0.015226588 0.015564996 0.015411091 0.014902214
0.015811358 0.0153123075 0.013308484 0.014265937 0.013479359 0.014289412 0.015002309 0.015470945
0.014970508 0.014839898 0.015024004 0.013418245 0.01533632 0.015076946 0.015277681 0.014796875
0.014295385 0.012647932 0.0148702115 0.014837003 0.0149894925 0.015568027 0.01505883 0.013031278
0.012967089 0.015169906 0.013847714 0.015084252
00000000: a4a0 7a3c d053 733c 1c05 0480 f7a4 623c
00000010: 3a69 7f3c 5a3b 3a3c 9e07 7b3c e871 283c
00000020: 23b8 753c 12b5 5b3c 7717 0400 033e 823c
00000030: 0707 5c3c b706 813c 7f58 803c 33da 7f3c
00000040: 4f04 0780 f3aa 813c ef93 753c de2d 7c3c
00000050: 5606 633c a0a2 723c 1cee 733c ec32 743c
00000060: a985 793c 044f 723c db5a 543c c9bc 723c
00000070: 5d36 553c 42db 693c e5e8 483c 9556 6a3c
00000080: 6559 5c3c d00c 533c ebc0 0180 050e 6a3c
00000090: fbec 753c 70ac 743c 220a 7f3c ce12 773c
000000a0: 206c 833c a149 7b3c e7b1 803c 4cb8 0780
000000b0: 86b8 7b3c 6435 6c3c a121 633c cf41 633c
000000c0: 0d8b 0700 41b6 7a3c 5c88 743c 5901 743c
000000d0: 2fb2 653c bbce 823c 3b49 5c3c 5e13 6c3c
000000e0: 8b47 7e3c d8c9 723c b532 633c 118e 563c
000000f0: bab6 803c 3d68 693c b040 753c 0865 803c
00000100: a1a4 723c 0931 6c3c ea1f 823c 265c 7f3c
00000110: f078 793c 5304 7f3c cd7e 7c3c 6a28 743c
00000120: d286 813c 79e0 7a3c d40b 5a3c adbb 693c
00000130: 88d8 5c3c 231e 6a3c 3fcc 753c d979 7d3c
00000140: dd46 753c 0b23 733c 3d27 763c 33d8 5b3c
00000150: 3045 7b3c 4b05 773c 3d4f 7a3c 986e 723c
00000160: 3137 6a3c 4639 4f3c 30a2 733c e716 733c
00000170: 7d96 753c 0a11 7f3c 50b9 763c 2481 553c
00000180: ea73 543c 338b 783c 86e1 623c f023 773c

model.encoder.layers.2.0.weight f4 [100, 100]
0.07213987 0.072186984 7.66875e-40 0.07236717 0.07211659 0.073359706 0.07214167 0.07365332
0.07216124 0.07260738 -3.63267e-40 0.072090924 0.072616324 0.07210565 0.07211342 0.07211568
3.15851e-40 0.07209821 0.07216405 0.0721311 0.072356686 0.072178066 0.07217881 0.07217509
0.072145656 0.07219727 0.07272363 0.07219305 0.07272905 0.072206974 0.07310426 0.072223775
0.07262139 0.07276951 -3.70863e-40 0.07222485 0.07216103 0.07216855 0.07211807 0.07215617
0.072081186 0.072135985 0.07210978 4.5871e-40 0.0721321 0.07219589 0.07237063 0.07234668
4.29972e-40 0.07213997 0.072166584 0.072173014 0.07229865 0.07208934 0.07263756 0.072196454
0.07212227 0.07218733 0.072356984 0.07267957 0.07210952 0.0722194 0.0721639 0.07211092
0.07218186 0.07219685 0.07209561 0.07211632 0.07214688 0.07211562 0.07213011 0.07217294
0.07210184 0.07213832 0.07263857 0.072222374 0.072560355 0.072220564 0.072162285 0.07212402
0.07216408 0.07217657 0.07216073 0.07260387 0.07213643 0.07215675 0.07214171 0.07217734
0.07221454 0.07294908 0.07217609 0.0721904 0.072163776 0.072114915 0.072158016 0.07271213
0.07271039 0.07215081 0.072391905 0.072157286 0.07893869 0.0783421 -4.27976e-40 0.07624072
0.07914302 0.07377069 0.078916185 0.073539756 0.078678526 0.074969076 -4.50624e-40 0.07943825
0.0749431 0.07926083 0.07921037 0.079166874 7.36035e-40 0.07932508 0.07866756 0.07900478
0.07635394 0.0785387 0.078447215 0.0784649 0.07884164 0.078233935 0.07466756 0.07825058
0.07464911 0.07817006 0.074033655 0.077823624 0.07491049 0.074561454 -4.21819e-40 0.077816844
0.07869132 0.078626804 0.079131335 0.07873831 0.079548374 0.078965314 0.07923692 5.53703e-40
0.0789792 0.07828904 0.07621784 0.076429375 -6.77455e-40 0.07889471 0.07861938 0.07860383
0.076972835 0.0794207 0.07486699 0.07827746 0.07909665 0.07835572 0.07635926 0.07477924
0.079237685 0.077965416 0.07865977 0.079214066 0.07848802 0.0782887 0.07936468 0.079137735
0.078841485 0.079132885 0.079022154 0.078453615 0.07931126 0.078951634 0.07488835 0.07787406
0.07511765 0.07789012 0.078683294 0.07905918 0.07865953 0.078566715 0.07869521 0.07498981
0.07896668 0.07873813 0.078921705 0.07852842 0.0779999 0.074231364 0.078434624 0.078330524
0.07866914 0.07913342 0.078719616 0.07468738 0.07470112 0.07880152 0.076011084 0.07873964
0.07881734 0.07828054 1.94416e-40 0.07629642 0.0789939 0.07389224 0.07879517 0.07365811
0.078587756 0.075072326 5.67171e-40 0.079248525 0.07504635 0.07909351 0.0790533 0.07901694
3.43776e-40 0.079150826 0.07857671 0.0788775 0.076405466 0.07846171 0.07837936 0.078393474
0.07873154 0.078181885 0.07478073 0.07819825 0.074761614 0.07812307 0.0741567 0.07780166
0.07501685 0.07467625 4.35134e-40 0.07779476 0.07859908 0.07854196 0.078983516 0.07864156
0.07933588 0.07884199 0.079075046 7.42294e-40 0.07885255 0.07823308 0.076274686 0.076478384
-7.06386e-40 0.07877962 0.078535244 0.07851829 0.07699604 0.079228565 0.074972786 0.07822133
00000000: 11be 933d c5d6 933d bc59 0800 3d35 943d
00000010: ddb1 933d 9d3d 963d 03bf 933d 8dd7 963d
00000020: 46c9 933d 2eb3 943d a4f4 0380 68a4 933d
00000030: deb7 943d 21ac 933d 33b0 933d 63b1 933d
00000040: 7770 0300 3aa8 933d bfca 933d 78b9 933d
00000050: be2f 943d 18d2 933d 7cd2 933d 89d0 933d
00000060: 1ac1 933d 2adc 933d 20f0 943d f3d9 933d
00000070: f8f2 943d 40e1 933d b0b7 953d 0fea 933d
00000080: 86ba 943d 2e08 953d d109 0480 9fea 933d
00000090: 29c9 933d 1bcd 933d a4b2 933d 9dc6 933d
000000a0: 4d9f 933d 08bc 933d 4bae 933d b2fe 0400
000000b0: ffb9 933d 70db 933d 0e37 943d 7f2a 943d
000000c0: 96ae 0400 1fbe 933d 13cc 933d 72cf 933d
000000d0: 5111 943d 93a3 933d 00c3 943d bcdb 933d
000000e0: d7b4 933d f3d6 933d e62f 943d 07d9 943d
000000f0: 28ae 933d c4e7 933d abca 933d e4ae 933d
00000100: 15d4 933d f1db 933d dda6 933d b9b1 933d
00000110: bec1 933d 5bb1 933d f3b8 933d 68cf 933d
00000120: 21aa 933d 41bd 933d 88c3 943d 53e9 933d
00000130: 869a 943d 60e8 933d d2c9 933d c2b5 933d
00000140: c3ca 933d 4fd1 933d 01c9 933d 56b1 943d
00000150: 44bc 933d ebc6 933d 08bf 933d b7d1 933d
00000160: 37e5 933d 5466 953d 0fd1 933d 8fd8 933d
00000170: 9aca 933d fcb0 933d 95c7 933d 19ea 943d
00000180: 2fe9 943d cec3 933d 3542 943d 33c7 933d
00000190: 9caa a13d d371 a03d 06a9 0480 1824 9c3d
000001a0: bc15 a23d 1615 973d cf9e a13d 039c 963d
000001b0: 3522 a13d 6389 993d 28e8 0480 85b0 a23d
000001c0: c57b 993d 8153 a23d 0c39 a23d 3e22 a23d
000001d0: c403 0800 3075 a23d 751c a13d 42cd a13d
000001e0: 745f 9c3d e6d8 a03d efa8 a03d 35b2 a03d
000001f0: ba77 a13d 1d39 a03d 4eeb 983d d741 a03d
00000200: a2e1 983d a017 a03d f59e 973d fe61 9f3d
00000210: ac6a 993d adb3 983d dc97 0480 705e 9f3d
00000220: ea28 a13d 1707 a13d 9c0f a23d 8d41 a13d
00000230: 42ea a23d 91b8 a13d f746 a23d 8007 0600
00000240: d9bf a13d 0156 a03d 1918 9c3d 0187 9c3d
00000250: 7860 0780 8d93 a13d 3303 a13d 0bfb a03d
00000260: efa3 9d3d 52a7 a23d dd53 993d ef4f a03d
00000270: 6dfd a13d f778 a03d 3e62 9c3d dc25 993d
00000280: 5e47 a23d 55ac 9f3d 6018 a13d fc3a a23d
00000290: 54be a03d d355 a03d f389 a23d f712 a23d
000002a0: a577 a13d 6c10 a23d 5ed6 a13d 4aac a03d
000002b0: f16d a23d 65b1 a13d 105f 993d 6f7c 9f3d
000002c0: 48d7 993d db84 9f3d b524 a13d c8e9 a13d
000002d0: 3f18 a13d 96e7 a03d f42a a13d 4294 993d
000002e0: 48b9 a13d 7541 a13d b4a1 a13d 82d3 a03d
000002f0: 69be 9f3d 9d06 983d 55a2 a03d c16b a03d
00000300: 491d a13d b410 a23d c037 a13d b2f5 983d
00000310: e7fc 983d b162 a13d b3ab 9b3d 4042 a13d
00000320: fc6a a13d 8c51 a03d f41d 0200 4c41 9c3d
00000330: 8ec7 a13d d154 973d 5d5f a13d 10da 963d
00000340: 9ef2 a03d 85bf 993d 0b2d 0600 0d4d a23d
00000350: e7b1 993d c7fb a13d b2e6 a13d a2d3 a13d
00000360: 4fbe 0300 d419 a23d d3ec a03d 878a a13d
00000370: 787a 9c3d 88b0 a03d 5c85 a03d c28c a03d
00000380: 003e a13d d31d a03d a426 993d 6726 a03d
00000390: 9e1c 993d fdfe 9f3d 78df 973d 7a56 9f3d
000003a0: 6fa2 993d ddef 983d fabc 0400 dc52 9f3d
000003b0: 8ef8 a03d 9bda a03d 1cc2 a13d d40e a13d
000003c0: da7a a23d e977 a13d 19f2 a13d 3715 0800
000003d0: 727d a13d aa38 a03d e735 9c3d b3a0 9c3d
000003e0: 1eb1 0780 3657 a13d 16d7 a03d 32ce a03d
000003f0: 1ab0 9d3d 9642 a23d 558b 993d 8132 a03d

model.encoder.layers.2.0.bias f4 [100]
-0.005855044 -0.0020920436 -0.0023226517 1.3257535e-37 -3.98319e-40 -0.0066355118 -0.0021592933 -5.0415965e-05
0.00032974608 -0.0023431564 0.049852755 -6.89187e-40 -6.38611e-40 -6.92603e-40 -0.002283337 5.3969142e-36
-0.002321245 -0.0022987707 -3.2071e-40 0.00037438917 -0.0021089537 -0.0066434704 -0.0060005407 -0.0023449678
-0.0022375954 0.0021676596 1.51131e-40 -0.0020802713 -0.0023168838 0.00036405135 2.18897e-40 -0.0025651047
-0.0023397251 -0.0020497749 -0.0020703445 -0.0020830054 -6.7447e-40 -1.7721211e-05 -0.001959713 -0.0063786716
-0.0023334434 -0.0020974448 -0.0020488654 -0.002095263 -0.0021501868 -0.0023277048 -0.0016559939 -2.708346e-11
-0.0022934694 -0.0021052689 -0.0021060058 -0.0021336754 0.04743513 -0.00234822 -0.0021478285 -0.0021110699
-0.0020764028 -0.0011630984 -0.0023032525 -0.0016688462 -0.0008415491 -0.0023255697 -0.0070671444 -0.0021028616
-0.0023581896 -0.0021008046 -0.008075876 -0.0063499766 0.00051368837 -0.0021181172 -1.31816e-40 0.00049867085
-0.0021042568 -0.0064479713 -0.002298803 -0.0021216176 -0.0023456367 3.2469048e-35 -0.002085785 3.9281e-41
-0.002104292 -5.69855e-40 -0.002189557 -0.0063524023 -0.002329587 6.78266e-40 -2.1048907e-12 0.00051068136
3.9231323e-05 -8.9741816e-33 -0.00209137 -0.0023431177 -0.0020743546 -0.0023000836 -0.0019035566 -0.0023195313
-0.0018835327 -0.0064341268 -8.019301e-11 -0.0021820706
00000000: abdb bfbb ab1a 09bb a137 18bb c473 3402
00000010: 5a56 0480 b56e d9bb ee82 0dbb bb75 53b8
00000020: c5e1 ac39 a48f 19bb 6732 4c3d 2c81 0780
00000030: 30f4 0680 b28a 0780 0aa4 15bb 318f e504
00000040: 0720 18bb f9a6 16bb 027e 0380 aa49 c439
00000050: 5f36 0abb 78b1 d9bb 2fa0 c4bb 08ae 19bb
00000060: 9fa4 12bb 4b0f 0e3b 4ba5 0100 2955 08bb
00000070: dcd6 17bb 25de be39 3262 0200 511b 28bb
00000080: 1356 19bb 8455 06bb 9eae 07bb 0883 08bb
00000090: 2658 0780 03a8 94b7 876e 00bb 2d04 d1bb
000000a0: afec 18bb 4975 09bb 4246 06bb ae50 09bb
000000b0: 26ea 0cbb 688c 18bb ef0d d9ba 883a eead
000000c0: 084e 16bb 8df8 09bb ea04 0abb 22d5 0bbb
000000d0: 574b 423d 98e4 19bb 95c2 0cbb e059 0abb
000000e0: 4214 08bb 1b73 98ba 2af2 16bb 30bd daba
000000f0: 679b 5cba 9668 18bb 8193 e7bb 2ad0 09bb
00000100: db8b 1abb a7ad 09bb ae50 04bc 7713 d0bb
00000110: 0ba9 063a 1cd0 0abb 736f 0180 3cb9 023a
00000120: 92e7 09bb 8149 d3bb 84a7 16bb d60a 0bbb
00000130: 41b9 19bb 94a2 2c06 aab1 08bb 806d 0000
00000140: 29e8 09bb 8634 0680 ac7e 0fbb d027 d0bb
00000150: fcab 18bb bb62 0700 571e 14ac 3fdf 053a
00000160: 508c 2438 ef62 3a8a 5e0f 09bb fe8e 19bb
00000170: e5f1 07bb 00bd 16bb c380 f9ba 4703 18bb
00000180: dfe0 f6ba 5ed5 d2bb a758 b0ae 1201 0fbb

model.encoder.layers.3.weight f4 [10, 100]
7.40815e-40 -3.5905e-41 -7.9095e-41 6.29545e-40 7.19134e-40 -5.11611e-40 1.96124e-40 1.8599e-40
1.57034e-40 -7.1987e-40 2.41196e-40 3.53377e-40 -7.2089e-40 7.03613e-40 3.99353e-40 3.09966e-40
-5.69591e-40 2.03855e-40 5.65864e-40 -6.72543e-40 -6.45972e-40 3.52106e-40 5.39647e-40 -2.44745e-40
-3.62821e-40 7.5481e-41 8.836e-41 6.9028e-40 2.89243e-40 4.97729e-40 -4.7784e-41 5.7362e-41
1.439e-41 3.12843e-40 -6.0995e-40 -3.54199e-40 3.65115e-40 4.53504e-40 2.4088e-41 3.97851e-40
5.11079e-40 -7.09553e-40 3.58584e-40 -5.7023e-40 -6.77595e-40 -7.35357e-40 6.02977e-40 -5.37579e-40
7.08645e-40 5.27774e-40 2.5686e-41 -5.78825e-40 -7.23954e-40 2.09668e-40 -2.84267e-40 6.38632e-40
3.56811e-40 7.41218e-40 5.64294e-40 7.51851e-40 -5.9231e-40 -5.63839e-40 7.21742e-40 5.83995e-40
4.76757e-40 -5.4745e-40 -3.702e-40 4.87579e-40 -6.16853e-40 2.38605e-40 -1.90222e-40 -4.37614e-40
-2.76756e-40 -7.39654e-40 7.60902e-40 -3.30348e-40 -4.728e-40 1.28503e-40 -5.69213e-40 -3.72064e-40
4.94457e-40 -6.90522e-40 -6.59381e-40 6.74106e-40 -5.53376e-40 -1.26682e-40 -3.39989e-40 4.5494e-40
-7.53517e-40 -6.58268e-40 -2.6663e-41 -7.48492e-40 6.65528e-40 3.65021e-40 -5.77558e-40 -7.55645e-40
-4.96444e-40 -6.71979e-40 7.20957e-40 3.00552e-40 0.07341402 0.08424158 0.08470889 -0.000106211664
3.32801e-40 0.0735915 0.08426107 0.076687165 0.07684891 0.08469592 -0.048838485 5.9691e-40
-2.73305e-40 7.02221e-40 0.084744334 7.31495e-40 0.08471155 0.08472635 7.04915e-40 0.078837
0.08424607 0.0735951 0.07343569 0.08468563 0.08429538 0.07933505 6.75907e-40 0.08423379
0.08470739 0.07685746 5.37461e-40 0.072650276 0.0846966 0.08048446 0.084664844 0.08423839
3.54062e-40 1.5006338e-37 0.08218542 0.073514804 0.08470302 0.08424369 0.08035251 0.08464061
0.084260315 0.08470693 0.081003785 6.986503e-08 0.08473895 0.08424537 0.08424754 0.08425559
-0.04960325 0.0846919 0.08425686 0.08424761 0.08423087 0.07770974 0.084727734 0.08099703
0.07768221 0.08470863 0.07371761 0.08424679 0.08468315 0.08424446 0.0745749 0.07347289
0.07694671 0.08425197 3.0497e-40 0.076938525 0.08424405 0.073531285 0.0847263 0.08424876
0.08469315 -0.00013613497 0.08423948 -4.60314e-40 0.084247366 5.7298e-40 0.08427018 0.07349589
0.084704556 -9.5113e-41 1.7217262e-08 0.0769449 0.07315212 -0.00021867198 0.084648095 0.084683105
0.08423316 0.084731504 0.081944615 0.08471036 0.08065047 0.07352716 -0.00032278753 0.08426825
2.51595e-40 1.43689e-40 -7.44335e-40 -7.26181e-40 -2.02315e-40 -7.2082e-40 -6.72175e-40 3.50842e-40
-7.20396e-40 -7.9273e-41 -7.37309e-40 4.9037e-40 7.13031e-40 9.0693e-41 -2.97463e-40 6.29131e-40
-5.37076e-40 -7.50041e-40 3.09055e-40 7.07287e-40 2.70731e-40 -4.09572e-40 1.86793e-40 5.59994e-40
2.5825e-40 -6.24853e-40 -1.70255e-40 3.77419e-40 5.11757e-40 -5.58912e-40 9.3911e-41 3.51949e-40
-7.03069e-40 7.36703e-40 -5.49753e-40 2.78025e-40 7.4428e-40 -7.36204e-40 7.28129e-40 -1.19773e-40
-4.53378e-40 6.19094e-40 -3.63383e-40 -3.4714e-40 -3.95417e-40 -4.40525e-40 4.5834e-40 1.5085e-40
2.0584e-41 2.68754e-40 2.68036e-40 -8.1645e-41 -5.41806e-40 -1.3203e-40 -2.73192e-40 3.1148e-40
00000000: 1711 0800 1764 0080 7cdc 0080 eada 0600
00000010: a7d4 0700 2a92 0580 b722 0200 7706 0200
00000020: bfb5 0100 b4d6 0780 5ba0 0200 12d9 0300
00000030: 8cd9 0780 63a9 0700 3c59 0400 0f60 0300
00000040: ca33 0680 4438 0200 6629 0600 c752 0780
00000050: b508 0780 87d5 0300 51e0 0500 40aa 0280
00000060: 66f3 0380 69d2 0000 50f6 0000 3884 0700
00000070: 4b26 0300 776b 0500 3485 0080 e79f 0000
00000080: 1d28 0000 1468 0300 4ba4 0680 5ddb 0380
00000090: cbf9 0300 2ff0 0400 2643 0000 0c55 0400
000000a0: ae90 0500 f2b9 0780 96e7 0300 9235 0680
000000b0: dc60 0780 e001 0880 db90 0600 8dda 0580
000000c0: 6ab7 0700 38bf 0500 9a47 0000 874d 0680
000000d0: 17e2 0780 7848 0200 6c18 0380 3ff4 0600
000000e0: a5e2 0300 3712 0800 0625 0600 db2f 0800
000000f0: 1f73 0680 c123 0680 ecdb 0700 f15b 0600
00000100: 0131 0500 11f6 0580 f807 0480 2c4f 0500
00000110: 89b7 0680 2299 0200 4312 0280 e4c3 0480
00000120: 7c03 0380 db0d 0880 1649 0800 e098 0380
00000130: f925 0580 3766 0100 bc32 0680 2a0d 0480
00000140: 5862 0500 e584 0780 162e 0780 2257 0700
00000150: 9606 0680 2361 0180 c0b3 0380 30f4 0400
00000160: 8034 0880 fc2a 0780 534a 0080 7e26 0880
00000170: 393f 0700 88f9 0300 ff49 0680 6e3a 0880
00000180: e267 0580 3451 0780 bcd9 0700 d145 0300
00000190: 175a 963d d986 ac3d db7b ad3d f4bd deb8
000001a0: b79f 0300 24b7 963d 1191 ac3d 290e 9d3d
000001b0: f662 9d3d 0e75 ad3d dd0a 48bd f17f 0600
000001c0: ddf9 0280 82a5 0700 708e ad3d 1cf7 0700
000001d0: 407d ad3d 0285 ad3d 04ad 0700 4b75 a13d
000001e0: 3489 ac3d 07b9 963d 7365 963d a96f ad3d
000001f0: 0ea3 ac3d 6a7a a23d 275c 0700 c482 ac3d
00000200: 117b ad3d 7267 9d3d 39da 0500 abc9 943d
00000210: 6975 ad3d 09d5 a43d c364 ad3d 2d85 ac3d
00000220: fbda 0300 7541 4c02 d450 a83d ee8e 963d
00000230: c778 ad3d f587 ac3d db8f a43d 0e58 ad3d
00000240: ac90 ac3d d47a ad3d 50e5 a53d b508 9633
00000250: 9d8b ad3d d688 ac3d f989 ac3d 328e ac3d
00000260: c72c 4bbd f272 ad3d dc8e ac3d 038a ac3d
00000270: 3c81 ac3d 4926 9f3d bc85 ad3d c5e1 a53d
00000280: da17 9f3d b87b ad3d 42f9 963d 9589 ac3d
00000290: 5c6e ad3d 5c88 ac3d baba 983d f478 963d
000002a0: 3d96 9d3d 4c8c ac3d 2252 0300 f291 9d3d
000002b0: 2588 ac3d 9297 963d fb84 ad3d 9d8a ac3d
000002c0: 9a73 ad3d 74bf 0eb9 c085 ac3d 2b03 0580
000002d0: e289 ac3d 3c3d 0600 d895 ac3d 0385 963d
000002e0: 9579 ad3d 2309 0180 29e5 9332 4a95 9d3d
000002f0: c7d0 953d 504b 65b9 fb5b ad3d 566e ad3d
00000300: 6f82 ac3d b687 ad3d 94d2 a73d a07c ad3d
00000310: 132c a53d 6895 963d cf3b a9b9 d594 ac3d
00000320: 58bd 0200 8c90 0100 e71a 0880 4ce8 0780
00000330: f933 0280 5ad9 0780 c051 0780 01d2 0300
00000340: 2cd8 0780 fbdc 0080 5107 0880 f456 0500
00000350: a4c3 0700 d1fc 0000 353d 0380 c3d9 0600
00000360: 26d9 0580 cf2a 0880 855d 0300 a1b3 0700
00000370: b0f2 0200 b875 0480 b408 0200 0919 0600
00000380: e5cf 0200 d6cd 0680 9ada 0180 171c 0400
00000390: 9292 0500 0516 0680 c905 0100 17d5 0300
000003a0: dfa7 0780 a105 0800 7dfc 0580 0507 0300
000003b0: c01a 0800 3d04 0880 baed 0700 e14d 0180
000003c0: d5ef 0480 c8bd 0600 f7f4 0380 afc7 0380
000003d0: 434e 0480 01cc 0480 aafd 0400 82a4 0100
000003e0: 6139 0000 2ded 0200 2deb 0200 98e3 0080
000003f0: 56e6 0580 0c70 0180 8cf9 0280 4864 0300

model.encoder.layers.3.bias f4 [10]
-0.0005803715 -0.00094904454 -0.00047189655 -0.0005278686 -0.0005409155 -0.0005885698 -0.000547696 -0.0005932902
-0.0007073971 -0.0005639453
00000000: 1224 18ba 4dc9 78ba e268 f7b9 a960 0aba
00000010: 3acc 0dba 404a 1aba 4293 0fba 0887 1bba
00000020: 9e70 39ba bad5 13ba

model.predictor_linear.0.weight f4 [1, 10]
0.090284646 -0.17627946 2.3252e-41 3.3304315e-15 3.2825383e-06 0.09938908 0.0064859716 0.028935807
-0.15330003 8.863501e-11
00000000: 28e7 b83d 9a82 34be d140 0000 9efb 6f27
00000010: 9449 5c36 818c cb3d 4688 d43b c90a ed3c
00000020: affa 1cbe 13e9 c22e

exp_avg f4 [100, 1]
-0.004199735 -6.21325e-05 -0.0025864958 -0.0026787298 0.0008075717 -0.0028136028 -0.0018774611 -0.0032938102
-5.131739e-06 -0.007171743 -0.01200374 -0.0015581208 0.0006438993 -0.0022742895 0.001642164 -0.002186055
0.0005603553 0.0011904214 -0.0022518171 -0.0020848457 0.00048042176 0.0009682453 0.00064897776 0.0008200378
0.00034465498 0.0008233963 0.0008169281 0.00022450072 0.00058752 0.00087229884 0.0005703986 0.0006292931
-3.6192523e-05 0.00033620032 0.00033940104 0.0008134848 0.00018731032 0.00050611154 0.00030186411 0.00074335845
0.0006859437 0.0007063567 0.0007669161 0.0007566204 0.0007753703 0.00085218804 0.000721927 -9.1401496e-05
0.0006770677 -0.0001847933 0.00046254712 -0.0037246554 -0.00016201279 0.00031514463 0.00051620597 0.0008842094
0.00070399325 0.0005977687 0.0007794024 0.0008160406 0.00016648383 -0.0010199742 -0.0012747992 8.5889194e-05
0.000539711 0.00045105434 0.0007440543 0.00082457595 0.00055801036 0.00077203196 0.0003163907 0.00057142886
0.0009198831 -0.0010167193 0.0004248261 -0.000100774756 0.0011088517 0.0012025796 0.00022614982 -0.0001953002
-0.0003847572 -0.00092451926 0.0004993758 0.0018241518 -0.003194144 -0.0028954411 -0.0006732479 0.0010421785
-0.00035987157 0.00023727113 0.0011774548 0.00023779388 0.001986655 0.0011180283 0.0004080642 0.0008993391
0.0012916009 0.00082491507 0.0013382258 0.0009988718
00000000: ee9d 89bb 224d 82b8 3382 29bb a18d 2fbb
00000010: 38b3 533a 6c64 38bb 2415 f6ba f7dc 57bb
00000020: 4d31 acb6 f100 ebbb 56ab 44bc dc39 ccba
00000030: 5acb 283a 3f0c 15bb e13d d73a eb43 0fbb
00000040: cfe4 123a ea07 9c3a 3993 13bb e8a1 08bb
00000050: 1ee1 fb39 d8d1 7d3a 2920 2a3a cef7 563a
00000060: cfb2 b439 31d9 573a 1e27 563a f467 6b39
00000070: cd03 1a3a fcaa 643a cd86 153a 25f7 243a
00000080: 6dcd 17b8 0b44 b039 a3f1 b139 0a40 553a
00000090: bb68 4439 92ac 043a 8443 9e39 f1dd 423a
000000a0: e7d0 333a cc2a 393a de0a 493a ef57 463a
000000b0: 3842 4b3a 5f65 5f3a b33f 3d3a ceae bfb8
000000c0: 3f7d 313a 13c5 41b9 0682 f239 5919 74bb
000000d0: fae1 29b9 ff39 a539 ff51 073a 4aca 673a
000000e0: 308c 383a 94b3 1c3a cf50 4c3a 8feb 553a
000000f0: 2a92 2e39 a8b0 85ba 2a17 a7ba 691f b438
00000100: 647b 0d3a 7d7b ec39 a40c 433a 5b28 583a
00000110: 7147 123a 3062 4a3a 3ee1 a539 f1cb 153a
00000120: 4f24 713a 7043 85ba 32bb de39 0957 d3b8
00000130: e456 913a e09f 9d3a a122 6d39 80c9 4cb9
00000140: 3db9 c9b9 705b 72ba 8be8 023a 6118 ef3a
00000150: d854 51bb 71c1 3dbb e77c 30ba b599 883a
00000160: 25ad bcb9 fccb 7839 d454 9a3a 4f58 7939
00000170: 8a32 023b ce8a 923a 73f1 d539 a0c1 6b3a
00000180: ef4a a93a 1d3f 583a 6867 af3a 93ec 823a

exp_avg_sq f4 [100, 1]
8.977779e-05 1.2361691e-05 3.4721743e-05 4.6154346e-05 2.759295e-06 4.9268612e-05 3.898981e-05 5.6466088e-05
1.7467168e-05 0.00012683154 0.000245465 4.733512e-05 2.757321e-05 5.391375e-05 1.7448125e-05 3.3525295e-05
3.9975603e-05 4.8349888e-05 7.81468e-05 0.00011650382 1.1416049e-05 1.2555867e-05 3.8537714e-06 5.118384e-06
3.6625288e-06 2.3153991e-06 3.5988753e-06 1.0146726e-05 1.4287806e-05 6.9940743e-06 1.8346285e-06 8.0528656e-07
5.602716e-06 1.6525642e-06 2.1950589e-06 8.56529e-07 5.105307e-06 3.4208877e-06 1.4958035e-06 8.2511315e-07
2.545424e-06 9.695704e-07 1.9560673e-06 7.198375e-07 6.9192623e-07 2.0682257e-06 8.4368037e-07 7.2978864e-06
8.14873e-07 8.0164e-06 1.9700383e-06 3.687415e-05 5.3284934e-06 3.1778134e-06 1.7657563e-06 1.5729025e-06
7.963225e-07 1.7207193e-06 7.3871206e-07 8.462727e-07 1.1338082e-06 6.4174033e-06 2.915095e-06 4.8653224e-06
6.1647705e-07 1.0656593e-06 7.690775e-07 1.066926e-06 1.0775434e-06 6.957589e-07 1.3657642e-06 1.1673677e-06
9.124757e-07 1.2827051e-05 1.249847e-06 4.459174e-06 6.3429256e-06 2.4015408e-06 4.386484e-06 3.110463e-06
2.8323952e-06 4.0008754e-06 9.813909e-07 6.756191e-06 1.8947514e-05 1.4974421e-05 3.3348476e-06 1.4138188e-06
4.5303314e-06 1.1770258e-06 2.1613498e-05 1.1081375e-05 1.6863489e-05 3.182693e-05 3.9243067e-05 2.4130279e-05
1.5304144e-05 4.0912717e-05 1.8475474e-05 8.7109875e-06
00000000: 1647 bc38 0f65 4f37 30a2 1138 da95 4138
00000010: 542c 3936 c5a5 4e38 fd88 2338 00d6 6c38
00000020: 7586 9237 15fe 0439 c1b1 8039 b389 4638
00000030: 054d e737 7321 6238 905d 9237 839d 0c38
00000040: 7aab 2738 4ccb 4a38 bee2 a338 8353 f438
00000050: 8f87 3f37 0aa7 5237 a54f 8136 95be ab36
00000060: c4c9 7536 4162 1b36 3584 7136 db3b 2a37
00000070: a9b5 6f37 a4ae ea36 5b3d f635 df2a 5835
00000080: f7fe bb36 accd dd35 d34e 1336 3aec 6535
00000090: 414e ab36 6792 6536 6bc3 c835 587d 5d35
000000a0: 0dd2 2a36 2f22 8235 fb44 0336 db3a 4135
000000b0: cfbc 3935 d9cb 0a36 4679 6235 5ee0 f436
000000c0: a5bd 5a35 2d7e 0637 0035 0436 51a9 1a38
000000d0: 69cb b236 6b42 5536 edfe ec35 851c d335
000000e0: dec2 5535 77f3 e635 e84b 4635 6b2b 6335
000000f0: 5a2d 9835 1355 d736 f3a0 4336 cd40 a336
00000100: fb7b 2535 c607 8f35 9a72 4e35 4c33 8f35
00000110: 1ca0 9035 30c4 3a35 4d4f b735 73ae 9c35
00000120: daf0 7435 c433 5737 6ac0 a735 03a0 9536
00000130: 51d5 d436 282a 2136 9c2f 9336 59bd 5036
00000140: 2e14 3e36 423f 8636 56b8 8335 3db3 e236
00000150: 7af1 9e37 a63a 7b37 3fcc 5f36 72c2 bd35
00000160: 4003 9836 4cfa 9d35 a24e b537 25ea 3937
00000170: 1176 8d37 e87d 0538 ec98 2438 616b ca37
00000180: 6661 8037 b299 2b38 c7fb 9a37 6825 1237

exp_avg f4 [100, 100]
0.0011438143 0.001368503 0.0010413235 0.0010321952 0.0014678391 0.000989531 0.0012052733 0.0009999892
0.0013010831 0.0008931939 0.0016290001 0.0011777133 0.0010912834 0.0013612609 0.00090049376 0.0012935294
0.000552046 0.00041143157 0.0018309868 0.0011518811 0.0012551796 0.001169288 0.0012510756 0.0009902332
0.00157145 0.0010983401 0.0011130502 0.0013743935 0.0011895067 0.0012319655 0.0013093351 0.0015969755
0.0010633928 0.001130336 0.0012461138 0.0015853534 0.0011226308 0.0013044402 0.0017486804 0.0015470244
0.001439526 0.00129977 0.0015784125 0.0015137359 0.0016288597 0.0015397491 0.001637693 0.0011155412
0.0016401019 0.0012832452 0.0014688832 0.0020879812 0.0015449687 0.0011580373 0.0015372201 0.0012757243
0.0014727762 0.0013355461 0.0012630165 0.0015186599 0.001064265 0.00095990987 0.0008346192 0.0010688065
0.0010968891 0.0012298721 0.0012019934 0.0011013524 0.0011767732 0.0013290179 0.0013388831 0.0015444354
0.0012717632 0.001171036 0.0013153414 0.0013348792 0.0018969505 0.0013334891 0.0014968636 0.0012125155
0.0016113706 0.0017220788 0.0013830685 0.0015055933 0.0018979461 0.0019039761 0.0017129774 0.0015130843
0.0015235426 0.0014642862 0.001435048 0.0015206875 0.0016046658 0.0014932475 0.0013480672 0.0014610142
0.001874638 0.0012697052 0.0014593883 0.0015890048 0.001122897 0.0013439028 0.0010231897 0.0010148527
0.0014416449 0.0009719963 0.0011837148 0.0009814503 0.0012778774 0.00087808527 0.0016009265 0.0011575494
0.0010708986 0.0013371252 0.0008845437 0.0012688773 0.0005435978 0.0004039445 0.0017985958 0.0011315938
0.0012327234 0.001149354 0.0012286314 0.00097198377 0.0015434371 0.0010784694 0.0010932696 0.0013504626
0.0011687825 0.0012110937 0.0012863594 0.0015688415 0.0010439237 0.0011104034 0.0012232197 0.0015584746
0.0011025703 0.0012813328 0.0017168135 0.0015183011 0.0014135888 0.0012756124 0.0015502707 0.0014861617
0.0016002632 0.001512628 0.0016079021 0.0010952313 0.001610574 0.0012594126 0.0014438702 0.0020506913
0.0015179819 0.0011372757 0.0015100839 0.0012525462 0.0014471738 0.0013106297 0.0012395546 0.0014927324
0.0010458388 0.0009431952 0.0008200715 0.0010503746 0.0010774366 0.0012080951 0.0011798325 0.0010819436
0.0011562187 0.0013051966 0.0013145065 0.0015162556 0.001248573 0.001150317 0.001290509 0.0013112732
0.0018633896 0.0013103773 0.001469755 0.0011908385 0.001582302 0.0016914168 0.0013584059 0.0014794779
0.001863438 0.0018699123 0.0016819539 0.0014854976 0.0014962221 0.0014380837 0.0014100355 0.0014936072
0.001575684 0.0014661896 0.0013240969 0.0014347133 0.0018405982 0.0012468027 0.0014331272 0.0015604331
-0.0012179845 -0.0014570385 -0.0011095178 -0.0010999007 -0.0015624817 -0.0010539895 -0.0012836355 -0.0010644334
-0.0013859109 -0.0009512948 -0.0017336484 -0.0012544784 -0.0011620676 -0.0014497172 -0.0009590771 -0.0013765028
-0.0005892525 -0.00043970605 -0.0019492077 -0.0012264412 -0.0013361486 -0.0012469462 -0.0013316006 -0.0010547849
-0.0016732796 -0.0011701742 -0.0011863376 -0.0014640836 -0.0012678625 -0.0013134048 -0.0013950175 -0.0017002948
-0.0011320248 -0.0012036542 -0.0013262186 -0.0016894902 -0.0011953291 -0.0013885895 -0.0018607079 -0.0016466443
-0.0015319369 -0.0013823989 -0.001679993 -0.0016111635 -0.0017340716 -0.001639589 -0.0017433204 -0.0011872223
-0.0017458403 -0.0013662319 -0.0015647438 -0.0022219482 -0.0016455916 -0.0012328447 -0.0016365867 -0.0013581332
00000000: 0aec 953a 575f b33a 057d 883a b94a 873a
00000010: 8264 c03a 27b3 813a 43fa 9d3a 1212 833a
00000020: 1b89 aa3a 3a25 6a3a 2c84 d53a 805d 9a3a
00000030: 6509 8f3a 566c b23a 1d0f 6c3a a58b a93a
00000040: 2eb7 103a 69b5 d739 b9fd ef3a b7fa 963a
00000050: d784 a43a cb42 993a 22fb a33a b6ca 813a
00000060: 1df9 cd3a 2ef6 8f3a c4e3 913a fe24 b43a
00000070: 39e9 9b3a e779 a13a ff9d ab3a 9b51 d13a
00000080: 8b61 8b3a c827 943a a454 a33a a2cb cf3a
00000090: 3d25 933a c0f9 aa3a fa33 e53a 86c5 ca3a
000000a0: 7aae bc3a 0b5d aa3a bce2 ce3a 8c68 c63a
000000b0: 767f d53a 68d1 c93a dca7 d63a 5a37 923a
000000c0: b0f8 d63a 9032 a83a 8b87 c03a 83d6 083b
000000d0: 8c80 ca3a 49c9 973a 8c7c c93a 3436 a73a
000000e0: 2b0a c13a 7e0d af3a cd8b a53a c50d c73a
000000f0: cf7e 8b3a 76a2 7b3a 59ca 5a3a 3217 8c3a
00000100: 7ec5 8f3a a933 a13a 358c 9d3a 415b 903a
00000110: f53d 9a3a 7132 ae3a 767d af3a a76e ca3a
00000120: 4bb1 a63a 737d 993a 8967 ac3a 1df7 ae3a
00000130: 19a3 f83a 78c8 ae3a 6832 c43a 45ed 9e3a
00000140: a034 d33a 60b7 e13a 1448 b53a 5457 c53a
00000150: 81c4 f83a d68e f93a fc85 e03a af52 c63a
00000160: 9bb1 c73a 4bed bf3a 3818 bc3a ce51 c73a
00000170: a653 d23a 12b9 c33a a1b1 b03a 807f bf3a
00000180: 6ab6 f53a 3d6c a63a f248 bf3a 2746 d03a
00000190: 2c2e 933a e525 b03a 8d1c 863a ce04 853a
000001a0: 93f5 bc3a 91cd 7e3a e126 9b3a 02a4 803a
000001b0: 737e a73a 4e2f 663a 2ed6 d13a eab8 973a
000001c0: 655d 8c3a 7a42 af3a b9e0 673a 7550 a63a
000001d0: 3b80 0e3a 83c8 d339 dcbe eb3a fd51 943a
000001e0: 5593 a13a eca5 963a 070a a13a bacc 7e3a
000001f0: 284d ca3a 6e5b 8d3a 0a4c 8f3a 0102 b13a
00000200: d531 993a 90bd 9e3a 0f9b a83a 96a1 cd3a
00000210: 44d4 883a f58a 913a 7154 a03a bb45 cc3a
00000220: 1f84 903a 65f2 a73a b406 e13a bb01 c73a
00000230: 2b48 b93a 7332 a73a 7432 cb3a 50cb c23a
00000240: ecbf d13a 6043 c63a 3ec0 d23a dd8d 8f3a
00000250: e519 d33a e012 a53a 3f40 bd3a e464 063b
00000260: 05f7 c63a a410 953a 02ee c53a 7a2c a43a
00000270: 18af bd3a 6fc9 ab3a 8d78 a23a caa7 c33a
00000280: 8714 893a c240 773a 11fa 563a b9ac 893a
00000290: c638 8d3a f258 9e3a 9ca4 9a3a 01d0 8d3a
000002a0: 438c 973a 2113 ab3a 854b ac3a 18bd c63a
000002b0: 28a7 a33a 3cc6 963a 4c26 a93a 07df ab3a
000002c0: fb3c f43a f7c0 ab3a cba4 c03a e915 9c3a
000002d0: 3f65 cf3a 88b2 dd3a 8a0c b23a 0aeb c13a
000002e0: 9b3e f43a d817 f53a 0275 dc3a 07b5 c23a
000002f0: e21c c43a 157e bc3a f1d0 b83a 24c5 c33a
00000300: 2e87 ce3a 292d c03a 528d ad3a fd0c bc3a
00000310: 3a40 f13a c26b a33a c5d7 bb3a 7287 cc3a
00000320: c7a4 9fba 19fa beba 3d6d 91ba 8b2a 90ba
00000330: 30cc ccba 0526 8aba a93f a8ba 7584 8bba
00000340: 74a7 b5ba 5060 79ba 963b e3ba 4f6d a4ba
00000350: 8550 98ba 7004 beba 936a 7bba c56b b4ba
00000360: 1178 1aba 5988 e6b9 8f7c ffba 8ac0 a0ba
00000370: b521 afba 9270 a3ba 1a89 aeba b540 8aba
00000380: f251 dbba 8860 99ba e27e 9bba 7ee6 bfba
00000390: 682e a6ba 8d26 acba 05d9 b6ba 6ddc deba
000003a0: 7360 94ba efc3 9dba 83d4 adba e271 ddba
000003b0: 97ac 9cba 5501 b6ba ffe2 f3ba 37d4 d7ba
000003c0: 46cb c8ba 9c31 b5ba 3633 dcba ad2d d3ba
000003d0: ca49 e3ba 7ae7 d6ba 2080 e4ba 929c 9bba
000003e0: aed4 e4ba 2313 b3ba 1718 cdba 1b9e 11bb
000003f0: e4b0 d7ba 6797 a1ba bd82 d6ba 6303 b2ba
