logs/l1_coef-1.0/version_1/checkpoints/epoch=2019-step=2020.ckpt (torch, 518107 bytes, 30 tensors)

model.pi f4 [100, 1]
0.54001665 0.5046655 0.53720754 0.53453815 0.40624127 0.533227 0.49426484 0.55286187
0.4747576 0.55760765 0.62301034 0.58983815 0.50543034 0.60923976 0.39234313 0.5566707
0.4898874 0.5544398 0.58467424 0.61646205 0.42492852 0.42152798 0.39873388 0.40647238
0.4072703 0.41717333 0.41447893 0.43859494 0.40519664 0.42394763 0.37829474 0.3614717
0.43117246 0.383102 0.40228015 0.33254623 0.46421546 0.4165822 0.4412211 0.3921145
0.48027396 0.4594947 0.47599596 0.38943335 0.4051869 0.4592503 0.39920065 0.5397213
0.37641713 0.5308138 0.36114022 0.5162921 0.39978087 0.43743718 0.34194416 0.38187504
0.3604266 0.35693526 0.3372361 0.35028332 0.38042957 0.5183805 0.49262637 0.51347387
0.3322455 0.33066398 0.32956353 0.3375887 0.36289388 0.32366705 0.3803733 0.37073827
0.36866087 0.48828283 0.332224 0.4380394 0.39019325 0.40858382 0.44043055 0.42887932
0.439311 0.46514124 0.3835657 0.41483173 0.50166523 0.4918114 0.35976008 0.33982578
0.44171202 0.42582238 0.5410481 0.49336657 0.5229259 0.57037073 0.5716699 0.536478
0.5434079 0.5747869 0.54201293 0.4700313
00000000: 883e 0a3f c231 013f 6f86 093f 7ed7 083f
00000010: dbfe cf3e 9181 083f 4810 fd3e 5b88 0d3f
00000020: 6e13 f33e 60bf 0e3f 9b7d 1f3f a2ff 163f
00000030: e263 013f 23f7 1b3f 33e1 c83e f981 0e3f
00000040: 85d2 fa3e c4ef 0d3f 36ad 153f 75d0 1d3f
00000050: 3b90 d93e 84d2 d73e d926 cc3e 261d d03e
00000060: bc85 d03e be97 d53e 9536 d43e 848f e03e
00000070: ef75 cf3e aa0f d93e d9af c13e d212 b93e
00000080: a3c2 dc3e f225 c43e aaf7 cd3e 8043 aa3e
00000090: a6ad ed3e 434a d53e bbe7 e13e 3bc3 c83e
000000a0: 78e6 f53e e442 eb3e beb5 f33e cf63 c73e
000000b0: a874 cf3e db22 eb3e 0764 cc3e 2d2b 0a3f
000000c0: bfb9 c03e 6ae3 073f 5fe7 b83e b82b 043f
000000d0: 14b0 cc3e c4f7 df3e 4e13 af3e 2085 c33e
000000e0: d689 b83e 38c0 b63e 36aa ac3e 5658 b33e
000000f0: aac7 c23e 96b4 043f 8639 fc3e 0673 033f
00000100: 151c aa3e ca4c a93e 8dbc a83e 6dd8 ac3e
00000110: 3acd b93e b0b7 a53e 4ac0 c23e 68d1 bd3e
00000120: 1ec1 bc3e 3500 fa3e 4419 aa3e b346 e03e
00000130: 69c7 c73e e631 d13e 1d80 e13e 1296 db3e
00000140: 5fed e03e fe26 ee3e b962 c43e d364 d43e
00000150: 226d 003f b4ce fb3e 7932 b83e a5fd ad3e
00000160: 1428 e23e 6405 da3e 2182 0a3f 8b9a fc3e
00000170: 79de 053f d103 123f f558 123f 9f56 093f
00000180: c81c 0b3f 3c25 133f 5cc1 0a3f f1a7 f03e

model.encoder.layers.0.weight f4 [100, 100]
-0.02222882 -0.016702432 -0.022313088 -0.022740934 -0.002843371 -0.023614397 -0.013976432 -0.029108977
-0.010877511 -0.026573682 0.060064066 0.04343136 0.031154672 0.045721915 0.007790323 0.038697276
0.02560698 0.036609627 0.045388706 0.052477125 0.013324658 0.014613344 0.008088828 0.006741766
0.009041368 -0.012752607 0.009591759 0.014502373 0.0113920085 -0.0139004225 -0.0027796994 0.004653497
-0.011198314 -0.0056751696 -0.008548295 0.0025088068 -0.017241625 -0.009267861 0.012879162 0.00819633
-0.015219138 -0.011055365 -0.014505751 -0.0042471234 -0.005878941 -0.013142695 -0.0049906806 -0.025438968
-0.0034045232 -0.024122467 0.0050907563 0.02948838 0.011074819 -0.014049667 0.0041564517 -0.0103322165
0.0040648626 0.005193404 -0.0036107874 -0.0006792726 -0.009162956 -0.020996742 -0.018157601 -0.021355724
-0.002972319 -0.002949318 0.0012829512 0.00036242072 -0.0066149323 0.00020596053 -0.0025921254 -0.0036138901
0.005310351 -0.015824214 -0.00025827787 -0.007269782 0.0061489427 0.0080841845 -0.0068016895 -0.0066136024
0.0071138334 0.011283717 0.002687532 -0.01299386 0.016944593 0.015535801 0.0022794618 -0.0040839436
0.009749087 0.005713685 -0.015821062 -0.008347264 -0.012303265 -0.023314275 -0.026840117 -0.014771009
-0.018862365 -0.02810943 -0.01700068 -0.0028361557 -0.022163207 -0.016641142 -0.02225485 -0.022678249
-0.0027646723 -0.023553899 -0.013902124 -0.029058065 -0.01080225 -0.026516382 0.060061794 0.043413535
0.031117024 0.04571143 0.0077378955 0.03867603 0.02556075 0.036584634 0.04537914 0.052477535
0.013314161 0.014591016 0.008081973 0.006735489 0.00904929 -0.012757992 0.009601124 0.0145107955
0.011365707 -0.013873343 -0.0027086935 0.0047285897 -0.011137974 -0.0056119603 -0.008482209 0.002577857
-0.017185377 -0.009199133 0.0129576465 0.00826927 -0.0151601825 -0.010992166 -0.014445303 -0.0041809054
-0.0058165374 -0.013080507 -0.0049148826 -0.025396539 -0.0033372939 -0.024069984 0.005113994 0.029503673
0.011082956 -0.014030462 0.004185155 -0.010303208 0.004102757 0.0052155578 -0.003576324 -0.0006624557
-0.009114499 -0.020957109 -0.0181203 -0.02131695 -0.0029288032 -0.0028931058 0.0013297639 0.00039852774
-0.006567676 0.00026568084 -0.002551079 -0.0035848408 0.0053633736 -0.015784733 -0.0002140916 -0.007216889
0.006194114 0.008124427 -0.006751822 -0.0065731793 0.0071680634 0.011339533 0.0027382018 -0.012952913
0.017007886 0.015598386 0.0023314622 -0.004031218 0.009797346 0.005763014 -0.015755035 -0.008280701
-0.012236592 -0.02325881 -0.026787592 -0.014706321 -0.018797368 -0.028056346 -0.01693983 -0.002767927
0.021723168 0.016207784 0.021834278 0.022259997 0.002242127 0.023141807 0.013410408 0.028690225
0.010287491 0.026126161 -0.060002957 -0.043249626 -0.030838298 -0.045611657 -0.007417469 -0.038517702
-0.025250979 -0.03638043 -0.045266796 -0.052429292 -0.013255895 -0.014443417 -0.008091911 -0.0067062047
-0.00916 0.012705218 -0.009697978 -0.014588362 -0.01119491 0.013612138 0.0022127163 -0.0052615954
0.010705271 0.0051528565 0.008017403 -0.0030372462 0.016796667 0.008724983 -0.013504374 -0.0087752575
0.014740423 0.010549462 0.0140241645 0.0037176376 0.00536457 0.012660591 0.0043938914 0.025065998
0.0028698419 0.023716163 -0.005346734 -0.029656947 -0.011238744 0.01381047 -0.0044392524 0.010031458
00000000: 3719 b6bc 8ad3 88bc f0c9 b6bc 324b babc
00000010: d957 3abb fb72 c1bc 68fd 64bc f375 eebc
00000020: 9737 32bc 0db1 d9bc bd05 763d 15e5 313d
00000030: 1538 ff3c e746 3b3d f745 ff3b 0981 1e3d
00000040: bbc5 d13c faf3 153d 82e9 393d 41f2 563d
00000050: ab4f 5a3c cf6c 6f3c 0187 043c 08ea dc3b
00000060: 3f22 143c 50f0 50bc c126 1d3c 5c9b 6d3c
00000070: 8ca5 3a3c 99be 63bc 9e2b 36bb 5d7c 983b
00000080: 2279 37bc c6f6 b9bb 260e 0cbc cb6a 243b
00000090: 4f3e 8dbc 3ad8 17bc 1f03 533c e649 063c
000000a0: b159 79bc 9021 35bc 88a9 6dbc 742b 8bbb
000000b0: 22a4 c0bb 7554 57bc dd88 a3bb 6265 d0bc
000000c0: 6c1e 5fbb 7b9c c5bc 5cd0 a63b 9d91 f13c
000000d0: 2873 353c 9330 66bc d832 883b 7548 29bc
000000e0: 8a32 853b 6e2d aa3b f6a2 6cbb 3611 32ba
000000f0: 3920 16bc 5c01 acbc 40bf 94bc 33f2 aebc
00000100: 3dcb 42bb 5849 41bb b328 a83a 4903 be39
00000110: 13c2 d8bb 1cf7 5739 a6e0 29bb 04d7 6cbb
00000120: 7402 ae3b c8a1 81bc 7869 87b9 5a37 eebb
00000130: 127d c93b 8773 043c b5e0 debb ebb6 d8bb
00000140: 291b e93b 57df 383c 4e21 303b 33e4 54bc
00000150: 63cf 8a3c df89 7e3c 0663 153b 9ad2 85bb
00000160: a2ba 1f3c dd39 bb3b 2c9b 81bc f6c2 08bc
00000170: a293 49bc 94fd bebc cedf dbbc 1a02 72bc
00000180: 3f85 9abc bf45 e6bc 0345 8bbc ccde 39bb
00000190: 9d8f b5bc 0153 88bc ce4f b6bc bcc7 b9bc
000001a0: 812f 35bb 1bf4 c0bc bcc5 63bc 2e0b eebc
000001b0: ecfb 30bc e238 d9bc 5b03 763d 64d2 313d
000001c0: 21e9 fe3c e93b 3b3d 2c8e fd3b c26a 1e3d
000001d0: c764 d13c c5d9 153d 7adf 393d aff2 563d
000001e0: a423 5a3c 280f 6f3c 406a 043c 60b5 dc3b
000001f0: 7943 143c e606 51bc 084e 1d3c b0be 6d3c
00000200: 3b37 3a3c 054d 63bc 5684 31bb 49f2 9a3b
00000210: 0d7c 36bc 89e4 b7bb f7f8 0abc 44f1 283b
00000220: 59c8 8cbc f6b7 16bc 4f4c 543c d57b 073c
00000230: 6a62 78bc 7c18 34bc feab 6cbc faff 88bb
00000240: a798 bebb 9f4f 56bc 060d a1bb 670c d0bc
00000250: 80b6 5abb 6a2e c5bc 4a93 a73b b0b1 f13c
00000260: 4995 353c 06e0 65bc a023 893b c9ce 28bc
00000270: 6c70 863b 45e7 aa3b c360 6abb a6a8 2dba
00000280: fb54 15bc 3eae abbc 0671 94bc e2a0 aebc
00000290: 2af1 3fbb 439a 3dbb 794b ae3a 7df1 d039
000002a0: a935 d7bb 144b 8b39 0130 27bb a6ef 6abb
000002b0: 3dbf af3b fc4e 81bc c77d 60b9 a77b ecbb
000002c0: fff7 ca3b 511c 053c 633e ddbb d363 d7bb
000002d0: 13e2 ea3b 73c9 393c 6773 333b 7438 54bc
000002e0: 1f54 8b3c 5f90 7f3c 72cb 183b 4f18 84bb
000002f0: 0c85 203c aad7 bc3b b410 81bc c7ab 07bc
00000300: fd7b 48bc 4389 bebc a771 dbbc c8f2 70bc
00000310: f0fc 99bc 6cd6 e5bc 66c5 8abc 1c66 35bb
00000320: c9f4 b13c 30c6 843c cddd b23c 995a b63c
00000330: a6f0 123b e393 bd3c 54b7 5b3c c307 eb3c
00000340: dd8c 283c 8806 d63c a9c5 75bd 8526 31bd
00000350: 99a0 fcbc 4ad3 3abd 3d0e f3bb bdc4 1dbd
00000360: 24db cebc a503 15bd ad69 39bd 19c0 56bd
00000370: 412f 59bc 15a4 6cbc ef93 04bc b9bf dbbb
00000380: d313 16bc 8c29 503c 45e4 1ebc 0604 6fbc
00000390: db6a 37bc 7205 5f3c 3803 113b 7669 acbb
000003a0: 2965 2f3c 4bd9 a83b 6d5b 033c 890c 47bb
000003b0: 2a99 893c 3bf3 0e3c 7341 5dbc 19c6 0fbc
000003c0: d181 713c a7d7 2c3c 9cc5 653c 9ca3 733b
000003d0: 46c9 af3b 5e6e 4f3c a2fa 8f3b 3557 cd3c
000003e0: f513 3c3b 6648 c23c a833 afbb 20f3 f2bc
000003f0: b522 38bc 4f45 623c 2677 91bb fc5a 243c

model.encoder.layers.0.bias f4 [100]
0.0063993284 0.0064525213 -0.006874909 -0.0064591886 0.006599898 -0.006311198 0.0063104397 0.0060928855
-0.0068245246 0.0067333747 -0.0065355506 0.006741028 -0.0066008503 0.0064248 -0.0068468014 -0.0066431607
0.0064558103 -0.006750954 -0.0071583083 0.00614703 0.00653385 -0.00670435 -0.0070835254 -0.006601929
-0.0072431695 0.0063173617 -0.00647008 0.0067749177 0.0062345867 -0.006719793 -0.006291315 0.0064199665
-0.006671611 0.0062775514 0.0063888375 -0.0068601035 -0.006423457 0.006451533 0.006595087 -0.006312755
-0.00642346 -0.006379195 -0.006497888 0.0061976095 0.006944285 -0.006108841 0.0064672595 -0.006444897
-0.006362799 -0.006557386 -0.0064310515 0.0062696855 0.0065261996 -0.0063127507 0.0067086574 -0.0066608205
-0.006855121 0.0067953737 0.006640035 0.006277435 0.006525178 0.00703392 -0.0076236976 0.006395656
0.006470717 0.0062310183 -0.007071282 0.0064230994 -0.00682291 -0.006649542 0.0066949055 0.006558926
-0.0065404377 -0.0065056784 -0.006827976 -0.006251205 -0.006098896 0.0064633046 -0.0066719707 0.006749703
0.006497297 -0.0064288205 0.006894655 -0.007032902 -0.0067070373 -0.0065804613 0.006565618 -0.0064360467
-0.006283607 0.0067190276 0.006520997 -0.0070132385 0.006396442 -0.006833002 -0.006226397 0.007034832
-0.0075383624 0.006291052 -0.0069323615 0.006535387
00000000: 75b1 d13b ac6f d33b eb46 e1bb 9aa7 d3bb
00000010: f543 d83b 2bce cebb cec7 ce3b d4a6 c73b
00000020: 43a0 dfbb a4a3 dc3b 2c28 d6bb d7e3 dc3b
00000030: f24b d8bb 2187 d23b 225b e0bb dfae d9bb
00000040: 438b d33b 1b37 ddbb 3e90 eabb 066d c93b
00000050: e819 d63b 2ab0 dbbb eb1c e8bb ff54 d8bb
00000060: 1c58 edbb df01 cf3b f702 d4bb 2100 de3b
00000070: 814b cc3b b631 dcbb 6027 cebb 955e d23b
00000080: 889d dabb ebb3 cd3b 7459 d13b b8ca e0bb
00000090: dd7b d2bb 6267 d33b 991b d83b 3adb cebb
000000a0: e37b d2bb 9108 d1bb 3cec d4bb 5115 cb3b
000000b0: e28c e33b ac2c c8bb 4eeb d33b b72f d3bb
000000c0: 077f d0bb 57df d6bb 92bb d2bb ef71 cd3b
000000d0: bbd9 d53b 31db cebb 4cd4 db3b 0343 dabb
000000e0: eca0 e0bb baab de3b a794 d93b f1b2 cd3b
000000f0: 29d1 d53b cc7c e63b 36d0 f9bb a792 d13b
00000100: 4f08 d43b 922d cc3b 36b6 e7bb dd78 d23b
00000110: b892 dfbb 67e4 d9bb f060 db3b 42ec d63b
00000120: 2b51 d6bb 962d d5bb 37bd dfbb e9d6 ccbb
00000130: 3fd9 c7bb 21ca d33b 8ca0 dabb 9d2c dd3b
00000140: 47e7 d43b dba8 d2bb 8fec e13b 4274 e6bb
00000150: b5c6 dbbb e9a0 d7bb 6524 d73b 79e5 d2bb
00000160: b7e6 cdbb 4a2b dc3b 16ae d53b 4fcf e5bb
00000170: 3f99 d13b 60e7 dfbb ce06 ccbb 7384 e63b
00000180: 5e04 f7bb 2b25 ce3b dd28 e3bb cd26 d63b

model.encoder.layers.1.0.weight f4 [100, 100]
-0.05758285 -0.05801339 0.060419507 0.05804828 -0.059067022 0.056962084 -0.05698379 -0.055446763
0.060292117 -0.059892204 0.058679774 -0.05994493 0.05905222 -0.057795998 0.060347334 0.059334718
-0.05804543 0.059993062 0.060093217 -0.05583514 -0.058615968 0.0597103 0.060368106 0.059087448
0.059688926 -0.057047516 0.058141258 -0.060092866 -0.056410413 0.059832852 0.056808382 -0.057725284
0.059548985 -0.056742202 -0.057580702 0.060410295 0.057802893 -0.058018617 -0.05903787 0.057020053
0.05781082 0.0575348 0.058343347 -0.05613798 -0.06053322 0.05557109 -0.058124583 0.057945598
0.057340477 0.058787134 0.057899058 -0.056624755 -0.058547135 0.056961086 -0.059763104 0.059427354
0.060400724 -0.060161114 -0.05932127 -0.05670579 -0.058599707 -0.060462512 0.057041574 -0.057589807
-0.05813909 -0.05639516 0.060391974 -0.05781265 0.060292624 0.059381694 -0.059655126 -0.058777343
0.058648873 0.05839858 0.060314257 0.056535095 0.05545134 -0.058131766 0.05952201 -0.05994107
-0.058335267 0.05786258 -0.060485695 0.060484897 0.059783354 0.058922037 -0.0588828 0.0578503
0.056718964 -0.059838615 -0.058531307 0.060509175 -0.057608973 0.06030525 0.0563766 -0.06046233
0.057723448 -0.05682266 0.060510587 -0.058621526 -0.05735004 -0.057768036 0.06007747 0.057801064
-0.058781147 0.056750983 -0.05677167 -0.055285517 0.05995576 -0.05957239 0.058411136 -0.05962492
0.058767274 -0.057556085 0.06000703 0.059040222 -0.057796706 0.05966996 0.059746493 -0.05565958
-0.05834735 0.05939824 0.060017318 0.058803078 0.05935098 -0.05683299 0.0578912 -0.059766844
-0.056217298 0.059516836 0.056602463 -0.057487812 0.05924496 -0.056538936 -0.05734664 0.060068868
0.05756407 -0.057769857 -0.058753535 0.05680679 0.057571962 0.05730356 0.05808404 -0.05595301
-0.06018229 0.055403866 -0.057872992 0.05770032 0.057115328 0.058511037 0.057655685 -0.05642475
-0.05828041 0.056748837 -0.059450302 0.059128765 0.060059186 -0.05983137 -0.059027173 -0.05650391
-0.058333267 -0.060110513 0.056750733 -0.057356942 -0.05788651 -0.056203023 0.06003954 -0.05757269
0.059956778 0.05908439 -0.05934569 -0.058503035 0.058378916 0.058138166 0.059976757 0.05633657
0.055288814 -0.05787953 0.05921764 -0.059620585 -0.058078554 0.057620205 -0.060140494 0.06013276
0.059470885 0.058641866 -0.058604117 0.057608318 0.05651469 -0.059521515 -0.058266006 0.060155746
-0.057376273 0.05996922 0.05618511 -0.060111027 0.05741966 -0.056612916 0.060163036 -0.05835188
-0.05755172 -0.05798158 0.060372535 0.05801532 -0.0590288 0.05693319 -0.056954462 -0.055426553
0.060247794 -0.05984817 0.0586434 -0.059900347 0.05901398 -0.057762116 0.060300916 0.059295114
-0.058013074 0.059947606 0.060047317 -0.05581207 -0.058579847 0.059667606 0.06032155 0.05905054
0.059646312 -0.057018273 0.05810723 -0.060050264 -0.056384675 0.05978976 0.05677923 -0.057693772
0.059508536 -0.05671327 -0.0575478 0.06036344 0.057770263 -0.057984717 -0.058998547 0.056990955
0.057780895 0.057501495 0.058308546 -0.056112524 -0.060486004 0.055546764 -0.05808931 0.057911113
0.057308134 0.05874872 0.057864923 -0.05659641 -0.058511324 0.056931697 -0.05972034 0.059387505
00000000: ffdb 6bbd 739f 6dbd 727a 773d 09c4 6d3d
00000010: 43f0 71bd 1351 693d d667 69bd 251c 63bd
00000020: def4 763d 8751 75bd 345a 703d d188 75bd
00000030: bee0 713d 7fbb 6cbd c42e 773d f608 733d
00000040: 0bc1 6dbd 49bb 753d 4e24 763d 63b3 64bd
00000050: 4c17 70bd ca92 743d 8c44 773d ae05 723d
00000060: 607c 743d a8aa 69bd 8725 6e3d f023 76bd
00000070: 9b0e 67bd 4b13 753d e8af 683d 5971 6cbd
00000080: a3e9 733d 836a 68bd bed9 6bbd c970 773d
00000090: bac2 6c3d eea4 6dbd b2d1 71bd dc8d 693d
000000a0: 0acb 6c3d 9ca9 6b3d 6ff9 6e3d f0f0 65bd
000000b0: aff1 77bd 839e 633d 0b14 6ebd 5d58 6d3d
000000c0: d9dd 6a3d c7ca 703d 9027 6d3d 5cef 67bd
000000d0: 1fcf 6fbd 0750 693d 28ca 74bd 196a 733d
000000e0: c066 773d 806b 76bd dcfa 72bd 5544 68bd
000000f0: 3f06 70bd 8aa7 77bd 6da4 693d 4ae3 6bbd
00000100: 4123 6ebd 9cfe 66bd 935d 773d f5cc 6cbd
00000110: 66f5 763d 383a 733d ef58 74bd 83c0 70bd
00000120: cd39 703d 5933 6f3d 150c 773d 5891 673d
00000130: f220 633d 931b 6ebd 5acd 733d c484 75bd
00000140: f6f0 6ebd 5001 6d3d d9bf 77bd 03bf 773d
00000150: 64df 743d 3c58 713d 172f 71bd 70f4 6c3d
00000160: 2552 683d 5619 75bd 86be 6fbd 78d8 773d
00000170: 63f7 6bbd a302 773d 26eb 663d 59a7 77bd
00000180: 6c6f 6c3d e1be 68bd f3d9 773d 201d 70bd
00000190: e0e7 6abd 2d9e 6cbd cb13 763d cfc0 6c3d
000001a0: 80c4 70bd b873 683d 6989 68bd 1173 62bd
000001b0: 2c94 753d 2e02 74bd 8440 6f3d 4339 74bd
000001c0: f4b5 703d eebf 6bbd eec9 753d 29d4 713d
000001d0: 3dbc 6cbd 7d68 743d bdb8 743d 4dfb 63bd
000001e0: a2fd 6ebd 924b 733d b8d4 753d 7fdb 703d
000001f0: 031a 733d b6c9 68bd 531f 6d3d 14ce 74bd
00000200: 1c44 66bd edc7 733d fcd7 673d 5778 6bbd
00000210: d8aa 723d 5f95 67bd 4fe4 6abd c60a 763d
00000220: 4dc8 6b3d 16a0 6cbd 8ca7 70bd 3dae 683d
00000230: 94d0 6b3d 23b7 6a3d 88e9 6d3d fc2e 65bd
00000240: b481 76bd 2aef 623d 3b0c 6dbd 2c57 6c3d
00000250: c3f1 693d 45a9 6f3d 5e28 6c3d a31d 67bd
00000260: 70b7 6ebd 7871 683d 2982 73bd 0131 723d
00000270: 9f00 763d bd11 75bd 7ac6 71bd a570 67bd
00000280: ddee 6ebd 7136 76bd 7573 683d 1def 6abd
00000290: 681a 6dbd 2435 66bd 05ec 753d 57d1 6bbd
000002a0: 3d95 753d 7902 723d 7714 73bd e1a0 6fbd
000002b0: bb1e 6f3d 4922 6e3d 30aa 753d 2dc1 663d
000002c0: 8676 623d 1613 6dbd 328e 723d b734 74bd
000002d0: c7e3 6dbd 2a03 6c3d e155 76bd c54d 763d
000002e0: be97 733d 7432 703d df0a 70bd b3f6 6b3d
000002f0: f37b 673d d5cc 73bd 56a8 6ebd df65 763d
00000300: 6203 6bbd 49a2 753d 5c22 663d fb36 76bd
00000310: e130 6b3d f2e2 67bd 846d 763d 6202 6fbd
00000320: 5abb 6bbd 187e 6dbd 3149 773d 79a1 6d3d
00000330: 2fc8 71bd c732 693d 1549 69bd f406 63bd
00000340: 64c6 763d 5b23 75bd 1034 703d 115a 75bd
00000350: a5b8 713d f897 6cbd 18fe 763d 6fdf 723d
00000360: 1e9f 6dbd 9f8b 753d 2df4 753d 329b 64bd
00000370: 6cf1 6fbd 0566 743d bb13 773d fbde 713d
00000380: b14f 743d fe8b 69bd d901 6e3d 44f7 75bd
00000390: 9ef3 66bd 1be6 743d 5691 683d 4e50 6cbd
000003a0: 39bf 733d 2c4c 68bd 3eb7 6bbd a83f 773d
000003b0: 83a0 6c3d 6281 6dbd 76a8 71bd 596f 693d
000003c0: a9ab 6c3d b086 6b3d f1d4 6e3d 3fd6 65bd
000003d0: 2cc0 77bd 0185 633d 0eef 6dbd 3434 6d3d
000003e0: efbb 6a3d 7fa2 703d c503 6d3d a3d1 67bd
000003f0: 92a9 6fbd 3631 693d 519d 74bd 5040 733d

model.encoder.layers.1.0.bias f4 [100]
-0.0026167594 -0.0017361171 -0.0024713103 -0.0016945647 -0.005225333 0.037429173 -0.0016812545 -0.0016697149
-0.002820588 -0.0016144185 -0.002015399 -0.0024729404 -0.0042206333 -0.00499889 -0.0019198419 -0.0015998933
-0.002685812 -0.002337399 -0.0028832206 -0.002482426 -0.0016682805 -0.0026950988 -0.0016935283 -0.002763032
-0.0017425143 -0.00277121 -0.0024855926 -0.0045323865 -0.0036530916 -0.006843854 -0.0027009838 -0.0016440287
-0.0035872424 -0.0017765522 -0.0044502476 -0.002706367 -0.0017820753 -0.0052074697 -0.00270281 -0.0016961844
-0.0035478133 -0.002507944 -0.002572122 -0.001747167 -0.0025570837 -0.0052609253 -0.003476327 0.037627235
-0.0024423734 -0.0017284336 -0.0027433143 -0.0016910331 -0.0017983054 -0.0016636043 -0.0025586134 -0.005431053
-0.001725722 -0.0023043118 -0.0023786775 -0.0058446163 -0.0027975165 -0.0017827929 -0.0023669412 -0.002725056
-0.002762239 -0.0015175183 -0.0022544821 -0.005464099 -0.0016338628 -0.0016822747 -0.002387085 -0.0022659947
-0.0015727653 0.033794425 -0.0024815209 -0.0024207775 -0.0024733436 -0.0044352603 -0.0017788797 -0.0038335246
-0.0035683508 -0.0016695154 -0.0025566046 -0.0024843276 -0.0015734991 -0.005452506 -0.0052425545 -0.002612727
-0.0017557407 -0.0017489207 -0.001677529 -0.003637401 -0.0054155816 -0.00279749 -0.0026937842 -0.001585574
-0.0016942426 -0.005193205 -0.0052294116 -0.0016804972
00000000: f07d 2bbb 6c8e e3ba b5f5 21bb 281c deba
00000010: 4539 abbb 554f 193d 8a5d dcba 56da daba
00000020: 9dd9 38bb e59a d3ba c914 04bb 0e11 22bb
00000030: 3d4d 8abb bbcd a3bb 34a3 fbba 83b3 d1ba
00000040: 7304 30bb 0c2f 19bb 6af4 3cbb 32b0 22bb
00000050: 34aa daba 41a0 30bb 61f9 ddba fc13 35bb
00000060: 1465 e4ba 309d 35bb 53e5 22bb 6a84 94bb
00000070: b568 6fbb 6942 e0bb fd02 31bb 737c d7ba
00000080: f117 6bbb 33db e8ba 62d3 91bb 4e5d 31bb
00000090: 8694 e9ba 6ca3 aabb a121 31bb 8152 deba
000000a0: 6e82 68bb 515c 24bb 0c91 28bb 3201 e5ba
000000b0: bf94 27bb d763 acbb 17d3 63bb 041f 1a3d
000000c0: 3a10 20bb 9c8c e2ba 2dc9 33bb a8a5 ddba
000000d0: 1eb5 ebba 4c0d daba 69ae 27bb faf6 b1bb
000000e0: 9f31 e2ba f003 17bb 96e3 1bbb 3284 bfbb
000000f0: 8a56 37bb 9aac e9ba af1e 1bbb da96 32bb
00000100: ae06 35bb 77e7 c6ba efbf 13bb 2f0c b3bb
00000110: 5727 d6ba c67f dcba a470 1cbb 1581 14bb
00000120: 3f25 ceba 066c 0a3d 03a1 22bb e8a5 1ebb
00000130: d217 22bb a955 91bb 4c29 e9ba df3b 7bbb
00000140: feda 69bb a4d3 daba b58c 27bb 1ad0 22bb
00000150: de3d ceba efaa b2bb bcc9 abbb 493a 2bbb
00000160: e220 e6ba 0a3c e5ba 88e0 dbba 7661 6ebb
00000170: 3175 b1bb 1856 37bb 338a 30bb 09d3 cfba
00000180: 5911 deba c32b aabb 7c5b abbb 2144 dcba

model.encoder.layers.2.0.weight f4 [100, 100]
-0.005626306 -0.005186444 -0.0055518593 -0.0051552407 -0.0071752784 0.054009017 -0.005149416 -0.005162796
-0.0057334066 -0.0051203445 -0.005329024 -0.005554159 -0.006505148 -0.007262336 -0.005284525 -0.0051120087
-0.005666719 -0.005488495 -0.0057674325 -0.00555921 -0.005143827 -0.005672274 -0.0051624724 -0.0057136705
-0.005197161 -0.005701044 -0.0055614114 -0.0066883126 -0.0061688162 -0.009159084 -0.0056677694 -0.005125966
-0.0061720647 -0.0052048313 -0.0066414117 -0.005684581 -0.0052054995 -0.0073975204 -0.0056677917 -0.0051779975
-0.006118298 -0.0055720527 -0.005601723 -0.005199201 -0.005596634 -0.0072606537 -0.0060808426 0.054101486
-0.0055387146 -0.0051706755 -0.005688658 -0.0051608654 -0.005225271 -0.005160128 -0.0055979337 -0.008509437
-0.005173295 -0.0054730973 -0.005505635 -0.008005663 -0.005737888 -0.005215522 -0.0055013304 -0.005687513
-0.0057130866 -0.005065275 -0.005448629 -0.008389449 -0.005127913 -0.0051678456 -0.005511783 -0.0054547866
-0.0050941585 0.05134795 -0.005559033 -0.0055302572 -0.005553807 -0.006634189 -0.005205248 -0.007223638
-0.006142361 -0.005145703 -0.0055975034 -0.0055614263 -0.005094217 -0.008359237 -0.0072637955 -0.0056232587
-0.005194253 -0.005192655 -0.005155963 -0.006186081 -0.00856757 -0.005715246 -0.005672531 -0.005101837
-0.0051538777 -0.007221316 -0.0072912094 -0.005150043 0.05886938 0.05950598 0.058957793 0.059666775
0.05680048 -0.050897583 0.059583917 0.059426207 0.058659535 0.05962415 0.059224725 0.0589513
0.05732669 0.056718778 0.05928106 0.05962965 0.058745824 0.059034586 0.05862104 0.05895085
0.05959247 0.058737766 0.05953461 0.058526292 0.059386984 0.058773283 0.058944765 0.057167076
0.05787077 0.055955622 0.05881457 0.059696957 0.057562213 0.059484243 0.05719044 0.05846204
0.05948273 0.056606974 0.058816932 0.059412967 0.05791973 0.05893212 0.058893126 0.059380203
0.058901686 0.056726083 0.057960186 -0.05096599 0.058969215 0.059653353 0.0587893 0.059531543
0.059351124 0.05943021 0.058904298 0.055943012 0.05956225 0.05906035 0.059010867 0.056237355
0.058333088 0.059359178 0.059018817 0.058721296 0.05853038 0.059762698 0.059085142 0.055945996
0.059612207 0.059422847 0.05900334 0.059077077 0.059727725 -0.049284115 0.05894886 0.058982812
0.058952454 0.05719213 0.05948517 0.05730214 0.057815984 0.059593856 0.058905307 0.05894463
0.0597318 0.055958156 0.056682456 0.058868695 0.05949892 0.059502594 0.059535544 0.057617053
0.055941697 0.058760278 0.05873454 0.059723523 0.05966771 0.056736678 0.056652922 0.05959008
0.058845203 0.059636485 0.058949653 0.05984685 0.056493048 -0.0502912 0.05973782 0.059532367
0.058595445 0.05979382 0.05927685 0.05894318 0.057069402 0.0564067 0.05934706 0.059798937
0.05869881 0.059040558 0.05855061 0.058940962 0.0597499 0.05868946 0.059673842 0.058440294
0.05948368 0.05873112 0.058934223 0.05688831 0.057686355 0.05565222 0.058777858 0.05988919
0.057336353 0.059607144 0.056915604 0.058366254 0.059605137 0.056291755 0.058780324 0.05951126
0.057742324 0.05891797 0.05887247 0.059476424 0.058882877 0.05641391 0.057786494 -0.05047017
0.0589643 0.059827972 0.05874977 0.059669852 0.059438437 0.059537586 0.058885086 0.05565203
00000000: e05c b8bb 0cf3 a9bb 5fec b5bb 4bed a8bb
00000010: 991e ebbb 8f38 5d3d 6fbc a8bb ac2c a9bb
00000020: 4ddf bbbb 90c8 a7bb 189f aebb aaff b5bb
00000030: 2329 d5bb e4f8 edbb cf29 adbb a382 a7bb
00000040: e2af b9bb d5d8 b3bb bbfc bcbb 092a b6bb
00000050: 8c8d a8bb 7cde b9bb f529 a9bb be39 bbbb
00000060: f24c aabb d3cf babb 803c b6bb a229 dbbb
00000070: c823 cabb fc0f 16bc b2b8 b9bb b8f7 a7bb
00000080: 083f cabb 4a8d aabb 33a0 d9bb b945 babb
00000090: e592 aabb e666 f2bb e2b8 b9bb 31ac a9bb
000000a0: 017c c8bb c495 b6bb a98e b7bb 0f5e aabb
000000b0: f863 b7bb c7ea edbb ce41 c7bb 8599 5d3d
000000c0: 1b7e b5bb c56e a9bb ec67 babb 7a1c a9bb
000000d0: c038 abbb 4b16 a9bb df6e b7bb 2a6b 0bbc
000000e0: be84 a9bb ab57 b3bb 9d68 b4bb 2f2a 03bc
000000f0: e504 bcbb f8e6 aabb 8144 b4bb 515e babb
00000100: d834 bbbb 9bfa a5bb 6a8a b2bb e673 09bc
00000110: 0d08 a8bb 0857 a9bb 309c b4bb 11be b2bb
00000120: e6ec a6bb 3a52 523d 8c28 b6bb 2937 b5bb
00000130: b6fc b5bb 9c63 d9bb c990 aabb 44b4 ecbb
00000140: dc45 c9bb 499d a8bb 436b b7bb a03c b6bb
00000150: 64ed a6bb 2ef5 08bc 2205 eebb 5043 b8bb
00000160: 8d34 aabb 2627 aabb 5af3 a8bb 9cb4 cabb
00000170: fe5e 0cbc f546 bbbb a4e0 b9bb 502d a7bb
00000180: dce1 a8bb caa0 ecbb 19eb eebb b1c1 a8bb
00000190: 0521 713d 8bbc 733d ba7d 713d 2665 743d
000001a0: 9fa7 683d fc79 50bd 440e 743d e568 733d
000001b0: fb44 703d 7438 743d a095 723d eb76 713d
000001c0: 64cf 6a3d f351 683d b2d0 723d 383e 743d
000001d0: 769f 703d 40ce 713d 9e1c 703d 7276 713d
000001e0: 3c17 743d 0397 703d 90da 733d 44b9 6f3d
000001f0: c43f 733d 41bc 703d 1170 713d 0628 6a3d
00000200: e709 6d3d b931 653d 8ce7 703d cc84 743d
00000210: 5bc6 6b3d c0a5 733d 8640 6a3d e475 6f3d
00000220: 2aa4 733d b7dc 673d 06ea 703d 035b 733d
00000230: 3d3d 6d3d cf62 713d eb39 713d a838 733d
00000240: e542 713d 9c59 683d a967 6d3d b7c1 50bd
00000250: b489 713d 1357 743d 0dcd 703d 59d7 733d
00000260: 2a1a 733d 186d 733d a245 713d 8024 653d
00000270: 8cf7 733d 44e9 713d 61b5 713d 2459 663d
00000280: adee 6e3d 9c22 733d b7bd 713d be85 703d
00000290: 8dbd 6f3d bbc9 743d 4303 723d a127 653d
000002a0: ee2b 743d 5f65 733d 7cad 713d cefa 713d
000002b0: 0fa5 743d 24de 49bd 5c74 713d f697 713d
000002c0: 2178 713d 4b42 6a3d b9a6 733d a6b5 6a3d
000002d0: 74d0 6c3d b018 743d b146 713d ed6f 713d
000002e0: 55a9 743d 6134 653d dd2b 683d 4d20 713d
000002f0: 24b5 733d feb8 733d 8bdb 733d dcff 6b3d
00000300: 1f23 653d 9eae 703d a193 703d a7a0 743d
00000310: 2166 743d b864 683d e50c 683d ba14 743d
00000320: ab07 713d 6345 743d 3175 713d f821 753d
00000330: 4165 673d 25fe 4dbd a5af 743d 36d8 733d
00000340: c701 703d 5dea 743d 48cc 723d 676e 713d
00000350: 9bc1 693d b60a 673d e715 733d bbef 743d
00000360: 2a6e 703d 83d4 713d c4d2 6f3d 146c 713d
00000370: 50bc 743d 5c64 703d 8f6c 743d 175f 6f3d
00000380: 29a5 733d 0b90 703d 0365 713d b703 693d
00000390: 8748 6c3d 95f3 633d 0dc1 703d 5e4e 753d
000003a0: 86d9 6a3d 9f26 743d 5620 693d 7411 6f3d
000003b0: 8424 743d 2f92 663d a3c3 703d 14c2 733d
000003c0: 3783 6c3d f853 713d 4224 713d 8d9d 733d
000003d0: 2c2f 713d 4612 673d 88b1 6c3d cfb9 4ebd
000003e0: 8d84 713d 2d0e 753d 99a3 703d 6068 743d
000003f0: b875 733d afdd 733d 7d31 713d 62f3 633d

model.encoder.layers.2.0.bias f4 [100]
0.04058022 -0.003925812 -0.0032473516 -0.003884241 -0.0023194165 -0.0033174574 -0.0032357993 -0.004967452
-0.004480188 0.04044027 -0.0039235423 -0.0032818567 -0.0039102104 -0.0005687618 -0.0032777612 -2.4409027e-11
-0.0039028402 -0.0052314475 -0.0039177327 -0.0033503654 -0.004713729 -0.003934296 -0.0039035373 0.0411443
-0.004727832 -0.008549319 -2.74921e-40 -0.007492975 -0.008580548 -0.0022044708 -0.0049084066 -0.0032997406
-0.0039432324 -0.0039059983 -0.0022985097 -0.003276718 -0.003300307 0.04115611 -0.003228641 -0.0038803238
-0.003896329 -0.0032691665 -0.003940322 -0.0038826128 -0.0032295696 -0.0047276835 -0.0033385132 -0.004906755
-0.006143505 -0.0039236858 -0.0039447146 -0.0032776874 -0.0039446154 -0.0049278894 0.041438513 -0.0045814584
-0.0071522794 -0.0032537803 -0.0039156405 -0.0033060277 0.04108811 -0.00464247 -0.005335827 -0.008398972
0.041257642 -0.008561268 -0.0052855387 -6.9769e-41 -0.0038877137 -0.0039418177 -0.0003715042 -0.0053586164
-0.00391445 -0.0044233566 -0.005288783 -0.0032217412 -0.0038962592 -0.0033519422 -0.004924061 -0.007411164
-0.008561258 -0.0032465328 -0.0033114392 -0.0048894556 -0.0038705405 -0.0052085235 -0.0039057143 -7.0669e-41
7.59762e-40 -0.0032860793 -0.0039046726 -0.0039292937 -0.003948528 -0.0035576553 -0.0039302455 -0.005041959
-0.0032342083 -0.0032649096 -0.0039102403 -0.0032604071
00000000: 7237 263d 19a4 80bb 85d1 54bb c08e 7ebb
00000010: 5a01 18bb b369 59bb b40f 54bb 02c6 a2bb
00000020: 8ace 92bb b2a4 253d 0f91 80bb 6b14 57bb
00000030: 3921 80bb f518 15ba b5cf 56bb 3eb4 d6ad
00000040: cbc6 7fbb 906c abbb 5360 80bb ce91 5bbb
00000050: a075 9abb 44eb 80bb 7dd2 7fbb ed86 283d
00000060: eeeb 9abb 7112 0cbc 5efe 0280 a187 f5bb
00000070: 6d95 0cbc e278 10bb b3d6 a0bb 7640 58bb
00000080: 3b36 81bb c7fb 7fbb 98a2 16bb 35be 56bb
00000090: f749 58bb 4f93 283d 9c97 53bb 084d 7ebb
000000a0: 8e59 7fbb 833f 56bb d11d 81bb 6f73 7ebb
000000b0: 30a7 53bb afea 9abb f5ca 5abb d8c8 a0bb
000000c0: 754f c9bb 4392 80bb aa42 81bb 78ce 56bb
000000d0: d541 81bb 227a a1bb 6ebb 293d 0f20 96bb
000000e0: ab5d eabb 603d 55bb c64e 80bb f1a9 58bb
000000f0: 024c 283d dc1f 98bb 29d8 aebb d89b 09bc
00000100: c6fd 283d 9044 0cbc 5032 adbb 7dc2 0080
00000110: 03c9 7ebb 5d2a 81bb 73c6 c2b9 5597 afbb
00000120: c944 80bb cef1 90bb 874d adbb d923 53bb
00000130: 6258 7fbb 42ac 5bbb 045a a1bb 5ad9 f2bb
00000140: 8544 0cbc c8c3 54bb bb04 59bb ba37 a0bb
00000150: e5a8 7dbb 43ac aabb 03f7 7fbb ffc4 0080
00000160: e845 0800 435b 57bb 89e5 7fbb 4ec1 80bb
00000170: a762 81bb 8d27 69bb 4ac9 80bb 0537 a5bb
00000180: 03f5 53bb 18f8 55bb 7921 80bb 8eac 55bb

model.encoder.layers.3.weight f4 [10, 100]
-0.050799917 0.06528085 0.064917415 0.065312184 0.065984 0.06494433 0.064909145 0.06270395
0.06374005 -0.050011795 0.065290265 0.06492455 0.06529095 0.06857752 0.06492903 -4.33567e-40
0.06529883 0.06139723 0.065293185 0.06495777 0.060490627 0.06528237 0.06530192 -0.051190037
0.06042818 0.058782868 1.63558e-40 0.059250742 0.058795247 0.06559806 0.060378887 0.064937845
0.06526486 0.06530185 0.06505581 0.064932674 0.064926475 -0.049345165 0.06491519 0.06532163
0.06529751 0.06492407 0.06527607 0.065318644 0.064910606 0.060515948 0.06495002 0.06037973
0.06025668 0.06528341 0.06526334 0.06492284 0.06526981 0.060373582 -0.049456574 0.059666798
0.058686186 0.06491539 0.06528934 0.06493878 -0.049687333 0.06029965 0.06144898 0.05881053
-0.04939563 0.058785502 0.06148419 5.4642e-40 0.06530906 0.06527523 0.068559654 0.061436076
0.065293655 0.0639735 0.061363198 0.06491055 0.065307125 0.064953834 0.060076114 0.059417278
0.058788665 0.064916715 0.064936586 0.060399808 0.065326825 0.061411288 0.065293916 7.04616e-40
6.66333e-40 0.064936854 0.06529335 0.06527387 0.06526358 0.063882016 0.06528374 0.059295483
0.064913385 0.064917445 0.065291844 0.06492743 -7.10535e-40 -3.72832e-40 5.95955e-40 -4.66906e-40
-1.54403e-40 -4.728e-42 -3.88576e-40 2.36377e-40 5.9812e-40 -4.4125e-41 -7.60413e-40 -2.05643e-40
7.15895e-40 2.01564e-40 -7.14962e-40 4.14627e-40 7.15698e-40 7.1501e-40 3.30484e-40 2.77311e-40
5.4342e-40 -7.3454e-40 -8.7615e-41 3.46992e-40 2.50186e-40 -3.3923e-41 7.2072e-40 3.54893e-40
2.0762e-41 -5.65598e-40 2.43135e-40 -3.7213e-41 5.4333e-40 7.04396e-40 -2.56809e-40 1.49673e-40
2.66073e-40 7.28855e-40 -6.8309e-40 -6.63246e-40 3.01447e-40 -9.32e-43 -3.77336e-40 -7.39883e-40
2.35553e-40 -7.12762e-40 -9.4434e-41 -6.74728e-40 -7.47874e-40 7.31796e-40 -6.853e-40 3.00748e-40
4.97189e-40 6.67165e-40 -6.51579e-40 -3.97785e-40 2.8021e-40 -2.34196e-40 7.32696e-40 -5.52215e-40
-8.317e-41 -6.68652e-40 2.40778e-40 -6.65789e-40 -7.67686e-40 -7.54016e-40 -6.14661e-40 7.2348e-40
-6.63561e-40 4.58833e-40 5.53245e-40 2.8732e-41 -8.1152e-41 5.74593e-40 7.03558e-40 -1.32773e-40
-6.21288e-40 2.94626e-40 -6.1735e-40 3.599e-42 7.3129e-40 2.95349e-40 -6.71208e-40 -2.65393e-40
2.80593e-40 -3.57767e-40 6.62617e-40 -1.43492e-40 2.54505e-40 6.40676e-40 -7.32815e-40 6.63906e-40
-3.71626e-40 -7.21467e-40 -9.8558e-41 -5.45485e-40 -5.6415e-41 -3.26032e-40 6.8047e-40 -4.20418e-40
1.19269e-40 -6.82686e-40 -5.219555e-16 2.39325e-40 1.56781e-40 -7.719227e-17 -7.6504254e-16 -5.69273e-40
-7.66362e-40 -2.98227e-40 -1.38001e-40 -2.775263e-16 -7.5374e-40 -3.3235e-40 -2.3950653e-16 7.51223e-40
-2.4528e-41 -5.02434e-40 1.12943e-40 -3.4064535e-17 -7.56872e-40 -3.96021e-40 1.14167e-40 9.1233e-41
-7.06333e-40 3.03495e-40 5.62351e-40 -3.52722e-40 -4.46612e-40 6.25639e-40 -7.40003e-40 -1.4273858e-16
-2.94833e-40 6.9085e-41 5.77e-41 -2.0579539e-16 -1.8727591e-16 7.6856e-41 -6.903081e-16 -7.07538e-40
1.73322e-40 -3.2759465e-16 -9.4885e-41 1.67228e-40 -7.523671e-16 -2.5015e-41 -5.659015e-17 -7.06488e-40
-8.551e-41 -3.7211e-41 -7.29156e-40 -3.2169335e-16 -3.6453e-41 2.03208e-40 -4.50819e-40 2.61062e-40
00000000: 9313 50bd f7b1 853d 6cf3 843d 65c2 853d
00000010: 9f22 873d 8801 853d 16ef 843d ee6a 803d
00000020: 258a 823d 2bd9 4cbd e7b6 853d 2af7 843d
00000030: 43b7 853d 5f72 8c3d 83f9 843d 9cb8 0480
00000040: 65bb 853d a97b 7b3d 6fb8 853d 9408 853d
00000050: 05c5 773d c3b2 853d 03bd 853d a5ac 51bd
00000060: 8a83 773d 4ec6 703d efc7 0100 e8b0 723d
00000070: 49d3 703d 4758 863d da4f 773d 22fe 843d
00000080: 95a9 853d fabc 853d fb3b 853d 6cfb 843d
00000090: 2cf8 843d 281e 4abd 41f2 843d 59c7 853d
000000a0: b3ba 853d e9f6 843d 76af 853d c8c5 853d
000000b0: daef 843d 92df 773d 8404 853d bc50 773d
000000c0: b5cf 763d 4fb3 853d c9a8 853d 44f6 843d
000000d0: 2eac 853d 4a4a 773d fa92 4abd 2c65 743d
000000e0: ed60 703d 5cf2 843d 6bb6 853d a0fe 843d
000000f0: f284 4bbd c4fc 763d edb1 7b3d 4fe3 703d
00000100: 1253 4abd 11c9 703d d9d6 7b3d 32f3 0500
00000110: c2c0 853d 05af 853d 0169 8c3d 65a4 7b3d
00000120: aeb8 853d 8a04 833d fa57 7b3d d3ef 843d
00000130: bebf 853d 8406 853d 5f12 763d 885f 733d
00000140: 62cc 703d 0ef3 843d 79fd 843d ca65 773d
00000150: 12ca 853d 678a 7b3d d1b8 853d 2fac 0700
00000160: 7741 0700 9dfd 843d 85b8 853d 4fae 853d
00000170: e9a8 853d 93d4 823d 7bb3 853d d2df 723d
00000180: 4ff1 843d 70f3 843d bbb7 853d acf8 843d
00000190: afbc 0780 4e0f 0480 487d 0600 8b15 0580
000001a0: 6aae 0180 2e0d 0080 313b 0480 ec92 0200
000001b0: 5183 0600 017b 0080 b947 0880 403d 0280
000001c0: a0cb 0700 e131 0200 06c9 0780 d083 0400
000001d0: 13cb 0700 28c9 0700 4199 0300 0805 0300
000001e0: d5ea 0500 99ff 0780 3cf4 0080 46c7 0300
000001f0: 6bb9 0200 905e 0080 13d9 0700 4cdd 0300
00000200: e039 0000 a828 0680 c3a5 0200 bc67 0080
00000210: 95ea 0500 92ab 0700 e1cb 0280 3aa1 0100
00000220: b4e5 0200 c0ef 0700 2d70 0780 dc38 0780
00000230: 5048 0300 9902 0080 dc1b 0480 7e0e 0880
00000240: a090 0200 e4c2 0780 3e07 0180 de58 0780
00000250: c524 0880 f3f7 0700 5676 0780 5d46 0300
00000260: f669 0500 c943 0700 5618 0780 dd54 0480
00000270: 1d0d 0300 d88c 0280 75fa 0700 5a03 0680
00000280: d8e7 0080 ee47 0780 319f 0200 f33f 0780
00000290: ff5b 0880 e435 0880 6db1 0680 c5e0 0700
000002a0: bd39 0780 0aff 0400 3906 0600 1850 0000
000002b0: 38e2 0080 bb41 0600 3ca9 0700 1e72 0180
000002c0: e6c3 0680 4c35 0300 ecb8 0680 080a 0000
000002d0: 8af6 0700 5037 0300 0e4f 0780 cfe3 0280
000002e0: 2e0e 0300 4fe5 0380 1b37 0700 ff8f 0180
000002f0: 75c5 0200 f2f9 0600 cafa 0780 b33a 0700
00000300: f10b 0480 28db 0780 bd12 0180 97f0 0580
00000310: 439d 0080 d88c 0380 e068 0700 f493 0480
00000320: 794c 0100 0d6f 0780 8571 16a6 249b 0200
00000330: 0bb5 0100 46fe b1a4 2d82 5ca6 e732 0680
00000340: 4e58 0880 563f 0380 b180 0180 a7fb 9fa5
00000350: 1f35 0880 759e 0380 ed10 8aa5 1b2e 0800
00000360: 6044 0080 9578 0580 d73a 0100 4e18 1da4
00000370: da3d 0880 f24f 0480 403e 0100 52fe 0000
00000380: f8b0 0780 054e 0300 9b1f 0600 3fd7 0380
00000390: f9dc 0480 07d0 0600 d40e 0880 fe90 24a5
000003a0: e035 0380 95c0 0000 d8a0 0000 1444 6da5
000003b0: 18ea 57a5 3ed6 0000 bff7 46a6 54b4 0780
000003c0: 27e3 0100 70d8 bca5 8008 0180 2ad2 0100
000003d0: e5da 58a6 bb45 0080 ee7c 82a4 67b1 0780
000003e0: 5eee 0080 bb67 0080 97f0 0780 8f71 b9a5
000003f0: 9e65 0080 7636 0200 b3e8 0480 bcd7 0200

model.encoder.layers.3.bias f4 [10]
-0.0041255984 -0.00057388516 -0.0005281657 -0.003480511 -0.0035291607 -0.00058329594 -0.003752088 -0.000497178
-0.0005885573 -0.0005309566
00000000: 0730 87bb c870 16ba 9a74 0aba 4919 64bb
00000010: 7e49 67bb 54e8 18ba 97e5 75bb 0d55 02ba
00000020: 6949 1aba e52f 0bba

model.predictor_linear.0.weight f4 [1, 10]
0.32250264 -0.09306522 -0.007950225 0.26804376 0.23624636 -0.11768769 0.16853039 -3.4605857e-06
-0.12597474 -0.014011334
00000000: 111f a53e fa98 bebd a941 02bc 083d 893e
00000010: 91ea 713e 3e06 f1bd 3b93 2c3e 693c 68b6
00000020: 86ff 00be cb8f 65bc

exp_avg f4 [100, 1]
-0.0013017107 2.6838743e-05 -0.0010951776 -0.0011457527 0.000647138 -0.0012933593 -2.3120376e-05 -0.00260629
0.0004505216 -0.0020475758 -0.0081842365 -0.0014239725 -0.0013519031 -0.0026759112 0.00083814235 -0.0020272597
-0.0005760558 -0.001116107 -0.0023336783 -0.0043436596 0.001329577 0.0012893439 0.0012132258 0.0011398355
0.0011076265 -0.000675781 0.0012294558 0.0009599296 0.0012191259 -0.0006144522 0.0006153534 0.00037266192
0.00044992 0.0005878022 0.0006082733 0.0005255596 0.00020613357 0.00046518786 9.373097e-05 0.00029201555
0.00055722846 0.00052525115 0.00058233156 0.0006383953 0.00063310756 0.00053654116 0.00063629285 -0.00027099802
0.00069632306 0.00023916678 0.0006507059 -0.00022665974 0.0006714096 -0.00011229452 0.00060757785 0.00040405826
0.0006164553 0.0006640219 0.00053357176 0.0005887211 0.00035069787 -9.554369e-05 -0.0006034665 -0.00036582138
0.00051987113 0.00054139737 0.0006295783 0.00060987944 0.0005093186 0.0005955105 0.00051013654 0.00047412887
0.00069495355 -0.00034599073 0.0005954802 0.00013813672 0.0008208396 0.0010067929 0.00026737066 0.0002497181
6.171694e-05 -0.00022048772 0.00044427539 0.0010868058 -0.0013181611 -0.0008624148 0.00044344895 0.00073971733
0.00015931955 0.00027668366 -0.00020829042 0.0002944763 0.00024391839 -0.00080563285 -0.0011608398 -0.00021001739
-0.00031169283 -0.001300619 -0.00014287715 0.00055457035
00000000: 2a9e aaba c323 e137 108c 8fba 152d 96ba
00000010: b2a4 293a f085 a9ba a1f2 c1b7 4ace 2abb
00000020: fc33 ec39 9f30 06bb 2d17 06bc 97a4 baba
00000030: 5732 b1ba 575e 2fbb c8b6 5b3a c6db 04bb
00000040: 7302 17ba 564a 92ba a0f0 18bb 4255 8ebb
00000050: 3345 ae3a 34ff a83a 1a05 9f3a 8866 953a
00000060: c72d 913a e526 31ba b125 a13a c9a3 7b3a
00000070: 14cb 9f3a 3013 21ba ab4f 213a d661 c339
00000080: 3de3 eb39 bd16 1a3a 8874 1f3a b5c5 093a
00000090: 8f25 5839 75e4 f339 6e91 c438 aa19 9939
000000a0: f812 123a 02b1 093a 9ca7 183a fc59 273a
000000b0: 21f7 253a aba6 0c3a e4cc 263a bd14 8eb9
000000c0: 7389 363a d8c8 7a39 2294 2a3a 83ab 6db9
000000d0: 8901 303a a97f ebb8 dc45 1f3a c8d7 d339
000000e0: 9d99 213a c111 2e3a 65df 0b3a 6754 1a3a
000000f0: dfdd b739 a15e c8b8 f431 1eba b7cb bfb9
00000100: f647 083a 90ec 0d3a 490a 253a 51e0 1f3a
00000110: cb83 053a 081c 1c3a afba 053a 8094 f839
00000120: 8b2d 363a 1766 b5b9 001a 1c3a cbd8 1039
00000130: 9d2d 573a 5df6 833a e22d 8c39 99ec 8239
00000140: 086e 8138 b932 67b9 a2ed e839 2773 8e3a
00000150: 26c6 acba ad13 62ba b67e e839 97e9 413a
00000160: 040f 2739 da0f 9139 8968 5ab9 f163 9a39
00000170: 58c4 7f39 1b31 53ba 5227 98ba 1d38 5cb9
00000180: b46a a3b9 8879 aaba 4bd1 15b9 9660 113a

exp_avg_sq f4 [100, 1]
3.58328e-05 9.877616e-06 2.3462435e-05 2.4371564e-05 2.1082008e-06 2.618058e-05 1.719364e-05 3.7494025e-05
9.4864145e-06 4.5360695e-05 0.00015140294 3.169116e-05 2.3460321e-05 3.5725276e-05 8.041399e-06 2.0949094e-05
2.7406042e-05 2.8072462e-05 4.087999e-05 8.309983e-05 6.5165996e-06 7.428211e-06 3.4080304e-06 4.030523e-06
3.5217881e-06 2.8781396e-06 4.9289233e-06 7.2752227e-06 6.36078e-06 5.000468e-06 1.3296321e-06 9.131061e-07
5.0362205e-06 1.449098e-06 2.4967796e-06 6.496839e-07 9.014284e-06 4.352176e-06 4.642892e-06 2.0858477e-06
7.4276663e-06 6.4496003e-06 6.916579e-06 1.3789895e-06 1.7181641e-06 4.6877985e-06 2.2196984e-06 1.3720329e-05
1.1896157e-06 1.5568618e-05 1.442433e-06 1.2078773e-05 3.3613974e-06 1.7596697e-06 9.658971e-07 9.559143e-07
1.1948285e-06 1.434671e-06 5.9144435e-07 8.995873e-07 8.8138364e-07 3.3843014e-06 3.448299e-06 4.2524234e-06
5.3256025e-07 5.397185e-07 7.13752e-07 7.0040886e-07 9.626161e-07 5.3466823e-07 1.2497488e-06 1.1472839e-06
1.8098948e-06 1.8119124e-05 5.70903e-07 5.196556e-06 3.3381402e-06 5.5267324e-06 5.7957027e-06 4.543835e-06
4.5042198e-06 7.733504e-06 1.3706375e-06 7.639052e-06 1.8076846e-05 1.7002276e-05 8.765463e-07 1.0049522e-06
5.1624297e-06 3.2615737e-06 2.1358894e-05 6.426238e-06 1.6188644e-05 4.2097097e-05 5.0204104e-05 2.0647358e-05
2.2372446e-05 5.0820458e-05 1.9564332e-05 3.033957e-06
00000000: 2d4b 1638 0ab8 2537 32d1 c437 8971 cc37
00000010: 9d7a 0d36 5e9e db37 103b 9037 e742 1d38
00000020: d727 1f37 ad41 3e38 ebc1 1e39 20ec 0438
00000030: a8cc c437 b9d7 1538 8ce9 0637 d6bb af37
00000040: 07e6 e537 277d eb37 8e76 2b38 e245 ae38
00000050: 2aa9 da36 d93f f936 84b5 6436 ee3d 8736
00000060: dc57 6c36 1026 4136 2163 a536 b01d f436
00000070: af6e d536 b1c9 a736 d075 b235 2c1c 7535
00000080: cefc a836 a17e c235 598e 2736 f065 2e35
00000090: 0e3c 1737 e808 9236 23ca 9b36 97fa 0b36
000000a0: 2b3b f936 a569 d836 f614 e836 b815 b935
000000b0: ab9b e635 e24b 9d36 21f6 1436 5d30 6637
000000c0: e2aa 9f35 5a99 8237 9f99 c135 efa5 4a37
000000d0: 5e94 6136 ca2d ec35 f9a3 8135 f74c 8035
000000e0: ff5d a035 ec8e c035 bfc3 1e35 2b7b 7135
000000f0: 3998 6c35 db1d 6336 5369 6736 0ab0 8e36
00000100: 43f5 0e35 2ce1 1035 aa98 3f35 bb03 3c35
00000110: 3d33 8135 1f86 0f35 0bbd a735 60fc 9935
00000120: 83eb f235 86fe 9737 2840 1935 135e ae36
00000130: d004 6036 4572 b936 b578 c236 3f77 9836
00000140: f422 9736 26bf 0137 bff6 b735 7a29 0037
00000150: bba3 9737 1ca0 8e37 ce4b 6b35 e5e1 8635
00000160: ef38 ad36 69e1 5a36 e02b b337 f7a0 d736
00000170: d9cc 8737 6a91 3038 3f92 5238 dd33 ad37
00000180: 76ac bb37 0d28 5538 151e a437 fc9a 4b36

exp_avg f4 [100, 100]
-0.0010840079 -0.0012078827 -0.0010048087 -0.0010844328 -0.0014832009 -0.0009713469 -0.0012308805 -0.0007648943
-0.0012343822 -0.0010941504 -0.0016557637 -0.0012954809 -0.0013790214 -0.0015177751 -0.00093745027 -0.0014194599
-0.0011385954 -0.001223127 -0.0017015983 -0.001564628 -0.0007468367 -0.00058430113 -0.0006526095 -0.0007091505
-0.00054311287 -0.00055625924 -0.00072004454 -0.0010388299 -0.00087761774 -0.00057858013 -0.0013892852 -0.0014904435
-0.0012130606 -0.00125728 -0.0013743195 -0.001488916 -0.0011855839 -0.0012363303 -0.0015525036 -0.0015481928
-0.0015521863 -0.0016223126 -0.0015612993 -0.0016882916 -0.001793895 -0.00140485 -0.0017551081 -0.0012621572
-0.0015906888 -0.0013323898 -0.0011982664 -0.0015199957 -0.0013134067 -0.0010675644 -0.0012295627 -0.0010089837
-0.0014449438 -0.001263022 -0.0010359295 -0.001032182 -0.0010657536 -0.00096278754 -0.00083986495 -0.0009014279
-0.0011432631 -0.0012049895 -0.0011667626 -0.0010574415 -0.001191169 -0.0012735543 -0.0005505195 -0.00069139985
-0.0007154849 -0.0005422706 -0.00072802947 -0.00040725977 -0.0006611998 -0.00048106918 -0.0004246468 -0.0003465234
-0.0013572099 -0.0014279385 -0.0012284488 -0.0011714058 -0.0014531688 -0.0014044179 -0.0013349733 -0.0012354868
-0.0012770738 -0.001353313 -0.0014522633 -0.0015585965 -0.0014587737 -0.0013425619 -0.0013735222 -0.0015369769
-0.0013961112 -0.0011165573 -0.0013153563 -0.0016417378 -0.0010932896 -0.0012197503 -0.0010134951 -0.0010950178
-0.0014967577 -0.0009796701 -0.0012426035 -0.00077225134 -0.0012458876 -0.0011043968 -0.0016721624 -0.001306623
-0.0013911554 -0.0015322915 -0.0009459114 -0.0014333322 -0.0011486859 -0.0012334198 -0.0017175222 -0.0015782136
-0.0007524958 -0.0005892973 -0.00065796264 -0.00071518373 -0.00054823793 -0.00056146714 -0.0007259973 -0.0010473616
-0.0008852193 -0.0005836432 -0.0014018522 -0.0015040942 -0.0012227449 -0.0012675289 -0.0013871929 -0.0015016487
-0.0011963423 -0.0012480649 -0.0015665302 -0.0015624957 -0.0015651876 -0.0016371269 -0.0015758032 -0.0017038746
-0.0018111109 -0.001418074 -0.0017710141 -0.0012732206 -0.0016050331 -0.001344969 -0.0012078122 -0.0015331664
-0.0013244232 -0.0010766488 -0.0012409299 -0.0010173528 -0.0014574148 -0.0012743294 -0.0010442853 -0.0010418213
-0.0010736531 -0.0009707739 -0.00084782066 -0.00090878876 -0.0011536862 -0.0012145588 -0.0011769002 -0.0010663341
-0.0012012073 -0.0012849928 -0.0005552004 -0.00069781294 -0.0007218331 -0.00054681173 -0.0007341527 -0.00041053892
-0.0006677364 -0.00048551176 -0.00042668718 -0.00034909003 -0.0013698557 -0.0014397431 -0.0012390674 -0.0011810624
-0.0014657506 -0.0014169194 -0.0013466793 -0.0012455613 -0.0012884116 -0.0013661744 -0.0014654262 -0.0015732076
-0.0014713883 -0.001354979 -0.0013861314 -0.0015497785 -0.0014082463 -0.0011266178 -0.001325688 -0.0016560536
0.0011509917 0.0012835648 0.0010660237 0.0011511697 0.0015766472 0.001029983 0.0013073699 0.0008105512
0.0013123254 0.0011614811 0.0017621083 0.0013748611 0.0014641543 0.0016131437 0.000994241 0.001509153
0.0012079102 0.0012982902 0.0018098523 0.00166404 0.0007893708 0.00061679044 0.0006894165 0.0007500114
0.00057367916 0.00058610784 0.0007605844 0.0011012985 0.00092868437 0.0006108873 0.0014762732 0.0015830997
0.001287247 0.0013355381 0.0014608523 0.0015805677 0.0012581978 0.001312995 0.0016497705 0.0016456128
0.0016494931 0.0017261239 0.0016604817 0.0017952942 0.0019079561 0.0014931199 0.0018666941 0.0013409562
0.0016916925 0.0014157906 0.0012724997 0.0016157982 0.0013953812 0.0011309418 0.0013060813 0.0010701558
00000000: 4515 8eba d151 9eba c9b3 83ba 8723 8eba
00000010: f767 c2ba fda1 7eba 7f55 a1ba 3083 48ba
00000020: feca a1ba 9869 8fba 3606 d9ba 20cd a9ba
00000030: 48c0 b4ba 15f0 c6ba 39bf 75ba 2c0d baba
00000040: ec3c 95ba 5551 a0ba 2a08 dfba 3414 cdba
00000050: 5dc7 43ba c92b 19ba e213 2bba 49e6 39ba
00000060: b05f 0eba edd1 11ba 5fc1 3cba 5929 88ba
00000070: ee0f 66ba dbab 17ba ad18 b6ba fc5a c3ba
00000080: 8fff 9eba 51cb a4ba 8322 b4ba bb27 c3ba
00000090: 9865 9bba 5c0c a2ba 607d cbba bbec caba
000000a0: bb72 cbba c7a3 d4ba 83a4 ccba aa49 ddba
000000b0: 2121 ebba f222 b8ba a80b e6ba f86e a5ba
000000c0: a97e d0ba 95a3 aeba 260f 9dba 983a c7ba
000000d0: 9e26 acba 84ed 8bba 4729 a1ba e03f 84ba
000000e0: 4564 bdba fc8b a5ba 07c8 87ba 484a 87ba
000000f0: c2b0 8bba 9463 7cba 622a 5cba cd4d 6cba
00000100: 8bd9 95ba bdf0 9dba 0eee 98ba d999 8aba
00000110: 0021 9cba 64ed a6ba bd50 10ba 0f3f 35ba
00000120: 618f 3bba 2a27 0eba 3bd9 3eba 7b85 d5b9
00000130: 5e54 2dba 0338 fcb9 21a3 deb9 95ad b5b9
00000140: 68e4 b1ba aa29 bbba e703 a1ba db89 99ba
00000150: 4178 beba 7214 b8ba 45fa aeba 0ff0 a1ba
00000160: 7c63 a7ba a661 b1ba df59 beba d249 ccba
00000170: 5334 bfba e7f8 afba c207 b4ba 6374 c9ba
00000180: b8fd b6ba 7259 92ba 0968 acba 942f d7ba
00000190: b64c 8fba 07e0 9fba 41d7 84ba b386 8fba
000001a0: db2e c4ba 4668 80ba dbde a2ba e970 4aba
000001b0: 0d4d a3ba 68c1 90ba 762c dbba fe42 abba
000001c0: 6e57 b6ba 2cd7 c8ba 0af7 77ba a6de bbba
000001d0: 818f 96ba b3aa a1ba 7b1e e1ba 10dc ceba
000001e0: 2343 45ba 137b 1aba 207b 2cba 2b7b 3bba
000001f0: a0b7 0fba 6c2f 13ba db50 3eba a047 89ba
00000200: 100e 68ba a2ff 18ba 5bbe b7ba 0725 c5ba
00000210: 8344 a0ba 3623 a6ba 78d2 b5ba f8d2 c4ba
00000220: 96ce 9cba 1c96 a3ba 0854 cdba a8cc ccba
00000230: fb26 cdba dd94 d6ba 2e8b ceba 8b54 dfba
00000240: cc62 edba abde b9ba 5f21 e8ba 32e2 a6ba
00000250: f95f d2ba ac49 b0ba 744f 9eba 87f4 c8ba
00000260: 4598 adba 571e 8dba b3a6 a2ba b258 85ba
00000270: ba06 bfba 6607 a7ba 66e0 88ba b98d 88ba
00000280: d2b9 8cba 897b 7eba 4840 5eba c83b 6eba
00000290: 4937 97ba d531 9fba 3842 9aba 3cc4 8bba
000002a0: d471 9dba 346d a8ba de8a 11ba 6fed 36ba
000002b0: 6639 3dba ea57 0fba 2774 40ba 9a3d d7b9
000002c0: 080b 2fba 498c feb9 fcb4 dfb9 1206 b7b9
000002d0: bb8c b3ba c3b5 bcba 3468 a2ba e1cd 9aba
000002e0: 6e1e c0ba edb7 b9ba 0f83 b0ba 1a42 a3ba
000002f0: ebdf a8ba 3511 b3ba 8b13 c0ba 1634 ceba
00000300: 99db c0ba 8d99 b1ba daae b5ba f021 cbba
00000310: e894 b8ba 05ab 93ba b5c2 adba f00f d9ba
00000320: dfdc 963a 4a3d a83a d2b9 8b3a d8e2 963a
00000330: 80a7 ce3a 7f00 873a 0e5c ab3a 2c7b 543a
00000340: 5502 ac3a d73c 983a 8bf6 e63a af34 b43a
00000350: dee8 bf3a 1f70 d33a 3151 823a c6ce c53a
00000360: be52 9e3a 642b aa3a 9138 ed3a eb1b da3a
00000370: c7ed 4e3a 1bb0 213a f5b9 343a 6a9c 443a
00000380: f562 163a 08a5 193a f461 473a 7259 903a
00000390: f472 733a f423 203a 827f c13a 0380 cf3a
000003a0: d8b8 a83a 390d af3a 127a bf3a 0d2b cf3a
000003b0: 1dea a43a cd18 ac3a 1d3d d83a 9ab1 d73a
000003c0: ce33 d83a 1b3f e23a 85a4 d93a 1450 eb3a
000003d0: 6214 fa3a cab4 c33a dcab f43a 06c3 af3a
000003e0: c8bb dd3a 0d92 b93a 01ca a63a 31c9 d33a
000003f0: 39e5 b63a 1c3c 943a d130 ab3a 7844 8c3a
