logs/l1_coef-0.0/version_0/checkpoints/epoch=42739-step=42740.ckpt (torch, 566207 bytes, 72 tensors)

model.encoder.layers.0.weight f4 [100, 100]
-0.50981617 -0.06994888 -0.0068574115 -0.028664235 -0.05985661 -0.09893489 -0.10934713 -0.08849851
-0.14064492 -0.0023603057 0.039036065 0.03281074 0.031552307 0.09243993 -0.08338886 0.033518318
-0.0587504 0.07151118 -0.0061217477 -0.015870338 -0.014995133 -0.01803584 -0.02790135 0.043067962
0.042908415 0.04714585 0.09178229 -0.015797636 -0.051278472 -0.07797993 0.043928787 0.01686415
-0.015780285 0.07921563 -0.04214658 0.070378624 0.07374743 -0.029662857 0.06679479 -0.067066856
-0.038469758 0.038947426 -0.030915624 -0.04323331 0.106524795 0.05712311 -0.05993871 0.016847318
0.10588387 0.0012918336 0.024389133 0.04545174 0.034286268 -0.018165197 -0.0671628 -0.04597907
-0.035779227 0.043717686 0.077094205 -0.019172948 0.023023127 0.11217926 0.008444454 0.088144526
-0.0035608902 0.07548215 0.11724423 -0.04857661 -0.009455351 0.047212444 -0.055650186 0.07010749
0.023962164 0.07123664 0.04398458 0.0729671 0.09839126 0.062123824 -0.051096343 0.06356683
-0.069572136 -0.055428702 0.077930756 0.005708373 -0.022336211 0.028274495 0.06524281 -0.062511995
-0.07635563 0.0049219322 -0.04729635 0.026140792 0.015505944 0.07448098 0.13454705 -0.01422393
-0.0024556506 0.13795906 -0.025275225 0.07890864 -0.09170007 0.038023304 -0.010042674 -0.07581209
-0.09506848 0.064435825 -0.03749109 0.0053943107 0.047928393 0.074747495 0.093910925 0.110582665
-0.025943195 0.08117637 -0.07205522 -0.046159007 0.06929672 0.015996983 0.009360642 -0.015506194
-0.0894911 0.05026703 0.08742539 -0.04753172 0.08928281 -0.03495994 0.0055674794 -0.048492223
0.06435023 0.084421046 -0.0023853562 0.1124633 0.022015635 -0.033629794 0.01262176 0.041409206
0.07353854 0.010397646 0.024517288 -0.020073505 0.08801292 0.10361671 0.037391666 -0.015128749
-0.091416955 -0.07892202 -0.062060203 -0.028750967 -0.047887895 0.08163269 0.056009743 0.09053992
-0.047034718 0.05282334 0.009518352 0.068922296 0.08578317 0.05517783 0.11940557 0.08923587
0.042418685 0.014684362 0.12160938 -0.039491475 -0.017412813 0.059846245 0.10332131 -0.0009236206
-0.025923017 0.05734063 0.09886393 -0.0036353301 0.077787235 0.077951856 -0.032766655 -0.0015872158
0.0976859 -0.052443936 0.110623136 0.07863639 0.020353684 -0.05896958 0.030697428 -0.047786623
-0.047227774 0.09722659 0.03370227 0.056358494 -0.0150989285 0.08336625 0.029453807 0.053419
0.043038182 0.10006678 0.036375456 0.0816748 0.048856396 -0.07200471 0.09521033 -0.096715644
-0.3900473 0.01898291 0.15462126 0.07466496 -0.0643458 -0.036278453 0.14453582 -0.010370728
0.09538617 0.09628027 -0.0055642193 0.072061636 0.16550812 0.14518586 0.04702181 0.029094659
0.07248082 0.021280598 0.023307461 0.04227386 0.09343322 0.0049429857 0.05025243 0.112774886
0.013478085 -0.041147303 0.08213519 -0.020019714 0.06439679 0.084666476 -0.041367132 0.062001646
0.024345513 0.053438943 -0.0019195164 0.086350374 -0.037467215 -0.074815296 -0.0040882356 0.03598489
0.006903783 -0.03451023 0.07244614 -0.041836932 0.08797261 -0.0023965903 0.07680991 0.069939665
0.059142787 -0.02057931 -0.013447128 0.034040455 -0.047338303 -0.045515176 0.01277796 0.075917
00000000: 5083 02bf 5c41 8fbd 23b4 e0bb 42d1 eabc
00000010: 342c 75bd 609e cabd 63f1 dfbd b53e b5bd
00000020: 3905 10be 5caf 1abb 48e4 1f3d 8e64 063d
00000030: fe3c 013d 2551 bd3d c7c7 aabd 814a 093d
00000040: 42a4 70bd 7474 923d f198 c8bb 8302 82bc
00000050: 25ae 75bc e6bf 93bc 5f91 e4bc 0868 303d
00000060: bcc0 2f3d 021c 413d 5af8 bb3d 0b6a 81bc
00000070: 6009 52bd f1b3 9fbd acee 333d b026 8a3c
00000080: a845 81bc ce3b a23d e4a1 2cbd ab22 903d
00000090: e508 973d 85ff f2bc b5cb 883d 595a 89bd
000000a0: 7792 1dbd 5687 1f3d c342 fdbc 6915 31bd
000000b0: ac29 da3d ecf9 693d 4b82 75bd 6303 8a3c
000000c0: a4d9 d83d be52 a93a b8cb c73c 9b2b 3a3d
000000d0: c26f 0c3d 2ecf 94bc a68c 89bd 8d54 3cbd
000000e0: 3d8d 12bd 5111 333d 91e3 9d3d 9610 9dbc
000000f0: ff9a bc3c 3dbe e53d 9b5a 0a3c 1e85 b43d
00000100: d35d 69bb 6396 9a3d be1d f03d 44f8 46bd
00000110: 9eea 1abc d661 413d 73f1 63bd 8494 8f3d
00000120: 4d4c c43c 84e4 913d 2d29 343d c66f 953d
00000130: 5b81 c93d 8d75 7e3d 664a 51bd 532f 823d
00000140: d67b 8ebd 3509 63bd 299a 9f3d 4e0d bb3b
00000150: 6efa b6bc ea9f e73c 069e 853d 4a06 80bd
00000160: 5760 9cbd 2948 a13b d1b9 41bd 3725 d63c
00000170: a50c 7e3c 7c89 983d b4c6 093e 7d0b 69bc
00000180: fbee 20bb 2445 0d3e fd0d cfbc da9a a13d
00000190: 3fcd bbbd 53be 1b3d 078a 24bc 5e43 9bbd
000001a0: 43b3 c2bd eef6 833d 4290 19bd c2c2 b03b
000001b0: 9050 443d 3715 993d 5f54 c03d 2a79 e23d
000001c0: d386 d4bc cc3f a63d b091 93bd 3a11 3dbd
000001d0: 70eb 8d3d 1b0c 833c 615d 193c b10d 7ebc
000001e0: 1c47 b7bd cde4 4d3d 150c b33d 9fb0 42bd
000001f0: e8d9 b63d 2732 0fbd 676f b63b c89f 46bd
00000200: 0eca 833d f1e4 ac3d a353 1cbb 2953 e63d
00000210: 225a b43c 65bf 09bd 80cb 4e3c b39c 293d
00000220: 609b 963d e35a 2a3c 7bd8 c83c 3171 a4bc
00000230: 1e40 b43d ff34 d43d 0128 193d 93de 77bc
00000240: d038 bbbd dea1 a1bd d732 7ebd 2687 ebbc
00000250: 1926 44bd 0a2f a73d 796a 653d fe6c b93d
00000260: 7aa7 40bd 495d 583d ddf2 1b3c 2227 8d3d
00000270: 16af af3d 2602 623d e88a f43d 4cc1 b63d
00000280: 37bf 2d3d ae96 703c 570e f93d d0c1 21bd
00000290: 51a5 8ebc 5621 753d 1f9a d33d 211f 72ba
000002a0: 825c d4bc 02de 6a3d 2c79 ca3d b83e 6ebb
000002b0: ea4e 9f3d 39a5 9f3d 5436 06bd 200a d0ba
000002c0: 8c0f c83d 74cf 56bd 628e e23d 1e0c a13d
000002d0: c5bc a63c 168a 71bd 2c79 fb3c e8bb 43bd
000002e0: e971 41bd bc1e c73d 640b 0a3d 2ad8 663d
000002f0: 7f61 77bc edbb aa3d 1c49 f13c e2cd 5a3d
00000300: ce48 303d d0ef cc3d 6efe 143d 1e45 a73d
00000310: a51d 483d 3577 93bd a2fd c23d da12 c6bd
00000320: 48b4 c7be 0c82 9b3c 0955 1e3e f1e9 983d
00000330: bbc7 83bd b798 14bd 3301 143e fce9 29bc
00000340: d359 c33d 972e c53d 0e54 b6bb 0d95 933d
00000350: f67a 293e 9aab 143e f199 403d ec57 ee3c
00000360: d370 943d a654 ae3c 4aef be3c 5b27 2d3d
00000370: eb59 bf3d c5f8 a13b 7ed5 4d3d 85f6 e63d
00000380: 30d3 5c3c 138a 28bd 7f36 a83d 6200 a4bc
00000390: 77e2 833d 9e65 ad3d 9570 29bd 70f5 7d3d
000003a0: 3e70 c73c cbe2 5a3d 4898 fbba 77d8 b03d
000003b0: 3977 19bd c338 99bd 9bf6 85bb e464 133d
000003c0: 2139 e23b 995a 0dbd a45e 943d 345d 2bbd
000003d0: fc2a b43d 1d10 1dbb 844e 9d3d 873c 8f3d
000003e0: b53f 723d f195 a8bc 5851 5cbc 016e 0b3d
000003f0: cfe5 41bd 1f6e 3abd a65a 513c 5f7a 9b3d

model.encoder.layers.0.bias f4 [100]
0.30452845 0.04340467 0.2391184 0.00025326706 0.20291726 -0.0017629522 0.2512781 -0.12269815
0.20871644 -0.27853215 -0.25771755 0.27137145 -0.31931555 0.16283903 0.2505184 -0.1898751
0.040908784 -0.14456569 0.14434692 0.29287696 0.25029802 -0.27972808 -0.2884709 -0.038763225
0.122230746 -0.14008613 -0.09882621 0.23658212 0.12221522 -0.28149423 0.04088751 -0.25520602
0.03592906 -0.23786855 0.23783931 -0.24934909 0.20811158 -0.20887917 0.2569805 0.2621844
0.034749284 -0.10212768 -0.20775926 -0.104846984 0.12678678 -0.030252513 -0.035190757 -0.25181174
-0.19960642 0.27748832 0.17631742 0.29452008 0.15973915 0.27787873 0.033622086 0.16797663
-0.17287543 0.18210556 -0.12721218 -0.15194216 0.19622442 -0.20248263 0.19612521 -0.18644625
0.18578054 -0.22027342 -0.28131485 0.23236437 -0.053985905 0.05436006 0.27096173 -0.07270534
-0.17515238 0.057507776 0.3295392 0.21581142 -0.30359474 0.16567591 -0.19015844 0.22573915
-0.07463877 0.14733642 0.16498344 -0.16701685 -0.03261644 0.2882464 -0.1692063 0.22568956
-0.17559333 0.21998626 -0.13796985 -0.2745883 0.073889434 0.22692388 0.029237436 0.33472824
-0.2689599 0.14582692 -0.21434432 0.28977978
00000000: 27eb 9b3e 18c9 313d 74db 743e eec8 8439
00000010: 8bc9 4f3e dc12 e7ba 86a7 803e 2b49 fbbd
00000020: c3b9 553e c49b 8ebe 8ef3 83be 33f1 8a3e
00000030: 547d a3be 46bf 263e f343 803e 9e6e 42be
00000040: f88f 273d 0709 14be aecf 133e f8f3 953e
00000050: 1027 803e 8538 8fbe 75b2 93be 30c6 1ebd
00000060: 1d54 fa3d bd72 0fbe 6565 cabd 9542 723e
00000070: f94b fa3d 0320 90be a979 273d 5daa 82be
00000080: 5a2a 133d d093 73be 268c 733e 5e55 7fbe
00000090: 341b 553e 6ce4 55be f392 833e 093d 863e
000000a0: 4455 0e3d 5128 d1bd d8be 54be 04ba d6bd
000000b0: 65d4 013e 1ed4 f7bc 2f24 10bd 78ed 80be
000000c0: a065 4cbe f312 8e3e 8e8c 343e 56cb 963e
000000d0: a992 233e 1f46 8e3e 50b7 093d 1102 2c3e
000000e0: 4206 31be e179 3a3e e943 02be ba96 1bbe
000000f0: 0eef 483e 9b57 4fbe 0cd5 483e c4eb 3ebe
00000100: 413d 3e3e 5b8f 61be 8008 90be edf0 6d3e
00000110: 5320 5dbd a7a8 5e3d 7fbb 8a3e 8ae6 94bd
00000120: 255b 33be 468d 6b3d 5db9 a83e abfd 5c3e
00000130: c570 9bbe f2a6 293e e5b8 42be 2a28 673e
00000140: 36dc 98bd 5cdf 163e 6bf1 283e 7706 2bbe
00000150: d198 05bd 0895 933e 6b44 2dbe 2a1b 673e
00000160: bdce 33be 1444 613e f847 0dbe d696 8cbe
00000170: 5853 973d bc5e 683e 5983 ef3c 8061 ab3e
00000180: 1db5 89be a753 153e 147d 5bbe 045e 943e

model.encoder.layers.1.0.weight f4 [100, 100]
-0.030759785 -0.025005303 0.061878324 0.11223529 0.018417109 0.049493033 0.045511473 -0.066456
-0.05033441 -0.013123023 0.10629179 0.036380675 -0.036394447 0.061191354 -0.05771571 0.053038016
-0.12170463 0.004979019 -0.09947957 0.09588939 -0.014149118 -0.0018405762 0.028586153 -0.03145458
0.007504994 0.060497433 0.103307344 -0.09048262 -0.02665656 -0.0326912 -0.020056643 0.07837388
0.020407705 0.009896887 -0.0065015536 -0.05201235 0.02755429 0.019086966 0.084027074 -0.09973853
-0.0011151894 -0.013607308 -0.1090305 -0.12073253 -0.081848636 0.10810179 -0.06740878 -0.031792596
0.09577644 0.09076113 0.11069637 -0.11592384 0.071961716 -0.023942396 -0.12963903 -0.047265492
-0.014104964 0.012490177 0.013257571 0.08206978 0.03856859 0.06049452 -0.054085147 -0.064701274
0.0010146986 -0.0077273403 -0.09577286 -0.06764305 0.06279297 -0.00767408 0.0023742027 0.10211686
-0.040326245 0.00497336 0.11572839 -0.044804845 0.025966281 -0.037721463 0.014876436 0.022179198
0.11147996 -0.09207499 0.008662821 0.024389504 0.00890574 -0.047240455 -0.108555004 -0.014045897
-0.062964946 -0.093447626 -0.093347155 -0.03206724 -0.103818 -0.084431864 0.068581216 0.023194525
0.03595393 0.010555499 -0.07054141 0.013777472 -0.013600413 0.05490923 0.062204327 -0.047482938
-0.0012299973 -0.021696707 0.02282413 -0.07294489 -0.06038351 -0.04229022 -0.028344488 -0.039585005
0.05230305 0.0499831 -0.031282566 -0.004710326 0.0733618 -0.04034777 0.056355424 -0.010426946
0.0060587297 -0.06158317 -0.0488537 -0.05382202 -0.0048026796 -0.06394703 -0.027092898 0.017151648
-0.024017127 -0.05496438 -0.059224058 0.008708218 -0.0013978577 -0.046381734 0.06629127 -0.01520575
0.041683275 0.05811315 -0.046782173 0.044812743 -0.027095543 0.011489147 0.07105376 -0.009754687
-0.0443133 0.072376825 -0.0059754485 6.212646e-05 -0.046846956 0.046519116 0.068880774 0.04094611
0.045944322 -0.027647207 -0.021626715 -0.02771939 0.05201889 0.04504042 0.059811786 0.014827057
0.061645087 0.020488586 0.08328426 0.00036024966 0.047254015 -0.051734786 -0.042190883 0.02160796
0.008826103 0.013305519 -0.053000625 0.04088769 -0.004286004 0.014931341 0.027123798 -0.005394938
0.009802542 -0.025410376 -0.030299865 0.007117234 -0.03358935 -0.04896603 0.011125072 0.0031888594
-0.01884173 0.0038196684 -0.04716139 0.01677056 -0.0010865495 0.051677875 -0.019850697 -0.022987587
-0.060124252 -0.018364714 -0.050009992 0.05575325 -0.06958826 -0.027550127 0.028352035 -0.055598967
0.12032889 0.12137473 0.12228373 0.04330431 0.006589802 -0.11500082 0.081348844 -0.09753268
-0.08258391 -0.017828284 0.05572323 0.15388367 -0.080262676 -0.14027548 0.012568794 0.09668563
-0.088938676 0.13919076 -0.105986506 0.11378497 -0.0028625475 -0.095418975 0.0856427 -0.13794656
-0.07431503 -0.058244072 0.012156778 0.031779423 -0.09563331 -0.07313882 -0.09462063 0.087365285
-0.12832054 0.14028086 0.044377998 0.09816185 0.13704014 0.008495316 0.12657751 -0.007180235
0.1596672 0.008762785 -0.14346479 -0.020858556 -0.10202261 0.115831375 -0.022270756 0.102680326
0.019940143 0.0986188 0.14204036 0.039346926 0.14683045 0.03450003 -0.023322377 0.044452902
00000000: f2fb fbbc ecd7 ccbc 2074 7d3d 9edb e53d
00000010: 7adf 963c 35b9 4a3d 3d6a 3a3d 151a 88bd
00000020: 742b 4ebd f301 57bc 83af d93d e703 153d
00000030: 5812 15bd c9a3 7a3d 4f67 6cbd 643e 593d
00000040: 4740 f9bd 0a27 a33b f2bb cbbd a861 c43d
00000050: b4d1 67bc 7d3f f1ba 822d ea3c 85d6 00bd
00000060: 74ec f53b 28cc 773d cd92 d33d f44e b9bd
00000070: dc5e dabc 35e7 05bd d44d a4bc 7c82 a03d
00000080: 0f2e a73c 8d26 223c fc0a d5bb e70a 55bd
00000090: 89b9 e13c 455c 9c3c 6316 ac3d b743 ccbd
000000a0: 8c2b 92ba 30f1 5ebc 624b dfbd 9e42 f7bd
000000b0: 42a0 a7bd 7964 dd3d 9d0d 8abd f438 02bd
000000c0: 7026 c43d f9e0 b93d c7b4 e23d 7a69 edbd
000000d0: aa60 933d d822 c4bc 18c0 04be 7699 41bd
000000e0: 8218 67bc 99a3 4c3c 4836 593c 3314 a83d
000000f0: 19fa 1d3d 1ac9 773d 6388 5dbd 1a82 84bd
00000100: a3ff 843a a135 fdbb 9024 c4bd 7088 8abd
00000110: 9a99 803d d976 fbbb 8398 1b3b a522 d13d
00000120: 222d 25bd 91f7 a23b 0203 ed3d 4985 37bd
00000130: 3db7 d43c d281 1abd 4cbc 733c 26b1 b53c
00000140: 9b4f e43d d091 bcbd 81ee 0d3c 7fcc c73c
00000150: 62e9 113c 357f 41bd 1652 debd c320 66bc
00000160: c4f3 80bd 7861 bfbd cb2c bfbd f058 03bd
00000170: 889e d4bd 9dea acbd 4f74 8c3d 7202 be3c
00000180: 6e44 133d f9f0 2c3c 0478 90bd e8ba 613c
00000190: 44d4 5ebc 80e8 603d f7c9 7e3d 787d 42bd
000001a0: dc37 a1ba 4bbd b1bc abf9 ba3c 2164 95bd
000001b0: b354 77bd 8238 2dbd b332 e8bc e323 22bd
000001c0: b93b 563d 14bb 4c3d 2622 00bd 1459 9abb
000001d0: b63e 963d b443 25bd f2d4 663d c8d5 2abc
000001e0: 4f88 c63b a23e 7cbd d11a 48bd 7a74 5cbd
000001f0: cc5f 9dbb a9f6 82bd edf1 ddbc 9d81 8c3c
00000200: 91bf c4bc 5422 61bd ed94 72bd eaac 0e3c
00000210: 5238 b7ba c6fa 3dbd b8c3 873d 8a21 79bc
00000220: 15bc 2a3d 0e08 6e3d aa9e 3fbd 918d 373d
00000230: 79f7 ddbc fa3c 3c3c a284 913d 1fd2 1fbc
00000240: dd81 35bd 4d3a 943d b2cd c3bb e449 8238
00000250: 98e2 3fbd d48a 3e3d 5d11 8d3d 1cb7 273d
00000260: 1d30 3c3d 657c e2bc 822a b1bc c613 e3bc
00000270: c211 553d 4e7c 383d 34fd 743d 2fed 723c
00000280: 8f7f 7c3d aed7 a73c f090 aa3d e4df bc39
00000290: 6d8d 413d dbe7 53bd 59d0 2cbd 2d03 b13c
000002a0: 5c9b 103c 64ff 593c 2f17 59bd da79 273d
000002b0: 9c71 8cbb 95a2 743c ba32 de3c 05c8 b0bb
000002c0: d79a 203c 6c29 d0bc 6c37 f8bc b037 e93b
000002d0: fc94 09bd 9b90 48bd ef45 363c 2ffc 503b
000002e0: f959 9abc 6753 7a3b 4d2c 41bd 6a62 893c
000002f0: 8d6a 8eba 2eac 533d ee9d a2bc 7750 bcbc
00000300: d944 76bd 9971 96bc 47d7 4cbd 855d 643d
00000310: 4a84 8ebd ceb0 e1bc 8742 e83c bebb 63bd
00000320: fe6e f63d 5093 f83d e46f fa3d dc5f 313d
00000330: 44ef d73b 8d85 ebbd 399a a63d 37bf c7bd
00000340: c121 a9bd 9f0c 92bc 0b3e 643d ae93 1d3e
00000350: c260 a4bd 60a4 0fbe 58ed 4d3c 1e03 c63d
00000360: 7b25 b6bd 0688 0e3e 740f d9bd 1808 e93d
00000370: 9499 3bbb 066b c3bd 7165 af3d dd41 0dbe
00000380: 7a32 98bd 5691 6ebd 392d 473c 242b 023d
00000390: 66db c3bd cec9 95bd 76c8 c1bd 92ec b23d
000003a0: 7666 03be c9a5 0f3e b4c5 353d 1409 c93d
000003b0: 4054 0c3e f02f 0b3c 899d 013e 2d48 ebbb
000003c0: cc7f 233e c991 0f3c 6fe8 12be 90df aabc
000003d0: 3bf1 d0bd 0039 ed3d 2971 b6bc 104a d23d
000003e0: 8359 a33c a7f8 c93d 0773 113e 3e2a 213d
000003f0: b95a 163e e74f 0d3d 920e bfbc 3f14 363d

model.encoder.layers.1.0.bias f4 [100]
-0.027883155 0.0011547825 0.11682966 0.07713483 0.0036055779 0.08745249 -7.55226e-40 0.070879854
-0.13820913 0.107489176 -5.87909e-40 0.09583338 0.16814329 0.06585007 0.14826038 3.22456e-40
0.11916566 0.06275255 0.02883417 4.34939e-40 0.0650615 5.49902e-40 0.018339515 2.53936e-40
0.09100839 -2.98484e-40 -7.19823e-40 -7.52926e-40 0.12033035 -0.013632566 -3.1089e-41 0.09609609
0.11017053 -0.013898783 0.050941512 0.09518001 -0.0062009753 0.07934924 0.08171993 0.034525994
0.057419706 -3.07072e-40 0.19007047 -6.79048e-40 -7.29508e-40 0.047149755 6.51438e-40 7.02252e-40
-0.11322836 0.008272802 1.07297e-40 -0.03209728 -0.008055656 0.06401912 0.046509344 0.06279508
-0.055255905 -0.12881796 -0.039123982 -2.83128e-40 -0.21257232 0.10014426 -2.8497e-41 0.038124137
0.04154291 0.24127442 -0.021098198 -1.92516e-40 2.59738e-40 0.16508953 -0.13428916 -5.78525e-40
-0.15621483 0.06123812 0.01896747 0.11728216 -0.030540207 0.07483542 0.06405985 0.14963214
7.52112e-40 0.025051538 2.2985e-40 7.27989e-40 -0.21898809 2.53964e-40 0.17339747 0.062545486
-0.10437139 -4.37837e-40 -6.22053e-40 1.67762e-40 -7.08567e-40 7.27176e-40 1.53715e-40 7.6681e-40
-4.38116e-40 0.1724438 0.13599055 -0.19311824
00000000: 376b e4bc 125c 973a 6444 ef3d def8 9d3d
00000010: 8f4b 6c3b 4b1a b33d 4339 0880 7529 913d
00000020: b286 0dbe 4923 dc3d da66 0680 4b44 c43d
00000030: c12d 2c3e 67dc 863d 92d1 173e e082 0300
00000040: 200d f43d 6984 803d a335 ec3c 6fbc 0400
00000050: f73e 853d e7fc 0500 c03c 963c dfc3 0200
00000060: 9b62 ba3d 0d40 0380 93d6 0780 da32 0880
00000070: c26f f63d 205b 5fbc aa56 0080 07ce c43d
00000080: 16a1 e13d b9b7 63bc 0ca8 503d bded c23d
00000090: 8d31 cbbb db81 a23d c75c a73d 216b 0d3d
000000a0: ed30 6b3d fe57 0380 d5a1 423e e964 0780
000000b0: 92f1 0780 1a20 413d f217 0700 98a5 0700
000000c0: 45e4 e7bd a68a 073c 1a2b 0100 7078 03bd
000000d0: dffb 03bc 751c 833d 9580 3e3d b59a 803d
000000e0: 0454 62bd dbe8 03be 7840 20bd 3f15 0380
000000f0: 8fac 59be 6f18 cd3d 704f 0080 0e28 1c3d
00000100: e628 2a3d a410 773e 21d6 acbc a818 0280
00000110: 0bd4 0200 3b0d 293e 1983 09be b14c 0680
00000120: c8f6 1fbe d3d4 7a3d ab61 9b3c a131 f03d
00000130: 752f fabc 5043 993d d031 833d 2b39 193e
00000140: 9530 0800 e238 cd3c ba80 0200 56ed 0700
00000150: 6a3e 60be f3c3 0200 1b8f 313e d917 803d
00000160: abc0 d5bd 83c4 0480 08c6 0680 a7d3 0100
00000170: 32b7 0780 12eb 0700 7fac 0100 8e59 0800
00000180: 4ac5 0480 1c95 303e 1b41 0b3e cac0 45be

model.encoder.layers.2.0.weight f4 [100, 100]
-0.021493122 -0.010400024 0.03175275 -0.061886497 0.0022269138 0.019982766 3.16531e-40 -0.05053526
0.94360054 -0.055292454 6.29117e-40 0.01752622 -0.047707397 -0.06892487 -0.071742035 -5.75473e-40
0.026931942 0.0029976473 -0.025850542 -7.37771e-40 0.26121813 5.87894e-40 0.08279788 6.64259e-40
0.013932232 4.16173e-40 -1.5198e-41 2.94313e-40 -0.001424881 -0.05089569 -5.65816e-40 -0.15627576
1.1304034 0.0830298 0.014262296 -0.059332248 -0.033765603 0.03971328 0.008577796 -0.05091716
-0.010898619 5.00439e-40 0.050972376 3.49467e-40 -4.80793e-40 -0.023607736 -4.96423e-40 2.015e-42
1.0307343 -0.024270263 -4.62846e-40 0.064860284 -0.0033456914 0.0014687398 -0.0028947874 -0.00470231
0.006953332 0.07118965 0.0262005 4.3761e-40 0.79965466 -0.0150672775 1.96528e-40 0.06718404
0.00524016 0.5369748 -0.026774019 6.3909e-40 5.7823e-40 0.7820953 0.6514497 -3.2215e-40
0.356127 0.015626948 -0.0022250966 -0.052164152 0.047949575 -0.005549708 0.25308907 -0.054464146
5.69852e-40 0.00026070647 7.56578e-40 7.09255e-40 0.7760577 -5.9323e-41 0.7376737 0.04763351
0.39101622 4.3932e-41 7.21976e-40 -7.7251e-41 6.86628e-40 2.08756e-40 -4.22988e-40 7.10809e-40
7.54036e-40 0.86187565 0.64465106 0.32168445 -0.06962609 0.0022031437 0.08458941 0.112144716
0.0218896 0.078420855 -6.08114e-40 0.02998081 -0.119217314 0.09563756 -3.77585e-40 -0.039589364
-0.040848266 0.014235776 -0.013363726 1.96332e-40 -0.055903085 -0.03732926 -0.03253813 -1.44262e-40
0.1579625 -2.48045e-40 0.051630203 5.9158e-40 0.08734186 1.68953e-40 -1.69399e-40 2.4434e-41
0.09421223 0.050988294 1.91077e-40 -0.08675396 -0.16837522 -0.07828706 0.06107336 0.115157545
0.020862421 -0.027275002 -0.049940664 0.026711185 0.03259324 7.127e-42 0.0757445 -3.6257e-40
3.82361e-40 -0.011502101 7.15489e-40 4.5729e-41 -0.2976888 0.04449169 4.8691e-40 0.06728014
0.07193824 -0.071081705 0.0038529485 -0.04216129 0.09390149 -0.051328603 0.070704326 4.24889e-40
-0.1701201 -0.06874773 4.95756e-40 -0.066736065 -0.005884166 0.15302616 -0.034959793 -3.23254e-40
6.8846e-41 -0.22325757 -0.07486277 -4.37846e-40 0.16168156 -0.010614853 -0.027820399 -0.0141444085
0.00576905 0.04299985 0.18615414 0.053986948 4.66075e-40 0.10231847 -6.47362e-40 4.19261e-40
-0.23579194 7.28539e-40 -0.13278444 0.057748664 0.39088732 4.40771e-40 5.35684e-40 -4.2131e-40
-7.40913e-40 4.17678e-40 -2.12539e-40 -7.03605e-40 4.11807e-40 -0.17802453 -0.08888394 -0.0012240515
0.0837158 -0.023360904 0.14467785 0.05346067 0.119064145 -0.02519834 6.13559e-40 0.051921636
-0.00016602743 0.005573409 -4.18879e-40 0.12691903 -0.028724898 0.059005592 0.012440707 6.3279e-40
0.12479768 0.045410343 0.14461702 6.82259e-40 0.044051886 6.11635e-40 0.0908313 -2.91708e-40
0.09206705 4.2222e-40 6.95647e-40 -8.9422e-41 0.11169772 0.115701646 4.28535e-40 0.014208404
0.037001804 -0.025584592 -0.033855714 0.13999014 0.118921645 -0.034142036 -0.009075988 0.03882748
0.06988165 -3.9623e-40 0.045167957 6.22391e-40 1.79914e-40 0.09066926 -7.32767e-40 5.19774e-40
-0.037544753 -0.011277533 2.27471e-40 0.034992423 0.020513685 0.045234837 0.13719116 0.0067241816
00000000: 5812 b0bc dd64 2abc 2c0f 023d b27c 7dbd
00000010: 6af1 113b e6b2 a33c 5c72 0300 10fe 4ebd
00000020: ce8f 713f 577a 62bd b9d9 0600 2693 8f3c
00000030: d568 43bd 7b28 8dbd 7ded 92bd 2f44 0680
00000040: 60a0 dc3c 2d74 443b 84c4 d3bc 9b08 0880
00000050: 62be 853e cf66 0600 ef91 a93d af3b 0700
00000060: 0444 643c 1f88 0400 5e2a 0080 6d34 0300
00000070: 13c3 baba 0078 50bd 4429 0680 c106 20be
00000080: 0fb1 903f 870b aa3d 68ac 693c 5f06 73bd
00000090: cd4d 0abd 64aa 223d e289 0c3c 838e 50bd
000000a0: 1f90 32bc 0573 0500 69c8 503d 2cce 0300
000000b0: 413c 0580 0365 c1bc d367 0580 9e05 0000
000000c0: 1aef 833f 6ed2 c6bc 3a0a 0580 78d5 843d
000000d0: 6343 5bbb bb82 c03a 79b6 3dbb d615 9abb
000000e0: c7d8 e33b e1cb 913d 6ea2 d63c e1c3 0400
000000f0: 2bb6 4c3f bedc 76bc d723 0200 c997 893d
00000100: a6b5 ab3b 2e77 093f 3055 dbbc 86f5 0600
00000110: df4b 0600 6637 483f 68c5 263f 0682 0380
00000120: 4756 b63e 1604 803c edd2 11bb 14aa 55bd
00000130: c666 443d 53da b5bb e494 813e cc15 5fbd
00000140: 8434 0600 6eaf 8839 083d 0800 1db9 0700
00000150: b8ab 463f 5ea5 0080 2fd8 3c3f 5b1b 433d
00000160: 4733 c83e 777a 0000 93dc 0700 58d7 0080
00000170: 0a7a 0700 ed45 0200 1e9b 0480 72bd 0700
00000180: f235 0800 e2a3 5c3f da07 253f d3b3 a43e
00000190: 2098 8ebd 9e62 103b 363d ad3d 21ac e53d
000001a0: d251 b33c 1d9b a03d 2d9f 0680 519a f53c
000001b0: 3528 f4bd a0dd c33d 8e1c 0480 7528 22bd
000001c0: 8350 27bd 2c3d 693c 88f3 5abc 4b23 0200
000001d0: a2fa 64bd 91e6 18bd b446 05bd 2592 0180
000001e0: ecc0 213e 73b3 0280 317a 533d 1671 0600
000001f0: 4ae0 b23d f9d6 0100 37d8 0180 1d44 0000
00000200: 57f2 c03d 1ad9 503d a514 0200 0fac b1bd
00000210: 8e6a 2cbe f754 a0bd 0f28 7a3d b8d7 eb3d
00000220: abe7 aa3c d36f dfbc 958e 4cbd 6ad1 da3c
00000230: 7d80 053d de13 0000 ef1f 9b3d b3f2 0380
00000240: de29 0400 4f73 3cbc 7eca 0700 797f 0000
00000250: ab6a 98be eb3c 363d 4f4d 0500 2cca 893d
00000260: 5b54 933d 4993 91bd c081 7c3b 51b1 2cbd
00000270: 6d4f c03d f13d 52bd 6ecd 903d 6ba0 0400
00000280: f733 2ebe 9ccb 8cbd f765 0500 ebac 88bd
00000290: f6cf c0bb e4b2 1c3e 0032 0fbd 1a85 0380
000002a0: eabf 0000 a29d 64be a751 99bd 89c4 0480
000002b0: da8f 253e ece9 2dbc 9be7 e3bc f3bd 67bc
000002c0: 4d0a bd3b 9c20 303d 319f 3e3e 6b21 5d3d
000002d0: 3a13 0500 598c d13d 950c 0780 bb90 0400
000002e0: 7173 71be dfee 0700 a5f8 07be dd89 6c3d
000002f0: 6222 c83e b1cc 0400 45d5 0500 7196 0480
00000300: 5d11 0880 518c 0400 7950 0280 5da9 0780
00000310: f37b 0400 104c 36be c808 b6bd 5a70 a0ba
00000320: 3073 ab3d 5e5f bfbc 6e26 143e 93f9 5a3d
00000330: e7d7 f33d c06c cebc 5aae 0600 c8ab 543d
00000340: a617 2eb9 25a1 b63b aa8f 0480 10f7 013e
00000350: 7a50 ebbc d9af 713d 1bd4 4b3c f6e3 0600
00000360: ed95 ff3d 3200 3a3d 7c16 143e dc6d 0700
00000370: c06f 343d fda8 0600 c305 ba3d 2a2d 0380
00000380: a68d bc3d fa98 0400 2e93 0700 46f9 0080
00000390: c6c1 e43d fcf4 ec3d 95aa 0400 5eca 683c
000003a0: 348f 173d c796 d1bc 4aac 0abd 9359 0f3e
000003b0: 318d f33d 85d8 0bbd 74b3 14bc 9009 1f3d
000003c0: 1c1e 8f3d 8750 0480 0902 393d f9c6 0600
000003d0: 87f5 0100 ceb0 b93d a8fa 0780 eba8 0500
000003e0: 87c8 19bd 67c5 38bc 197a 0200 3754 0f3d
000003f0: 510c a83c 2a48 393d d77b 0c3e 8656 dc3b

model.encoder.layers.2.0.bias f4 [100]
0.09108018 0.05583065 0.052255973 1.20463e-40 6.27367e-40 -0.037713077 3.098e-42 -0.018625684
0.10822142 7.065e-42 -1.892e-41 -0.07037529 0.05134975 -0.049441576 7.23796e-40 2.8607e-40
-2.94853e-40 0.070151225 0.027602233 0.05826164 0.06490111 -0.01610109 0.021166043 0.016277505
-8.0016e-41 5.32195e-40 -6.30691e-40 0.060309015 -0.09762244 0.014313547 0.07081122 -0.012701629
2.87929e-40 0.01358873 0.08961742 1.39873e-40 -2.94745e-40 -5.85915e-40 -0.021135556 0.01043458
0.03376314 1.39474e-40 2.753e-41 0.060156908 0.050725974 0.11714754 1.20411e-40 0.0014978595
-2.37621e-40 -0.0024243426 7.12185e-40 -0.063627414 -3.12045e-40 -3.0219e-40 0.06260079 -4.47138e-40
-1.1495e-40 4.908e-40 -0.01680895 -2.92443e-40 -1.22953e-40 7.33535e-40 0.009713152 -0.05997155
0.08276097 -4.3813e-41 -0.027567908 0.063585706 -7.05435e-40 -1.1591e-40 -2.10059e-40 5.00097e-40
-7.05395e-40 3.81998e-40 3.67268e-40 0.09632862 -0.023502955 -0.049184673 -0.0430762 -0.058282174
6.11158e-40 0.02387825 -0.08981835 -4.36816e-40 3.04959e-40 -0.02250041 -5.93031e-40 5.52057e-40
0.06212439 0.011101084 0.0061658653 0.04184203 -0.0045147436 1.9757e-40 0.05074536 -0.0025923678
4.23398e-40 0.08527766 -0.018138422 -0.025508603
00000000: 3f88 ba3d aeae 643d 5c0a 563d cd4f 0100
00000010: d8d4 0600 0779 1abd a308 0000 e494 98bc
00000020: 31a3 dd3d b213 0000 be34 0080 ec20 90bd
00000030: 1e54 523d 4083 4abd a6e1 0700 721d 0300
00000040: ee35 0380 72ab 8f3d 141e e23c c2a3 6e3d
00000050: e0ea 843d 6fe6 83bc 6964 ad3c 6758 853c
00000060: 0ddf 0080 8bcb 0500 1cde 0680 9606 773d
00000070: 46ee c7bd 5e83 6a3c 7905 913d 7e1a 50bc
00000080: a122 0300 44a3 5e3c 5789 b73d e985 0100
00000090: a135 0380 4b61 0680 7924 adbc cdf5 2a3c
000000a0: 384b 0a3d cc84 0100 be4c 0000 1767 763d
000000b0: 0ac6 4f3d 0deb ef3d a84f 0100 d353 c43a
000000c0: 6496 0280 b8e1 1ebb 48c1 0700 174f 82bd
000000d0: db65 0380 624a 0380 d834 803d 70de 0480
000000e0: 6f40 0180 2758 0500 ecb2 89bc 362f 0380
000000f0: be56 0180 ccfc 0700 ea23 1f3c baa4 75bd
00000100: 957e a93d 227a 0080 18d6 e1bc 3939 823d
00000110: 77ae 0780 1c43 0180 8f49 0280 1172 0500
00000120: 5bae 0780 db28 0400 cbff 0300 f147 c53d
00000130: 4589 c0bc de75 49bd ab70 30bd 4ab9 6ebd
00000140: a9a7 0600 529c c33c aff2 b7bd aac1 0480
00000150: 1a52 0300 c852 b8bc 2175 0680 e902 0600
00000160: 2576 7e3d 52e1 353c 070b ca3b 8c62 2b3d
00000170: 6af0 93bb bf26 0200 5eda 4f3d b7e4 29bb
00000180: 439c 0400 0ea6 ae3d 0797 94bc 6bf7 d0bc

model.encoder.layers.3.weight f4 [10, 100]
-3.16021e-40 1.39554e-40 3.85241e-40 -5.8854e-40 -3.32475e-40 -4.74403e-40 9.3888e-41 -5.45998e-40
-3.4189e-40 -4.083e-41 -7.20919e-40 -7.44828e-40 -4.24033e-40 -7.21093e-40 -3.96817e-40 -2.61831e-40
-6.08175e-40 -5.4213e-41 -7.54089e-40 -5.87485e-40 -4.11326e-40 6.85717e-40 -7.2545e-40 4.49263e-40
5.7971e-40 6.21983e-40 1.81119e-40 -7.04988e-40 6.89269e-40 5.53925e-40 7.21963e-40 -1.2994e-40
7.4146e-40 -4.00512e-40 -6.24197e-40 3.13937e-40 -3.67956e-40 -7.52706e-40 6.4099e-40 7.2461e-40
-5.49969e-40 -7.36273e-40 -7.27778e-40 7.26004e-40 1.91727e-40 -7.39398e-40 1.37022e-40 -2.90163e-40
1.80742e-40 1.1091e-40 5.27261e-40 3.21728e-40 -1.4427e-40 -3.80583e-40 -5.78949e-40 7.49909e-40
5.8133e-40 1.42034e-40 3.35142e-40 -7.1382e-40 3.10522e-40 -2.69429e-40 1.68435e-40 -8.9854e-41
-6.3204e-41 5.13645e-40 -3.01974e-40 -6.735e-41 7.2948e-40 -2.258e-41 -5.63868e-40 6.25674e-40
-3.70826e-40 -4.07395e-40 -1.88134e-40 3.26528e-40 -4.99012e-40 -5.96332e-40 6.75076e-40 5.70642e-40
1.33541e-40 7.58327e-40 -7.11506e-40 -5.28086e-40 -7.07866e-40 2.32513e-40 -7.61956e-40 2.99253e-40
-5.18262e-40 6.79411e-40 2.96704e-40 -3.79539e-40 -6.92812e-40 5.25672e-40 -6.23285e-40 6.6297e-41
-2.89829e-40 7.18876e-40 5.811e-42 -5.03355e-40 -0.26095346 0.01154714 0.13899647 1.84873e-40
-7.6338e-40 0.15534 -3.88388e-40 0.46035722 -0.03946318 2.49127e-40 -5.49893e-40 0.09151358
0.06862496 0.0629316 7.054e-40 -4.3768e-40 4.75221e-40 0.16211085 -0.09279722 -0.33312002
0.1849172 0.15425152 0.026013631 0.08520204 -6.28442e-40 -7.29324e-40 7.8298e-41 0.19657578
0.12084675 0.09841537 0.10251514 0.13786076 3.01873e-40 0.14782697 0.16660881 -3.04459e-40
3.3333e-41 7.114e-40 0.06883959 0.051903173 0.17219438 1.87087e-40 4.76251e-40 0.12872016
0.15051766 0.17792432 -3.81056e-40 0.15329663 -1.65834e-40 -0.26966906 4.18938e-40 0.06538912
-2.01835e-40 -1.47077e-40 0.13518125 -7.2006e-40 7.23291e-40 -5.34616e-40 0.13366362 -5.40823e-40
4.448e-41 4.93906e-40 0.11125511 -0.02701248 0.12993176 7.29744e-40 0.10658405 0.13906914
4.25249e-40 -3.31181e-40 2.47178e-40 -4.80516e-40 -4.44832e-40 -7.44276e-40 -4.47882e-40 0.0102674095
0.18676293 0.1454103 -0.32516363 0.15592249 -7.32837e-40 0.13083084 0.23722091 -3.65562e-40
-3.69646e-40 0.16155119 2.44298e-40 -1.2815e-41 0.14075871 0.16082188 -0.3556344 0.16698664
0.16650945 -1.34558e-40 0.11819372 0.025591634 1.36112e-40 0.116716884 -0.4189674 0.14950588
-7.07601e-40 6.71399e-40 8.1483e-41 8.5691e-41 4.24271e-40 -8.6115e-41 2.83e-41 -1.01226e-40
-5.41854e-40 1.95162e-40 -7.47859e-40 -7.26617e-40 3.68436e-40 5.5822e-41 2.27062e-40 -4.55261e-40
-4.82135e-40 6.79955e-40 7.47688e-40 4.68221e-40 2.23876e-40 1.60639e-40 -1.0176e-41 -1.20216e-40
-6.34399e-40 7.18388e-40 -4.42212e-40 8.8156e-41 -6.06629e-40 5.63953e-40 -6.01185e-40 4.86287e-40
-6.2216e-41 -4.8118e-41 5.0632e-40 4.2614e-40 2.9448e-40 -5.43915e-40 -1.49021e-40 -7.365e-40
5.51952e-40 6.01457e-40 4.69194e-40 -6.68772e-40 1.83506e-40 3.39368e-40 -3.28372e-40 2.46624e-40
-4.89593e-40 -7.23045e-40 -5.98549e-40 -7.32607e-40 -2.0924e-40 -5.53957e-40 1.22123e-40 -6.72052e-40
00000000: f070 0380 0585 0100 e531 0400 9c68 0680
00000010: ce9e 0380 712a 0580 b905 0100 05f2 0580
00000020: 0db9 0380 d171 0080 a1d9 0780 471c 0880
00000030: 089e 0480 1dda 0780 2a52 0480 e1d9 0280
00000040: 589f 0680 2097 0080 1836 0880 ab65 0680
00000050: 9c7a 0480 8077 0700 42e6 0780 5de4 0400
00000060: ff4f 0600 d6c5 0600 e3f8 0100 38ad 0780
00000070: 6781 0700 1e08 0600 8adc 0700 386a 0180
00000080: e412 0800 775c 0480 02cc 0680 216b 0300
00000090: b601 0480 3d32 0880 d2fa 0600 ebe3 0700
000000a0: 17fd 0580 6e04 0880 c0ec 0780 cee7 0700
000000b0: 7516 0200 240d 0880 f67d 0100 db28 0380
000000c0: d6f7 0100 2c35 0100 cabd 0500 d980 0300
000000d0: 2b92 0180 e924 0480 e04d 0680 712a 0800
000000e0: 8354 0600 ef8b 0100 3da6 0300 d7c5 0780
000000f0: 9c61 0300 0fef 0280 87d5 0100 7afa 0080
00000100: 30b0 0080 d597 0500 c849 0380 bfbb 0080
00000110: 7ef1 0700 f23e 0080 d623 0680 20d0 0600
00000120: b609 0480 a76f 0480 710c 0280 3a8e 0300
00000130: 0b6f 0580 557e 0680 d659 0700 b836 0600
00000140: 4274 0100 e841 0800 64bf 0780 17c0 0580
00000150: 3eb5 0780 2788 0200 064c 0880 3242 0300
00000160: b4a4 0580 ec65 0700 173b 0300 0022 0480
00000170: 478b 0780 5cb9 0500 77c9 0680 cfb8 0000
00000180: ed27 0380 efd3 0700 3310 0000 267b 0580
00000190: b19b 85be 3730 3d3c 1755 0e3e 5a03 0200
000001a0: fe4f 0880 7311 1f3e ab3a 0480 f1b3 eb3e
000001b0: 25a4 21bd 77b6 0200 e1fc 0580 796b bb3d
000001c0: 3e8b 8c3d 48e2 803d 5eae 0700 13c4 0480
000001d0: b92c 0500 6300 263e 780c bebd b58e aabe
000001e0: ef5a 3d3e 1cf4 1d3e 8a1a d53c 687e ae3d
000001f0: d7d7 0680 0ff1 0780 43da 0000 294b 493e
00000200: 807e f73d ff8d c93d 75f3 d13d 5f2b 0d3e
00000210: 8049 0300 f45f 173e 809b 2a3e b550 0380
00000220: eb5c 0000 18bf 0700 c5fb 8c3d 6c98 543d
00000230: b953 303e 8609 0200 982f 0500 38cf 033e
00000240: 4d21 1a3e cb31 363e 3b26 0480 cbf9 1c3e
00000250: 47ce 0180 1012 8abe d48f 0400 bbea 853d
00000260: a232 0280 fe99 0180 f46c 0a3e 3cd7 0780
00000270: 3ee0 0700 4bd2 0580 1edf 083e 98e3 0580
00000280: fe7b 0000 cf60 0500 b8d9 e33d 4749 ddbc
00000290: d50c 053e 3bf2 0700 bd48 da3d 2468 0e3e
000002a0: 6ca1 0400 339b 0380 08b1 0200 7c3b 0580
000002b0: 03d8 0480 bd1a 0880 83e0 0480 a338 283c
000002c0: c83e 3f3e 70e6 143e d97b a6be 25aa 1f3e
000002d0: dafa 0780 85f8 053e 0aea 723e 0afb 0380
000002e0: 6c06 0480 ad6d 253e 01a9 0200 b923 0080
000002f0: 0d23 103e 7eae 243e b615 b6be 8cfe 2a3e
00000300: 7481 2a3e 1877 0180 8d0f f23d 8ca5 d13c
00000310: 6d7b 0100 4309 ef3d e582 d6be 1218 193e
00000320: 81b4 0780 964f 0700 24e3 0000 dfee 0000
00000330: b29e 0400 0ef0 0080 e44e 0000 2d1a 0180
00000340: 78e6 0580 0820 0200 ba24 0880 83e9 0780
00000350: 0d03 0400 9c9b 0000 f578 0200 15f5 0480
00000360: ff3f 0580 7067 0700 4024 0800 3619 0500
00000370: 1370 0200 ccbf 0100 5e1c 0080 1d4f 0180
00000380: 72e8 0680 93d2 0700 b5d0 0480 bef5 0000
00000390: 099b 0680 1224 0600 dc8b 0680 924b 0500
000003a0: 6fad 0080 2286 0080 6a83 0500 e8a3 0400
000003b0: e434 0300 37ec 0580 699f 0180 1005 0880
000003c0: 9e02 0600 9e8c 0600 ec1b 0500 4448 0780
000003d0: 8aff 0100 05b2 0300 5e93 0380 7daf 0200
000003e0: c954 0580 8edf 0780 8384 0680 36fa 0780
000003f0: 4747 0280 3508 0680 6e54 0100 6851 0780

model.encoder.layers.3.bias f4 [10]
-3.7047e-40 0.16230056 -7.01765e-40 5.6028e-40 0.055497807 0.07563749 -6.98294e-40 0.06504279
-6.00832e-40 1.10553e-40
00000000: b808 0480 1e32 263e 3ca4 0780 d519 0600
00000010: ab51 633d d4e7 9a3d 8f9a 0780 2735 853d
00000020: e08a 0680 2d34 0100

model.decoder_x.layers.0.weight f4 [10, 10]
3.34106e-40 0.08142906 -1.35724e-40 3.28909e-40 0.033893485 0.0033697821 -3.5749e-41 0.0020959834
-6.627e-41 -5.06725e-40 -2.54494e-40 -0.0486759 4.58903e-40 4.23268e-40 -0.020278588 -0.002024127
5.74036e-40 -0.0012867908 -5.8413e-40 -8.6653e-41 5.66996e-40 0.1481458 -7.39713e-40 2.642e-40
0.061530873 0.006089348 -4.03156e-40 0.0037356177 4.70884e-40 5.37846e-40 -6.85459e-40 0.33539236
4.3943e-41 3.3979e-41 0.134723 0.013348199 7.53892e-40 0.0081930915 5.7746e-40 1.15241e-40
1.0262e-40 0.23761189 5.8059e-40 4.83791e-40 0.097605474 0.009630343 -2.16452e-40 0.005900517
4.38915e-40 7.17206e-40 -7.3097e-40 0.20543163 -4.53089e-40 1.21958e-40 0.084781796 0.008369626
1.11786e-40 0.00512637 -3.4003e-40 -5.04766e-40 5.2589e-40 0.09569291 -2.41423e-40 -2.36479e-40
0.03982314 0.003955092 7.1944e-40 0.002447379 -3.24185e-40 -2.94127e-40 -4.26693e-40 0.044846788
-1.61648e-40 -4.5181e-40 0.01868803 0.0018671576 5.09169e-40 0.0011915127 -5.7105e-40 -1.24131e-40
-7.42418e-40 -0.00955693 -1.75318e-40 5.41333e-40 -0.0040257997 -0.00040953775 6.2667e-41 -0.00027093064
4.03577e-40 -7.09503e-40 2.34296e-40 -0.12578939 -6.23463e-40 -3.55778e-40 -0.052306533 -0.0051835366
1.87505e-40 -0.0031873705 7.11777e-40 5.13451e-40
00000000: 5aa3 0300 47c4 a63d 587a 0180 dd94 0300
00000010: e5d3 0a3d 90d7 5c3b a763 0080 c45c 093b
00000020: bcb8 0080 8b84 0580 6dc5 0280 6160 47bd
00000030: 3cff 0400 e69b 0400 481f a6bc 37a7 04bb
00000040: 2e40 0600 89a9 a8ba 515c 0680 8ef1 0080
00000050: 8e2c 0600 88b3 173e 050e 0880 7be0 0200
00000060: cc07 7c3d 2789 c73b d663 0480 44d1 743b
00000070: a220 0500 4cdb 0500 c876 0780 8cb8 ab3e
00000080: 7f7a 0000 b85e 0000 d3f4 093e 68b2 5a3c
00000090: 8b35 0800 513c 063c b949 0600 3f41 0100
000000a0: 101e 0100 8850 733e 7352 0600 9d44 0500
000000b0: 61e5 c73d 96c8 1d3c 615b 0280 2059 c13b
000000c0: 84c7 0400 47cf 0700 a6f5 0780 ab5c 523e
000000d0: 07ef 0480 f853 0100 14a2 ad3d c120 093c
000000e0: 9d37 0100 1cfb a73b deb3 0380 157f 0580
000000f0: f8b9 0500 a5fa c33d fda0 0280 3593 0280
00000100: 971d 233d b799 813b 82d5 0700 3564 203b
00000110: b287 0380 e833 0380 72a5 0480 44b1 373d
00000120: 9cc2 0180 76eb 0480 a417 993c 6abb f43a
00000130: 5b8b 0500 882c 9c3a db37 0680 075a 0180
00000140: 8f15 0880 ab94 1cbc b7e8 0180 04e5 0500
00000150: dbea 83bb 3ab7 d6b9 b1ae 0000 b20b 8eb9
00000160: 0265 0400 ceb9 0780 1f8d 0200 efce 00be
00000170: f6c9 0680 c4df 0380 603f 56bd a8da a9bb
00000180: b00a 0200 34e3 50bb 25c0 0700 4b97 0500

model.decoder_x.layers.0.bias f4 [10]
0.0010652269 -0.00064394536 0.0019046115 0.0042711436 0.0030347353 0.002626343 0.0012452742 0.00059351156
-0.0001141809 -0.0016235813
00000000: 159f 8b3a 71ce 28ba 28a4 f93a f3f4 8b3b
00000010: 69e2 463b b91e 2c3b 7838 a33a e395 1b3a
00000020: 6774 efb8 59ce d4ba

model.decoder_x.layers.1.0.weight f4 [10, 10]
0.039307635 -0.023486704 0.07147076 0.16087316 0.11368386 0.09889923 0.046192255 0.021639308
-0.0046057315 -0.06070407 0.037273888 -0.022268234 0.06778645 0.15158601 0.1085143 0.094017364
0.04380581 0.020514933 -0.0043645324 -0.057580657 0.045892507 -0.027421948 0.08347078 0.18719654
0.13361007 0.11526572 0.053933308 0.02526319 -0.0053829392 -0.07089081 0.01919638 -0.01146499
0.03490728 0.07822511 0.05580717 0.04832235 0.022560362 0.0105617605 -0.0022364277 -0.02964927
0.007369431 -0.0043958384 0.013415661 0.03016043 0.021470401 0.018582076 0.008663289 0.0040481463
-0.00084800384 -0.011391561 6.37386e-40 2.99176e-40 7.20834e-40 -7.28318e-40 -5.2449e-40 -1.34577e-40
7.04455e-40 -6.36138e-40 -1.6142e-41 -2.12242e-40 -6.52096e-40 -1.86071e-40 3.90759e-40 -8.1893e-41
7.05271e-40 -3.96929e-40 -1.05104e-40 -1.18022e-40 6.90556e-40 9.394e-41 0.01089297 -0.0065018744
0.019816888 0.04448241 0.031695727 0.02743734 0.012803638 0.0059886966 -0.0012612748 -0.016830454
5.43459e-40 -6.17327e-40 -3.65963e-40 5.914e-40 5.1533e-40 4.47695e-40 -7.33769e-40 -3.92215e-40
5.55035e-40 -1.91684e-40 0.0474174 -0.028333994 0.08622423 0.19338587 0.13793986 0.11931347
0.05572683 0.026102882 -0.0055635446 -0.07324121
00000000: 0b01 213d 3067 c0bc 435f 923d efbb 243e
00000010: 15d3 e83d ae8b ca3d 1734 3d3d eb44 b13c
00000020: adeb 96bb d5a4 78bd 81ac 183d df6b b6bc
00000030: 9fd3 8a3d 5d39 1b3e bf3c de3d 2d8c c03d
00000040: b96d 333d ef0e a83c 5a04 8fbb b2d9 6bbd
00000050: c8f9 3b3d fea3 e0bc baf2 aa3d 73b0 3f3e
00000060: 14d1 083e 6f10 ec3d 2ce9 5c3d c0f4 ce3c
00000070: 5e63 b0bb 332f 91bd ba41 9d3c a7d7 3bbc
00000080: f0fa 0e3d 7d34 a03d 0f96 643d a8ed 453d
00000090: 82d0 b83c 3c0b 2d3c 0891 12bb 07e3 f2bc
000000a0: 457b f13b f70a 90bb 5ccd 5b3c 0213 f73c
000000b0: b2e2 af3c 7039 983c 78f0 0d3c 50a6 843b
000000c0: 934c 5eba aba3 3abc c6f0 0600 fb41 0300
000000d0: 64d9 0700 41ee 0780 11b6 0580 2577 0180
000000e0: bcab 0700 4bed 0680 ff2c 0080 a54f 0280
000000f0: c719 0780 b106 0280 4741 0400 49e4 0080
00000100: 02ae 0700 7a52 0480 fd24 0180 ff48 0180
00000110: fd84 0700 de05 0100 6d78 323c ad0d d5bb
00000120: 0757 a23c 3033 363d 61d3 013d 46c4 e03c
00000130: 5ac6 513c d43c c43b 5c51 a5ba 05e0 89bc
00000140: f1ea 0500 dbb8 0680 28fc 0380 9570 0600
00000150: 889c 0500 fedf 0400 73fd 0780 5645 0480
00000160: 360b 0600 5616 0280 bf38 423d b11c e8bc
00000170: 5496 b03d f206 463e 1b40 0d3e 9f5a f43d
00000180: d141 643d b6d5 d53c 654e b6bb 7dff 95bd

model.decoder_x.layers.1.0.bias f4 [10]
0.005277993 0.0049984083 0.006179399 0.002558067 0.0010052928 7.13915e-40 -1.57161e-40 0.0014661709
3.87714e-40 0.006388834
00000000: 04f3 ac3b b0c9 a33b 8e7c ca3b 3ea5 273b
00000010: 07c4 833a 1bc6 0700 1ab6 0180 882c c03a
00000020: ca38 0400 6d59 d13b

model.decoder_x.layers.2.0.weight f4 [10, 10]
0.06158488 0.05838623 0.07188605 0.030059384 0.011555987 1.28587e-40 6.81451e-40 0.017069085
1.04365e-40 0.07425534 0.08182543 0.07761189 0.09550358 0.039946944 0.015368275 3.68691e-40
3.46687e-40 0.022690339 -1.25174e-40 0.09868911 0.08874371 0.08423167 0.103709206 0.043343242
0.016677022 7.26753e-40 -6.26473e-40 0.024619915 -2.49772e-40 0.10703814 0.0800069 0.07591402
0.09326304 0.039041627 0.015017847 6.82421e-40 -3.94657e-40 0.022174172 -3.65938e-40 0.09641992
0.09015354 0.08556132 0.10513699 0.044020712 0.016939184 5.33504e-40 -7.5676e-41 0.025006004
2.63516e-40 0.10888329 0.06922331 0.0656367 0.080789804 0.03379032 0.012993383 -1.24699e-40
-4.90082e-40 0.019189207 -3.7174e-41 0.08346569 0.08247711 0.07821495 0.09626796 0.040253498
0.015485956 -6.83171e-40 -7.54864e-40 0.02286397 -1.49339e-40 0.09938282 0.04174132 0.039558567
0.048723675 0.02035894 0.007817483 6.84254e-40 -2.60049e-40 0.011552779 3.79103e-40 0.05034534
0.105991386 0.10010928 0.12404912 0.05174652 0.019922476 3.74109e-40 -2.2154e-40 0.029402345
6.69802e-40 0.1281624 0.06919147 0.06560338 0.080757454 0.033775084 0.012988585 4.6461e-41
-3.87005e-40 0.019180972 -6.5473e-41 0.08343531
00000000: 6d40 7c3d 6626 6f3d fe38 933d 193f f63c
00000010: 5355 3d3c 7366 0100 9c6b 0700 77d4 8b3c
00000020: ed22 0100 2f13 983d 1794 a73d fcf2 9e3d
00000030: 6297 c33d 689f 233d 38cb 7b3c c303 0400
00000040: 6cc6 0300 17e1 b93c ef5c 0180 841d ca3d
00000050: 43bf b53d a781 ac3d 7e65 d43d af88 313d
00000060: 409e 883c e4e9 0700 5ad2 0680 b4af c93c
00000070: 43b8 0280 d036 db3d a8da a33d cf78 9b3d
00000080: b100 bf3d 1dea 1f3d 6a0d 763c 506e 0700
00000090: 254c 0480 9ca6 b53c 16fc 0380 cf77 c53d
000000a0: 6ba2 b83d c63a af3d 1052 d73d 104f 343d
000000b0: 0bc4 8a3c 31cf 0500 f4d2 0080 64d9 cc3c
000000c0: 93de 0200 34fe de3d f3c4 8d3d 896c 863d
000000d0: 2075 a53d b867 0a3d 33e2 543c 9c5b 0180
000000e0: 2656 0580 af32 9d3c a067 0080 0ff0 aa3d
000000f0: c2e9 a83d 292f a03d 2328 c53d dae0 243d
00000100: cfb8 7d3c 6770 0780 4138 0880 384d bb3c
00000110: 4ca0 0180 3889 cb3d f2f8 2a3d 2a08 223d
00000120: 7a92 473d cbc7 a63c e614 003c 6c73 0700
00000130: e9d4 0280 de47 3d3c c920 0400 ea36 4e3d
00000140: 0312 d93d 1806 cd3d 770d fe3d 29f4 533d
00000150: 7634 a33c dd12 0400 9069 0280 30dd f03c
00000160: 234b 0700 013d 033e 42b4 8d3d 115b 863d
00000170: 2a64 a53d be57 0a3d 13ce 543c 8481 0000
00000180: d036 0480 6a21 9d3c 83b6 0080 22e0 aa3d

model.decoder_x.layers.2.0.bias f4 [10]
0.0052195136 0.0069815554 0.007587629 0.0068194284 0.0077080578 0.005882798 0.0070358347 0.0035069026
0.009093863 0.005880411
00000000: 7408 ab3b 88c5 e43b a5a1 f83b 8375 df3b
00000010: e093 fc3b 7dc4 c03b dc8c e63b 10d4 653b
00000020: 6dfe 143c 76b0 c03b

model.decoder_x.layers.3.weight f4 [100, 10]
0.015003964 0.019950008 0.021660514 0.019502312 0.021997804 0.016873723 0.02011228 0.010158167
0.025874345 0.016870838 -6.15761e-40 3.98452e-40 6.79676e-40 7.16468e-40 5.75177e-40 7.01081e-40
3.51081e-40 4.96235e-40 2.56799e-40 3.37056e-40 0.014376304 0.019115467 0.020744754 0.018684054
0.021072626 0.016161915 0.01926352 0.009728438 0.024787966 0.016155476 0.01458786 0.019394444
0.021052727 0.018958807 0.021382933 0.016401477 0.019544905 0.009874564 0.0251504 0.016396506
-2.84119e-40 -7.05248e-40 1.68418e-40 4.5803e-41 -6.57338e-40 -5.59992e-40 -2.29713e-40 -9.1422e-41
4.29551e-40 3.45882e-40 0.014397343 0.019150283 0.020784788 0.018716007 0.021108009 0.016191917
0.019296123 0.0097439755 0.02483793 0.016185757 1.17716e-40 -4.17887e-40 1.00884e-40 -3.99097e-40
6.60292e-40 -7.22382e-40 -5.41358e-40 -5.93262e-40 -6.4737e-41 7.41087e-40 0.015218958 0.020242408
0.02196614 0.019781956 0.022315979 0.017116634 0.020399053 0.010302568 0.02625148 0.017111257
0.015246593 0.020272823 0.022002358 0.019816576 0.022347067 0.017140694 0.02042967 0.0103176385
0.026291013 0.017136453 0.014857594 0.01975962 0.0214451 0.019308357 0.021778798 0.016705967
0.019911459 0.010055416 0.02562398 0.016700193 1.69029e-40 -6.44495e-40 -3.6392e-41 -3.06566e-40
-1.46443e-40 4.04458e-40 7.00391e-40 -5.90835e-40 -2.13748e-40 -2.87916e-40 0.015353181 0.020414015
0.02215438 0.019947112 0.022505388 0.017257666 0.020571146 0.010393086 0.026478246 0.017254774
0.015658678 0.020822583 0.02259362 0.020344421 0.022949612 0.017605647 0.020980224 0.010601282
0.027002625 0.017595079 0.016264914 0.021623302 0.023462335 0.021126969 0.023829136 0.018282972
0.021785052 0.011014129 0.0280344 0.018272871 0.014822272 0.019709233 0.021387292 0.019256882
0.021720456 0.01666476 0.019860646 0.010032963 0.025556322 0.016658287 0.015174971 0.020182705
0.021899344 0.019720608 0.02224205 0.017063243 0.020335292 0.010273065 0.02617155 0.017053895
0.015462654 0.020560564 0.022309517 0.020086603 0.022657596 0.017380785 0.020714471 0.010469483
0.026656538 0.017373938 0.0150433555 0.020008076 0.02170901 0.01954533 0.02204707 0.016911983
0.02015434 0.010184119 0.025939032 0.016909808 0.016110381 0.021425094 0.02325344 0.020937856
0.023617921 0.018116198 0.02159416 0.010904716 0.027790194 0.018109793 0.014895633 0.019806717
0.021490699 0.01935653 0.021829061 0.016742576 0.019957924 0.010081889 0.0256828 0.01674064
0.015771508 0.02096187 0.022749348 0.020485578 0.023105914 0.017730422 0.021122338 0.010682427
0.027174678 0.017722145 4.68929e-40 7.25664e-40 -3.4268e-40 4.70113e-40 4.869e-41 6.91417e-40
-2.54493e-40 -3.35582e-40 6.79455e-40 -2.76363e-40 0.015899284 0.021134485 0.02293749 0.020653723
0.023292823 0.017876184 0.021298347 0.01076881 0.027396332 0.017867876 0.015197437 0.020203143
0.02192828 0.019745765 0.022268763 0.01708858 0.020358816 0.01029618 0.026188284 0.017082212
5.02039e-40 1.31341e-40 4.77923e-40 -3.8558e-40 -4.5922e-40 -3.98061e-40 2.36726e-40 7.02823e-40
9.7163e-41 -5.24545e-40 0.015804064 0.02100596 0.022800267 0.02053331 0.023153588 0.017770842
00000000: 30d3 753c 336e a33c 6471 b13c 50c3 9f3c
00000010: bd34 b43c c33a 8a3c 82c2 a43c 716e 263c
00000020: 6ff6 d33c b634 8a3c 7eb4 0680 b956 0400
00000030: a966 0700 39cd 0700 5c43 0600 54a2 0700
00000040: acd2 0300 4d67 0500 dacb 0200 93ab 0300
00000050: 978a 6b3c 0a98 9c3c e7f0 a93c 4d0f 993c
00000060: 80a0 ac3c fe65 843c 88ce 9d3c 0764 1f3c
00000070: 2210 cb3c 7d58 843c eb01 6f3c 19e1 9e3c
00000080: c576 ac3c 804f 9b3c 432b af3c 645c 863c
00000090: a31c a03c ecc8 213c 3608 ce3c f751 863c
000000a0: 0218 0380 f2ad 0780 7bd5 0100 ae7f 0000
000000b0: 6428 0780 0819 0680 5980 0280 d9fe 0080
000000c0: 6aad 0400 2ec4 0300 d5e2 6b3c 0ee1 9c3c
000000d0: dc44 aa3c 5052 993c b4ea ac3c e9a4 843c
000000e0: e712 9e3c 32a5 1f3c ea78 cb3c fe97 843c
000000f0: 2548 0100 e68c 0480 3919 0100 8558 0480
00000100: a030 0700 b5dd 0780 16e5 0580 c675 0680
00000110: 76b4 0080 d911 0800 f058 793c 68d3 a53c
00000120: 56f2 b33c c50d a23c 00d0 b63c 2f38 8c3c
00000130: ea1b a73c 1acc 283c 580d d73c e82c 8c3c
00000140: d9cc 793c 3113 a63c 4a3e b43c 5f56 a23c
00000150: 3211 b73c a46a 8c3c 205c a73c 500b 293c
00000160: 4060 d73c bf61 8c3c 446d 733c edde a13c
00000170: a2ad af3c 8f2c 9e3c 7369 b23c f4da 883c
00000180: 5b1d a33c 79bf 243c 62e9 d13c d8ce 883c
00000190: 2fd7 0100 9704 0780 7265 0080 9556 0380
000001a0: 3998 0180 7767 0400 68a0 0700 026f 0680
000001b0: d853 0280 9822 0380 e98b 7b3c 4b3b a73c
000001c0: 1a7d b53c 2068 a33c 385d b83c f35f 8d3c
000001d0: d284 a83c c347 2a3c e8e8 d83c e259 8d3c
000001e0: a146 803c 1f94 aa3c 4116 b93c 58a9 a63c
000001f0: d300 bc3c b839 903c b8de ab3c 00b1 2d3c
00000200: 9c34 dd3c 8e23 903c ff3d 853c 5a23 b13c
00000210: 1534 c03c 7712 ad3c 5235 c33c 2cc6 953c
00000220: 9176 b23c 9b74 343c 66a8 e53c fdb0 953c
00000230: 1dd9 723c 4275 a13c 6734 af3c 9cc0 9d3c
00000240: 19ef b13c 8984 883c cbb2 a23c 4c61 243c
00000250: 7e5b d13c f676 883c 71a0 783c 3356 a53c
00000260: 4166 b33c 1d8d a13c f634 b63c 37c8 8b3c
00000270: 3396 a63c 5c50 283c b865 d63c 9cb4 8b3c
00000280: 1257 7d3c a16e a83c 73c2 b63c a98c a43c
00000290: 6c9c b93c 2662 8e3c 65b1 a93c 3288 2b3c
000002a0: d05e da3c ca53 8e3c 6878 763c fae7 a33c
000002b0: 18d7 b13c 871d a03c 0f9c b43c 008b 8a3c
000002c0: b71a a53c 4bdb 263c 187e d43c 7086 8a3c
000002d0: ebf9 833c ae83 af3c 007e be3c de85 ab3c
000002e0: 5f7a c13c 6c68 943c 3ce6 b03c b2a9 323c
000002f0: 43a8 e33c fd5a 943c d00c 743c b241 a23c
00000300: 430d b03c 9691 9e3c dcd2 b23c ba27 893c
00000310: cd7e a33c 822e 253c bc64 d23c ab23 893c
00000320: 4033 813c 3ab8 ab3c d75c ba3c 5fd1 a73c
00000330: 9d48 bd3c 643f 913c c108 ad3c 5905 2f3c
00000340: 6e9d de3c 082e 913c 2f1b 0500 dbe6 0700
00000350: 41bb 0380 7c1e 0500 ba87 0000 6487 0700
00000360: 6cc5 0280 77a7 0380 0b66 0700 6302 0380
00000370: 373f 823c 3a22 ad3c 67e7 bb3c ff31 a93c
00000380: 97d0 be3c 1371 923c df79 ae3c aa6f 303c
00000390: 466e e03c a75f 923c acfe 783c 1081 a53c
000003a0: f0a2 b33c dfc1 a13c fb6c b63c 5afd 8b3c
000003b0: 88c7 a63c 4fb1 283c d088 d63c ffef 8b3c
000003c0: 7b77 0500 206e 0100 4134 0500 d732 0480
000003d0: 1e00 0580 a255 0480 e593 0200 2fa7 0700
000003e0: da0e 0100 38b6 0580 8677 813c b114 ac3c
000003f0: a0c7 ba3c 7935 a83c 98ac bd3c 2894 913c

model.decoder_x.layers.3.bias f4 [100]
0.014949472 -5.05101e-40 0.018329136 0.014860723 7.3558e-41 0.01673448 4.9701e-41 0.01995015
0.019406017 0.01836237 -4.62208e-40 0.0068899426 0.009713053 0.008430347 0.006830999 0.00971165
0.009329106 0.006494029 0.01531268 0.008322949 -0.0053310646 7.59315e-40 -0.0045487713 -0.00820135
6.43961e-40 -0.004031915 -0.0029326568 -0.0006552451 -0.0002793292 -0.0056151217 -0.0010753516 -2.74405e-40
-0.002507021 -0.003341992 0.0046528857 0.0038515786 -0.0025352598 0.00031466832 0.0046194876 0.0022837683
0.0075059696 0.0046550278 -2.93655e-40 0.011280829 0.008597556 0.008893314 0.009044289 0.007139049
0.0074332184 0.007844792 0.00057457376 0.0009430166 0.0021659278 0.0035076523 -2.66966e-40 0.002109268
0.0030094238 0.0014162429 0.00092025497 0.00449341 0.005709825 0.007605884 0.0051763672 0.007263773
0.007089039 0.006705051 0.0073800157 0.0050335717 0.0069411015 0.0071375673 0.0012905741 0.0010355045
0.002108201 1.1823e-41 0.0032833267 1.41224e-40 -0.00027505297 0.0016465158 0.0012991821 1.36444e-40
0.0021597848 0.0034208708 -7.3581e-41 0.003310462 0.0023511315 0.002408154 -5.73266e-40 -6.8637e-40
-2.3937e-40 0.0052205874 -0.0014258169 -4.34159e-40 -0.0028077536 -0.0022567338 -0.0013332549 -0.0006092043
-0.0016557117 2.8408118e-05 -0.0018767365 -0.0036017185
00000000: a1ee 743c 0480 0580 fc26 963c 647a 733c
00000010: 0dcd 0000 c016 893c 8c8a 0000 7f6e a33c
00000020: 5ef9 9e3c ae6c 963c 7308 0580 07c5 e13b
00000030: 7f23 1f3c 701f 0a3c 93d6 df3b 9d1d 1f3c
00000040: 1bd9 183c ddcb d43b 09e2 7a3c fa5c 083c
00000050: 36b0 aebb a944 0800 dc0d 95bb f55e 06bc
00000060: 1a03 0700 281e 84bb d131 40bb c1c4 2bba
00000070: ee72 92b9 0eff b7bb d0f2 8cba eefc 0280
00000080: d54c 24bb 5205 5bbb 3c77 983b c46a 7c3b
00000090: 9a26 26bb 11fa a439 125f 973b 46ab 153b
000000a0: a3f4 f53b 3489 983b 9732 0380 3ad3 383c
000000b0: c3dc 0c3c 43b5 113c 7f2e 143c afee e93b
000000c0: 5b92 f33b 7187 003c fe9e 163a c634 773a
000000d0: 3df2 0d3b a4e0 653b 31e8 0280 a53b 0a3b
000000e0: c139 453b 3aa1 b93a 443d 713a 743d 933b
000000f0: 7c19 bb3b c83a f93b 849e a93b f204 ee3b
00000100: 2b4b e83b 0bb6 db3b 0fd4 f13b a9f0 a43b
00000110: 2e72 e33b 41e2 e93b 7b28 a93a c4b9 873a
00000120: be29 0a3b f520 0000 152d 573b ad89 0100
00000130: fc34 90b9 e7cf d73a 5149 aa3a 5a7c 0100
00000140: 2d8b 0d3b b030 603b 1dcd 0080 56f4 583b
00000150: 7115 1a3b 1fd2 1d3b 083e 0680 5279 0780
00000160: 449b 0280 7611 ab3b 7ae2 baba 42ba 0480
00000170: 4a02 38bb b6e5 13bb 9cc0 aeba 02b3 1fba
00000180: 7704 d9ba f84d ee37 d4fc f5ba cf0a 6cbb
