logs/l1_coef-1e-05/version_0/checkpoints/epoch=13199-step=13200.ckpt (torch, 566207 bytes, 72 tensors)

model.encoder.layers.0.weight f4 [100, 100]
000000 36 db 74 3e fb 99 6d 3d ce c7 a3 3d c0 fd a4 3d
       0.23911747 0.058008175 0.07997094 0.080562115
000010 3c 8f 2f 3d d8 37 52 3d c2 6b 61 3d 1e cc d4 3d
       0.04286121 0.051322788 0.055034406 0.10390495
000020 f5 89 5d 3d 31 04 3f 3d 61 4c 63 3d 26 a2 66 3c
       0.054086644 0.046634857 0.055492762 0.014076745
000030 d9 9e 81 3c 1c 1c 8b 3c 43 c1 87 3c b2 9e 3c 3c
       0.015822815 0.016981177 0.016571647 0.011512445
000040 85 e0 5a 3c 7a 09 9f 3c 20 39 69 3b e7 79 6c 3c
       0.013359194 0.019413698 0.0035587028 0.014433361
000050 60 fa d8 3c 07 d0 3a 3c d3 28 6e 3c f6 26 bd 3c
       0.026486576 0.011402137 0.0145361 0.023089867
000060 39 2e 54 3c 82 a5 72 3c c1 b2 52 3c 4c cd 2b 3c
       0.012950473 0.014809968 0.012860001 0.010485958
000070 fc a5 16 3c b1 1c af 3c f0 6d b9 3b d8 cd 0b 3c
       0.009194847 0.021375986 0.0056588575 0.008532964
000080 73 32 12 3c 57 5e 74 3b 82 7c bd bb e9 f3 42 3d
       0.008923161 0.0037287676 -0.0057826648 0.047595892
000090 1a 42 02 3c b3 5a 97 3b 4a 4b 00 bb 51 06 c1 3a
       0.00795033 0.0046189665 -0.0019576126 0.0014726614
0000a0 fd 8b 9c 3c ba da a1 3c 56 7d 9f 3c c1 23 1e 3c
       0.01910972 0.019757617 0.019468945 0.009652079
0000b0 0b 1f 7c 3c 9b c1 8c 3c 54 e0 67 3c 2f 21 71 3c
       0.015388261 0.017182162 0.014152605 0.014717384
0000c0 6e 07 68 3c 0e 03 83 3c 5c 0e 14 3c 92 cd e0 3a
       0.014161928 0.015992668 0.009036627 0.0017151108
0000d0 19 18 a8 3b 06 33 da 3c dc c0 ba ba 6a 38 37 3b
       0.005129826 0.026635658 -0.001424815 0.002795721
0000e0 89 0e 67 3b 37 be 17 3b 7b 1e 86 3b 8b fd 81 3a
       0.0035256466 0.0023154148 0.004092989 0.0009917481
0000f0 33 e7 85 3c 11 a8 24 3d 36 72 75 3c 82 83 70 3c
       0.016345596 0.040199343 0.014980843 0.014679791
000100 fa 4c 42 3c 4b 39 e4 3b 3e 53 72 3c d7 ca 59 3c
       0.011859173 0.0069648377 0.014790354 0.01329299
000110 02 ea 90 3c 52 59 41 3c 16 0a b9 3c b8 a6 7a 3c
       0.017689709 0.011801081 0.022587817 0.015298538
000120 d0 12 92 3c 8c 87 44 3d 4f d6 49 3c ac 37 80 3c
       0.017831236 0.04798083 0.012319162 0.015651546
000130 35 8a 50 3d ee 27 f0 3c ce 09 55 3c 98 b0 36 3c
       0.050913054 0.029315915 0.013002826 0.011150502
000140 1f a8 c9 3a 17 4f 0f ba bc 33 9f 3c 4d 03 0a 3a
       0.0015385187 -0.00054668024 0.019433849 0.0005264774
000150 ec f1 a6 3a de a0 52 bb 9d 3d 9a 39 82 5a b8 bb
       0.0012736893 -0.0032139341 0.00029419074 -0.0056260237
000160 22 67 73 ba 9e 1e 9a 3b 38 08 43 3d e5 f5 04 3d
       -0.00092850823 0.004703357 0.04761526 0.032461066
000170 31 c0 ae 3c b4 f9 a5 3c a8 61 47 3d a4 69 72 3c
       0.021331878 0.02026067 0.048677117 0.0147956945
000180 af 12 8a 3c 7d 92 75 3c a9 84 8c 3c 3b d5 ac 3c
       0.016854612 0.014988539 0.017153101 0.02109777
000190 16 15 06 3e 0c 48 4e bd de 56 6c bd 24 0e 94 bd
       0.13093981 -0.050361678 -0.05770003 -0.072292596
0001a0 ce 34 82 bd 4f 76 6b bd 11 5c 43 bd 06 73 89 bd
       -0.06357728 -0.057485875 -0.047695223 -0.06711392
0001b0 ea 5d 80 bd 7a 99 77 bd f3 75 e6 3b 6b ec 27 bd
       -0.06267913 -0.0604491 0.0070331036 -0.04099695
0001c0 7d b1 16 bd 3e f6 1d bd e9 12 1a bd 75 c6 33 bd
       -0.03679036 -0.038564913 -0.03761569 -0.043890435
0001d0 f3 c1 2d bd b6 21 0b bd fc 52 5d bd 7f 05 31 bd
       -0.042421293 -0.033967696 -0.05403422 -0.043218132
0001e0 6f 6e 07 bd f7 fe 39 bd ae 86 3a bd 1d 0e e7 bc
       -0.033064302 -0.04540917 -0.045538597 -0.028204972
0001f0 15 f9 34 bd c3 ad 1d bd 42 f3 4a bd b1 bb 39 bd
       -0.044182856 -0.03849579 -0.049548395 -0.045345012
000200 b0 85 39 bd b0 5a 08 bd 13 16 01 bd 44 6d 0b bd
       -0.04529351 -0.03328961 -0.031515192 -0.03403975
000210 09 c0 00 bd f9 c2 05 bd a3 fd 52 bd 76 a8 4f bd
       -0.03143314 -0.032656644 -0.051511418 -0.050697766
000220 be c2 fc bc 94 67 0f bd 86 6d 3b bd be ab 26 bd
       -0.030854579 -0.03501089 -0.045758747 -0.04069113
000230 7e fe 1a bd 8f bb 0d bd 58 34 20 bd ee dd 4f bd
       -0.03784036 -0.034602698 -0.03911242 -0.050748758
000240 97 2d 2f bd 0c d8 27 bd f9 9b 38 bd db 49 3a bd
       -0.042768087 -0.040977523 -0.045070622 -0.04548059
000250 06 5f 37 bd 52 11 34 bd 74 4e aa bc e5 4a 0d bd
       -0.044768356 -0.04396183 -0.020789362 -0.034495253
000260 62 cd 05 bd 4a 41 fe bc 30 c5 36 bd d0 8f 0f bd
       -0.03266657 -0.031036992 -0.044621646 -0.03504926
000270 0e a1 07 bd 05 b7 00 bd dd a9 ff bc b7 27 15 bd
       -0.033112578 -0.03142454 -0.031208927 -0.03641483
000280 34 e6 0f bd 07 a8 46 bd cf 49 1e bd 35 fb 23 bd
       -0.03513165 -0.048500087 -0.038644608 -0.04003449
000290 51 83 2d bd dd 04 50 bd f2 0a 17 bd f7 4d 28 bd
       -0.04236156 -0.050785888 -0.036875673 -0.041089978
0002a0 97 10 2b bd 17 d7 2a bd 1d 18 1a bd 5a 62 2e bd
       -0.04176387 -0.041709032 -0.037620652 -0.042574264
0002b0 21 bb 2c bd 9a c9 33 bd ee d4 2f bd 9c dd 2b bd
       -0.042170648 -0.043893434 -0.042927675 -0.04195939
0002c0 ca 8b 12 bd 7f 7d 35 bd 28 51 31 bd 83 f2 3a bd
       -0.035777844 -0.044309136 -0.043290287 -0.045641433
0002d0 24 fd c9 bc a7 51 03 bd d9 9c dd bc 1e e6 d8 bc
       -0.02465684 -0.03206029 -0.02705233 -0.026476916
0002e0 59 c5 e9 bc e9 a0 fa bc c9 18 00 bd 01 e5 22 bd
       -0.028536486 -0.030594306 -0.031273637 -0.039769176
0002f0 7b dc 0d bd 8f 12 15 bd 02 c1 16 bd ce 34 5d bd
       -0.034634095 -0.036394652 -0.03680516 -0.054005437
000300 a3 6d 0b bd a3 e0 1e bd 2c a5 40 bd 09 a0 27 bd
       -0.034040105 -0.03878845 -0.04703252 -0.040924106
000310 bf 3d 22 bd 08 c3 33 bd 5b b0 2b bd 4c ab 20 bd
       -0.039609667 -0.04388717 -0.041916233 -0.03922586
000320 1d ce 71 be bb c1 8c bd 42 4d 10 be de 13 05 be
       -0.23613782 -0.06872889 -0.14091972 -0.1299586
000330 ad 8a 57 bd 12 ca 13 be ef 16 84 bd d4 86 2e bd
       -0.052622486 -0.14432552 -0.06449687 -0.04260905
000340 eb ec 16 be f6 78 1a be 7d fe 12 bd eb 03 c6 3c
       -0.14738815 -0.15085205 -0.03588723 0.02417179
000350 74 fe 8a bb 06 dc 8d bd 17 72 87 3c 96 b1 bd bb
       -0.004241759 -0.06926732 0.016533894 -0.005788992
000360 5b d1 d8 bc be d9 cb 3c fe f0 cd 3b 64 8b 16 bd
       -0.026467016 0.024884101 0.006284832 -0.036754027
000370 70 fa 5b bc 35 79 ba bb e8 95 90 bb 13 20 57 bc
       -0.013426408 -0.0056907185 -0.0044124015 -0.013130206
000380 10 6f f7 bb 0f e0 32 bc 11 03 9b bd cb fe 9f bb
       -0.0075510815 -0.010917678 -0.07568944 -0.0048826686
000390 ca d9 6e bb ee 4a ac bd 05 a5 a8 bb e8 df bf bb
       -0.003644573 -0.08412729 -0.005146625 -0.005855549
0003a0 0e 2c 1d bd c6 db 85 bd d5 94 6d bd 1f 91 91 bd
       -0.038372092 -0.06536059 -0.058003265 -0.07107758
0003b0 93 2d cd bd fc bf 9a bd 7d fb ad 3b cb 62 73 bb
       -0.10018458 -0.07556149 0.0053095208 -0.0037137743
0003c0 2f 8f 91 bc f9 52 81 bc 7b b5 94 bd 91 17 89 b9
       -0.01776847 -0.015786635 -0.07261177 -0.00026148235
0003d0 4b 44 dd bb ac 9e a0 ba ac 4e dd bb 10 1c ef bb
       -0.006752526 -0.0012254319 -0.006753763 -0.0072970465
0003e0 1d b2 b9 bb 2d 6b 9c bd 22 c3 0e bb 5a 63 72 3b
       -0.0056669847 -0.0763763 -0.0021783789 0.0036985488
0003f0 5d a8 1a 3b 39 84 e2 3a 25 f9 c6 bc e8 eb 4c 3b
       0.0023598887 0.0017281837 -0.024288723 0.003126854

model.encoder.layers.0.bias f4 [100]
000000 54 6b 97 bd 3a 1c 5d be c0 f9 03 3e 1d 2d 9b bc
       -0.07393518 -0.21592799 0.12888241 -0.01894241
000010 7f 31 21 3d 9e 54 b4 bd 05 a8 c6 3d 52 c7 64 be
       0.039353844 -0.08805202 0.09700016 -0.2234166
000020 b2 c5 33 3e b8 3f 8b bd 15 70 c9 bd b6 94 10 be
       0.17555884 -0.06799263 -0.09835831 -0.14119229
000030 8d 3b bc bd e5 45 8d 3d bf 33 36 be ab 2d bf 3d
       -0.09191046 0.06898097 -0.17793177 0.09334882
000040 d5 5e ad bd 2b e1 c4 3d eb eb 2f 3e ca 4b 4e be
       -0.084653534 0.0961326 0.1717984 -0.20146099
000050 cb 35 f4 3c 1f 9a c0 3d cd 55 88 3d 18 c1 09 3e
       0.029810807 0.09404396 0.0665699 0.13452566
000060 32 8e 92 3d bf 8e 20 bd bc 30 e3 bd 2d 56 89 bd
       0.07156028 -0.039198633 -0.1109328 -0.0670589
000070 af 56 8a bd 3c f3 40 be 11 a6 3a bd ec 44 3a 3e
       -0.06754815 -0.18842787 -0.04556853 0.18190354
000080 5f 3e 2e 3e ef 30 c8 3d 3b 53 34 be 04 d2 89 3d
       0.1701598 0.09774958 -0.17609875 0.067295104
000090 3a b7 2e 3e b8 4b 41 3e 29 93 b9 3d 82 d7 7f 3e
       0.17062083 0.1887654 0.09061272 0.24984553
0000a0 9f 55 41 3e 72 01 b5 3d 46 3e be 3d 87 60 9f bd
       0.18880318 0.08838166 0.092892215 -0.07782083
0000b0 85 3b 63 be 19 d9 01 3e bf 4a 49 be f7 68 8f bc
       -0.22190674 0.12680472 -0.1965742 -0.017506106
0000c0 a0 32 4c 3e 76 a0 01 be 92 26 32 3e 68 bf 05 be
       0.19941187 -0.12658867 0.17397526 -0.13061297
0000d0 a7 66 ae bd aa 7c 07 be f9 3a 18 3e a9 c9 b2 bd
       -0.08515673 -0.1323115 0.14866246 -0.0872987
0000e0 fa 5f c0 3d 4e 7e 09 3e 63 ee bd bd b1 1b 40 be
       0.09393306 0.13427088 -0.09273984 -0.18760563
0000f0 b8 51 fc 3c 70 1c 37 3d ae 10 0e 3e 9b d9 3d 3e
       0.030800685 0.044704854 0.1387355 0.18540041
000100 fe a8 30 bd 82 d6 40 3e 2c 1d 33 3e 00 20 05 be
       -0.043129914 0.18831828 0.17491597 -0.13000488
000110 4c 43 23 3e 39 a4 0f 3e 1e 8c 87 bd 01 c7 0f be
       0.1594364 0.1402749 -0.06618522 -0.14040758
000120 ca df 20 3e 2e 51 26 be 1c 2b 13 3e 1f 08 3d be
       0.15710369 -0.16241905 0.14371914 -0.18460129
000130 21 b8 c0 bd d1 9f 1b be 53 96 c5 bd 66 07 46 be
       -0.0941012 -0.15197684 -0.09647813 -0.1933876
000140 98 dc a8 bd 08 b7 01 3e 18 01 3a 3e ed e5 bf bd
       -0.082452 0.12667477 0.1816448 -0.09370027
000150 f2 54 3e 3e 36 d4 ac bd 00 da 42 be d8 42 bf 3d
       0.18587092 -0.084389135 -0.19028473 0.09338921
000160 27 e4 af bd 5f 11 62 bd d5 d1 a9 bd c8 c9 52 3d
       -0.085884385 -0.055192348 -0.082919754 0.051461965
000170 4c 04 44 3e 18 47 09 be a4 3f 4b 3e 73 1d 3f be
       0.19142264 -0.13406026 0.19848496 -0.18663578
000180 08 fd 44 3e 35 61 be bd 81 fa 95 bd 33 e4 a9 3d
       0.19237149 -0.092958845 -0.073231705 0.08295479

model.encoder.layers.1.0.weight f4 [100, 100]
000000 ee 5e 17 3d a3 d4 16 3c be 5a f1 bd f7 3b c4 3c
       0.036955766 0.00920597 -0.11784886 0.023954375
000010 cd 2e 6f bd 53 5d 0e 3e 5d 59 fc bc ad 6c 2b 3e
       -0.058394242 0.13902788 -0.03080433 0.16740675
000020 3f 9b a2 bd b4 84 1d 3e 71 d4 90 3c da 64 01 3d
       -0.07939767 0.15382653 0.017679425 0.03159032
000030 73 d9 13 3e e9 78 b8 bd 1d d7 25 3e 28 c1 1c be
       0.14438419 -0.09007437 0.1619534 -0.15308058
000040 95 2d f5 3d 5a 97 1c be 9c 1e 05 be fd e0 2b 3e
       0.11971585 -0.15292111 -0.12999958 0.16785045
000050 62 c0 cf bd 33 47 25 be e7 23 6a bd 36 80 be bd
       -0.10144116 -0.16140442 -0.057163145 -0.09301798
000060 08 19 f9 bd 2c cf 09 3d c5 b6 66 3d b6 71 85 3d
       -0.121629775 0.03364484 0.056326646 0.06515829
000070 1e df b5 3d 25 46 de 3d e0 03 72 3d bd 57 f0 bd
       0.08880447 0.10853223 0.059085727 -0.11735485
000080 5d cc bc bd 09 ff 1a be 01 01 e1 3d b7 d6 3a bd
       -0.09218667 -0.1513635 0.109865196 -0.045614924
000090 89 d8 53 bd 56 c3 fb bd 39 4e 27 be b8 8b 8a bc
       -0.051720176 -0.12293117 -0.16338433 -0.016912326
0000a0 45 a4 1c be 48 8f 22 be 7b a4 1d be 21 9a 51 3d
       -0.15297039 -0.1587497 -0.15394776 0.05117238
0000b0 75 1c 9c b9 a6 58 21 bd 71 9e 28 3e 42 8f d9 3d
       -0.0002977584 -0.039391182 0.1646669 0.106230274
0000c0 60 6d e6 bd 56 13 cc 3d b6 45 d0 bd 28 6e 67 3d
       -0.112513304 0.099646255 -0.10169546 0.056501538
0000d0 7a c2 ff 3d dd 69 ac 3d bb 63 0b be 18 05 15 3d
       0.12488265 0.08418629 -0.13612263 0.03638181
0000e0 45 05 1f bd ed bf 4c bd 37 51 1a 3e a2 ec d9 3d
       -0.038823385 -0.049987722 0.15070044 0.10640837
0000f0 dd 1a 9d bb 2b c8 a9 bc 89 f6 c0 bd 4b a1 2e be
       -0.004794462 -0.02072533 -0.09422023 -0.17053716
000100 ea e6 32 3d 07 77 0d be 09 ff 7a bd 74 f3 08 3e
       0.043677248 -0.13814937 -0.061278377 0.1337412
000110 7c 8f 2f be e8 8e c5 bd db 7b 35 3e 68 3a be 3d
       -0.17144579 -0.09646398 0.17723028 0.09288484
000120 21 c3 91 bd 93 8a 2e 3d 55 b6 6c bd cd fd dc 3d
       -0.07117296 0.042612623 -0.057791073 0.10790596
000130 21 18 27 3e 47 ec 7d 3d a7 a6 1d 3e f6 d2 d6 3d
       0.16317798 0.06199291 0.15395604 0.10489456
000140 e5 bb 4e 3d ae 17 b8 bc e3 bd 7c bd 27 9e 98 3d
       0.05047216 -0.022472229 -0.061704528 0.0745204
000150 5c 0b 02 be f9 4a e4 3d 96 39 ad 3d 64 a5 22 be
       -0.12699646 0.111471124 0.08458249 -0.15883404
000160 25 32 1e 3e ca c3 89 3d 8c f5 ec 3d 3b e7 1f bd
       0.15448816 0.06726797 0.11570272 -0.039038878
000170 50 89 e0 bd 82 fa 54 3d df 0f 38 be eb 88 ed 3d
       -0.1096369 0.051996715 -0.17974804 0.11598381
000180 ac fe 0e be e7 07 29 3e b2 cb 2c 3e a4 25 16 be
       -0.13964337 0.16506921 0.16874579 -0.14662796
000190 58 7a d5 36 06 f3 87 36 c6 1c 1b b7 fb f2 1a 36
       6.3621374e-06 4.051605e-06 -9.245419e-06 2.3089221e-06
0001a0 13 b5 f4 37 2f a9 00 b7 e1 dc d7 b5 65 b6 04 b5
       2.9171386e-05 -7.668786e-06 -1.6083033e-06 -4.943925e-07
0001b0 68 57 7c 35 80 00 20 37 c1 08 2b 37 ea 25 ca 36
       9.400451e-07 9.53686e-06 1.0194432e-05 6.024483e-06
0001c0 48 0d fe 33 7b 2b e5 b6 ab 53 f8 36 6f 08 b4 36
       1.18302125e-07 -6.8297936e-06 7.400716e-06 5.3654e-06
0001d0 36 03 0c 37 7a 8e 3d 36 f2 0f b7 b4 f5 e6 9c b6
       8.345398e-06 2.8246127e-06 -3.4098008e-07 -4.6760492e-06
0001e0 a8 3a 40 b5 2e 1f 58 36 1a 51 97 b6 fc 25 95 b7
       -7.161093e-07 3.2204657e-06 -4.509592e-06 -1.7779872e-05
0001f0 22 72 ae 36 83 19 2e b6 19 3d 32 b5 ee b7 f7 b6
       5.198891e-06 -2.594287e-06 -6.6399076e-07 -7.382586e-06
000200 a0 a7 fe 36 f1 d9 d9 36 1a 09 c1 36 e5 58 ef 34
       7.589304e-06 6.4924757e-06 5.752908e-06 4.4581898e-07
000210 9a a5 8c 34 3f 3c 38 37 44 08 28 b7 5b c4 8e b6
       2.6197523e-07 1.0981282e-05 -1.0015505e-05 -4.2547886e-06
000220 0b 7b ee 37 5a 7e 76 b5 dd 35 eb 36 db f6 d0 b6
       2.8429107e-05 -9.1826007e-07 7.0098163e-06 -6.227621e-06
000230 d5 17 14 b4 f1 17 0b b7 f0 c7 01 37 96 72 be 35
       -1.3792244e-07 -8.29062e-06 7.735551e-06 1.4189452e-06
000240 72 f0 e7 37 11 b6 3e 36 92 9c 27 37 96 67 15 37
       2.7649312e-05 2.8418183e-06 9.99043e-06 8.90521e-06
000250 8e 9e 0a 37 36 0f b9 36 58 f6 a5 b6 b6 fe 65 b6
       8.262357e-06 5.5152004e-06 -4.9460614e-06 -3.427192e-06
000260 e5 61 49 b5 63 8c 63 b6 35 75 96 36 dd a0 26 b5
       -7.502079e-07 -3.3907352e-06 4.483993e-06 -6.2073906e-07
000270 60 78 14 b5 25 ff b5 b7 da ab 24 b7 64 9f aa b5
       -5.5309465e-07 -2.1695692e-05 -9.815174e-06 -1.2712376e-06
000280 45 cd e4 b5 a2 b8 1b 37 65 21 db b5 b6 54 e0 34
       -1.7047065e-06 9.281708e-06 -1.6326491e-06 4.1784887e-07
000290 b3 96 80 36 33 b2 cf b6 88 c5 da b6 24 08 f6 35
       3.832241e-06 -6.189826e-06 -6.519902e-06 1.8330798e-06
0002a0 57 6d 9f 37 9e cf 73 36 04 5e 3f 35 6d d4 c2 b7
       1.9005192e-05 3.633067e-06 7.1289855e-07 -2.322552e-05
0002b0 0d 39 70 b6 06 98 2b b6 0b b2 9a b6 9b d5 0e b6
       -3.5795995e-06 -2.5569475e-06 -4.6102846e-06 -2.1283984e-06
0002c0 59 0e a4 36 c9 05 10 37 f0 7e 0d 36 00 65 ff b4
       4.889251e-06 8.584416e-06 2.1084525e-06 -4.7570938e-07
0002d0 8c 13 92 b5 57 e8 ff b6 5b 89 33 37 98 25 08 b7
       -1.0883537e-06 -7.62664e-06 1.0701212e-05 -8.114985e-06
0002e0 0b 27 b5 36 ad 0f 32 36 9b 95 5d b7 2d f2 2a 37
       5.3987656e-06 2.6533191e-06 -1.3207459e-05 1.0189176e-05
0002f0 8f 18 d0 b6 e1 a6 f5 b6 94 a2 b3 35 8e 45 c1 b6
       -6.201742e-06 -7.3209962e-06 1.3383856e-06 -5.7599455e-06
000300 b3 b0 38 37 67 f6 0d b7 04 f4 59 b7 8b ee 5d b7
       1.1008396e-05 -8.461625e-06 -1.2991022e-05 -1.3228167e-05
000310 99 e3 ed b5 1c 93 b3 b6 2c 2c 41 b6 32 ce 9c b6
       -1.7724116e-06 -5.3517415e-06 -2.8784953e-06 -4.6731666e-06
000320 fb 51 a2 36 e1 19 d2 37 c8 57 57 38 68 33 36 36
       4.83752e-06 2.5046002e-05 5.1341747e-05 2.7150036e-06
000330 d9 4d 60 b6 3b 6b 9d b4 8f ad 96 b7 b3 62 c3 b7
       -3.3423914e-06 -2.932155e-07 -1.7962213e-05 -2.3291772e-05
000340 4d ce 4f b7 45 c8 90 b6 df 3b ae b7 a3 9d 06 b8
       -1.2386195e-05 -4.314849e-06 -2.0770296e-05 -3.20949e-05
000350 3f f1 04 36 83 0b d4 34 48 e4 8c b6 33 8f f6 36
       1.9809956e-06 3.9496453e-07 -4.1989006e-06 7.348042e-06
000360 2c 6c 10 37 ed b0 96 b6 62 7d 88 36 05 49 8a b7
       8.608255e-06 -4.4909452e-06 4.0677123e-06 -1.6484884e-05
000370 09 d4 3d 37 48 0a 0c b4 fb 5c fc 36 56 a4 e5 b5
       1.1314646e-05 -1.3042256e-07 7.5210096e-06 -1.7109658e-06
000380 3a 86 40 37 e5 50 1c b8 85 f6 80 b7 e8 52 71 37
       1.1475344e-05 -3.7268637e-05 -1.5373584e-05 1.43840225e-05
000390 c6 85 24 b5 b8 2a 6e b6 cf 93 c2 35 90 d9 a7 35
       -6.1289427e-07 -3.548963e-06 1.4497144e-06 1.2505789e-06
0003a0 b8 a6 2a b6 73 c9 46 36 07 6d a1 b6 ad 2f 6d 37
       -2.5429017e-06 2.9621558e-06 -4.8108664e-06 1.4137401e-05
0003b0 0d 4a a7 b7 9e e1 47 37 e8 be 5c b6 d1 e2 b7 b8
       -1.9942434e-05 1.1913855e-05 -3.2893677e-06 -8.768368e-05
0003c0 ca be 4e 37 d4 ca 07 33 7f b8 c3 36 1e 09 39 b7
       1.2322978e-05 3.1616608e-08 5.832931e-06 -1.1028982e-05
0003d0 ac af f3 38 60 46 cd b7 92 84 d4 36 28 ec 08 37
       0.000116198644 -2.4470675e-05 6.3335256e-06 8.161216e-06
0003e0 37 17 ff b5 43 57 cc b6 bb 61 37 37 5a c0 9f 37
       -1.9005737e-06 -6.0898324e-06 1.0930405e-05 1.9043848e-05
0003f0 47 73 49 b6 fb c1 03 37 ee a0 6b 37 c0 00 88 b7
       -3.0018434e-06 7.853373e-06 1.4044561e-05 -1.6212813e-05

model.encoder.layers.1.0.bias f4 [100]
000000 b5 83 1f be cf 59 00 b5 da 24 7d 37 3c e6 d3 b6
       -0.15577586 -4.7814405e-07 1.5088555e-05 -6.315093e-06
000010 07 df 0c be 3b dc 53 36 a6 1a 8e b5 18 f7 51 3c
       -0.13756953 3.156964e-06 -1.058758e-06 0.012815259
000020 7b be 44 bd ed b4 14 b6 5e 06 72 3e 77 72 1e b8
       -0.04803322 -2.2159031e-06 0.23635241 -3.777674e-05
000030 88 9d da b5 0c 75 83 bd e0 7f f2 38 14 9d 7f 35
       -1.6288113e-06 -0.06418809 0.00011563278 9.522348e-07
000040 6b d5 c6 37 c3 ae 8b bd 63 cb 13 b7 ed 11 0e 38
       2.370282e-05 -0.068204425 -8.809237e-06 3.3872133e-05
000050 df 3b 32 b7 a1 2a b2 36 51 45 f4 bd 19 e4 2f b8
       -1.0623567e-05 5.309776e-06 -0.119272836 -4.1935684e-05
000060 20 0a 97 bc 8b 69 06 bd a5 b2 cc b8 4d 7c 06 be
       -0.018437445 -0.032815497 -9.760753e-05 -0.13133354
000070 2f 5e 0a 34 6d 90 7a 36 58 5e fd b8 f1 ab d1 b7
       1.2886515e-07 3.733697e-06 -0.00012081553 -2.4994808e-05
000080 e9 3f ab b6 0f 27 1d be 8a f7 1e be 42 3f 9f b6
       -5.1036372e-06 -0.15346931 -0.15524116 -4.7459334e-06
000090 91 c1 a2 b6 51 cc 0a be 48 f4 1c be 2c eb 69 b7
       -4.8505103e-06 -0.13554503 -0.15327561 -1.3942637e-05
0000a0 5b 51 ef b6 fc e4 97 b7 8c d7 52 b7 0a 37 ba 36
       -7.132226e-06 -1.8107232e-05 -1.2567161e-05 5.5496394e-06
0000b0 9b 37 13 bd 53 36 1b 37 2e 51 99 b8 a3 16 91 b7
       -0.0359417 9.251368e-06 -7.3107294e-05 -1.7295888e-05
0000c0 79 0f 1b b8 08 1b 8b 3e 17 ed f6 36 e6 2d 16 be
       -3.696929e-05 0.2716906 7.358972e-06 -0.14665946
0000d0 10 02 20 be c2 64 2f be c1 68 05 be 9c ea 5d 36
       -0.15625787 -0.1712828 -0.13028242 3.3068127e-06
0000e0 8b 6d 2e be d2 e9 04 b6 e6 24 27 36 91 76 f9 37
       -0.17033975 -1.9805634e-06 2.4906417e-06 2.9738325e-05
0000f0 bc 9d 4b 37 a9 a6 d6 b6 ca 39 25 be 53 20 31 bd
       1.2136468e-05 -6.397099e-06 -0.16135326 -0.043243717
000100 bc 44 02 36 d3 39 17 b7 1f 5b c5 bd 5c fb d3 b5
       1.9411518e-06 -9.013765e-06 -0.096365206 -1.579388e-06
000110 bc 06 64 36 17 e7 5a b9 84 ae 11 be 20 0c 04 be
       3.3978567e-06 -0.00020876188 -0.14226729 -0.1289525
000120 14 ee 99 36 e2 60 24 35 94 5c 24 be 80 e2 c0 b6
       4.5874713e-06 6.1235744e-07 -0.16050941 -5.748414e-06
000130 59 68 8c bb 4c 82 39 b4 69 89 19 be 5d 11 46 b6
       -0.0042849 -1.727687e-07 -0.14993824 -2.9514406e-06
000140 8e 8c bd b9 0d 02 4c b6 c0 b7 a2 b6 c7 4d 35 be
       -0.0003615361 -3.0399563e-06 -4.8493675e-06 -0.17705451
000150 82 5c 05 b7 5c ed 1c be e8 90 2e 36 7e d6 0a bc
       -7.948956e-06 -0.1532492 2.6012367e-06 -0.0084739905
000160 47 a6 08 37 1f ef 91 b7 c6 c4 37 3d 82 4d dc b6
       8.144946e-06 -1.7396696e-05 0.044865392 -6.565534e-06
000170 71 f3 22 be 15 b0 ac bd bb d4 88 b6 a7 6e 4e b8
       -0.15913178 -0.084320225 -4.077881e-06 -4.921728e-05
000180 c9 88 14 b6 19 f8 73 36 3b d6 a7 37 90 7c c3 bd
       -2.2133338e-06 3.6354234e-06 2.000771e-05 -0.09545243

model.encoder.layers.2.0.weight f4 [100, 100]
000000 7f 3a 9c 36 62 8a 50 b7 b4 65 97 b6 4f af 69 34
       4.655972e-06 -1.2429986e-05 -4.5119905e-06 2.1763593e-07
000010 ba 25 01 b7 52 42 86 36 89 77 ec 36 8e 28 e4 b5
       -7.697783e-06 4.001232e-06 7.047264e-06 -1.6999127e-06
000020 b6 12 2c b7 3b e2 1b b7 ed 20 d8 35 d8 2d 26 b7
       -1.0256355e-05 -9.291393e-06 1.6102837e-06 -9.905045e-06
000030 4d ee 5c b6 08 44 16 b7 67 61 78 b6 ba 03 ec 36
       -3.2921264e-06 -8.9565365e-06 -3.7011575e-06 7.033782e-06
000040 97 f3 fe b5 e7 86 52 37 f6 11 1e b7 68 48 a1 b6
       -1.8995369e-06 1.2548385e-05 -9.421716e-06 -4.806603e-06
000050 a4 45 57 b6 be 57 aa 36 d4 74 c5 b6 23 26 31 b7
       -3.2078033e-06 5.0766093e-06 -5.884658e-06 -1.05589015e-05
000060 ad 29 dd 34 e6 b6 e7 b6 4f c2 a1 b6 ce 96 d8 36
       4.119478e-07 -6.9056287e-06 -4.8207944e-06 6.4548576e-06
000070 06 1e 8d 36 8b 61 1d b7 cf df 57 36 ff d2 87 b6
       4.2056226e-06 -9.38064e-06 3.216777e-06 -4.0478767e-06
000080 11 54 9e b5 59 81 c5 36 93 98 3a 36 c8 b2 52 36
       -1.1796384e-06 5.8861156e-06 2.780497e-06 3.1396503e-06
000090 1c a6 4f 37 14 ef 13 b7 54 ee 03 37 c3 d3 21 b7
       1.2376837e-05 -8.8175475e-06 7.863699e-06 -9.645652e-06
0000a0 98 a9 1c b7 7d a4 af 36 bd 73 20 b6 59 f4 9f 36
       -9.337811e-06 5.2345554e-06 -2.3909226e-06 4.767015e-06
0000b0 03 23 94 36 2d 8b 18 b7 d1 d0 28 37 05 d8 91 b6
       4.4148196e-06 -9.09231e-06 1.0062199e-05 -4.3464847e-06
0000c0 f0 3a d2 36 22 00 e8 34 5c b7 19 37 57 ef 04 36
       6.265349e-06 4.3213464e-07 9.162202e-06 1.9808847e-06
0000d0 67 1c 53 b6 ea 0b 0a 37 ae 4e b4 b5 c1 f6 36 36
       -3.1457982e-06 8.228215e-06 -1.3433944e-06 2.7263743e-06
0000e0 41 3c 9d b6 6f 5d 1c 37 08 ec aa 36 64 41 29 37
       -4.685979e-06 9.320079e-06 5.0938725e-06 1.008841e-05
0000f0 05 88 55 36 2e 22 8f b6 b6 2c 46 35 1d 19 e8 b6
       3.1818647e-06 -4.265711e-06 7.382581e-07 -6.9170624e-06
000100 d0 41 d4 b6 81 73 8d 36 b8 dc 04 b6 50 af 26 b7
       -6.325754e-06 4.215574e-06 -1.9798008e-06 -9.935189e-06
000110 19 f9 18 b7 39 91 87 36 69 d8 b4 34 67 00 86 b5
       -9.117904e-06 4.0402197e-06 3.3685072e-07 -9.983895e-07
000120 df b4 c3 b6 5f 07 a2 36 e4 13 91 36 d0 5e 60 b5
       -5.832509e-06 4.8288343e-06 4.3236523e-06 -8.3584473e-07
000130 17 e4 a3 b5 8e d4 1e 37 68 cf 7d b6 56 ff d4 b6
       -1.2210829e-06 9.467023e-06 -3.7820664e-06 -6.3478174e-06
000140 cf 8d ec 35 2b 37 5b 36 68 84 b4 b6 42 cc 23 37
       1.7624642e-06 3.2665655e-06 -5.379832e-06 9.763115e-06
000150 54 9a 2b 36 e1 c1 2e 36 56 b3 a0 36 bb 32 26 36
       2.5570816e-06 2.6040873e-06 4.789249e-06 2.4765457e-06
000160 27 df 29 36 b9 ed 76 36 0a 00 35 36 57 63 ac 36
       2.5312854e-06 3.679523e-06 2.6971124e-06 5.137564e-06
000170 93 02 8d b7 0c f0 81 36 b8 3e 08 b7 87 63 b9 36
       -1.6809709e-05 3.8724447e-06 -8.1208345e-06 5.525016e-06
000180 2a 60 0d b7 72 64 7d b6 34 f3 e4 36 3c 7a 1c 36
       -8.426645e-06 -3.7758405e-06 6.823242e-06 2.3316961e-06
000190 58 d0 6a 3e e7 27 71 b6 74 7b 0f 38 ca 99 46 36
       0.2293104 -3.5935025e-06 3.420883e-05 2.9593816e-06
0001a0 65 12 ec 3d e9 b8 ed 36 f6 0b e1 36 bb 9b 0e 3e
       0.11526946 7.084677e-06 6.706915e-06 0.13926594
0001b0 24 7e 90 3d 88 8e d8 b4 b9 93 4d bd 51 48 2c b8
       0.070553094 -4.033684e-07 -0.050189707 -4.1075346e-05
0001c0 20 60 a5 36 8e 7b 2e 3e f4 82 7f b7 4a c6 32 b7
       4.9285736e-06 0.1703932 -1.5229674e-05 -1.06557945e-05
0001d0 1c df 6f b7 54 59 89 3d b9 10 99 36 0b 58 24 38
       -1.4297457e-05 0.06706491 4.561702e-06 3.9182643e-05
0001e0 68 17 26 b6 6f f9 b0 37 30 df 82 3e 82 b7 92 b8
       -2.4749552e-06 2.1096987e-05 0.25560904 -6.9960035e-05
0001f0 a9 0b e6 3d 72 49 03 3e 6c 06 ba 38 9e ee 4f 3e
       0.11232693 0.12820986 8.870367e-05 0.20305869
000200 b0 b5 9e b6 ff 10 b8 35 9a d1 3c 38 7d 86 78 37
       -4.729918e-06 1.3714015e-06 4.50179e-05 1.4813265e-05
000210 23 5c 37 b7 6f 0d 52 3e 06 a4 81 3e 00 0d 87 b7
       -1.0929102e-05 0.20512937 0.25320452 -1.6099308e-05
000220 59 cb 88 b3 11 8e 1d 3e 3c a9 33 3e 64 b4 37 38
       -6.369982e-08 0.15386225 0.17545027 4.3798602e-05
000230 7b 35 45 36 7b 1c 59 b7 36 c2 aa 37 38 14 07 b5
       2.9386417e-06 -1.2940839e-05 2.0356016e-05 -5.032084e-07
000240 82 a1 f9 3c d0 c4 05 b6 d0 1b 8e 38 b0 ee 3f 37
       0.03047252 -1.9933104e-06 6.776268e-05 1.1440061e-05
000250 a3 3a 6d 37 1b b3 a4 bd d7 42 d6 37 52 1b 83 3e
       1.4139953e-05 -0.08041974 2.5541913e-05 0.2560678
000260 20 94 3f 3e a0 f1 43 3e 34 e4 29 3e e2 e2 32 37
       0.18708849 0.19135141 0.16590959 1.0662452e-05
000270 46 6c 59 3e d6 c8 f5 35 91 e5 35 b6 6e 9d bf b7
       0.2123271 1.8312373e-06 -2.7104727e-06 -2.2842283e-05
000280 90 b6 70 37 fb d4 27 36 af de 43 3e 4e b0 8c 3d
       1.4347621e-05 2.500891e-06 0.19127916 0.06869565
000290 66 fe f9 35 37 4c f0 36 41 aa 6c 3e 00 ff 35 36
       1.8625985e-06 7.16143e-06 0.23111822 2.7119531e-06
0002a0 0d 90 8a 36 9c d7 f5 b7 69 cc 52 3e 65 31 25 3e
       4.12949e-06 -2.9306677e-05 0.20585789 0.16132124
0002b0 6c e2 81 b6 59 c7 3a b6 2c cc 71 3e d3 f0 6a 35
       -3.8708586e-06 -2.7832195e-06 0.23613042 8.752224e-07
0002c0 64 71 8b 3d d7 09 05 b7 6f 85 86 3e 37 89 10 35
       0.06808737 -7.929709e-06 0.26273677 5.3843854e-07
0002d0 54 73 85 38 f8 94 17 b6 79 3c 09 36 e4 d5 2a 3e
       6.363416e-05 -2.2587465e-06 2.044979e-06 0.16683155
0002e0 45 77 b7 37 e5 20 5d 3e 73 00 73 36 43 be c4 3c
       2.187084e-05 0.2159458 3.6210083e-06 0.024016505
0002f0 7a 0f 95 37 c9 b6 6e b7 5a 3e e8 3c a2 86 94 b7
       1.7769391e-05 -1.4228463e-05 0.028350044 -1.7705668e-05
000300 ab 15 34 3e b5 16 ac 3d 04 c5 6b 37 19 6c 3f 36
       0.1758639 0.084027685 1.4052963e-05 2.852414e-06
000310 7d 91 1d 37 6b 6a a1 36 8c 4a 85 37 f0 45 0e 3e
       9.391803e-06 4.8105626e-06 1.588955e-05 0.13893867
000320 50 df 84 3e b0 fd 5f b6 29 74 22 38 c1 ff 7e b3
       0.25951624 -3.3377255e-06 3.8731992e-05 -5.937159e-08
000330 e8 a7 30 3d c5 01 0e b5 8b 29 0f 37 83 0c 7f 3d
       0.043128878 -5.29017e-07 8.533137e-06 0.06226779
000340 d4 b3 cb 3d 8e 9b c0 35 4d ca 40 bd ac 97 58 b8
       0.09946409 1.4350387e-06 -0.04706793 -5.163967e-05
000350 d7 73 8f b6 0c 24 12 3e 15 3d 68 b7 f0 7c 85 b6
       -4.2752176e-06 0.14271563 -1.3842499e-05 -3.9782535e-06
000360 83 0d c0 37 6a d9 56 3d 84 f2 25 b6 f1 ac 20 38
       2.2894475e-05 0.052453436 -2.4728079e-06 3.8308037e-05
000370 6b e4 36 36 2a e6 89 37 43 87 39 3e 9a 91 47 b8
       2.725307e-06 1.6438851e-05 0.18118005 -4.75809e-05
000380 1c 75 38 3c 4a 4b e7 3d 57 47 eb 38 0b de ac 3d
       0.01125839 0.11293657 0.00011218961 0.08440789
000390 ca f3 6a b6 4c 06 9c b6 77 f2 6b 38 cc d7 94 37
       -3.501062e-06 -4.6498953e-06 5.625418e-05 1.7743463e-05
0003a0 3c 54 20 b8 6d 66 7c 3e b3 87 64 3e 6c 2d 1c b7
       -3.8225422e-05 0.24648447 0.2231739 -9.3089e-06
0003b0 ef 96 ec 36 cd f0 38 3e b9 02 4f 3e ca 50 8b 38
       7.050919e-06 0.18060608 0.20215882 6.6430846e-05
0003c0 4f 25 11 36 f4 de 27 36 a4 0f fd 37 70 15 08 b7
       2.16284e-06 2.5014715e-06 3.0167233e-05 -8.111223e-06
0003d0 bf d3 ac 3b 7f d1 a6 35 95 bc 5b 38 f7 ae 12 37
       0.0052742655 1.2428935e-06 5.23893e-05 8.743015e-06
0003e0 bd 4b 14 37 fc 04 94 bd 3a b1 21 38 60 ea 69 3e
       8.839122e-06 -0.07227513 3.8550446e-05 0.22843313
0003f0 e2 db 53 3e 97 46 3c 3e 5a 70 86 3e ae 1b 32 b7
       0.20689347 0.18386303 0.26257592 -1.0616071e-05

model.encoder.layers.2.0.bias f4 [100]
000000 66 d6 bf 36 05 8f 25 be bc 59 03 be 98 7b 67 b4
       5.717203e-06 -0.16167839 -0.128272 -2.1558515e-07
000010 87 e9 bb b5 1f 73 1a be bf f8 12 bd 8b 85 2f 3e
       -1.4000551e-06 -0.15082978 -0.035881754 0.17140786
000020 2f d8 83 b6 40 bd d8 b6 fc 43 08 36 dc be 1c be
       -3.9292713e-06 -6.4593332e-06 2.0305151e-06 -0.15307182
000030 5b dd 07 37 a8 ca 77 37 d4 72 f0 b6 51 e9 f0 bd
       8.098165e-06 1.4769532e-05 -7.165925e-06 -0.117632516
000040 d7 2a ab bd ae 6c 45 37 59 14 8d b6 b8 e0 24 36
       -0.083577804 1.1767419e-05 -4.2044962e-06 2.4568708e-06
000050 ae a8 65 b7 df a3 aa b4 40 a0 99 36 f3 ad 21 3b
       -1.3688737e-05 -3.17842e-07 4.578411e-06 0.0024670332
000060 59 73 06 b9 53 5f 21 be 3a 2f 3e 37 df f4 eb b6
       -0.00012822206 -0.1575902 1.1335878e-05 -7.0320525e-06
000070 4f 08 84 36 c3 3a cb 3d 4d 22 84 bd 9a 96 d2 36
       3.934874e-06 0.09923317 -0.06451855 6.27602e-06
000080 f4 2b 8a 3e c8 25 a7 35 e4 26 a9 b6 e8 47 0e be
       0.2698666 1.2453465e-06 -5.04112e-06 -0.13894618
000090 84 56 7b 3e 68 d3 64 36 29 7d 2d be 04 27 8f 3e
       0.24544722 3.4097702e-06 -0.16942276 0.27959454
0000a0 43 5a 54 bd dc 9e 67 36 a6 89 c2 b5 60 20 52 3e
       -0.051843893 3.451415e-06 -1.4494187e-06 0.20520163
0000b0 34 0f 9c 3e e3 a2 1e b6 23 9a 6f 3e e6 9b 20 36
       0.3048035 -2.3638647e-06 0.23398642 2.3932603e-06
0000c0 64 89 8d bd 37 8c ce bd a5 d0 a1 bd 83 34 78 36
       -0.06910971 -0.100853376 -0.07901124 3.6985446e-06
0000d0 b7 ec 3f b7 ad 55 b2 bd a6 51 17 be 82 c0 06 be
       -1.1439602e-05 -0.087077476 -0.1477724 -0.13159373
0000e0 89 c3 a5 b6 f5 88 98 36 25 b1 20 3c 12 7c 89 b5
       -4.9401465e-06 4.545897e-06 0.00980786 -1.0243405e-06
0000f0 3c f3 89 bd f7 10 9b 3e 86 85 1b be 5b fc 50 bd
       -0.067358464 0.3028638 -0.15187654 -0.051021915
000100 8f 5d 94 36 88 5e 28 be 2c 4f fa bd f5 fa 2f be
       4.4216354e-06 -0.16442311 -0.12222132 -0.17185576
000110 64 5a 12 be 11 6e 8c b8 d6 44 26 b7 26 78 2b be
       -0.14292294 -6.696222e-05 -9.910398e-06 -0.16745052
000120 73 98 3f bc 70 45 80 bd c2 4c a9 b4 81 89 17 be
       -0.011694062 -0.06263244 -3.1534552e-07 -0.14798547
000130 5a ea a0 b7 f4 27 12 37 3f c6 8c 3e 5c 62 9c 36
       -1.9182615e-05 8.71158e-06 0.27495 4.660613e-06
000140 62 eb 85 36 24 68 2b be 55 0c 8f 3e 9c e4 73 b7
       3.991111e-06 -0.16738945 0.27939096 -1.4537156e-05
000150 07 9c 00 38 d3 ad 23 b7 f2 bc d4 b6 d0 1f 07 ba
       3.066289e-05 -9.756029e-06 -6.3400885e-06 -0.0005154582
000160 dc 4f 21 b7 47 28 38 37 c5 2b c7 36 fc c8 26 be
       -9.6149415e-06 1.0976632e-05 5.9357576e-06 -0.16287607
000170 2c 4c af b6 a8 b5 8d 35 2f 03 38 3e 12 b2 0c 3e
       -5.224274e-06 1.0558188e-06 0.17969964 0.13739803
000180 d1 fb a9 b7 66 b0 1f be 50 77 f9 bd bf a4 4f b7
       -2.0263631e-05 -0.15594634 -0.1218096 -1.2376519e-05

model.encoder.layers.3.weight f4 [10, 100]
000000 e9 c9 4e 36 e3 9b d3 36 51 49 97 36 11 6e 29 b7
       3.081392e-06 6.3064376e-06 4.508686e-06 -1.0098812e-05
000010 f4 57 1c 37 bf 1e c1 b6 58 f4 05 37 e6 93 92 35
       9.318803e-06 -5.7554275e-06 7.9843085e-06 1.0920892e-06
000020 24 f7 b4 b6 35 d9 25 37 f3 dc 30 37 55 4a b7 36
       -5.393189e-06 9.885339e-06 1.0541861e-05 5.4624784e-06
000030 5e 15 97 b6 c0 c3 25 b7 55 0a af 36 9d 8e 60 b6
       -4.502638e-06 -9.880343e-06 5.216609e-06 -3.3461613e-06
000040 5f d6 f6 34 e6 d2 07 b6 85 15 fe b3 75 35 ac 36
       4.5977046e-07 -2.0239327e-06 -1.1831711e-07 5.1322227e-06
000050 19 42 5d b6 d1 3b 4e 36 5f a1 30 b7 a3 d5 e1 b6
       -3.297004e-06 3.073121e-06 -1.052799e-05 -6.730393e-06
000060 95 95 aa b6 f8 c7 82 34 50 d1 4d b6 27 0d 1f 37
       -5.0838084e-06 2.4359883e-07 -3.0669216e-06 9.480201e-06
000070 dc c2 04 37 75 45 50 34 fc dc 8d b7 de 78 85 b6
       7.913182e-06 1.9396778e-07 -1.6911414e-05 -3.9777797e-06
000080 8b 6d 80 34 17 95 06 b6 dc 77 17 b7 48 8e 34 36
       2.392156e-07 -2.0054338e-06 -9.028208e-06 2.6904909e-06
000090 06 1a 19 34 4a 00 91 b6 96 08 1a b7 76 21 79 35
       1.4258703e-07 -4.3213704e-06 -9.181114e-06 9.280842e-07
0000a0 8e c2 4f b7 b6 11 09 b7 57 ed 25 b7 bf 4d 3e b6
       -1.238346e-05 -8.16996e-06 -9.890026e-06 -2.835746e-06
0000b0 0b bd c2 b1 99 8e ed b6 fe 74 55 34 c2 64 eb 35
       -5.667635e-09 -7.079751e-06 1.9879732e-07 1.7538189e-06
0000c0 6a 0d c7 36 a2 39 6b 36 fe 27 79 b5 c3 57 9f 35
       5.9322238e-06 3.5051276e-06 -9.2817925e-07 1.1871965e-06
0000d0 48 71 0e 37 a2 3e ac b5 46 6b da b6 33 84 98 b6
       8.490235e-06 -1.2833227e-06 -6.5093946e-06 -4.545343e-06
0000e0 d8 8e 30 b7 e5 da 60 b5 a8 fa 87 b4 3b 46 9a b5
       -1.0523676e-05 -8.3765036e-07 -2.5328086e-07 -1.1494334e-06
0000f0 f1 3c d6 b6 0d ef 6a 35 2d 4c 44 b6 2c 12 70 b5
       -6.3847915e-06 8.751966e-07 -2.9250616e-06 -8.943341e-07
000100 0e d5 17 b7 83 4c 13 37 b6 be 81 36 6a f7 90 36
       -9.049907e-06 8.779697e-06 3.8667013e-06 4.320337e-06
000110 cf 34 38 36 ba a8 86 b6 9b 13 26 b7 97 32 8e b7
       2.7448875e-06 -4.0131536e-06 -9.898936e-06 -1.6951277e-05
000120 b7 a1 da b4 b8 c7 c7 b6 c8 3c ed b6 97 4a 8b b6
       -4.0723327e-07 -5.9539125e-06 -7.0702263e-06 -4.151206e-06
000130 07 1a 1f 37 a9 93 f1 36 0e 79 ce 34 1a 71 84 36
       9.4831985e-06 7.1995496e-06 3.845857e-07 3.9470733e-06
000140 f9 d4 42 b5 ba e4 6e 37 5d b0 8f b5 3c d8 a0 36
       -7.258055e-07 1.423916e-05 -1.0705659e-06 4.7935446e-06
000150 99 b5 21 37 99 c7 72 36 5b f0 a7 36 a3 4f 18 b7
       9.638629e-06 3.6176991e-06 5.004969e-06 -9.078448e-06
000160 e3 e8 5c 36 96 86 29 b7 5e a5 17 37 16 b3 07 37
       3.2918113e-06 -1.0104521e-05 9.038804e-06 8.088324e-06
000170 71 69 f0 b6 a3 3c ef b6 73 a0 22 b3 80 41 97 35
       -7.1648324e-06 -7.129814e-06 -3.7864492e-08 1.126944e-06
000180 86 17 9e 35 f9 ec af b6 e6 64 82 b5 36 14 19 b6
       1.1778764e-06 -5.2429937e-06 -9.71512e-07 -2.281054e-06
000190 e4 f6 1d b7 e8 c6 e3 3d bf 96 f5 3d 2b ee 04 37
       -9.415413e-06 0.11121923 0.11991643 7.923266e-06
0001a0 80 bc 3f 36 af eb ec 3d a3 67 e4 3d 48 df 88 3d
       2.857094e-06 0.115683906 0.1115258 0.066832125
0001b0 e1 e8 24 35 88 a1 9d 37 b8 fa bd 34 ed 19 03 3e
       6.1433644e-07 1.8791077e-05 3.5386415e-07 0.12802859
0001c0 76 40 98 b6 9b c7 d5 b5 ed 82 77 b6 9a a4 e5 3d
       -4.5374572e-06 -1.592783e-06 -3.6882077e-06 0.11213036
0001d0 0f ba c1 3d 04 37 08 35 a9 d1 01 b7 07 07 db b6
       0.09459316 5.0744006e-07 -7.7378145e-06 -6.5275267e-06
0001e0 7d 8c e5 b6 3a 43 99 b7 73 0e c4 b6 2c 0b cc 3d
       -6.841087e-06 -1.8270326e-05 -5.8429373e-06 0.09963068
0001f0 95 88 c7 38 bb 53 f6 3d a9 4f b2 37 ec 04 c9 36
       9.5145e-05 0.12027689 2.1256348e-05 5.99084e-06
000200 98 da 3e 36 9c d3 95 3d 98 cc d1 3d 74 d4 c6 b5
       2.8439445e-06 0.07315752 0.10244101 -1.4813982e-06
000210 a2 62 1d 3c 40 c4 d7 b4 5e 63 62 b6 58 01 f2 3d
       0.009606035 -4.018966e-07 -3.3734464e-06 0.118166625
000220 06 60 97 bc a8 dc 97 36 eb 43 f0 3d 3c f7 55 3b
       -0.018478405 4.5258384e-06 0.11731704 0.0032648584
000230 dc 5e c9 3d 7f 8c 04 37 98 85 0b b7 7f 9b 15 be
       0.09832546 7.900525e-06 -8.31615e-06 -0.14610098
000240 24 d9 b6 bc 8d 22 ed b6 28 87 8e 3d 15 24 17 37
       -0.022320338 -7.0671726e-06 0.06959373 9.008702e-06
000250 36 7e d5 3d 8a 80 db 3d eb 6e fd 3d 94 a4 bb 35
       0.104244635 0.10717876 0.123746715 1.3980484e-06
000260 62 42 0a b7 da 08 bc 3d 4a 7b ff 3d ad 1f f8 3d
       -8.240897e-06 0.09181376 0.124746874 0.12115417
000270 48 9f d5 37 6d 91 90 b6 2d 5e a6 3d 74 f8 38 36
       2.546575e-05 -4.308464e-06 0.08123431 2.7562755e-06
000280 1c 5e da 3d 5c 07 35 3d 57 c9 c8 3d db 53 c1 3d
       0.10662481 0.04419647 0.098040275 0.09439822
000290 b9 f4 a9 b6 46 df f0 3d b3 5e fc 3d e6 5d f1 3d
       -5.065082e-06 0.11761336 0.1232275 0.11785488
0002a0 de c5 d5 3d 8e a3 bc b7 86 72 e1 36 d3 97 ee 3d
       0.10438131 -2.2487508e-05 6.718855e-06 0.11650052
0002b0 b7 07 af 3d 9f fa 03 3e 1a 1a 5e 36 65 67 00 3e
       0.08546393 0.12888573 3.309577e-06 0.12539442
0002c0 57 c3 e7 36 a6 ff 58 b5 3d 0e 6d bc c6 85 55 36
       6.907077e-06 -8.083829e-07 -0.014468727 3.181734e-06
0002d0 15 fe 56 36 ee 92 e4 3d 18 24 4c bd 81 75 89 b6
       3.203638e-06 0.11160837 -0.04983911 -4.0965974e-06
0002e0 a2 91 ec b5 c5 1e 21 36 60 8a c0 35 a4 f8 b7 b8
       -1.7625755e-06 2.400878e-06 1.4345387e-06 -8.772433e-05
0002f0 2f ee 9a 36 af 14 a8 37 7d ae 9a b6 68 74 fa 3d
       4.617286e-06 2.0036792e-05 -4.6098708e-06 0.12229234
000300 c6 59 e2 37 d1 cb 94 36 74 c3 6c 3d f3 0d 8a 3d
       2.6983103e-05 4.434471e-06 0.057803586 0.06740942
000310 77 80 c4 37 1d 4f e2 3d 9b fb e5 3d 9f 4e eb 36
       2.3424842e-05 0.11050246 0.112296306 7.0126985e-06
000320 62 d8 04 37 31 cd 2a 3e 53 22 13 3e 05 74 64 b6
       7.918194e-06 0.16679837 0.14368562 -3.404218e-06
000330 4e d7 86 b7 be fb 14 3e 85 b0 6e 3e 0c 94 28 3e
       -1.6074304e-05 0.14549157 0.23309524 0.16462725
000340 2d 69 c8 37 73 81 5e 38 3b d5 fb b6 dd 3d 16 3e
       2.3890834e-05 5.3049484e-05 -7.505206e-06 0.14672036
000350 2b 9e 69 37 cc 40 bb 37 e7 da 44 37 fc 91 10 3e
       1.3924709e-05 2.232231e-05 1.1733478e-05 0.14118189
000360 f8 dc 55 3e 35 15 b2 36 56 6a 9b b4 03 8d 6c 36
       0.20885074 5.307282e-06 -2.894837e-07 3.524882e-06
000370 da af c1 b6 1e 6e a3 37 bf a0 c2 b5 b7 9a 71 3e
       -5.77232e-06 1.9482392e-05 -1.450091e-06 0.23594175
000380 f9 16 95 39 3a ed 5e 3e ef f8 54 b6 f5 c6 f5 37
       0.0002843661 0.21770182 -3.173536e-06 2.9298923e-05
000390 0f 64 15 b6 23 8a 40 3e cc 81 29 3e 23 db 18 36
       -2.2260972e-06 0.18802695 0.1655342 2.277732e-06
0003a0 b5 98 43 bd e4 db 92 b6 bf fa cb 34 29 51 4a 3e
       -0.047753055 -4.3767377e-06 3.7994138e-07 0.19757523
0003b0 b4 bc ff bc 2b ea e6 36 0c 72 0d 3e b3 a3 0e 3d
       -0.03121791 6.881795e-06 0.13813037 0.034824084
0003c0 07 cb 73 3e 84 fd 02 b6 6e 06 89 b7 56 8f 21 be
       0.23807918 -1.9519075e-06 -1.6334667e-05 -0.15777335
0003d0 f2 3c a3 3c e4 39 47 b6 9e fb 84 3d 24 b5 d5 37
       0.019926522 -2.9687008e-06 0.06493305 2.5475929e-05
0003e0 9e 72 58 3e 7d a6 09 3e cd 25 65 3e 45 ee b7 b7
       0.21137473 0.13442416 0.22377701 -2.1926253e-05
0003f0 ac 78 2e 38 3e 62 55 3e bd 66 78 3e 5e 64 61 3e
       4.1597217e-05 0.20838258 0.24257942 0.22010943

model.encoder.layers.3.bias f4 [10]
000000 e5 95 03 34 32 49 42 bd 44 66 12 3c 0f ee 50 be
       1.2254857e-07 -0.047433086 0.008935515 -0.20403312
000010 f2 64 6e 3e 2b ee 36 36 2d b1 3c be b3 17 9a 3e
       0.23280695 2.7258745e-06 -0.18426962 0.30096206
000020 17 b5 3e 3e 2a 32 05 be
       0.18623768 -0.13007417

model.decoder_x.layers.0.weight f4 [10, 10]
000000 ef 02 af 36 16 52 63 3c 7f 33 47 be 9f 4d 44 be
       5.215748e-06 0.013874551 -0.19453238 -0.19170235
000010 f9 f9 30 3c d6 04 e5 36 5d ff 98 3d 61 ea 99 bb
       0.010801786 6.825295e-06 0.07470582 -0.0046971296
000020 8b 21 12 3c d4 3c c1 3c b5 ed 8d b6 de e4 58 3c
       0.00891913 0.023588575 -4.2298e-06 0.01323816
000030 f5 76 e8 bd 56 99 86 be 52 df ee 3d 94 8f 51 36
       -0.11350814 -0.2628886 0.11663689 3.1227e-06
000040 db cc a7 bd 8c e5 29 be 55 4d 0f bd f2 e3 cd 3d
       -0.0819337 -0.16591471 -0.03498586 0.10053243
000050 28 ac 2c 37 65 08 f5 3c e6 70 93 3d d3 48 fb 3d
       1.0292082e-05 0.02991123 0.07199268 0.122697495
000060 ee 55 77 3d 21 56 1d b7 10 e3 21 3e b0 4f 91 be
       0.060384683 -9.377983e-06 0.15809274 -0.2838111
000070 c2 9e 77 bd 47 98 d9 3d c5 88 ee b5 8f 43 d2 3c
       -0.060454138 0.10624748 -1.7772187e-06 0.02566698
000080 30 0f 2a be 7c 95 80 3c ab 94 a9 3d dd 28 85 b6
       -0.16607356 0.01569628 0.08280309 -3.968466e-06
000090 3a 13 44 bd 22 29 b8 be 37 a6 8d bd 98 6e f9 3d
       -0.0478699 -0.35968882 -0.069164686 0.12179297
0000a0 33 d1 e3 b6 90 6b 34 3d cf 04 2c be 49 50 94 be
       -6.789481e-06 0.044047892 -0.1679871 -0.28967503
0000b0 b0 11 47 3d 27 1f 30 37 45 d4 ca 3d 54 5d c6 bd
       0.048600852 1.0497671e-05 0.099037685 -0.0968577
0000c0 9f bb a4 bd d5 d4 06 3e 70 30 ed b6 37 1d 15 3d
       -0.080435984 0.13167126 -7.0687893e-06 0.036404815
0000d0 b9 29 40 be 4b 0f 7e be 0d 61 8e 3d c3 3a 88 36
       -0.18765916 -0.24810521 0.06952105 4.0599566e-06
0000e0 0b 98 81 3d b8 b8 6b bc bd 47 78 bd 1c 74 f3 3d
       0.06327828 -0.014387302 -0.06061529 0.118873805
0000f0 b6 a7 92 b6 9e c1 ec 3c 15 74 a0 be 98 d1 10 3d
       -4.370663e-06 0.028900918 -0.31338564 0.035356134
000100 53 e3 2d 3e b5 bb 25 b7 2e 36 52 3d 32 34 0f 3e
       0.16981249 -9.87847e-06 0.0513212 0.13984755
000110 54 94 9d 3c 40 86 b2 3d 6d 38 d6 b6 1d 9d 01 3d
       0.019235767 0.087170124 -6.384266e-06 0.031643976
000120 47 fe 62 3e 51 23 55 be 6a 74 d5 3d 61 d0 e1 b6
       0.22167312 -0.20814253 0.10422595 -6.729781e-06
000130 16 5a 51 bd 83 d5 21 be 2b e6 36 bd 29 04 e8 3d
       -0.051111303 -0.15804105 -0.0446531 0.113289185
000140 51 e0 cf 36 5f da 1f bd e9 7b c0 3d c1 1c 7f be
       6.1951946e-06 -0.039026614 0.09398634 -0.24913312
000150 13 e0 8d 3c 2a 0a 2e 36 c5 95 aa bd 7c fe 88 3e
       0.017318761 2.5933937e-06 -0.083293475 0.26756656
000160 0b 32 9d 3d fb 33 d1 bd c7 54 97 b6 1e d8 8b 3b
       0.076755606 -0.102149926 -4.51002e-06 0.0042677065
000170 4f 9a 36 3d 21 b6 77 3e f8 d3 9a bd 3b 52 13 37
       0.044580754 0.2419057 -0.07559961 8.781029e-06
000180 20 c7 ba 3d 5f 38 29 3e 82 83 df bc 0e 5c 13 bc
       0.09120011 0.1652541 -0.027284387 -0.0089941155

model.decoder_x.layers.0.bias f4 [10]
000000 16 c5 30 3d 6e d8 d7 3c b7 da 92 be f0 7b fa bd
       0.043156706 0.026348319 -0.2868249 -0.122306705
000010 7c b5 a8 be 40 ee 30 bd cc 30 c9 bd 32 87 be be
       -0.32950962 -0.043195963 -0.098237604 -0.3721252
000020 bb 18 fc bc 8f d4 84 3a
       -0.030773511 0.0010134148

model.decoder_x.layers.1.0.weight f4 [10, 10]
000000 e6 4e 31 be d5 eb 7e 3d a9 cd 3c ba ae d0 14 be
       -0.17315254 0.062236626 -0.00072022766 -0.1453273
000010 06 83 fa bd 63 54 0e bd e7 7f 52 be 9c 53 1e bc
       -0.12232022 -0.034748446 -0.20556603 -0.009663489
000020 48 ee bb bd bb ef a0 bd 7d 89 77 3d 61 12 0d 3d
       -0.09176308 -0.07858225 0.060433853 0.034441356
000030 2e 53 69 be 18 7a 09 be 93 50 6c 3d d0 84 22 3e
       -0.22785637 -0.13425481 0.05769403 0.15870976
000040 1a 80 01 bd 23 1c 84 be 1a 3f 96 3d c0 66 19 be
       -0.031616308 -0.25802717 0.073362544 -0.14980602
000050 18 4d db 3d 59 f6 b8 3d 14 05 6b 3c cb 42 96 bd
       0.10708064 0.09031362 0.014344472 -0.073369585
000060 5b a8 9b bb f4 e3 90 3d cc 3e 4c 3b 9a 9d 0f bd
       -0.004750294 0.070747286 0.003116536 -0.03506241
000070 a8 f9 78 3d 8a de 98 bd d1 85 a6 bd 31 87 0f be
       0.060784966 -0.07464321 -0.08130992 -0.14016415
000080 f9 d7 59 be 5a a9 98 be 2a 65 9e be 00 59 96 be
       -0.21273793 -0.29816705 -0.30936557 -0.29364777
000090 5b e9 89 be 89 63 86 be a0 cb 09 3e 7b 17 4a 3e
       -0.2693585 -0.26247814 0.13456583 0.1973552
0000a0 8e 40 20 bc ed 5d c5 bc 87 3f 1d be 89 f2 be bd
       -0.009781016 -0.024092639 -0.15356265 -0.09323604
0000b0 ae c2 4f bd 6d 30 8c bc d3 9b 3d 3a 2c 1a 2a bd
       -0.05072277 -0.017112935 0.00072329975 -0.041528866
0000c0 1d f7 58 3e 23 7c 07 3d 73 d9 07 37 ca c4 21 b7
       0.21188016 0.03307737 8.097256e-06 -9.642166e-06
0000d0 9b ad 50 b6 8e 6e 91 36 ab c9 34 36 47 4e eb b6
       -3.1095467e-06 4.334207e-06 2.6939476e-06 -7.0126584e-06
0000e0 41 91 79 b7 80 5d 0c 37 53 1b 65 b6 04 3d e0 b6
       -1.4875376e-05 8.36642e-06 -3.4139564e-06 -6.6828234e-06
0000f0 d1 f9 8e 3d a2 d5 6b be 2e 6c 04 be ac 8b 39 be
       0.069812424 -0.23030713 -0.12931892 -0.18119687
000100 cd e0 97 be 6c 97 35 be 28 49 0b 3e 0f 80 77 bd
       -0.29663697 -0.17733544 0.13602126 -0.06042486
000110 e5 dd 09 3e b3 af 1d be c7 a9 b3 3c 4f 6f 4d be
       0.13463552 -0.15399055 0.021931542 -0.20061992
000120 60 b3 12 3d d5 79 38 be 79 5b 1f bb 48 d7 8d 3c
       0.035815597 -0.18015225 -0.0024315997 0.017314568
000130 c8 2b 01 be 0a 26 ad bd e3 60 88 bd 03 b3 47 3d
       -0.12614357 -0.08454521 -0.06659105 0.048754703
000140 76 bf ef 3c 51 14 1c be 0a fc 79 be 73 9c 57 be
       0.0292661 -0.15242125 -0.24412552 -0.21055774
000150 6d 8a 10 be db 3b 1d be 74 0e fe bd 0e fc 8a bd
       -0.14115305 -0.15354864 -0.124051005 -0.06786357
000160 9a 21 d7 bc 0d 9e 82 3e 56 6e 6d 3d f4 c8 38 3d
       -0.02626114 0.25511208 0.057966553 0.04511352
000170 cf 4e 88 3c b7 3a 5a be 80 92 61 be d2 7c 65 bd
       0.016639141 -0.2131146 -0.22028542 -0.05602724
000180 9e b2 e5 3d d6 fd 19 3d 59 12 d5 3d ab e4 44 be
       0.11215709 0.037595592 0.1040389 -0.19227855

model.decoder_x.layers.1.0.bias f4 [10]
000000 5f 02 fd 35 48 d9 36 3e 68 d7 45 3e bd 55 04 bc
       1.8850659e-06 0.17856324 0.19320452 -0.008077082
000010 10 4a 0a 3e f6 20 4d b6 ca 5b a0 3e e6 04 03 be
       0.13504815 -3.0566566e-06 0.3132003 -0.12794837
000020 03 c4 37 3e 4e 08 4a 3e
       0.17945866 0.1972973

model.decoder_x.layers.2.0.weight f4 [10, 10]
000000 19 f5 d7 bd 61 dc 42 3e 12 f6 b8 3d 74 ce 42 bd
       -0.105447955 0.1902938 0.09031309 -0.04756017
000010 d7 bb 7e 3e 53 f6 05 37 ce b4 91 3d 27 8c 3f be
       0.24876343 7.98477e-06 0.07114564 -0.18705808
000020 27 fd 32 bd 9e 61 58 3e 5f e6 44 be b6 ae d7 3d
       -0.043698456 0.21130988 -0.19228505 0.1053137
000030 99 41 f9 3d 64 6c 27 bb 7b 56 b8 bb e4 47 24 b7
       0.12170715 -0.0025546784 -0.0056255437 -9.7919e-06
000040 77 20 06 3e c7 1c 4a 3e 78 8d 3e 3e b2 2c fe 3d
       0.13098322 0.1973754 0.18608654 0.12410869
000050 1c 4c d5 3d 6f 54 6e bd f7 c0 2c bd 1e c9 a9 3e
       0.10414907 -0.05818599 -0.042176213 0.33161253
000060 5a 8e 1c 3e 8d e7 56 36 46 83 fb 3d b7 87 ab bc
       0.15288678 3.2023265e-06 0.12280898 -0.020938737
000070 b1 56 b6 bc 8f 1b 26 ba 00 13 10 b6 00 4d 59 36
       -0.022258135 -0.0006336504 -2.1468732e-06 3.238034e-06
000080 c0 55 cd b6 bd d6 07 bc c0 43 5b b6 03 27 44 b5
       -6.1194587e-06 -0.008290944 -3.2672979e-06 -7.307246e-07
000090 dd 71 72 bd 90 62 d3 b4 61 8d 2c bd c9 a4 d9 bb
       -0.05919062 -3.9373526e-07 -0.042127017 -0.0066419584
0000a0 8c b7 2d 3e 19 27 96 3e 4b 82 0a 3e 5c 62 a3 bd
       0.16964549 0.29326704 0.13526265 -0.07977745
0000b0 5b 34 28 3e 41 97 53 b6 a0 47 5d 3d 03 3f b6 bc
       0.16426222 -3.1529491e-06 0.054023385 -0.022246843
0000c0 b3 aa 2f 3e f6 2a 90 3e 36 7e 4d 3c 4d 25 84 3b
       0.1715496 0.28157777 0.012542298 0.004032767
0000d0 04 d1 54 35 d9 21 d1 3d f4 a7 e2 3d 87 f3 9c 36
       7.928031e-07 0.10211534 0.11067191 4.6775126e-06
0000e0 f6 f0 d5 3d b5 b0 d0 ba 46 70 b1 3d e7 3c 8c 3d
       0.1044635 -0.0015921803 0.086639926 0.06847554
0000f0 93 f7 4c be 8c 09 47 3d b7 a1 0c 3e 13 a0 66 3e
       -0.20016317 0.04859309 0.13733564 0.22522001
000100 48 0b 2e 3e ca 95 03 36 66 6d e2 3d b1 65 ec 3d
       0.16996491 1.960771e-06 0.11056022 0.115428336
000110 1a 18 7c 3d c1 09 04 be 2c 2e 43 3e 77 b1 7c 3e
       0.061546423 -0.12894346 0.19060582 0.24677072
000120 27 02 0e 3e 98 af 52 3e 89 79 7b 3c a9 ba fd 35
       0.13868009 0.20574796 0.0153488 1.8904294e-06
000130 3f df 85 3e 80 fe 64 be 13 1e e1 3c 29 ed d1 3d
       0.26146886 -0.22362709 0.02748016 0.10250313
000140 d2 a4 1c 3e ae 0b e7 bd 6e c4 a0 b8 8d 20 17 3e
       0.15297249 -0.112815246 -7.6659824e-05 0.14758511
000150 15 d5 1e bd 7e e6 e4 36 cd 24 88 3d 16 8e 02 3e
       -0.03877743 6.8217623e-06 0.06647644 0.12749514
000160 38 50 fd 3d 7d 6d f1 bc 47 16 20 be 15 9d bd 3d
       0.12368816 -0.029471153 -0.15633498 0.09258477
000170 7f ba b5 3d 06 71 f1 3d 3f 97 71 bc 9f 78 83 b6
       0.08873462 0.11789136 -0.014745533 -3.9181464e-06
000180 68 de 86 3d bb 42 23 be 78 97 97 3e 45 17 89 bd
       0.065853894 -0.15943424 0.2960775 -0.066938914

model.decoder_x.layers.2.0.bias f4 [10]
000000 92 05 47 3e 48 85 56 3e ad c0 b7 3c bd 16 7e 3e
       0.19435719 0.2094928 0.022430742 0.24813361
000010 df 1f a6 3d 2d 47 59 3d 7b 15 77 3e 35 df 46 3e
       0.08111548 0.053046394 0.24129288 0.19421084
000020 79 b2 bd 3c ad ca 1c bd
       0.023156391 -0.038279224
