logs/l1_coef-0.001/version_0/checkpoints/epoch=7389-step=7390.ckpt (torch, 566207 bytes, 72 tensors)

model.encoder.layers.0.weight f4 [100, 100]
-7.610213e-06 7.675083e-06 1.611614e-05 -1.3875785e-05 -8.8106035e-06 -2.6495437e-07 -5.849865e-06 2.9524679e-06
-2.1134005e-05 3.5545152e-06 -2.170005e-05 1.0877326e-05 8.50881e-06 2.8248828e-06 -5.5814826e-07 1.1842851e-05
1.4077657e-05 9.939095e-06 -9.218258e-07 8.4995116e-07 -1.637612e-05 1.9489962e-05 7.9528604e-07 -1.6313114e-05
-1.648135e-05 4.0430095e-06 6.622539e-06 -8.468403e-06 1.0305749e-05 -1.7950291e-06 -2.5387897e-06 2.838735e-05
-1.7230575e-05 1.3997699e-05 1.7080615e-06 -1.17067375e-05 -5.980769e-06 9.231347e-07 1.2605149e-05 3.773527e-05
1.5862711e-06 1.4091645e-05 1.2757363e-05 8.0060795e-07 -7.675624e-06 1.0847587e-05 4.699264e-06 -7.185151e-07
1.514232e-05 3.561702e-06 -1.381403e-06 8.212851e-07 1.1418553e-05 2.394868e-06 -2.5860775e-06 1.3769392e-05
1.2612656e-05 -6.416767e-07 4.451056e-06 -1.3841915e-05 5.6463864e-06 1.6014304e-05 -2.9419643e-05 -2.8520244e-05
1.25668075e-05 3.3237661e-06 5.3492518e-06 4.1342337e-06 -1.9450206e-06 -7.004756e-08 8.420274e-07 5.4679967e-06
9.106493e-06 -6.3394255e-06 7.573821e-06 -1.4841664e-05 -6.3364143e-07 -2.3949677e-05 -4.8466623e-06 -4.506306e-06
4.1929115e-07 5.0604144e-06 1.6744323e-05 -2.1664942e-05 -1.4982348e-06 -1.2633151e-05 8.740228e-07 1.969668e-05
-4.0022833e-06 1.5885737e-05 4.0202126e-06 2.1278205e-05 -5.016104e-06 -4.6345376e-06 -2.4246406e-06 1.9711833e-06
2.5424353e-05 4.3890497e-05 6.57869e-07 9.905272e-06 -3.2031698e-05 3.6664613e-05 1.4443247e-06 -8.7836825e-06
9.72683e-06 -5.6806084e-06 9.668456e-07 -1.9567104e-05 7.123473e-06 4.237287e-05 7.0371475e-06 3.776115e-06
-7.348924e-06 1.465921e-05 1.598767e-05 5.4074244e-06 -2.1438925e-07 -1.24049675e-05 1.7715965e-05 6.6526354e-06
1.3956754e-05 2.1409349e-05 -8.907767e-06 -5.1558793e-05 -1.3830806e-05 -5.563562e-06 -2.231132e-05 1.3359791e-05
3.1341851e-06 7.653415e-06 -1.0734644e-05 -2.5677316e-05 1.6461194e-06 3.4762118e-06 1.3572299e-05 3.2131775e-05
4.7427246e-08 4.5757383e-06 -3.1855795e-06 -8.074307e-07 5.172586e-06 -3.5052963e-06 1.4873145e-05 -1.0521484e-05
1.2902577e-05 4.6562786e-07 -1.4455255e-05 1.4013506e-05 1.1749463e-05 -3.931234e-06 6.249917e-08 -6.291199e-06
-4.4523135e-06 2.638466e-06 4.9948094e-06 5.0160565e-06 2.1036406e-06 1.1724374e-05 5.214071e-07 -1.6854444e-06
6.430619e-06 -7.717317e-06 1.4817068e-07 8.387328e-07 -9.163016e-10 2.2222222e-05 2.4330613e-05 1.27285e-05
1.8845416e-05 -1.46239045e-05 3.1012567e-06 -3.366068e-05 -1.6842336e-05 2.8472805e-06 -2.8800509e-05 6.5925324e-06
1.5623715e-05 2.4302535e-06 -1.1922758e-05 -4.216292e-06 1.2006186e-05 -1.6339454e-05 -8.492574e-06 -3.9981824e-06
1.8090437e-05 -3.1256834e-06 5.275827e-07 2.331766e-06 1.5332715e-05 -1.2932047e-05 -1.6209904e-05 1.7187129e-05
-6.111006e-06 -8.312006e-06 -3.744248e-06 -1.693989e-05 1.864704e-05 -4.931795e-06 -3.7690927e-06 -3.7315955e-09
2.5133211e-05 1.8195929e-06 5.931049e-06 4.9728933e-05 -1.0910849e-05 -4.7455236e-05 -3.6754138e-06 -9.298473e-06
-1.2464086e-05 -1.5044081e-06 1.4823845e-05 2.177558e-05 -4.734608e-05 -6.1704854e-06 -6.819366e-06 -1.7621102e-05
-1.146118e-05 2.0854454e-06 4.2029224e-06 -2.199267e-05 -1.8744302e-05 1.2582986e-05 2.6901185e-05 -6.284291e-06
-2.583226e-06 9.789791e-07 3.7175944e-06 9.605192e-06 1.4199069e-05 -7.717334e-06 -1.7744954e-06 -5.9022923e-06
2.4685949e-06 8.614383e-06 -8.579699e-06 -8.870702e-06 2.1080266e-05 -2.0134337e-05 5.3448225e-06 1.6419272e-05
-2.6485704e-06 1.7484508e-06 -1.1012487e-06 -1.3897837e-05 1.0225254e-05 1.5660858e-05 2.0285483e-05 -1.0720317e-05
-2.1244463e-05 -6.3731054e-06 -1.9644069e-05 3.9851047e-06 5.5880305e-06 1.6121996e-05 -4.754064e-06 -3.3142616e-05
00000000: 3b5b ffb6 3bc4 0037 2631 8737 0bcc 68b7
00000010: 41d1 13b7 0d3f 8eb4 f549 c4b6 0323 4636
00000020: ee48 b1b7 1b8a 6e36 8108 b6b7 c27d 3637
00000030: 10c1 0e37 1e93 3d36 a8d3 15b5 a8b0 4637
00000040: 142f 6c37 17c0 2637 6373 77b5 3328 6435
00000050: 735f 89b7 607e a337 a47b 5535 25d8 88b7
00000060: 6e41 8ab7 30a9 8736 2d37 de36 8413 0eb7
00000070: dbe6 2c37 bbec f0b5 1360 2ab6 5f21 ee37
00000080: 618a 90b7 a9d7 6a37 8c40 e535 0e68 44b7
00000090: 6aae c8b6 55cd 7735 b47a 5337 f045 1e38
000000a0: dce7 d435 286b 6c37 7508 5637 5ce9 5635
000000b0: 8ec6 00b7 08fe 3537 5fae 9d36 fbdf 40b5
000000c0: c50b 7e37 9305 6f36 a568 b9b5 4876 5c35
000000d0: 5092 3f37 85b7 2036 798c 2db6 1703 6737
000000e0: f29a 5337 b03f 2cb5 485a 9536 923a 68b7
000000f0: 1776 bd36 7556 8637 34ca f6b7 c23e efb7
00000100: 07d6 5237 de0d 5f36 b97d b336 ccb8 8a36
00000110: 3387 02b6 0e6d 96b3 af07 6235 bc79 b736
00000120: 17c8 1837 40b7 d4b6 a122 fe36 7600 79b7
00000130: 8217 2ab5 8ae7 c8b7 83a0 a2b6 e034 97b6
00000140: f01a e134 a1cc a936 2976 8c37 1cbd b5b7
00000150: f516 c9b5 f8f2 53b7 649e 6a35 4c3a a537
00000160: 5a4b 86b6 5c42 8537 5de5 8636 997e b237
00000170: 0150 a8b6 6082 9bb6 02b7 22b6 ac48 0436
00000180: 6246 d537 1017 3838 6a98 3035 d22e 2637
00000190: c659 06b8 54c8 1938 9eda c135 a15d 13b7
000001a0: 6b30 2337 0e9c beb6 90c4 8135 0924 a4b7
000001b0: 2b06 ef36 86b9 3138 a320 ec36 2969 7d36
000001c0: c796 f6b6 d4f0 7537 431d 8637 6c71 b536
000001d0: de32 66b4 ee1e 50b7 bf9c 9437 b439 df36
000001e0: cd27 6a37 3a98 b337 9172 15b7 d540 58b8
000001f0: dc0a 68b7 a2ae bab6 3229 bbb7 de23 6037
00000200: e454 5236 2b67 0037 f218 34b7 9e65 d7b7
00000210: 3bf0 dc35 dd48 6936 95b4 6337 3bc5 0638
00000220: cfb2 4b33 4b89 9936 d7c7 55b6 37be 58b5
00000230: 2d90 ad36 883c 6bb6 ac87 7937 6e85 30b7
00000240: 2578 5837 68fb f934 d984 72b7 8d1b 6b37
00000250: 8f1f 4537 0be9 83b6 4837 8633 fd18 d3b6
00000260: 1565 95b6 8010 3136 1699 a736 994f a836
00000270: 452c 0d36 ceb3 4437 d3f6 0b35 6e37 e2b5
00000280: 99c6 d736 a079 01b7 d918 1f34 4725 6135
00000290: fede 7bb0 dc69 ba37 9819 cc37 7e8c 5537
000002a0: 3916 9e37 3159 75b7 2f1f 5036 e12e 0db8
000002b0: a448 8db7 e813 3f36 9f98 f1b7 6c35 dd36
000002c0: ac0f 8337 7017 2336 db07 48b7 ac79 8db6
000002d0: 2d6e 4937 b610 89b7 547b 0eb7 2028 86b6
000002e0: ebc0 9737 d5c2 51b6 359f 0d35 6f7b 1c36
000002f0: c19e 8037 b8f6 58b7 81fa 87b7 142d 9037
00000300: 240d cdb6 cb73 0bb7 b145 7bb6 231a 8eb7
00000310: 376c 9c37 cc7b a5b6 85f0 7cb6 7637 80b1
00000320: 29d5 d237 bc38 f435 5303 c736 0994 5038
00000330: bd0d 37b7 ac0a 47b8 21a7 76b6 a300 1cb7
00000340: d71c 51b7 12eb c9b5 eeb3 7837 b4aa b637
00000350: 7795 46b8 110c cfb6 e8d1 e4b6 07d1 93b7
00000360: 6549 40b7 aef3 0b36 d406 8d36 e67c b8b7
00000370: 153d 9db7 831b 5337 dba9 e137 a6dd d2b6
00000380: 7c5b 2db6 7765 8335 c97b 7936 fc25 2137
00000390: 8938 6e37 b279 01b7 332b eeb5 4e0c c6b6
000003a0: 23aa 2536 7e86 1037 87f1 0fb7 60d3 14b7
000003b0: 87d5 b037 29e6 a8b7 ad57 b336 1ebc 8937
000003c0: 18be 31b6 50ac ea35 9ece 93b5 c12a 69b7
000003d0: 228d 2b37 705f 8337 be2a aa37 69db 33b7
000003e0: 2336 b2b7 8fd8 d5b6 51c9 a4b7 cab7 8536
000003f0: d180 bb36 b93d 8737 1985 9fb6 9d02 0bb8

model.encoder.layers.0.bias f4 [100]
3.2696174e-05 3.095539e-06 -5.378168e-06 7.4933882e-06 5.9777512e-06 -3.196938e-06 -4.9163395e-06 4.597333e-06
-1.7600423e-05 6.826065e-06 1.3338695e-05 -2.7542961e-05 1.0667925e-05 1.6959209e-06 1.3963758e-05 3.2218475e-05
-4.0149345e-07 5.7083657e-06 -1.4406581e-06 -7.462307e-06 1.4029113e-06 -6.8647505e-06 -6.79536e-06 2.1245648e-06
8.350227e-06 -6.9521525e-06 2.3378314e-05 -2.0419722e-05 3.904601e-06 1.3613601e-05 2.2654222e-05 -3.5537682e-06
-8.016365e-06 -1.5566478e-05 -2.179311e-06 2.4885854e-05 -2.6038988e-05 8.5335824e-07 -8.427235e-06 -2.1020423e-06
1.6043014e-05 6.665134e-06 -1.2640964e-05 -1.9137622e-05 1.7354663e-05 -5.1585425e-06 8.551958e-06 -5.6491444e-06
-2.7130022e-06 -1.3046379e-05 4.8831193e-06 -4.5973677e-05 5.8750907e-06 -2.8491083e-06 5.575756e-06 1.2997131e-05
-7.124921e-07 4.2656557e-05 -1.43025145e-05 5.4692555e-06 -1.5456719e-05 1.7333336e-05 -1.7836757e-05 9.874405e-06
7.822381e-06 -9.491601e-06 1.5092958e-05 -4.3155353e-05 -7.903398e-06 -1.8706422e-05 -1.2543498e-05 2.192749e-06
-1.3039958e-05 1.184977e-05 5.3883014e-06 9.900731e-06 -4.0171864e-05 1.2807439e-05 -3.1772975e-05 -1.2546524e-06
-9.05294e-06 -6.296799e-06 1.50740325e-05 -3.9740935e-06 -1.6775238e-07 -1.049541e-05 1.1465462e-05 7.5865114e-06
6.044303e-08 -2.4182042e-05 4.5943593e-06 1.7646967e-07 1.8974548e-05 9.592679e-07 -1.633021e-05 -9.172809e-06
-6.984306e-06 -8.681865e-07 1.6060083e-05 7.812353e-07
00000000: 4023 0938 f4bc 4f36 1d76 b4b6 b76f fb36
00000010: 7e94 c836 fa8a 56b6 09f7 a4b6 ca42 9a36
00000020: 9fa4 93b7 740b e536 42c9 5f37 0f0c e7b7
00000030: 64fa 3237 669f e335 e245 6a37 5322 0738
00000040: d78c d7b4 7d8a bf36 a35c c1b5 bb64 fab6
00000050: aa4b bc35 c257 e6b6 b303 e4b6 bf93 0e36
00000060: f417 0c37 8946 e9b6 8c1c c437 054b abb7
00000070: 4404 8336 f965 6437 9209 be37 467d 6eb6
00000080: 077e 06b7 c294 82b7 4740 12b6 f7c1 d037
00000090: 4d6e dab7 5512 6535 b362 0db7 d010 0db6
000000a0: 1c94 8637 11a5 df36 8714 54b7 bb89 a0b7
000000b0: db94 9137 8b17 adb6 617a 0f37 c88d bdb6
000000c0: 0611 36b6 c5e1 5ab7 add9 a336 dcd3 40b8
000000d0: a522 c536 4f33 3fb6 6117 bb36 410e 5a37
000000e0: 1642 3fb5 21ea 3238 d5f4 6fb7 8c84 b736
000000f0: 0da9 81b7 0e67 9137 25a0 95b7 3faa 2537
00000100: df3c 0337 1e3e 1fb7 c337 7d37 b501 35b8
00000110: d698 04b7 bceb 9cb7 ea71 52b7 2427 1336
00000120: 31c6 5ab7 60ce 4637 28cd b436 511b 2637
00000130: 367e 28b8 88df 5637 f943 05b8 8765 a8b5
00000140: 15e2 17b7 1749 d3b6 7ae6 7c37 3459 85b6
00000150: 6c1f 34b4 7115 30b7 c95b 4037 a38f fe36
00000160: e8cc 8133 8ada cab7 3f29 9a36 9d7b 3d34
00000170: 882b 9f37 32c0 8035 dcfc 88b7 eae4 19b7
00000180: bb5a eab6 520d 69b5 c4b8 8637 15b6 5135

model.encoder.layers.1.0.weight f4 [100, 100]
7.723697e-06 1.6991675e-06 -3.2065017e-08 4.1291205e-06 5.035962e-06 1.3505929e-05 1.9801906e-05 1.7767157e-06
-5.776011e-06 -2.1615218e-05 -1.3637032e-05 8.424568e-06 1.47847495e-05 2.1088428e-05 8.131379e-06 -9.113531e-06
-2.9601759e-05 1.1095026e-05 -1.7202778e-05 -3.850392e-07 -7.953443e-08 -7.031477e-06 -1.0478333e-05 -6.463807e-06
1.2454202e-05 -1.8941853e-05 7.922008e-06 -1.8833736e-06 -4.0087878e-07 2.149907e-05 2.0005704e-07 2.6415284e-05
9.09346e-06 5.1486364e-05 -5.1205625e-06 -6.0916534e-07 7.714781e-06 9.272906e-06 -2.4188632e-05 -9.701649e-06
-2.0412615e-05 -7.4742334e-06 -2.7805797e-06 1.4722323e-05 6.5733875e-06 -2.9019224e-05 -2.3517872e-05 6.81007e-06
-8.0097884e-08 -1.8721712e-05 -1.5795214e-05 -4.7529616e-06 -1.26599225e-05 -1.5436588e-05 -2.052301e-05 -2.0354819e-06
-4.397441e-06 -1.0472378e-05 2.5492707e-05 -1.0877133e-07 1.2360414e-05 4.034976e-05 -1.3694493e-05 -2.3758908e-05
1.2865818e-05 -3.0873332e-06 -9.638006e-06 5.567425e-06 -6.086984e-06 -6.073969e-06 4.0163236e-06 1.07729775e-05
-3.8645413e-07 1.6029036e-05 -8.360744e-06 -1.493394e-05 -3.0466015e-06 3.7364796e-06 2.029941e-05 2.121161e-05
-1.7679098e-05 -3.0242495e-06 1.8397091e-05 9.105352e-06 1.3944797e-05 -5.0512836e-06 -5.7262887e-06 -8.418217e-06
-1.5778062e-06 9.482046e-07 2.2242998e-06 -1.7508888e-05 1.7883609e-05 -1.1739934e-05 1.3192858e-05 2.1796935e-05
-1.8833745e-05 -1.4667146e-06 -9.710488e-06 1.1948286e-05 -1.7396088e-06 -6.0792117e-06 3.7475552e-06 6.446048e-07
-1.7569691e-05 -8.11012e-06 1.7976501e-05 2.2038195e-05 -4.7335925e-05 -3.7257903e-06 5.5835344e-06 -5.5195246e-06
-1.9022105e-05 -1.5985707e-06 4.559917e-06 -2.4962827e-05 1.601234e-05 -6.344054e-06 2.0161751e-05 3.7300583e-06
5.4561683e-06 -8.106018e-07 -4.8883294e-06 -1.1032363e-06 -3.4083845e-05 2.4217106e-05 1.2674223e-05 -4.619056e-06
2.7541384e-06 -8.201633e-06 3.367544e-05 -1.2233942e-05 -5.5204873e-07 7.925565e-06 -1.7832337e-05 6.90545e-06
-3.8715275e-06 2.9462924e-06 1.0681455e-05 -4.8949983e-05 -1.1586883e-05 -6.095124e-06 3.0442628e-05 8.170664e-06
1.791797e-05 3.540364e-07 -1.5375987e-05 -7.880623e-06 2.407284e-06 2.5197869e-05 -1.1516479e-06 -2.8588109e-05
-1.2939349e-05 -4.2002397e-05 2.052135e-05 8.642446e-06 1.1831384e-05 2.790405e-05 1.2477347e-05 1.2662931e-05
2.4853252e-05 -2.1933041e-05 2.2323353e-05 3.0222066e-06 -2.6094626e-06 -1.7538025e-05 -8.279016e-06 -1.17497575e-05
1.3752738e-06 -2.5729848e-06 1.8076698e-05 -1.6048249e-05 4.9041164e-06 4.7111624e-07 2.8185682e-06 1.761247e-06
-5.9026443e-06 -3.3369743e-06 -4.9463565e-06 -7.1101176e-06 -2.6367154e-06 3.263612e-05 -5.028811e-06 -7.4202835e-06
5.953114e-06 1.8906745e-05 7.0653937e-06 1.8477582e-05 -2.1381487e-05 -5.1295174e-06 -2.099906e-05 -1.4885342e-06
-5.5689607e-06 -6.8829695e-06 6.933443e-06 -6.090066e-06 3.8934622e-06 -6.4725305e-06 3.1989133e-05 -7.989884e-06
1.8699531e-05 -2.2637438e-05 -2.5918811e-05 1.4261768e-05 1.607906e-05 -5.888418e-06 1.7591727e-05 1.972052e-06
-5.1540655e-06 2.0395084e-06 -1.480821e-05 -7.3219013e-07 -8.047862e-06 -1.130662e-05 -1.3613162e-05 -1.4596249e-05
1.4568889e-05 1.0534666e-05 -8.3925687e-07 -7.748991e-06 3.0662206e-06 2.7007965e-05 -1.3205813e-05 -1.1015745e-05
7.2998355e-06 -2.6481396e-06 1.0302935e-05 1.2323121e-06 5.4546085e-06 -4.89029e-06 -1.9183562e-05 9.309136e-06
3.0252377e-05 3.3063948e-06 2.1677435e-05 -1.6215541e-05 1.8371897e-05 -2.8393133e-05 -1.5681713e-05 1.1020643e-05
7.7433515e-06 -1.4603208e-05 -2.306269e-06 -5.9170093e-06 -1.7213871e-06 -9.7693494e-08 7.4114632e-06 2.2887225e-06
5.920112e-06 -4.739493e-06 3.1546738e-06 -2.1664624e-05 8.285829e-06 -3.9242304e-06 -7.4920285e-06 3.1516804e-05
00000000: 0795 0137 f30e e435 dcb7 09b3 e08c 8a36
00000010: 96fa a836 8697 6237 451c a637 7d77 ee35
00000020: 8fcf c1b6 5452 b5b7 9bca 64b7 3e57 0d37
00000030: 040c 7837 0ee7 b037 026c 0837 51e6 18b7
00000040: 4b51 f8b7 c624 3a37 af4e 90b7 62b7 ceb4
00000050: 84cc aab3 edef ebb6 19cc 2fb7 aee3 d8b6
00000060: 64f2 5037 52e5 9eb7 c4e8 0437 39c8 fcb5
00000070: 5c38 d7b4 e758 b437 43cf 5634 6496 dd37
00000080: 1d90 1837 10f3 5738 4cd1 abb6 8685 23b5
00000090: bb6e 0137 d492 1b37 b1e8 cab7 44c4 22b7
000000a0: c23b abb7 2dcb fab6 ff99 3ab6 e5ff 7637
000000b0: f890 dc36 4f6e f3b7 3f48 c5b7 0e82 e436
000000c0: 4702 acb3 920c 9db7 f77f 84b7 a17b 9fb6
000000d0: f465 54b7 d27d 81b7 d428 acb7 5099 08b6
000000e0: bb8d 93b6 85b2 2fb7 2cd9 d537 ac95 e9b3
000000f0: 935f 4f37 3a3d 2938 66c1 65b7 de4d c7b7
00000100: 44da 5737 fb2f 4fb6 ecb2 21b7 d1cf ba36
00000110: cb3e ccb6 ffce cbb6 f5c3 8636 96bd 3437
00000120: da79 cfb4 1876 8637 1f45 0cb7 c98c 7ab7
00000130: 3774 4cb6 3bc0 7a36 a748 aa37 96ef b137
00000140: 934d 94b7 36f4 4ab6 7453 9a37 30c3 1837
00000150: 72f4 6937 327e a9b6 7224 c0b6 f73b 0db7
00000160: 02c5 d3b5 2088 7e35 2e45 1536 0de0 92b7
00000170: c204 9637 a2f6 44b7 e556 5d37 90d8 b637
00000180: 29fd 9db7 eedb c4b5 3aea 22b7 7f75 4837
00000190: 817c e9b5 08fc cbb6 827e 7b36 e808 2d35
000001a0: a062 93b7 b310 08b7 3ecc 9637 aade b837
000001b0: 908a 46b8 9708 7ab6 325a bb36 5b34 b9b6
000001c0: a991 9fb7 798e d6b5 6401 9936 4367 d1b7
000001d0: 3d52 8637 02df d4b6 0821 a937 ea51 7a36
000001e0: 2114 b736 2298 59b5 6e06 a4b6 e912 94b5
000001f0: 40f5 0eb8 d725 cb37 60a3 5437 64fd 9ab6
00000200: bdd3 3836 bf99 09b7 ba3e 0d38 6140 4db7
00000210: 8030 14b5 0bf8 0437 a796 95b7 5db5 e736
00000220: 2be8 81b6 ebb8 4536 8034 3337 a54f 4db8
00000230: 4965 42b7 b784 ccb6 0c5f ff37 bc14 0937
00000240: 8c4e 9637 6412 be34 aefb 80b7 0537 04b7
00000250: d38c 2136 0360 d337 5292 9ab5 7fd0 efb7
00000260: 1516 59b7 bb2b 30b8 4325 ac37 06ff 1037
00000270: 687f 4637 7e13 ea37 cc55 5137 e072 5437
00000280: f47b d037 d9fc b7b7 0943 bb37 1dd1 4a36
00000290: 3a1e 2fb6 9f1e 93b7 1ae6 0ab7 d320 45b7
000002a0: 0c96 b835 8bab 2cb6 6aa3 9737 5a9f 86b7
000002b0: 0a8e a436 b9ed fc34 a226 3d36 fc63 ec35
000002c0: 540f c6b6 c8f0 5fb6 e1f8 a5b6 7293 eeb6
000002d0: 6df2 30b6 c4e2 0838 28bd a8b6 c0fb f8b6
000002e0: dcc0 c736 ed99 9e37 4513 ed36 4e00 9b37
000002f0: 655c b3b7 381e acb6 2327 b0b7 a5c9 c7b5
00000300: 02dd bab6 42f4 e6b6 d2a5 e836 4559 ccb6
00000310: 96a4 8236 9d2e d9b6 122c 0638 4a0c 06b7
00000320: f0dc 9c37 87e5 bdb7 396c d9b7 d445 6f37
00000330: 85e1 8637 2095 c5b6 f291 9337 9857 0436
00000340: 16f1 acb6 7dde 0836 c770 78b7 b98b 44b5
00000350: 4e05 07b7 90b1 3db7 1664 64b7 69e2 74b7
00000360: e76c 7437 0cbe 3037 4b49 61b5 aa01 02b7
00000370: 45c5 4d36 2a8f e237 898e 5db7 44d0 38b7
00000380: 1cf1 f436 b1b6 31b6 c5da 2c37 ec65 a535
00000390: bb06 b736 4517 a4b6 63ec a0b7 6f2e 1c37
000003a0: 7cc6 fd37 6ee3 5d36 f0d7 b537 9c06 88b7
000003b0: 591d 9a37 ca2d eeb7 398c 83b7 4de5 3837
000003c0: 71e9 0137 4d00 75b7 66c5 1ab6 b98a c6b6
000003d0: 690a e7b5 91cb d1b3 fcaf f836 f497 1936
000003e0: 60a5 c636 ef07 9fb6 e2b4 5336 6dbc b5b7
000003f0: 5d03 0b37 e2ac 83b6 0964 fbb6 e930 0438

model.encoder.layers.1.0.bias f4 [100]
8.025409e-06 3.5923822e-06 -2.1549049e-05 1.8411095e-06 -6.741798e-06 -8.842955e-06 4.7925646e-06 3.5444908e-05
2.8097602e-07 7.5702596e-06 3.795719e-05 8.813131e-06 3.1859447e-05 -1.1114464e-05 -1.7137676e-05 -9.215832e-06
1.10543815e-05 -6.804505e-06 3.6848028e-06 -8.6825725e-07 2.1411732e-05 2.3631557e-05 8.166131e-07 1.8225106e-05
-1.2023766e-05 -4.4291464e-06 -2.7181955e-05 4.4478378e-07 7.792921e-06 2.3740809e-06 -9.4011675e-06 1.1186373e-05
-1.571487e-05 -2.8361956e-05 1.4356131e-06 7.288043e-07 6.242281e-06 -7.3839246e-06 6.8180025e-06 -2.3052155e-05
-3.7580737e-06 -1.1738437e-05 1.3906182e-05 9.369092e-06 -2.062816e-06 -8.22769e-06 7.187991e-06 -9.994247e-06
-1.3598547e-06 6.049855e-06 2.5962565e-06 1.3231538e-05 5.8551404e-06 1.6804906e-05 -1.2506933e-05 -2.474173e-06
1.4677719e-05 3.0580463e-06 4.88448e-06 -1.205337e-05 1.551762e-06 -4.929478e-06 1.1164069e-05 -1.83366e-05
-3.318444e-06 1.323579e-05 5.627347e-06 -7.158642e-06 2.5155272e-05 -2.2363045e-05 -1.1739507e-06 1.042709e-06
-8.970548e-06 8.2377676e-07 -1.7421467e-05 -8.307019e-06 -1.43579655e-05 -4.291442e-06 -5.0575448e-08 1.2634522e-06
-1.2484154e-05 -1.3433271e-06 4.266611e-06 -9.398745e-06 -1.0926484e-06 6.3666944e-06 1.5226405e-05 1.40066095e-05
2.0160469e-05 6.9562984e-06 -6.4656033e-06 1.2005647e-05 -1.8271303e-05 9.334032e-06 1.1010144e-05 -1.6537684e-05
1.3846077e-05 -2.8526872e-06 -2.1635698e-05 9.81465e-06
00000000: dfa4 0637 a814 7136 3bc4 b4b7 0a1c f735
00000010: 9b37 e2b6 345c 14b7 d1cf a036 aeaa 1438
00000020: 0dd9 9634 0904 fe36 3934 1f38 1cdc 1337
00000030: d2a0 0538 4278 3ab7 e1c2 8fb7 b29d 1ab7
00000040: 3576 3937 4152 e4b6 6e48 7736 2f12 69b5
00000050: 589d b337 623c c637 3a35 5b35 1ee2 9837
00000060: afb9 49b7 149e 94b6 ce04 e4b7 9eca ee34
00000070: 57be 0237 6652 1f36 b5b9 1db7 1bad 3b37
00000080: 6dd3 83b7 d6ea edb7 4aaf c035 0da3 4335
00000090: c974 d136 6ec3 f7b6 32c6 e436 2060 c1b7
000000a0: 3733 7cb6 34f0 44b7 994e 6937 f22f 1d37
000000b0: e96e 0ab6 a909 0ab7 5f30 f136 f7ac 27b7
000000c0: 4084 b6b5 dcff ca36 593b 2e36 06fd 5d37
000000d0: 4677 c436 43f8 8c37 ded4 51b7 f809 26b6
000000e0: 5340 7637 d638 4d36 5de5 a336 d438 4ab7
000000f0: 2346 d035 e567 a5b6 504d 3b37 8cd1 99b7
00000100: 6fb2 5eb6 490f 5e37 8bd2 bc36 4434 f0b6
00000110: 8904 d337 4698 bbb7 a490 9db5 35f3 8b35
00000120: 3680 16b7 8221 5d35 5124 92b7 605e 0bb7
00000130: fee2 70b7 35ff 8fb6 4b38 59b3 e393 a935
00000140: 0873 51b7 5e4c b4b5 e929 8f36 4daf 1db7
00000150: 1da7 92b5 7da1 d536 e974 7f37 eefd 6a37
00000160: 471e a937 266a e936 1cf3 d8b6 dc6b 4937
00000170: 5345 99b7 5d99 1c37 35b8 3837 68ba 8ab7
00000180: 734c 6837 cb70 3fb6 4f7e b5b7 9aa9 2437

model.encoder.layers.2.0.weight f4 [100, 100]
-1.5736576e-05 2.1455675e-05 -2.7919223e-06 -1.101049e-05 -2.0083726e-05 -2.3496107e-06 -2.202748e-06 -2.801316e-05
1.6513003e-06 -8.355527e-06 -3.4867822e-05 -2.1718992e-05 -8.210847e-07 8.678665e-06 2.630707e-05 -1.81952e-05
6.4457635e-07 -8.353525e-06 -3.196245e-05 7.011056e-06 1.3041811e-05 1.0491476e-05 -2.6971175e-05 3.084258e-05
-1.0303343e-05 7.1135632e-06 -1.5475252e-05 7.047336e-08 -9.456045e-06 4.789665e-06 -1.8726051e-06 -8.6042855e-06
8.843265e-06 7.713157e-06 -2.4076568e-05 2.5514595e-05 -4.2310985e-06 8.391298e-06 1.0007539e-05 1.3172685e-05
9.32461e-06 8.926941e-06 4.362127e-05 -1.2809283e-05 5.206722e-06 3.7438072e-05 -2.8463675e-05 1.4001242e-05
1.3077181e-07 -4.5750076e-05 -1.4497591e-05 2.53849e-05 -3.9303272e-06 1.5439378e-05 -6.4557676e-06 7.031296e-06
-8.05882e-07 -2.8685838e-06 1.1716723e-05 2.0060228e-05 1.062406e-05 9.195963e-06 -1.5582116e-05 -8.37382e-06
9.331848e-06 7.2270955e-06 4.021257e-06 5.3924896e-06 1.8050954e-05 -3.7062695e-05 1.9959582e-05 -7.186407e-06
-4.0774503e-05 2.5686336e-06 1.3046086e-06 -6.1588867e-06 -9.026244e-06 4.0553954e-07 -1.6490007e-05 1.349024e-05
9.236598e-06 -2.5937781e-05 -1.5360767e-05 1.4892654e-05 1.2286283e-05 7.332054e-06 -3.6637186e-06 2.9139019e-05
-6.8424383e-06 1.0495014e-05 -1.1068584e-05 2.163739e-06 -1.2323155e-05 -4.0429688e-07 -1.1324397e-06 -3.8803424e-05
1.4279955e-05 3.115635e-06 -3.6736276e-06 1.5409601e-05 -2.6935753e-05 1.3285275e-05 -9.857863e-06 2.5615227e-06
-4.5711717e-05 -6.40108e-06 -2.4597502e-05 3.1126413e-06 1.0695183e-05 -2.438745e-06 1.5152354e-05 7.031028e-06
-5.086791e-06 9.993913e-06 -4.7871063e-06 2.12687e-06 -3.1348686e-06 -9.178263e-06 -2.0201202e-05 8.215761e-06
9.2323216e-07 -2.4299225e-05 -1.3768373e-06 -1.1376186e-05 -9.601656e-07 -1.8033148e-05 3.2060516e-06 -5.1652105e-06
-3.393086e-05 -9.570524e-06 -6.526118e-06 -2.258067e-05 2.2142387e-05 1.5166027e-05 7.796696e-06 -1.4827182e-05
-1.7019782e-05 5.203974e-06 1.0824651e-05 -1.3036012e-05 -8.1686267e-07 -1.8191746e-05 -6.678771e-06 -1.02370595e-05
1.0264699e-05 -3.8986203e-05 -1.0824529e-06 1.51630575e-05 1.4611987e-05 3.574844e-05 -1.3060781e-05 -2.9140801e-06
5.9703474e-08 -4.691039e-06 -8.216806e-06 2.7163574e-06 2.1714297e-05 8.1045e-06 1.39774775e-05 1.5737123e-05
1.5989323e-06 -2.299274e-06 3.0873148e-06 1.3199244e-05 1.5967065e-05 -7.932479e-06 -2.5795523e-06 2.1057942e-05
-4.908599e-05 3.517741e-06 -3.4314446e-06 -9.031847e-06 1.5660018e-05 1.6505857e-05 -1.2928058e-05 7.2354483e-06
-1.0307504e-06 -3.812695e-05 1.0594591e-05 -1.7489887e-06 5.933623e-06 -1.842725e-05 6.3265975e-06 2.4605331e-05
-6.1030505e-06 -5.989416e-06 -1.06507705e-05 -5.3216814e-07 -1.5306524e-06 -2.9253086e-05 -2.3168986e-06 -1.7641077e-06
-6.112515e-06 -1.1825649e-05 1.4497046e-05 4.512625e-05 1.3030865e-05 -5.0053904e-07 4.1895014e-06 -9.1408565e-06
-1.0202594e-05 6.14534e-06 -3.5474047e-06 5.458596e-06 1.9516472e-05 -1.2265435e-05 8.459092e-06 -4.019763e-06
1.5181219e-05 6.092486e-06 -6.821921e-07 -1.5042974e-05 -2.2666625e-06 2.0029438e-05 -1.5353319e-06 -9.963751e-06
-1.5170219e-05 1.6659524e-05 -7.85496e-06 -6.4457504e-06 9.020574e-06 -1.4773301e-05 -2.4884946e-06 9.84706e-08
-1.0842569e-05 -1.6714638e-07 7.225637e-06 1.4691795e-05 1.2879536e-05 5.820954e-06 -6.840753e-06 -7.361061e-06
4.892956e-06 -1.2677389e-05 1.7290417e-06 2.225167e-05 -2.9701982e-06 -9.265422e-06 4.9335563e-06 -3.6317557e-05
4.7690355e-06 -2.684338e-06 3.957062e-06 4.46613e-07 -5.198272e-06 -6.8896447e-06 -1.5100477e-05 9.467208e-06
2.8743332e-05 9.109332e-06 -7.9905175e-07 1.0477254e-05 3.1621836e-05 -3.7184388e-06 -1.8397108e-06 7.739314e-06
00000000: 0a02 84b7 b6fb b337 dc5c 3bb6 b2b9 38b7
00000010: 7979 a8b7 01ae 1db6 ecd2 13b6 cefd eab7
00000020: 3fa2 dd35 b72e 0cb7 0a3f 12b8 2e31 b6b7
00000030: 8368 5cb5 959a 1137 01ae dc37 e5a1 98b7
00000040: f306 2d35 1e26 0cb7 6b0f 06b8 8340 eb36
00000050: 27ce 5a37 8c04 3037 2840 e2b7 f85c 0138
00000060: 85dc 2cb7 0bb1 ee36 dad0 81b7 2457 9733
00000070: 67a5 1eb7 e9b6 a036 3956 fbb5 205b 10b7
00000080: 895d 1437 c267 0137 09f8 c9b7 2d08 d637
00000090: dcf8 8db6 5ac8 0c37 0de6 2737 4000 5d37
000000a0: e570 1c37 ebc4 1537 fbf5 3638 74e7 56b7
000000b0: 67b5 ae36 d306 1d38 47c5 eeb7 e0e6 6a37
000000c0: 486a 0c34 c5e3 3fb8 ae3a 73b7 a8f1 d437
000000d0: 41e1 83b6 d083 8137 9f9e d8b6 5fee eb36
000000e0: ca53 58b5 e581 40b6 f192 4437 0347 a837
000000f0: fe3d 3237 5c48 1a37 57b6 82b7 487d 0cb7
00000100: fb8f 1c37 4780 f236 56ee 8636 22f1 b436
00000110: 216c 9737 c473 1bb8 e06e a737 c422 f1b6
00000120: 4a05 2bb8 ca60 2c36 031a af35 6fa8 ceb6
00000130: 6c6f 17b7 eeb8 d934 0554 8ab7 2454 6237
00000140: e3f6 1a37 f694 d9b7 ffda 80b7 76db 7937
00000150: 2f21 4e37 dd05 f636 35de 75b6 916f f437
00000160: 1998 e5b6 be13 3037 35b3 39b7 c134 1136
00000170: 8cbf 4eb7 240e d9b4 55fe 97b5 dcc0 22b8
00000180: f193 6f37 3416 5136 7188 76b6 de43 8137
00000190: 17f4 e1b7 d2e3 5e37 3363 25b7 a0e6 2b36
000001a0: 95ba 3fb8 dcc8 d6b6 bc56 ceb7 c5e2 5036
000001b0: 766f 3337 52a9 23b6 dd36 7e37 12ec eb36
000001c0: 34af aab6 88ab 2737 eea0 a0b6 59bb 0e36
000001d0: a260 52b6 57fc 19b7 c075 a9b7 6dd6 0937
000001e0: 08d4 7735 30d6 cbb7 c5cb b8b5 59dc 3eb7
000001f0: 0adf 80b5 e445 97b7 8c27 5736 d250 adb6
00000200: fc50 0eb8 1691 20b7 edfa dab6 9f6b bdb7
00000210: 6abe b937 9771 7e37 8ece 0237 43c2 78b7
00000220: b4c5 8eb7 cc9d ae36 869b 3537 3fb5 5ab7
00000230: 6046 5bb5 7a9a 98b7 351a e0b6 d6bf 2bb7
00000240: 8c36 2c37 1e85 23b8 cc48 91b5 d664 7e37
00000250: 0226 7537 98f0 1538 a11f 5bb7 848f 43b6
00000260: 5536 8033 b867 9db6 eada 09b7 aa4a 3636
00000270: 1927 b637 90f8 0737 cf80 6a37 3703 8437
00000280: e59a d635 3a4d 1ab6 aa2f 4f36 5272 5d37
00000290: 03f1 8537 bd15 05b7 5f1c 2db6 96a5 b037
000002a0: aee1 4db8 5512 6c36 c547 66b6 7d87 17b7
000002b0: a25d 8337 0f76 8a37 96e5 58b7 07c8 f236
000002c0: 5058 8ab5 80ea 1fb8 6cbf 3137 cbbe eab5
000002d0: 6f19 c736 3894 9ab7 0f49 d436 8c67 ce37
000002e0: cec8 ccb6 b1f8 c8b6 b6b0 32b7 51da 0eb5
000002f0: d170 cdb5 8664 f5b7 047c 1bb6 47c6 ecb5
00000300: 1b1a cdb6 c766 46b7 5738 7337 f145 3d38
00000310: 249f 5a37 c85c 06b5 8b93 8c36 ae5b 19b7
00000320: cf2b 2bb7 1234 ce36 f30f 6eb6 fc28 b736
00000330: 4eb7 a337 a4c7 4db7 86eb 0d37 80e1 86b6
00000340: d7b2 7e37 0e6e cc36 e21f 37b5 1561 7cb7
00000350: f71c 18b6 e404 a837 9a11 ceb5 fc29 27b7
00000360: 9883 7eb7 0ec0 8b37 ccc8 03b7 9348 d8b6
00000370: 1257 1737 d8da 77b7 0300 27b6 c976 d333
00000380: 7be8 35b7 d978 33b4 c073 f236 c77c 7637
00000390: 3015 5837 9d51 c336 9f89 e5b6 08ff f6b6
000003a0: 2c2e a436 f9b0 54b7 6c11 e835 19a9 ba37
000003b0: 9e53 47b6 af72 1bb7 ed8a a536 ae53 18b8
000003c0: b405 a036 9324 34b6 e7c6 8436 06c6 ef34
000003d0: d16c aeb6 992d e7b6 0e58 7db7 59d5 1e37
000003e0: d61d f137 48d4 1837 6b7e 56b5 77c7 2f37
000003f0: b0a1 0438 4b8a 79b6 fbeb f6b5 1ad8 0137

model.encoder.layers.2.0.bias f4 [100]
-5.0392255e-06 4.383076e-05 1.3981628e-05 -3.865373e-06 -4.096971e-06 -3.0111154e-05 3.8485694e-05 -3.7959928e-06
-9.087756e-06 -1.7753686e-06 2.3150567e-05 2.1917453e-05 3.705075e-05 1.6645276e-05 -1.3143972e-07 -1.4226289e-06
4.7879607e-06 7.2561447e-06 -2.658366e-07 -1.6318902e-06 -1.4845959e-05 -1.0323583e-05 -8.172711e-06 -1.392528e-05
-2.694584e-07 3.4080736e-06 -8.728671e-06 -1.5422234e-05 3.961506e-05 1.6329053e-05 1.8253661e-06 -8.672763e-06
-1.12262505e-05 2.3196952e-05 -6.887048e-06 -6.678007e-06 1.0769502e-05 7.69417e-06 1.8154388e-07 -6.6163543e-06
-9.792596e-06 1.4802302e-05 -3.0752646e-05 -3.7716586e-06 2.6994587e-07 1.4846275e-05 1.7175542e-05 4.138774e-06
-1.117879e-05 -6.486893e-07 2.2821432e-05 -7.6379683e-07 1.1271134e-05 -1.5389502e-05 1.2511714e-05 1.6325718e-06
1.7848983e-05 1.6094666e-05 1.075211e-05 -9.935453e-06 5.6965478e-06 -1.7796274e-05 1.716677e-05 2.8782472e-06
1.5104927e-05 6.269431e-06 -1.1420694e-06 4.234657e-06 1.6187165e-05 1.4889932e-05 1.8316183e-05 -2.2943943e-05
1.3862947e-05 4.674033e-06 -6.179194e-06 -2.897246e-05 7.1778795e-06 -1.147794e-06 -2.851261e-05 -9.2521566e-07
1.350424e-05 7.0429787e-06 -1.4279414e-05 -6.9020753e-06 1.2511284e-05 1.7486524e-05 1.4349066e-05 2.3938443e-05
8.915338e-06 -1.2007623e-06 -1.063052e-06 -3.6293861e-06 1.3405731e-05 -2.3810944e-06 -1.0530647e-06 1.0441926e-05
-1.502556e-06 -9.485971e-06 9.2847955e-07 -1.5588463e-05
00000000: 9e16 a9b6 ecd6 3738 a392 6a37 4db3 81b6
00000010: b778 89b6 3697 fcb7 b36b 2138 a9be 7eb6
00000020: 9d77 18b7 3349 eeb5 7733 c237 5fdb b737
00000030: f166 1b38 75a1 8b37 e021 0db4 28f1 beb5
00000040: 45a8 a036 cf79 f336 4eb8 8eb4 5207 dbb5
00000050: e912 79b7 7433 2db7 871d 09b7 9fa0 69b7
00000060: 15aa 90b4 42b6 6436 5b71 12b7 ff5e 81b7
00000070: 5928 2638 60fa 8837 1aff f435 3c81 11b7
00000080: 6158 3cb7 1397 c237 4b17 e7b6 a513 e0b6
00000090: a9ae 3437 3516 0137 67ee 4234 0d02 deb6
000000a0: e14a 24b7 6757 7837 67fc 00b8 9a1c 7db6
000000b0: 14ed 9034 4414 7937 3214 9037 ccdf 8a36
000000c0: 8a8c 3bb7 9721 2eb5 a770 bf37 b807 4db5
000000d0: 2719 3d37 b418 81b7 67e9 5137 bd1e db35
000000e0: 66ba 9537 0803 8737 f663 3437 72b0 26b7
000000f0: f924 bf36 3549 95b7 5c01 9037 e927 4136
00000100: 2b6b 7d37 015e d236 3549 99b5 6d17 8e36
00000110: acc9 8737 c5cf 7937 b4a5 9937 be77 c0b7
00000120: e794 6837 a3d5 9c36 df56 cfb6 e209 f3b7
00000130: 84d9 f036 e70d 9ab5 5d2e efb7 565c 78b5
00000140: 4590 6237 ba52 ec36 9e91 6fb7 6098 e7b6
00000150: 8ee7 5137 06b0 9237 c5bc 7037 6acf c837
00000160: 1693 1537 e129 a1b5 30ae 8eb5 6190 73b6
00000170: 2de9 6037 e4ca 1fb6 0757 8db5 bb2f 2f37
00000180: 6eab c9b5 ef25 1fb7 a13c 7935 f8c3 82b7

model.encoder.layers.3.weight f4 [10, 100]
-6.4828005e-06 -1.931695e-05 -1.2361969e-06 -1.2601272e-05 -1.5842752e-05 8.10412e-06 -1.2144087e-05 -6.390141e-06
-3.8582326e-05 -3.3685635e-06 2.6328985e-07 -2.4799845e-06 2.3991917e-05 9.191726e-06 9.109454e-06 1.0821951e-05
6.3912415e-07 -6.927295e-06 -1.9545518e-05 -1.5855756e-05 1.5448437e-05 1.7292217e-05 -2.0574555e-05 -1.2301098e-05
-2.6847558e-06 1.774923e-05 -8.880488e-06 3.0130699e-05 6.4908513e-06 -7.653153e-06 3.8633374e-07 -1.1686495e-06
6.157431e-06 2.8917905e-06 -1.0605149e-05 -8.042627e-06 -3.1173436e-06 -4.469068e-06 -2.9005625e-06 -6.2464505e-07
9.011566e-07 3.42222e-06 1.9440477e-06 -6.427027e-06 3.8298763e-06 -5.803961e-06 -3.2437292e-05 -2.4501775e-05
1.5106402e-05 -6.013201e-06 -2.2357824e-05 2.4502471e-05 3.749426e-05 1.4236514e-05 -2.0154408e-05 -4.110122e-06
-2.8223676e-05 -3.4718392e-05 -1.0174071e-05 1.0458337e-05 9.787698e-06 1.3417734e-05 -3.664081e-05 -6.6237053e-06
4.505872e-05 -4.4287212e-06 -3.751044e-05 1.110389e-05 -4.9908416e-05 -1.6024716e-06 -4.375725e-05 4.732501e-06
-3.765079e-05 -1.117613e-05 1.8497735e-06 8.467173e-06 -8.931331e-06 -5.367837e-07 1.0950938e-05 4.6510145e-06
-9.597032e-06 -3.8132748e-06 1.6836382e-05 -9.223961e-06 -1.1641393e-05 4.01358e-06 -2.7296532e-05 2.8738648e-06
-2.4855262e-05 1.1212327e-05 -3.4723813e-05 1.2772063e-05 -4.526828e-05 -8.640805e-06 -1.6760563e-05 -2.4946763e-05
-8.681246e-06 -6.557938e-06 4.3942237e-06 4.2671904e-06 -8.669049e-06 3.8806515e-06 -2.027692e-06 3.98666e-06
1.48322615e-05 2.7940603e-05 5.997237e-06 9.93407e-06 5.14058e-07 1.8716342e-05 2.4406404e-06 2.61762e-05
-4.703147e-06 -5.2214815e-05 -1.43073285e-05 -3.511066e-06 4.3977775e-06 1.7468037e-05 -5.6140416e-06 -5.388109e-07
-1.4614778e-05 -1.9833424e-05 -2.6016258e-07 -2.0541713e-05 4.094964e-06 6.7130045e-06 7.2273842e-06 -1.391181e-05
2.688437e-05 -2.2859136e-05 3.3743843e-05 1.0966495e-06 -4.1454978e-06 7.8354213e-07 -6.9740663e-06 -1.7526429e-05
1.3081516e-05 5.0342137e-06 7.670584e-07 -9.908933e-06 5.336522e-06 -1.0687671e-06 -3.363537e-05 2.5993872e-05
7.891034e-06 -1.329033e-05 -1.338586e-05 1.1828348e-05 4.1089806e-06 -1.1210417e-05 -9.0306895e-07 1.0655648e-05
-4.371189e-05 -8.6614676e-07 8.360615e-06 1.7173045e-06 -1.3474965e-06 -2.149043e-06 -8.350672e-06 2.1025768e-05
-3.4083805e-06 5.36967e-06 9.520014e-06 -2.6654274e-09 -2.764246e-06 -5.2364044e-06 3.562051e-06 -1.32460045e-05
-8.886165e-06 -1.2326609e-05 1.0439012e-05 1.5206769e-05 2.5016025e-05 1.0475707e-05 -1.3336729e-06 2.8666525e-05
-1.747409e-05 -1.6150809e-05 -1.9060346e-05 4.7388588e-07 1.1204268e-05 1.8445486e-05 1.5407873e-05 -2.5400588e-05
-3.2843505e-05 5.975013e-06 -1.8344583e-05 3.662754e-06 -9.092538e-06 5.2042797e-05 8.418329e-06 3.1419404e-05
-4.1672656e-06 -1.4319814e-05 2.3874285e-05 2.0060152e-05 -2.2290365e-05 -4.8088536e-06 2.234395e-06 -2.0156682e-05
1.730467e-05 6.8623563e-06 1.3352153e-05 -1.0612124e-05 -8.332748e-06 3.6358456e-06 -1.6082433e-05 -1.575611e-05
-7.009806e-06 -1.8580484e-07 6.8973704e-06 3.0643444e-06 -1.9873354e-05 1.6948317e-05 1.6615219e-05 -2.756725e-05
-3.3698046e-07 1.2047044e-05 3.5139433e-06 2.7675667e-05 -2.0802818e-06 -2.442553e-06 -1.5853355e-05 2.6217374e-06
2.8539426e-07 -9.885891e-06 1.4946329e-05 -1.4026369e-05 3.9076247e-05 6.6311286e-06 -2.6716723e-05 1.457607e-05
-9.7520015e-06 1.5624257e-05 1.31375455e-05 -1.3430438e-05 5.998888e-06 2.5347252e-05 -1.2652878e-05 -6.7822484e-06
5.1947575e-07 -1.3906413e-06 2.5980148e-06 2.4654117e-05 1.3053977e-05 1.4744753e-05 -6.271191e-07 -1.5757685e-05
-1.1399637e-07 2.9971577e-06 1.205714e-05 -4.77188e-05 1.9991656e-05 -2.7902623e-05 5.774814e-06 -1.300739e-05
00000000: d586 d9b6 d60a a2b7 67eb a5b5 0d6a 53b7
00000010: 0de6 84b7 eef6 0737 75be 4bb7 e56a d6b6
00000020: 75d3 21b8 7b0f 62b6 485a 8d34 cf6d 26b6
00000030: 4042 c937 2a36 1a37 cfd4 1837 ed8f 3537
00000040: 4790 2b35 0371 e8b6 aef5 a3b7 fa01 85b7
00000050: 4497 8137 c10e 9137 8597 acb7 d060 4eb7
00000060: c12b 34b6 2ee4 9437 68fd 14b7 2fc1 fc37
00000070: fdcb d936 0b66 00b7 4e69 cf34 7eda 9cb5
00000080: ee9b ce36 9510 4236 c5ec 31b7 d2ee 06b7
00000090: 8e33 51b6 00f5 95b6 49a7 42b6 48ad 27b5
000000a0: 03e7 7135 4ba9 6536 7c76 0236 bea7 d7b6
000000b0: 6382 8036 a5bf c2b6 470d 08b8 2989 cdb7
000000c0: 8171 7d37 01c5 c9b6 108d bbb7 a88a cd37
000000d0: 2843 1d38 5dd9 6e37 4311 a9b7 aee9 89b6
000000e0: e2c1 ecb7 979e 11b8 4db1 2ab7 3776 2f37
000000f0: d835 2437 bb1c 6137 c5ae 19b8 3241 deb6
00000100: 6ffd 3c38 6d9a 94b6 8754 1db8 d84a 3a37
00000110: c154 51b8 8114 d7b5 fd87 37b8 e0cb 9e36
00000120: 3aeb 1db8 1d81 3bb7 bc45 f835 3b0e 0e37
00000130: c6d7 15b7 7f17 10b5 ecb9 3737 e90f 9c36
00000140: f002 21b7 90e7 7fb6 db3b 8d37 9cc0 1ab7
00000150: 674f 43b7 64ac 8636 dbfa e4b7 9fdc 4036
00000160: 4580 d0b7 941c 3c37 69a4 11b8 9847 5637
00000170: 72de 3db8 faf7 10b7 0999 8cb7 c444 d1b7
00000180: aba5 11b7 420c dcb6 1872 9336 e32e 8f36
00000190: 4871 11b7 8b36 8236 7c13 08b6 26c5 8536
000001a0: 14d8 7837 fd61 ea37 e03b c936 81aa 2637
000001b0: ccfd 0935 0a01 9d37 e2c9 2336 f694 db37
000001c0: bacf 9db6 3b01 5bb8 8209 70b7 a89f 6bb6
000001d0: 9f90 9336 5388 9237 4060 bcb6 cea2 10b5
000001e0: fe31 75b7 f45f a6b7 79ac 8bb4 fe50 acb7
000001f0: 7967 8936 4540 e136 c282 f236 c566 69b7
00000200: bf85 e137 9fc1 bfb7 2d88 0d38 9730 9335
00000210: 8e19 8bb6 9b54 5235 c602 eab6 b805 93b7
00000220: af78 5b37 91eb a836 dae7 4d35 8b3e 26b7
00000230: 6010 b336 8f72 8fb5 b413 0db8 6a0d da37
00000240: bc63 0437 88f9 5eb7 d593 60b7 5e72 4637
00000250: e0df 8936 6014 3cb7 6d6a 72b5 a9c5 3237
00000260: 4957 37b8 2781 68b5 9144 0c37 227e e635
00000270: a1db b4b5 4738 10b6 dd19 0cb7 7e60 b037
00000280: 88bb 64b6 1d2d b436 26b8 1f37 b22a 37b1
00000290: 6281 39b6 5fb4 afb6 920b 6f36 283b 5eb7
000002a0: ca15 15b7 62ce 4eb7 3723 2f37 9320 7f37
000002b0: 81d9 d137 d2c0 2f37 a700 b3b5 e578 f037
000002c0: 5395 92b7 997b 87b7 c8e3 9fb7 616a fe34
000002d0: f7f9 3b37 61bb 9a37 2840 8137 5913 d5b7
000002e0: 72c1 09b8 f97c c836 b1e2 99b7 a2cd 7536
000002f0: 278c 18b7 8748 5a38 733c 0d37 54c8 0338
00000300: 8ad4 8bb6 223f 70b7 a345 c837 d946 a837
00000310: 32fc bab7 bd5b a1b6 9df2 1536 2516 a9b7
00000320: 7f29 9137 3143 e636 0f03 6037 ba0a 32b7
00000330: e1cc 0bb7 5aff 7336 c3e8 86b7 fd2b 84b7
00000340: c635 ebb6 a581 47b4 f66f e736 09a5 4d36
00000350: b4b5 a6b7 3c2c 8e37 e960 8b37 3840 e7b7
00000360: 3eea b4b4 a91d 4a37 16d1 6b36 0b29 e837
00000370: f89a 0bb6 beea 23b6 d2fc 84b7 1bf1 2f36
00000380: 4a38 9934 94db 25b7 ffc1 7a37 cc52 6bb7
00000390: cde5 2338 f680 de36 ba1d e0b7 be8b 7437
000003a0: 879c 23b7 d610 8337 5469 5c37 4b53 61b7
000003b0: 0e4a c936 cfa0 d437 b247 54b7 1293 e3b6
000003c0: 1a72 0b35 12a6 bab5 8e59 2e36 50d0 ce37
000003d0: 6802 5b37 3b60 7737 4c57 28b5 5f2f 84b7
000003e0: 2bce f4b3 c722 4936 0649 4a37 ac25 48b8
000003f0: c1b3 a737 6d10 eab7 46c5 c136 513a 5ab7

model.encoder.layers.3.bias f4 [10]
-1.02353215e-05 -1.2686295e-05 -1.6154128e-05 -1.7923994e-05 4.2367637e-06 -2.4468281e-06 2.280446e-05 -2.1320775e-05
-3.5351484e-06 8.870663e-06
00000000: 5fb8 2bb7 39d7 54b7 ba82 87b7 7c5b 96b7
00000010: 8629 8e36 3034 24b6 344c bf37 04da b2b7
00000020: 633d 6db6 35d3 1437

model.decoder_x.layers.0.weight f4 [10, 10]
6.014743e-07 2.6494381e-05 -1.07352835e-05 -4.9483638e-06 2.0227126e-05 1.9228946e-05 7.678471e-06 -2.2282098e-05
-6.8950135e-06 1.0553373e-05 2.0586333e-06 -1.5569638e-05 -8.174463e-06 -2.738403e-05 6.3903562e-06 1.5471329e-05
2.648268e-05 -2.8427355e-06 1.0370821e-05 -2.5634637e-05 8.101878e-06 -1.6913586e-05 2.1485548e-06 1.320754e-05
2.959406e-05 -1.0426151e-05 -2.3350987e-05 8.976768e-06 -7.849216e-06 -1.4838642e-05 5.288279e-06 1.8518444e-06
1.2338925e-05 -1.0996636e-05 1.7377542e-05 -1.372354e-05 5.175868e-06 3.059708e-06 -8.3567096e-07 1.3926595e-05
-3.7229888e-06 4.2963393e-06 -2.8840739e-06 -9.655642e-06 3.8789603e-06 4.1926713e-05 6.9310413e-06 -1.7389411e-05
2.753181e-05 -2.734831e-06 -1.8997996e-05 -3.259803e-06 1.4660347e-05 2.1589132e-05 1.3862153e-07 -4.00122e-05
2.9454068e-05 -7.6673405e-06 2.418581e-06 -1.9192286e-05 7.5472303e-07 1.3156296e-06 1.2104482e-06 -3.7228892e-06
3.3166782e-07 -1.4774788e-06 4.595228e-05 -2.4643663e-05 3.8196734e-07 4.4145295e-06 9.774538e-06 -1.6780861e-05
-1.9060835e-05 6.426309e-07 5.699514e-06 -1.3322324e-05 -2.5344054e-05 8.9555415e-06 4.2404634e-05 1.2021543e-05
-4.32611e-06 -4.258913e-06 3.302879e-05 6.4276624e-06 5.0876188e-05 -2.3205428e-07 -1.2374795e-06 -1.065724e-05
1.3945061e-05 -1.0624303e-06 3.4474473e-05 -2.8587789e-05 -3.4346675e-05 5.7522175e-07 1.3161687e-05 -2.2066486e-06
3.627656e-05 2.2564973e-05 6.539183e-06 -7.801866e-06
00000000: 0075 2135 4040 de37 b11b 34b7 1f0a a6b6
00000010: 6cad a937 d94d a137 c8d2 0037 71ea bab7
00000020: b75b e7b6 640e 3137 0d27 0a36 8b9b 82b7
00000030: 0d25 09b7 c2b6 e5b7 be6c d636 6dc8 8137
00000040: 1f27 de37 d3c5 3eb6 56fe 2d37 f709 d7b7
00000050: 4ded 0737 a6e1 8db7 e42f 1036 f495 5d37
00000060: c340 f837 faeb 2eb7 dde1 c3b7 ed9a 1637
00000070: 20b0 03b7 7bf3 78b7 f971 b136 e48c f835
00000080: 4803 4f37 317e 38b7 fdc5 9137 283e 66b7
00000090: 5eac ad36 6255 4d36 df52 60b5 45a6 6937
000000a0: 76d8 79b6 4629 9036 038c 41b6 abfe 21b7
000000b0: 0428 8236 77da 2f38 3191 e836 7adf 91b7
000000c0: 1df4 e637 0a88 37b6 e35d 9fb7 fdc2 5ab6
000000d0: b6f5 7537 4f1a b537 ffd7 1434 c6d2 27b8
000000e0: 2114 f737 faa2 00b7 e84e 2236 1fff a0b7
000000f0: 2c98 4a35 b094 b035 af76 a235 c0d6 79b6
00000100: 1410 b234 c94d c6b5 e3bc 4038 ddb9 ceb7
00000110: 3111 cd34 8520 9436 52fd 2337 a0c4 8cb7
00000120: d5e4 9fb7 4281 2c35 743e bf36 f282 5fb7
00000130: f199 d4b7 c23f 1637 a1db 3138 22b0 4937
00000140: 0029 91b6 c9e7 8eb6 6588 0a38 33ad d736
00000150: e463 5538 982a 79b4 7917 a6b5 7fcc 32b7
00000160: 95f5 6937 d498 8eb5 af98 1038 cfcf efb7
00000170: 760f 10b8 f068 1a35 04d1 5c37 ef15 14b6
00000180: a927 1838 e949 bd37 276b db36 c2e4 02b7

model.decoder_x.layers.0.bias f4 [10]
-2.5252955e-05 -2.5132153e-05 3.576051e-07 0.9274198 -8.991704e-07 -0.6836623 7.814235e-06 -2.0329664e-05
1.3625731e-05 5.1825186e-06
00000000: 4fd6 d3b7 e3d2 d2b7 dffc bf34 626b 6d3f
00000010: 855e 71b5 7e04 2fbf e219 0337 9f89 aab7
00000020: 129a 6437 7fe5 ad36

model.decoder_x.layers.1.0.weight f4 [10, 10]
9.283402e-06 1.2107414e-05 1.8406183e-05 -7.758291e-06 -1.4312317e-05 -1.4491726e-06 -4.48414e-07 2.6380063e-05
1.1507424e-05 -6.180063e-06 -4.418098e-06 2.9064595e-06 -2.2143777e-05 1.3217369e-05 -1.7583157e-05 2.0416659e-05
1.9743864e-06 8.711402e-06 1.0590179e-06 -1.888505e-05 1.7809789e-05 3.795927e-06 2.5802271e-06 1.5026877e-05
4.491171e-06 -4.4023872e-07 5.49523e-06 -1.669574e-05 -3.406185e-06 -4.3794757e-06 2.0050968e-06 -4.9011683e-06
-4.933865e-06 0.8755141 1.0015243e-06 -0.4897874 2.2624949e-05 -8.9065446e-07 4.910697e-06 1.7842334e-05
-4.3483386e-05 -6.7134756e-06 -9.345868e-06 2.5258736e-05 8.0533613e-07 1.708481e-05 2.5611776e-05 7.856434e-06
2.6517504e-05 1.5536014e-05 1.4425575e-05 -8.94518e-06 -5.662214e-07 -5.58753e-06 1.5814418e-05 1.1529231e-05
-2.2332519e-05 3.2786058e-06 -1.0388535e-05 4.448361e-06 2.3974553e-06 9.716374e-06 -7.8237545e-06 3.2938904e-05
5.1320134e-05 1.4229667e-05 -3.584986e-06 3.9019246e-06 -3.968044e-06 1.3424914e-06 -5.5151377e-06 -3.475621e-05
3.180541e-05 -8.742834e-08 -6.9304756e-06 -1.6140391e-05 -1.2513798e-05 -9.120906e-06 -1.2594931e-05 -1.0572928e-05
1.4568719e-06 4.7736594e-06 -7.958501e-06 3.987769e-06 2.1164682e-05 -8.1085245e-06 2.6711337e-05 1.0426965e-05
-2.7122678e-05 -1.4013089e-05 4.2879483e-06 7.072833e-06 -1.9751447e-05 0.6324726 -2.4175006e-05 -0.6743962
-2.8878858e-05 1.7963674e-05 -3.7646464e-06 -8.9253575e-07
00000000: e8bf 1b37 f220 4b37 fa66 9a37 9b29 02b7
00000010: ef1e 70b7 3181 c2b5 8dbd f0b4 c14a dd37
00000020: 0210 4137 565e cfb6 2c3f 94b6 980c 4336
00000030: 66c1 b9b7 2bc0 5d37 8b7f 93b7 7144 ab37
00000040: b37f 0436 3027 1237 9423 8e35 566b 9eb7
00000050: 3b66 9537 87bd 7e36 f727 2d36 f21b 7c37
00000060: ddb2 9636 f359 ecb4 ab63 b836 d40d 8cb7
00000070: d095 64b6 69f3 92b6 4d8f 0636 b774 a4b6
00000080: 948d a5b6 b121 603f 1d6c 8635 6ac5 fabe
00000090: b5ca bd37 4f15 6fb5 91c6 a436 1fac 9537
000000a0: ee61 36b8 5144 e1b6 33cc 1cb7 b9e2 d337
000000b0: 472e 5835 5a51 8f37 dfd8 d637 21cf 0337
000000c0: e871 de37 5653 8237 5f05 7237 4113 16b7
000000d0: 70fe 17b5 847c bbb6 34a9 8437 ac6d 4137
000000e0: b856 bbb7 0506 5c36 6b4a 2eb7 2143 9536
000000f0: f8e3 2036 8203 2337 c542 03b7 e127 0a38
00000100: 9340 5738 f4bb 6e37 9795 70b6 47ed 8236
00000110: 3d25 85b6 a72f b435 ac0e b9b6 32c7 11b8
00000120: cd66 0538 3dc0 bbb3 558c e8b6 3a65 87b7
00000130: 5af2 51b7 fe05 19b7 d14e 53b7 6162 31b7
00000140: bd89 c335 6c2d a036 8085 05b7 adce 8536
00000150: cf8a b137 d909 08b7 2912 e037 79ef 2e37
00000160: 8285 e3b7 c219 6bb7 32e1 8f36 2c53 ed36
00000170: e9af a5b7 b9e9 213f 6ecb cab7 3ba5 2cbf
00000180: e040 f2b7 b2b0 9637 22a4 7cb6 9796 6fb5

model.decoder_x.layers.1.0.bias f4 [10]
-1.1262087e-05 -1.9622465e-05 9.717904e-07 0.9225852 1.6858505e-06 1.1090821e-05 0.3602149 8.8152433e-07
-2.3112057e-06 0.7892414
00000000: 4cf2 3cb7 ec9a a4b7 776e 8235 8b2e 6c3f
00000010: 6245 e235 b712 3a37 166e b83e e4a1 6c35
00000020: 361a 1bb6 b90b 4a3f

model.decoder_x.layers.2.0.weight f4 [10, 10]
2.7020544e-06 -2.1617451e-07 -1.2919528e-05 0.11038979 3.7153286e-06 1.16319625e-05 7.4917075e-06 -6.4600968e-06
2.8876898e-06 0.25540605 -3.2564756e-05 -1.4643038e-05 1.2061382e-06 4.562164e-06 -2.0122889e-05 -7.779749e-06
1.3236234e-05 -3.8794323e-07 2.3820937e-06 1.2750448e-05 2.1759583e-05 -1.2125006e-05 2.7810744e-05 0.9903973
1.9585987e-05 -1.9614246e-05 0.34832475 2.5826805e-06 5.533282e-07 0.9950386 1.48902855e-05 5.905209e-06
-3.9624724e-06 0.5664135 1.1088496e-05 -2.0303813e-05 5.1634265e-06 -3.780937e-06 -6.565475e-07 0.2878415
-1.5187694e-05 1.3357788e-05 1.0197559e-06 2.970445e-05 -1.4653716e-06 -2.5140675e-05 -6.6181196e-06 4.823284e-05
3.0233648e-06 -4.249786e-06 -1.0960614e-05 -3.7669835e-07 -2.868747e-05 9.500818e-06 -1.8213625e-05 -4.1289655e-07
3.4439822e-06 6.1284237e-07 -9.012292e-06 1.651698e-06 -1.0584844e-05 -6.9237763e-06 -1.2245433e-05 -3.255375e-06
-3.8019164e-06 1.0267746e-06 -1.3599387e-06 1.8665889e-05 2.0133186e-06 -1.616044e-05 -1.2635203e-05 2.326697e-05
-3.9387073e-06 -7.4503496e-06 1.9330908e-05 -1.3736243e-05 -1.1252737e-06 -1.5900347e-05 -1.9060969e-06 -1.50419e-05
2.7116357e-05 -3.460038e-06 -8.3218744e-08 6.136982e-06 -6.9873604e-06 9.789855e-06 1.5260177e-05 -1.3152087e-05
-4.0901673e-06 1.3344601e-06 -2.956399e-05 1.540744e-05 -2.3577613e-06 1.2468531e-05 1.5174819e-05 2.0617053e-07
1.7345743e-06 -1.5489088e-06 1.233449e-06 -7.787888e-07
00000000: f154 3536 991d 68b4 f3c0 58b7 0b14 e23d
00000010: dc54 7936 e626 4337 4761 fb36 cfc3 d8b6
00000020: 22ca 4136 95c4 823e 2496 08b8 5fab 75b7
00000030: 98e2 a135 b114 9936 93cd a8b7 c485 02b7
00000040: 3111 5e37 8346 d0b4 0fdc 1f36 c2ea 5537
00000050: 5988 b637 816c 4bb7 1e4b e937 ad8a 7d3f
00000060: 964c a437 4689 a4b7 9f57 b23e 1d52 2d36
00000070: 6d88 1435 daba 7e3f 4ad1 7937 5c25 c636
00000080: 61f5 84b6 7a00 113f ba08 3a37 1b52 aab7
00000090: 7f41 ad36 01bc 7db6 9a3d 30b5 f65f 933e
000000a0: a6ce 7eb7 431b 6037 8cde 8835 d22d f937
000000b0: c9ad c4b5 30e5 d2b7 3711 deb6 9e4d 4a38
000000c0: 03e5 4a36 6299 8eb6 7be3 37b7 073d cab4
000000d0: dfa5 f0b7 b465 1f37 76c9 98b7 12ac ddb4
000000e0: 2a1f 6736 3582 2435 8033 17b7 e9af dd35
000000f0: 8f95 31b7 c952 e8b6 bc71 4db7 eb76 5ab6
00000100: 6d24 7fb6 b5cf 8935 2387 b6b5 b194 9c37
00000110: 8d1c 0736 4890 87b7 c9fb 53b7 702d c337
00000120: 3d29 84b6 04fe f9b6 cf28 a237 b774 66b7
00000130: 1c08 97b5 bc61 85b7 fed4 ffb5 785c 7cb7
00000140: ef77 e337 0033 68b6 fdb5 b2b3 46ec cd36
00000150: f874 eab6 1b3f 2437 fb02 8037 c9a7 5cb7
00000160: 453e 89b6 b31b b335 2f00 f8b7 3a3f 8137
00000170: 083a 1eb6 ef2f 5137 5a97 7e37 b95f 5d34
00000180: 85cf e835 1ae4 cfb5 fc8c a535 f50d 51b5

model.decoder_x.layers.2.0.bias f4 [10]
0.48176867 8.691168e-06 0.6793774 0.24149947 2.696832e-06 4.242466e-06 0.42222437 -1.6314924e-06
-4.364936e-06 2.2012869e-06
00000000: 62aa f63e 48d0 1137 adeb 2d3f a34b 773e
00000010: 39fb 3436 815a 8e36 cb2d d83e a7f9 dab5
00000020: 8476 92b6 d2b9 1336
