logs/l1_coef-0.0/version_1/checkpoints/epoch=3029-step=3030.ckpt (torch, 518107 bytes, 30 tensors)

model.pi f4 [100, 1]
0	0x3f153784	0.58287835
1	0x3e9ca04a	0.3059104
2	0x3ea654f6	0.32486695
3	0x3ea81b24	0.32833207
4	0x3eee7c84	0.46579373
5	0x3ea96b05	0.33089462
6	0x3edbbf14	0.4291922
7	0x3e985762	0.29754168
8	0x3edd0507	0.43167898
9	0x3eaae81b	0.33380207
10	0x3f360f77	0.7111735
11	0x3f2bbc23	0.6708395
12	0x3ef10729	0.47075775
13	0x3f2e27f1	0.68029696
14	0x3ed510d1	0.41614392
15	0x3f22976c	0.635123
16	0x3ef5ea93	0.48030528
17	0x3f15e6ed	0.5855549
18	0x3f2c7d0e	0.6737832
19	0x3f31c8ac	0.69446826
20	0x3eebcec4	0.46056187
21	0x3ec520b2	0.38501507
22	0x3ea4886c	0.32135332
23	0x3ed50b62	0.41610247
24	0x3e89342d	0.2679762
25	0x3ec07aa6	0.37593573
26	0x3ea18ed6	0.31554288
27	0x3f050f8e	0.5197686
28	0x3eb22ce5	0.34799877
29	0x3e8f7b53	0.28023776
30	0x3e7b16df	0.24520443
31	0x3e862333	0.2619873
32	0x3ef38092	0.4755903
33	0x3ecadcd5	0.39621606
34	0x3ee5c9b3	0.44880447
35	0x3ec7d68a	0.39030868
36	0x3ef71940	0.48261452
37	0x3edf46a8	0.43608594
38	0x3ebedc0d	0.3727726
39	0x3e871154	0.26380408
40	0x3eeae50a	0.45877868
41	0x3ee2c9d7	0.44294617
42	0x3ef3ba29	0.47602966
43	0x3e9ddfc5	0.30834785
44	0x3ec58e37	0.38585064
45	0x3ef3ca2c	0.47615182
46	0x3ea6f7ab	0.3261083
47	0x3f245898	0.64197683
48	0x3ece5835	0.40301672
49	0x3f0f078e	0.558709
50	0x3e66fa27	0.22556363
51	0x3f14b21a	0.5808426
52	0x3e8abe5c	0.27098358
53	0x3ef80df9	0.4844816
54	0x3e84145b	0.2579678
55	0x3eb515bf	0.35368153
56	0x3e62bfd3	0.22143488
57	0x3e762848	0.24038804
58	0x3e9871f7	0.29774448
59	0x3e95d7f0	0.2926631
60	0x3eb34975	0.3501698
61	0x3f1a94ca	0.60383284
62	0x3f1abc15	0.6044324
63	0x3f0bc992	0.54604447
64	0x3e8d620e	0.27613872
65	0x3eb6423c	0.35597408
66	0x3e896b9b	0.2683991
67	0x3e9646b5	0.2935082
68	0x3e802572	0.25028569
69	0x3e65f0c6	0.22455129
70	0x3ecd0ae6	0.40047377
71	0x3eea7580	0.4579277
72	0x3e87845f	0.2646818
73	0x3f0da57e	0.55330646
74	0x3ecbf952	0.39838654
75	0x3ed66bd3	0.41879138
76	0x3eddbbf5	0.43307462
77	0x3ea416b6	0.32048577
78	0x3eec9c79	0.4621313
79	0x3eff73fc	0.49893177
80	0x3f0485ef	0.51766866
81	0x3f02cbae	0.5109204
82	0x3eca48b0	0.3950858
83	0x3e954fcd	0.29162446
84	0x3f096ad1	0.53678614
85	0x3f16fe89	0.5898214
86	0x3ee3ba29	0.44477966
87	0x3e78ee1d	0.24309583
88	0x3ec3aa40	0.38215828
89	0x3e9d42ab	0.30714926
90	0x3f1aaec7	0.6042294
91	0x3f15e58c	0.58553386
92	0x3f11a4e4	0.5689223
93	0x3f25cc84	0.6476519
94	0x3f2a6594	0.66561246
95	0x3f1fd221	0.62430006
96	0x3f1a49a4	0.60268617
97	0x3f28d9d9	0.6595741
98	0x3f1b2969	0.6061006
99	0x3f19f335	0.6013673

model.encoder.layers.0.weight f4 [100, 100]
0	0xbef4d8d2	-0.4782167
1	0xbd372714	-0.044715002
2	0x3c849c93	0.016187942
3	0xbb364619	-0.0027812778
4	0xbc3ab365	-0.01139531
5	0xbd99f4e1	-0.0751741
6	0xbd995f41	-0.07488871
7	0xbd9d12ad	-0.07669578
8	0xbdbee59d	-0.09321139
9	0x3ca97e7a	0.020690192
10	0x3dd8c433	0.10584297
11	0x3d930476	0.07178585
12	0x3d2ab08f	0.041672286
13	0x3e05e88a	0.13076988
14	0xbdd187b4	-0.102309614
15	0x3d865771	0.06559647
16	0xbd617332	-0.0550415
17	0x3dc290e2	0.095002905
18	0x3d26ed5c	0.040753707
19	0x3d04526a	0.03230516
20	0x3b5cbdc3	0.0033682443
21	0xbb2bcd09	-0.002621474
22	0xbca0e97d	-0.019642586
23	0x3d68a311	0.056796137
24	0x3d582e5d	0.05277859
25	0x3d039294	0.03212221
26	0x3dd8a182	0.1057768
27	0x3be34fe9	0.0069370163
28	0xbd34a8d2	-0.044106312
29	0xbda36361	-0.079779394
30	0x3d307a25	0.043085236
31	0x3cd5945e	0.026071724
32	0xbce1696d	-0.027516091
33	0x3d8f009c	0.06982538
34	0xbd4ff481	-0.050770286
35	0x3d89fb95	0.067374386
36	0x3d67eacd	0.056620408
37	0xbd112a20	-0.035440564
38	0x3db23b1e	0.08702682
39	0xbd70b6f8	-0.058768243
40	0xbd47e532	-0.048802562
41	0x3d067ac9	0.03283194
42	0xbd300b58	-0.04297957
43	0xbd3228e8	-0.043496042
44	0x3dd378dd	0.10325787
45	0x3d476733	0.048682403
46	0xbd5dcf8e	-0.054153018
47	0xbc90b63e	-0.017665025
48	0x3de1a0e5	0.11017016
49	0xbcae05f3	-0.021243071
50	0x3ce7c7ac	0.028293453
51	0x3da9a4f9	0.08283419
52	0x3d3fe338	0.046847552
53	0xbd2041b3	-0.039125156
54	0xbd8c3352	-0.06845726
55	0xbd725941	-0.05916715
56	0xbcee8f8e	-0.029121187
57	0x3d2b0a07	0.04175761
58	0x3d8e065c	0.06934807
59	0xbcc4ae5e	-0.024008926
60	0x3c2eee72	0.010676967
61	0x3da8d5af	0.08243882
62	0xbcb3c91d	-0.021946484
63	0x3d785d81	0.060636047
64	0xbc339c1b	-0.010962511
65	0x3d899c48	0.067192614
66	0x3de48daa	0.11159833
67	0xbd5ce737	-0.05393144
68	0xbc502eee	-0.012706501
69	0x3d54cc84	0.051952854
70	0xbd71a91a	-0.05899916
71	0x3d7ed8f8	0.062218636
72	0x3d09eabf	0.033671137
73	0x3d579fbf	0.05264258
74	0x3d1f5a4a	0.038904466
75	0x3d8687ab	0.06568845
76	0x3de673ac	0.112525314
77	0x3d897ad7	0.06712883
78	0xbd648505	-0.05579092
79	0x3d52ceeb	0.051466864
80	0xbd653dae	-0.055967025
81	0xbd134fdf	-0.035964843
82	0x3da73338	0.08164066
83	0xbb1e25b2	-0.0024131355
84	0x3b200929	0.0024419522
85	0x3d824466	0.06360702
86	0x3da1bd81	0.07897473
87	0xbd8277e3	-0.06370523
88	0xbd898016	-0.067138836
89	0x3c57543e	0.0131426435
90	0xbd6e900e	-0.05824285
91	0x3ca6946f	0.02033445
92	0x3c204c56	0.009783825
93	0x3d5faa6e	0.054605894
94	0x3dde02c4	0.10840371
95	0xbccacd3f	-0.024756072
96	0xbc3160b3	-0.010826278
97	0x3de3b190	0.11117852
98	0xbd12d5d4	-0.035848454
99	0x3d987a4d	0.07445202
100	0xbdc40d8b	-0.095728956
101	0x3d1846fa	0.037177064
102	0xbc1e82ef	-0.009674772
103	0xbd9f1c6f	-0.07769095
104	0xbdf2add0	-0.11849558
105	0x3d858d83	0.06521132
106	0xbd150cd5	-0.03638919
107	0x3c337611	0.010953442
108	0x3c8cbdad	0.017180288
109	0x3d9b500a	0.075836256
110	0x3d34e73a	0.044165827
111	0x3db55777	0.08854573
112	0xbd077d53	-0.033078503
113	0x3d77d958	0.06051001
114	0xbd67cdbb	-0.056592684
115	0xbd8f1967	-0.06987267
116	0x3d88ca75	0.066792406
117	0xb8bb88fe	-8.942372e-05
118	0xbce2548c	-0.027628206
119	0xbd265595	-0.04060896
120	0xbdb6a2da	-0.0891778
121	0x3d514d3b	0.051099043
122	0x3dc69f13	0.0969831
123	0xbd327464	-0.04356803
124	0x3dcaebee	0.09908281
125	0xbc8a6163	-0.01689214
126	0x3c5d7a49	0.013517925
127	0xbd5d5ce9	-0.054043684
128	0x3d8ca4e7	0.0686739
129	0x3dd36078	0.10321134
130	0x3c4c7c0d	0.012480748
131	0x3df1c72c	0.11805567
132	0x3d3b417a	0.04571674
133	0xbc83e241	-0.016099097
134	0x3d042253	0.032259297
135	0x3d61ea1d	0.05515491
136	0x3dcc6216	0.09979646
137	0x3ceb75cd	0.028742695
138	0x3cda7b7a	0.026670206
139	0xbc46c849	-0.012132713
140	0x3db612c0	0.08890295
141	0x3dc744f8	0.097299516
142	0x3d1ec6d6	0.038763843
143	0xbc8c7929	-0.017147617
144	0xbdc052e2	-0.09390809
145	0xbd9afc3e	-0.07567643
146	0xbd86c8d5	-0.065812744
147	0xbc34b9e0	-0.011030644
148	0xbd6d016a	-0.057862677
149	0x3dc257ea	0.094894245
150	0x3d78d694	0.060751513
151	0x3d920e34	0.07131615
152	0xbd3750c6	-0.044754766
153	0x3d958891	0.073014386
154	0x3c9040e7	0.017609073
155	0x3dac3e81	0.08410359
156	0x3db7e227	0.08978682
157	0x3d8816b2	0.06644954
158	0x3e06476e	0.13113186
159	0x3dc87ec8	0.097898066
160	0x3d85971d	0.06522963
161	0x3d4c7c81	0.049923424
162	0x3e2168eb	0.1576268
163	0xbbaefdfd	-0.0053403364
164	0xbb46bcfa	-0.003032504
165	0x3da7ea47	0.08198982
166	0x3df045ef	0.11732089
167	0x3c902b3e	0.017598744
168	0xbc0d10b5	-0.00860994
169	0x3d8948fb	0.06703373
170	0x3e0004ba	0.12501803
171	0x3cc01936	0.023449522
172	0x3dbc60c1	0.09198142
173	0x3df0bd8d	0.11754904
174	0xbbb7cdc2	-0.005609245
175	0x3cf87b39	0.030332195
176	0x3dea4df9	0.11440653
177	0xbd0044ad	-0.031315494
178	0x3e0f925d	0.14020677
179	0x3de7c282	0.11316396
180	0x3d0dee44	0.034651056
181	0xbd3e152e	-0.046406917
182	0x3d3f9b4b	0.04677896
183	0xbc915cd1	-0.017744454
184	0xbd24796c	-0.04015486
185	0x3dd0140c	0.10160074
186	0x3d3a1d42	0.04543806
187	0x3d9c27bd	0.07624767
188	0xbb21afb6	-0.0024671382
189	0x3dcb2bd2	0.099204674
190	0x3ccfa159	0.025345491
191	0x3d45f906	0.04833319
192	0x3d157acf	0.036494073
193	0x3dd1b22f	0.10239064
194	0x3d31740f	0.043323573
195	0x3d9b3718	0.07578868
196	0x3d4250db	0.04744039
197	0xbd790d1f	-0.06080353
198	0x3dbd38e4	0.09239367
199	0xbddfd965	-0.109301366
200	0xbec135c9	-0.37736347
201	0x3ccc6cd7	0.024954243
202	0x3e24fda5	0.16112383
203	0x3daa4066	0.08313064
204	0xbd235617	-0.039877024
205	0xbcef2f33	-0.029197311
206	0x3e1fbc6d	0.15599222
207	0xbc22b905	-0.009931807
208	0x3dfcf635	0.12351648
209	0x3dcf8ae3	0.101339124
210	0x3d11f3c4	0.035632864
211	0x3db68997	0.08912962
212	0x3e28c0df	0.16479824
213	0x3e256669	0.16152348
214	0x3cc6d74d	0.024272585
215	0x3d328561	0.04358423
216	0x3d810b6d	0.063010074
217	0x3cf2a39e	0.029619034
218	0x3d50bae3	0.05095948
219	0x3d837089	0.06417949
220	0x3dc09c73	0.0940484
221	0x3b91c9cf	0.0044491063
222	0x3d326b8f	0.043559607
223	0x3ddda0f2	0.108217135
224	0x3c06b9b4	0.008222986
225	0xbd75b0b2	-0.059982963
226	0x3d9f686f	0.07783591
227	0xbc884f31	-0.016639324
228	0x3d6c5f41	0.05770803
229	0x3d927356	0.07150905
230	0xbd4736cb	-0.04863624
231	0x3d805733	0.06266632
232	0x3c17122a	0.009220639
233	0x3d2b2e63	0.041792285
234	0xbc58e23d	-0.013237533
235	0x3d9fbcc6	0.077996776
236	0xbd64ffa4	-0.05590786
237	0xbdaccee5	-0.084378995
238	0x3b02d632	0.0019964096
239	0x3d095706	0.033530258
240	0x3bd378e8	0.006453622
241	0xbcef6197	-0.02922134
242	0x3d91ee83	0.071255706
243	0xbd1947ed	-0.03742211
244	0x3db98d06	0.09060101
245	0xbb6b117d	-0.0035868578
246	0x3daeaae3	0.08528688
247	0x3d49c4d1	0.049259964
248	0x3d8aa984	0.06770614
249	0xbd039c96	-0.032131754
250	0xbc96be85	-0.018401394
251	0x3d5b0762	0.053473838
252	0xbd40c1a4	-0.04705967
253	0xbd87cf2c	-0.06631312
254	0x3bbc4301	0.005745292
255	0x3d7969d8	0.060891956

model.encoder.layers.0.bias f4 [100]
0	0x3e9caa92	0.30598885
1	0x3d516f8b	0.051131766
2	0x3e6ec806	0.2331849
3	0xbb19dda7	-0.0023478062
4	0x3e4f6bc5	0.20255955
5	0xbbcc8318	-0.0062412135
6	0x3e7d32c4	0.24726397
7	0xbdf54686	-0.11976342
8	0x3e59a92b	0.21255939
9	0xbe8d3b31	-0.27584222
10	0xbe86de1b	-0.26341328
11	0x3e8a3bc1	0.26998714
12	0xbea1f461	-0.3163176
13	0x3e2a5e04	0.16637427
14	0x3e811021	0.25207618
15	0xbe4488f9	-0.19192876
16	0x3d1dd865	0.038536448
17	0xbe155392	-0.14582661
18	0x3e16f033	0.14740066
19	0x3e929dd2	0.28636032
20	0x3e7cfb77	0.24705301
21	0xbe8d84fe	-0.27640527
22	0xbe966fc3	-0.29382142
23	0xbd14b6e7	-0.03630724
24	0x3dfe66a2	0.124219194
25	0xbe0bb68c	-0.13643855
26	0xbdd42403	-0.10358431
27	0x3e77adbc	0.24187368
28	0x3e00c1e2	0.1257396
29	0xbe8da294	-0.276631
30	0x3d36cde7	0.044629958
31	0xbe836fbd	-0.25671187
32	0x3d24f274	0.040270284
33	0xbe75d6de	-0.24007747
34	0x3e6fc8dc	0.23416466
35	0xbe80e497	-0.251744
36	0x3e54feba	0.20800295
37	0xbe5a866b	-0.21340339
38	0x3e80e8d7	0.25177643
39	0x3e86a8d6	0.26300687
40	0x3ce61fcd	0.028091336
41	0xbdca0625	-0.09864453
42	0xbe547940	-0.20749378
43	0xbdc5902b	-0.096466385
44	0x3e02ad86	0.12761506
45	0xbd0d9fc0	-0.034576178
46	0xbd1526ab	-0.03641383
47	0xbe820be0	-0.25399685
48	0xbe50eadd	-0.20402093
49	0x3e8cecca	0.27524406
50	0x3e2fc5a7	0.17165242
51	0x3e980410	0.296906
52	0x3e20c30a	0.15699401
53	0x3e8f27d5	0.27960077
54	0x3d1bea90	0.038065493
55	0x3e2e0c1e	0.1699681
56	0xbe316ca3	-0.17326598
57	0x3e40b5b1	0.1881931
58	0xbdfe68c1	-0.12422324
59	0xbe1d7a81	-0.15378763
60	0x3e4b2bda	0.19840947
61	0xbe51a418	-0.20472753
62	0x3e4d44f5	0.20045836
63	0xbe39485a	-0.18094006
64	0x3e42be42	0.1901789
65	0xbe610331	-0.21973874
66	0xbe90ff2b	-0.28319678
67	0x3e720700	0.23635483
68	0xbd7a71d6	-0.06114372
69	0x3d77bf57	0.06048521
70	0x3e8acc26	0.27108878
71	0xbd9e6106	-0.077333495
72	0xbe38a272	-0.18030718
73	0x3d7c1822	0.061546452
74	0x3ea76ea3	0.32701597
75	0x3e60d0af	0.21954606
76	0xbe9c6c9f	-0.3055162
77	0x3e2cd6d2	0.16878822
78	0xbe48863c	-0.19582456
79	0x3e6a27a2	0.22866681
80	0xbda4e189	-0.0805083
81	0x3e1b9b61	0.15195991
82	0x3e28b5f7	0.16475664
83	0xbe2f692b	-0.17129962
84	0xbd0da824	-0.03458418
85	0x3e915c01	0.28390506
86	0xbe26f69a	-0.16305009
87	0x3e615b23	0.22007422
88	0xbe33927f	-0.17536353
89	0x3e6bb3dc	0.2301783
90	0xbe074111	-0.13208415
91	0xbe8db5f3	-0.2767788
92	0x3da8c275	0.08240215
93	0x3e6807d2	0.22659233
94	0x3cede7a1	0.029041113
95	0x3ea9ce3e	0.33165163
96	0xbe8bfeb6	-0.27342767
97	0x3e17e582	0.14833644
98	0xbe55fa8a	-0.20896354
99	0x3e95870b	0.29204592

model.encoder.layers.1.0.weight f4 [100, 100]
0	0xbd4afe03	-0.04955865
1	0xbd104dfe	-0.03523063
2	0x3d56b96e	0.052422933
3	0x3dc31352	0.095251694
4	0x3c87c670	0.016574115
5	0x3d717c8d	0.05895667
6	0x3cb53f6c	0.022124968
7	0xbd5dc85c	-0.054146156
8	0xbd01a0ec	-0.031647608
9	0x3b3dccf4	0.0028961273
10	0x3dbd692f	0.09248578
11	0x3cc7bc23	0.024381703
12	0xbd0d6630	-0.03452128
13	0x3db7fc55	0.089836754
14	0xbd65afc6	-0.056075834
15	0x3d3ad006	0.045608543
16	0xbdde2728	-0.10847312
17	0xbc6dd7d1	-0.014516787
18	0xbda26bd5	-0.079307236
19	0x3dc6a2d3	0.09699025
20	0xbc96814c	-0.0183722
21	0x3aafd290	0.0013414193
22	0x3c84a8f5	0.016193846
23	0xbd43b179	-0.047776673
24	0x3cf7d6ac	0.03025373
25	0x3d7cd761	0.06172884
26	0x3daebb70	0.085318446
27	0xbda0c7df	-0.078506224
28	0xbd049af3	-0.032374334
29	0xbd0a08c9	-0.033699784
30	0xb984846f	-0.00025275673
31	0x3d8bbba5	0.068229
32	0x3d3af8df	0.0456475
33	0xbb8425a5	-0.004032808
34	0xbc79634f	-0.015221431
35	0xbd5eaba0	-0.054362893
36	0x3ccb9d42	0.02485526
37	0x3c457f09	0.012054213
38	0x3da6fdc8	0.08153874
39	0xbdb65d4e	-0.08904515
40	0xbcae77ec	-0.021297418
41	0xbcd11398	-0.025522038
42	0xbdaf8ab4	-0.085713774
43	0xbde6dd37	-0.11272662
44	0xbd9d50f3	-0.076814555
45	0x3da7b8f3	0.08189573
46	0xbc0ab317	-0.00846555
47	0xbd0dacaa	-0.034588493
48	0x3d975512	0.07389273
49	0x3db5c8e0	0.088762045
50	0x3de0fab6	0.10985319
51	0xbdf39d73	-0.118952654
52	0x3da6c9bc	0.081439465
53	0xbd05d5bd	-0.03267454
54	0xbdd3f882	-0.103501335
55	0xbd20cfdc	-0.03926073
56	0xbc68e657	-0.014215074
57	0xbc3d5012	-0.011554735
58	0x3cea8c60	0.02863139
59	0x3d926cf9	0.07149691
60	0x3cdf0dd4	0.027228273
61	0x3cafc2ea	0.021455247
62	0xbd815a96	-0.06316106
63	0xbdad27a1	-0.08454824
64	0x3b9feb1b	0.0048803217
65	0xbb36ba2b	-0.002788196
66	0xbdc1f6cf	-0.09470903
67	0xbd3aac54	-0.0455745
68	0x3d9747a4	0.07386711
69	0x3cbc669f	0.022998152
70	0xbc2e91f6	-0.010654917
71	0x3db9c302	0.09070398
72	0xbd429f75	-0.04751535
73	0x3cdc5a4c	0.026898526
74	0x3de555bc	0.11197993
75	0xbcdf1bec	-0.027234994
76	0x3d67cf68	0.056594282
77	0xbd23405e	-0.039856307
78	0x3cfcf4bf	0.030878423
79	0x3cff592d	0.031170452
80	0x3dce3ee1	0.10070587
81	0xbd8b5575	-0.06803409
82	0x3ba1d785	0.004939022
83	0x3ceae9e8	0.028675988
84	0xbc51deab	-0.012809436
85	0xbd69b2ea	-0.05705539
86	0xbdd7c2da	-0.10535212
87	0xbcbbdc73	-0.022932267
88	0xbd3cd4cd	-0.04610138
89	0xbdbb9c8d	-0.09160719
90	0xbdb84706	-0.08997922
91	0xbcb9ce81	-0.022681477
92	0xbdd8f140	-0.1059289
93	0xbd0ccec0	-0.03437686
94	0x3d8a7d4f	0.06762182
95	0x3c7cc42f	0.015427633
96	0x3c9271ef	0.017876593
97	0x3c9bc605	0.019015322
98	0xbd64d13b	-0.0558636
99	0xbc032dc7	-0.00800652
100	0xbca87d76	-0.020567637
101	0x3d38677c	0.045020565
102	0x3d5a202a	0.05325333
103	0xbd59d7df	-0.053184386
104	0xbc197be3	-0.009367916
105	0xbc5ecd8d	-0.013598812
106	0x3c7ad7c4	0.015310232
107	0xbd82f0a4	-0.06393555
108	0xbd535b61	-0.051600818
109	0xbd08ac15	-0.033367235
110	0xbd0d795e	-0.034539573
111	0xbd3baad2	-0.045817204
112	0x3d6f7933	0.058465194
113	0x3d63de7a	0.055632092
114	0xbcadd13c	-0.021217935
115	0xbc41f5e9	-0.011838415
116	0x3da1f0d1	0.0790726
117	0xbd3e7813	-0.04650123
118	0x3d7f91da	0.062394954
119	0xbc8e2305	-0.017350683
120	0xbad4f0fa	-0.0016246133
121	0xbd55f3b1	-0.052234355
122	0xbd5ceefc	-0.05393885
123	0xbd33e4f4	-0.04391952
124	0x3b2697fa	0.0025420175
125	0xbd5ccbe8	-0.053905398
126	0xbd07dbb2	-0.033168502
127	0x3cc1ddcb	0.02366533
128	0xbc7f65f2	-0.0155882705
129	0xbd3ceb3f	-0.046122786
130	0xbd4fa690	-0.050695956
131	0x3aa94a3b	0.0012915799
132	0x3bb397fc	0.0054807644
133	0xbd57741f	-0.052600976
134	0x3d67b633	0.056570243
135	0xbcb8b554	-0.022547401
136	0x3d04c83a	0.032417513
137	0x3d49d8de	0.049279086
138	0xbd5a1c5c	-0.0532497
139	0x3d4e31d0	0.050340474
140	0xbd08c640	-0.03339219
141	0x3c96b497	0.018396659
142	0x3d9d6ddd	0.076869704
143	0xbb16d807	-0.0023016946
144	0xbd11c3c3	-0.035587084
145	0x3d820709	0.06348998
146	0x38f5fc36	0.00011729488
147	0xbbf5e69d	-0.007504298
148	0xbd58932f	-0.05287474
149	0x3d1a68fe	0.037697785
150	0x3d706191	0.058686797
151	0x3d3fa0ad	0.04678409
152	0x3d15fc70	0.036617696
153	0xbd0ed045	-0.03486659
154	0xbc6a52d0	-0.014301971
155	0xbc9c0837	-0.019046886
156	0x3d6eca26	0.058298253
157	0x3d122f7c	0.035689816
158	0x3d820f60	0.06350589
159	0x3bf72332	0.0075420374
160	0x3d8b4a48	0.068012774
161	0x3c5b9401	0.013401986
162	0x3d962054	0.07330385
163	0x3c0ad3fd	0.0084733935
164	0x3d59a854	0.053139046
165	0xbd2db020	-0.042404294
166	0xbd01a49f	-0.031651136
167	0x3ce4a34e	0.027909901
168	0x3aa9e02b	0.0012960484
169	0x3c97c657	0.018527193
170	0xbd6e780f	-0.058219966
171	0x3d05ba97	0.03264865
172	0xbc38218f	-0.01123847
173	0x3cb23db2	0.021757934
174	0x3c9a5127	0.018837525
175	0x3aab601f	0.0013074911
176	0x3c848e1a	0.01618104
177	0xbc8b9e3e	-0.01704323
178	0xbcaceda8	-0.021109417
179	0x3c5e60ab	0.013572852
180	0xbd233314	-0.039843634
181	0xbd272632	-0.04080791
182	0x3b47c4a0	0.0030482188
183	0xbb8c351b	-0.0042787916
184	0xbcd31924	-0.025768824
185	0xbb79c5b5	-0.0038112227
186	0xbd1a71c9	-0.03770617
187	0x3c10b339	0.0088317925
188	0x3bccfd56	0.006255786
189	0x3d6d35c9	0.05791262
190	0xbc412eec	-0.011790972
191	0xbce6c773	-0.028171277
192	0xbd50bfe2	-0.050964244
193	0xbc24987c	-0.010046121
194	0xbd5e9711	-0.054343287
195	0x3d3cc16b	0.046082895
196	0xbd968bac	-0.07350859
197	0xbc9eec35	-0.019399742
198	0x3d0c491c	0.03424941
199	0xbd742477	-0.059605088
200	0x3e1221d2	0.14270714
201	0x3e0757bf	0.13217066
202	0x3e06f65e	0.13179919
203	0x3d5fc22b	0.054628532
204	0x3c871539	0.016489612
205	0xbe0078eb	-0.12546127
206	0x3dc6a812	0.097000256
207	0xbdd61c33	-0.10454597
208	0xbdbee4ea	-0.09321006
209	0xbd0e3750	-0.03472072
210	0x3d7fd1e6	0.062456034
211	0x3e2955f5	0.16536696
212	0xbdad60c2	-0.08465721
213	0xbe20e489	-0.15712179
214	0x3d065a59	0.032801006
215	0x3dcfe8db	0.101518355
216	0xbdcdd6f8	-0.10050768
217	0x3e1c8cf3	0.15288143
218	0xbdf234fa	-0.11826511
219	0x3deadbbb	0.114676915
220	0x3bec4103	0.0072098984
221	0xbdcad652	-0.099041596
222	0x3dc15362	0.09439732
223	0xbe0460e1	-0.12927581
224	0xbdad1e43	-0.084530376
225	0xbd76c4cb	-0.06024627
226	0x3cd6ad52	0.026205692
227	0x3cc513c9	0.024057286
228	0xbdc579a9	-0.096423455
229	0xbd9aaaa4	-0.07552078
230	0xbdd82d1e	-0.105554804
231	0x3db2debc	0.087338895
232	0xbe138fc9	-0.14410318
233	0x3e17cc7c	0.14824098
234	0x3d628509	0.055302653
235	0x3dce3462	0.10068585
236	0x3e1170bc	0.14203161
237	0x3c60a1fd	0.013710496
238	0x3e067764	0.13131481
239	0xbc854e89	-0.0162728
240	0x3e2ad737	0.1668366
241	0x3c2395ef	0.009984477
242	0xbe246a52	-0.16056183
243	0xbcd2d936	-0.02573834
244	0xbde19f34	-0.11016694
245	0x3e06e4d9	0.13173236
246	0xbd60e99c	-0.054910287
247	0x3dd1b95a	0.10240431
248	0x3d12f7fd	0.03588103
249	0x3dd4b6db	0.103864394
250	0x3e11bdbe	0.14232537
251	0x3d26d466	0.040729903
252	0x3e1510b3	0.14557151
253	0x3d3c6a6d	0.045999933
254	0xbd210d67	-0.039319422
255	0x3d2084eb	0.03918926

model.encoder.layers.1.0.bias f4 [100]
0	0xbd24fb44	-0.040278688
1	0xbbd6cee8	-0.006555427
2	0x3e02508c	0.12726039
3	0x3d974052	0.07385315
4	0x3c613e9a	0.0137478355
5	0x3dbd2ef2	0.0923747
6	0x0005ac7c	5.21053e-40
7	0x3d70375c	0.058646545
8	0xbe12ba96	-0.1432899
9	0x3deab84b	0.11460932
10	0x800666da	-5.87909e-40
11	0x3dd00849	0.1015783
12	0x3e38a311	0.18030955
13	0x3dab726d	0.08371434
14	0x3e14c80a	0.14529434
15	0x000382e0	3.22456e-40
16	0x3df3bec9	0.11901624
17	0x3d70ca3b	0.058786612
18	0x3d1859ab	0.03719489
19	0x0004bc6f	4.34939e-40
20	0x3da3a82e	0.07991062
21	0x0005fce7	5.49902e-40
22	0x3cfec52e	0.031099882
23	0x0002c3df	2.53936e-40
24	0x3dcbe48a	0.099557
25	0x8003400d	-2.98484e-40
26	0x000572d7	5.00374e-40
27	0x0005b2e5	5.23353e-40
28	0x3df52d6a	0.11971553
29	0x3a746cfb	0.00093241007
30	0x800056aa	-3.1089e-41
31	0x3dc2653b	0.094919644
32	0x3dd7d290	0.105382085
33	0xbc62a5e3	-0.013833496
34	0x3d3e3306	0.04643538
35	0x3dc75e1f	0.09734749
36	0xbc92881f	-0.017887173
37	0x3d9dd673	0.077069186
38	0x3db6a459	0.089180656
39	0x3caab73d	0.020839328
40	0x3d3fcc88	0.046825916
41	0x800357fe	-3.07072e-40
42	0x3e4a8bbb	0.19779865
43	0x0004f9f9	4.57015e-40
44	0x000557d8	4.9069e-40
45	0x3d4aa979	0.049478028
46	0x8004aa8c	-4.28523e-40
47	0x800555a6	-4.89902e-40
48	0xbdf4ac66	-0.11946945
49	0x3cc23d63	0.023710912
50	0x00012b1a	1.07297e-40
51	0xbc90fc49	-0.017698424
52	0xbbbc617b	-0.0057489253
53	0x3d586b44	0.05283667
54	0x3d625b3a	0.05526278
55	0x3d5f7218	0.054552168
56	0xbd6a2f38	-0.057173938
57	0xbe09307e	-0.13397405
58	0xbcd8f3ec	-0.026483499
59	0x8003153f	-2.83128e-40
60	0xbe60160c	-0.2188341
61	0x3dc41f46	0.095762774
62	0x80004f70	-2.8497e-41
63	0x3ce00987	0.027348293
64	0x3d46885c	0.048469886
65	0x3e6d5b4c	0.23179358
66	0xbc9fbbcb	-0.019498726
67	0x800218a8	-1.92516e-40
68	0x0002d40b	2.59738e-40
69	0x3e226a44	0.1586085
70	0xbe0da7cc	-0.1383354
71	0x80064cb1	-5.78525e-40
72	0xbe1d7c2e	-0.15379402
73	0x3d4bc17a	0.04974506
74	0x3cc677af	0.024226991
75	0x3df92dc8	0.12166935
76	0xbd341f2e	-0.043975048
77	0x3dc04c55	0.09389559
78	0x3d9da40a	0.076973036
79	0x3e1e934a	0.15485874
80	0x8005b52a	-5.24167e-40
81	0x3c9ea655	0.019366423
82	0x000280ba	2.2985e-40
83	0x80055c14	-4.92209e-40
84	0xbe66d796	-0.22543177
85	0x0002c3f3	2.53964e-40
86	0x3e2c1572	0.16805056
87	0x3d832cfd	0.06405065
88	0xbdb6e2bf	-0.08929967
89	0x8004c483	-4.37837e-40
90	0x8006c608	-6.22053e-40
91	0x0001d3a7	1.67762e-40
92	0x0005440c	4.83588e-40
93	0x80055e58	-4.93022e-40
94	0x0001ac7f	1.53715e-40
95	0x8005da5a	-5.37507e-40
96	0x8004c54a	-4.38116e-40
97	0x3e28a6ee	0.16469929
98	0x3e0630af	0.13104509
99	0xbe46b0d5	-0.19403394

model.encoder.layers.2.0.weight f4 [100, 100]
0	0xbcfd2703	-0.030902391
1	0xbc5bdd2d	-0.013419432
2	0x3ca82e00	0.020529747
3	0xbd9b6648	-0.07587868
4	0xbc4ff744	-0.01269323
5	0x3c07d92f	0.008291527
6	0x0003725c	3.16531e-40
7	0xbd80bf79	-0.062865205
8	0x3f563e9e	0.83689296
9	0xbd8bbfed	-0.06823716
10	0x0006d9b9	6.29117e-40
11	0x3bdc4d4f	0.006723083
12	0xbd8f7bb9	-0.0700602
13	0xbdaa28cb	-0.08308562
14	0xbda4e219	-0.08050937
15	0x8006442f	-5.75473e-40
16	0x3c58fd6d	0.013244015
17	0x3bf55c48	0.0074878074
18	0xbd1c41bf	-0.038148638
19	0x00058efa	5.10468e-40
20	0x3e628a74	0.22123128
21	0x000666cf	5.87894e-40
22	0x3d8c2936	0.06843798
23	0x8004d502	-4.43755e-40
24	0xb9c9f63d	-0.0003852117
25	0x0004881f	4.16173e-40
26	0x80002a5e	-1.5198e-41
27	0x0003346d	2.94313e-40
28	0xbc5716de	-0.013128011
29	0xbd84150f	-0.06449329
30	0x80062944	-5.65816e-40
31	0xbd800f04	-0.06252864
32	0x3f9820a5	1.1884962
33	0x3d6c02c3	0.05761982
34	0x3c216e2f	0.00985293
35	0xbd8d78c5	-0.069078006
36	0xbcaa4821	-0.020786347
37	0x3cdf5d1f	0.027266083
38	0xbb92de80	-0.0044820905
39	0xbd7d36ef	-0.061819967
40	0xbc941fd5	-0.018081585
41	0x00057305	5.00439e-40
42	0x3d1d87bb	0.03845952
43	0x0003ce2c	3.49467e-40
44	0x80053c41	-4.80793e-40
45	0xbd0923ee	-0.03348153
46	0x800567d3	-4.96423e-40
47	0x0000059e	2.015e-42
48	0x3f701a94	0.93790555
49	0xbd3582c2	-0.044314153
50	0x80050a3a	-4.62846e-40
51	0x3d4adc90	0.04952675
52	0xbcabb75a	-0.020961452
53	0xbc16d904	-0.009207014
54	0xbc4a7c60	-0.012358755
55	0xbbefdc60	-0.007319972
56	0xbbafd3fd	-0.005365847
57	0x3d8ab6ab	0.067731224
58	0x3c41eb00	0.0118358135
59	0x0004c3e1	4.3761e-40
60	0x3f3a1f39	0.7270389
61	0xbccc48ce	-0.02493706
62	0x000223d7	1.96528e-40
63	0x3d64ae28	0.05583015
64	0xbc172e97	-0.0092274165
65	0x3f04b3e5	0.51837
66	0xbd17746b	-0.03697626
67	0x80047ec3	-4.12816e-40
68	0x00064bdf	5.7823e-40
69	0x3f63dbee	0.8900746
70	0x3f0b493d	0.5440863
71	0x80038206	-3.2215e-40
72	0x3ecfdf2f	0.40599963
73	0x3c1fc1b8	0.009750776
74	0xbc775b8b	-0.015097509
75	0xbd889698	-0.066693485
76	0x3d1e596d	0.0386595
77	0xbcf76967	-0.030201627
78	0x3e50161b	0.20320933
79	0xbd8c66b5	-0.06855527
80	0x00063484	5.69852e-40
81	0xbb432024	-0.0029773796
82	0x8005a8b7	-5.19701e-40
83	0x80054221	-4.829e-40
84	0x3f3669a5	0.7125495
85	0x8000a55e	-5.9323e-41
86	0x3f498460	0.78717613
87	0x3d0f8f10	0.035048544
88	0x3ed6d363	0.4195815
89	0x00007a77	4.3932e-41
90	0x80056cd7	-4.98222e-40
91	0x8000d758	-7.7251e-41
92	0x8004e4d8	-4.49436e-40
93	0x000245ed	2.08756e-40
94	0x80049b1e	-4.22988e-40
95	0x80053dcc	-4.81346e-40
96	0x8005afcd	-5.22243e-40
97	0x3f6b7498	0.9197478
98	0x3f326035	0.6967805
99	0x3e77ad20	0.24187136
100	0xbd5e06e1	-0.05420578
101	0x3bbc9fb6	0.0057563437
102	0x3dd0cee2	0.1019571
103	0x3e06e008	0.13171399
104	0x3d322a39	0.043497298
105	0x3dc50059	0.09619207
106	0x80069f2d	-6.08114e-40
107	0x3d45079c	0.04810296
108	0xbd0c7efa	-0.03430078
109	0x3deaf902	0.11473276
110	0x80041c8e	-3.77585e-40
111	0xbcb7e13b	-0.022446265
112	0xbc52abf9	-0.012858384
113	0x3d0d8745	0.03455283
114	0x3c2564e0	0.010094851
115	0x0002234b	1.96332e-40
116	0xbd162b3b	-0.03666232
117	0xbd087d47	-0.0333226
118	0xbc67bc15	-0.014143963
119	0x80019225	-1.44262e-40
120	0x3e4e3aae	0.20139572
121	0x8002b373	-2.48045e-40
122	0x3d9344b8	0.071908414
123	0x00067116	5.9158e-40
124	0x3ddc729e	0.10764049
125	0x0001d6f9	1.68953e-40
126	0x8001d837	-1.69399e-40
127	0x0000441d	2.4434e-41
128	0x3de4b548	0.11167389
129	0x3d90f39d	0.070777155
130	0x000214a5	1.91077e-40
131	0xbe2b1bab	-0.16709773
132	0xbe675c30	-0.2259376
133	0xbd436222	-0.04770101
134	0x3d90df3a	0.07073827
135	0x3e05f3f5	0.13081343
136	0x3c892986	0.016743433
137	0xbc14825d	-0.009064284
138	0xbcf87138	-0.030327424
139	0x3d2ea97c	0.0426421
140	0x3d3bd155	0.04585393
141	0x000013de	7.127e-42
142	0x3dc113f4	0.09427634
143	0x8003f2b3	-3.6257e-40
144	0x000429de	3.82361e-40
145	0x3bafe7b8	0.005368199
146	0x800530c0	-4.76666e-40
147	0x00007f79	4.5729e-41
148	0xbe1b689f	-0.15176629
149	0x3d8f9e8f	0.070126645
150	0x00054d4f	4.8691e-40
151	0x3db6789e	0.08909725
152	0x3dc21b5c	0.09477875
153	0xbd63020e	-0.05542188
154	0x3ca10ce1	0.019659461
155	0xbd0aa0ee	-0.03384488
156	0x3de6480e	0.11244212
157	0xbcfacb1a	-0.030614424
158	0x3dbbdd92	0.091731206
159	0x0004a06b	4.24889e-40
160	0xbd9e7107	-0.07736402
161	0xbd58ab37	-0.05289766
162	0x000565f7	4.95756e-40
163	0xbd49fa46	-0.049310945
164	0x3c71f110	0.014766946
165	0x3e1fd012	0.15606716
166	0xbc9b3614	-0.018946685
167	0x8003851a	-3.23254e-40
168	0x0000bfea	6.8846e-41
169	0xbea7e1ee	-0.32789558
170	0xbc332441	-0.010933937
171	0x8004c489	-4.37846e-40
172	0x3df0eca5	0.11763886
173	0x3af18de2	0.0018429125
174	0xbc173c45	-0.009230678
175	0x3bc921d7	0.006138067
176	0x3cad285c	0.021137409
177	0x3d94ed7b	0.07271858
178	0x3e73b4d7	0.23799454
179	0x3d9718ec	0.073778
180	0x0005133a	4.66075e-40
181	0x3dad11f8	0.08450693
182	0x0004b5e9	4.32599e-40
183	0x000490bb	4.19261e-40
184	0xbdffbd57	-0.124872856
185	0x80055a8b	-4.91658e-40
186	0xbe3c61e5	-0.18396719
187	0x3d9c1774	0.07621661
188	0x3ebc016a	0.3671983
189	0x0004ccb1	4.40771e-40
190	0x0005d545	5.35684e-40
191	0x80049671	-4.2131e-40
192	0x00058638	5.07326e-40
193	0x00048c51	4.17678e-40
194	0x80025079	-2.12539e-40
195	0x000551e1	4.8855e-40
196	0x00047bf3	4.11807e-40
197	0xbe732cec	-0.23747605
198	0xbe12e001	-0.14343263
199	0xb820574c	-3.8228274e-05
200	0x3daeff4f	0.0854479
201	0xbcbf6ee2	-0.023368303
202	0x3e18dd06	0.14928064
203	0x3d615efd	0.05502223
204	0x3df7bcc8	0.12096554
205	0xbca896a0	-0.020579636
206	0x0006ae5a	6.13559e-40
207	0x3d5eb93b	0.05437587
208	0xbb872869	-0.0041246903
209	0x3c19b8cc	0.009382438
210	0x80048faa	-4.18879e-40
211	0x3e0589e6	0.13040885
212	0xbca823b7	-0.020524843
213	0x3d864647	0.06556373
214	0xb98e89ef	-0.0002718712
215	0x80049053	-4.19116e-40
216	0x3e048fd8	0.12945497
217	0x3d54d3c1	0.051959757
218	0x3e18cb04	0.14921194
219	0x8004f106	-4.53805e-40
220	0x3cea6cd7	0.028616352
221	0x0006a8fd	6.11635e-40
222	0x3dc276fc	0.09495351
223	0x80032d2a	-2.91708e-40
224	0x3dc9baaa	0.098500565
225	0x000498fa	4.2222e-40
226	0x800519e3	-4.68464e-40
227	0x8000f946	-8.9422e-41
228	0x3deb6bb6	0.114951536
229	0x3df4e4ab	0.119576775
230	0x0004aa95	4.28535e-40
231	0x3dc19a3b	0.09453245
232	0x3de1a7e5	0.110183515
233	0xbced8cf2	-0.028997872
234	0xbcdcef57	-0.026969595
235	0x3e14ae6b	0.1451966
236	0x3df3b930	0.11900556
237	0xbcf93862	-0.030422393
238	0xbbcc6e92	-0.006238767
239	0x3d215287	0.039385345
240	0x3d9b57fc	0.07585141
241	0x80045087	-3.9623e-40
242	0x3d4da0f8	0.05020234
243	0x0006c6f9	6.22391e-40
244	0x0001f587	1.79914e-40
245	0x3dbbacd9	0.091638274
246	0x00059ced	5.15472e-40
247	0x0005a8eb	5.19774e-40
248	0xbd10ba26	-0.035333775
249	0xbb66588e	-0.0035147998
250	0x00027a19	2.27471e-40
251	0x3d180e2d	0.037122894
252	0x3cb02d22	0.021505896
253	0x3d46fa2e	0.048578434
254	0x3e11cec6	0.14239034
255	0x3c9b84e9	0.018984275

model.encoder.layers.2.0.bias f4 [100]
0	0x3d9f1b0d	0.077688314
1	0x3d997886	0.07493691
2	0x3d6083ea	0.054813303
3	0x00014fcd	1.20463e-40
4	0x0006d4d8	6.27367e-40
5	0xbd5017ff	-0.050804134
6	0x000008a3	3.098e-42
7	0xbca74e15	-0.020422975
8	0x3e013a81	0.12619974
9	0x000013b2	7.065e-42
10	0x800034be	-1.892e-41
11	0xbdb0d146	-0.08633666
12	0x3d4fe873	0.05075879
13	0xbd343730	-0.043997943
14	0x800567c4	-4.96402e-40
15	0x00031d72	2.8607e-40
16	0x800335ee	-2.94853e-40
17	0x3d6333df	0.05546939
18	0x3d38b83f	0.045097586
19	0x3d31b789	0.043387923
20	0x3d7365e8	0.059423357
21	0xbc8a3c60	-0.016874492
22	0x3c81db6e	0.015851703
23	0x3bced00f	0.0063114236
24	0x8000df0d	-8.0016e-41
25	0x0005cb8b	5.32195e-40
26	0x000447f6	3.93157e-40
27	0x3d44b03c	0.048019633
28	0xbdd8f755	-0.1059405
29	0x3cf9758a	0.030451555
30	0x3db89617	0.09013002
31	0xbc8bfe08	-0.017088905
32	0x000322a1	2.87929e-40
33	0x3a2987c3	0.00064670685
34	0x3da3c701	0.07996941
35	0x000185e9	1.39873e-40
36	0x800335a1	-2.94745e-40
37	0x8006614b	-5.85915e-40
38	0xbd08d6ed	-0.033408094
39	0x3cfadff3	0.030624365
40	0x3cb984d0	0.022646338
41	0x000184cc	1.39474e-40
42	0x00004cbe	2.753e-41
43	0x3d9cbec6	0.07653575
44	0x3d001f1a	0.03127966
45	0x3dd6e5b5	0.10493032
46	0x00014fa8	1.20411e-40
47	0xbbe1785e	-0.006880804
48	0x80029664	-2.37621e-40
49	0x3c7e90bb	0.015537436
50	0x800539f6	-4.7997e-40
51	0xbd8acc2e	-0.067772254
52	0x800365db	-3.12045e-40
53	0x80034a62	-3.0219e-40
54	0x3d86e3e7	0.06586438
55	0x8004de70	-4.47138e-40
56	0x8001406f	-1.1495e-40
57	0x00055827	4.908e-40
58	0xbc888fd0	-0.016670138
59	0x80032f36	-2.92443e-40
60	0x800156be	-1.22953e-40
61	0x80059ac9	-5.14704e-40
62	0xbb1ca2d1	-0.0023900757
63	0xbd29e377	-0.041476693
64	0x3dab1415	0.0835344
65	0x80007a22	-4.3813e-41
66	0xbd2a84c8	-0.041630536
67	0x3d4bc93f	0.04975247
68	0x00054cc7	4.8672e-40
69	0x8001431c	-1.1591e-40
70	0x8002498f	-2.10059e-40
71	0x00057211	5.00097e-40
72	0x00054ce3	4.86759e-40
73	0x000428db	3.81998e-40
74	0x0003ffcb	3.67268e-40
75	0x3dafc1db	0.08581897
76	0xbccc9c07	-0.024976743
77	0xbd81f8f8	-0.06346315
78	0xbd6d4215	-0.05792435
79	0xbd96a737	-0.073561125
80	0x0006a7a9	6.11158e-40
81	0x3d297189	0.04136804
82	0xbdafda62	-0.08586575
83	0x8004c1aa	-4.36816e-40
84	0x0003521a	3.04959e-40
85	0xbd149fb2	-0.03628511
86	0x80067521	-5.93031e-40
87	0x000602e9	5.52057e-40
88	0x3d51a108	0.051178962
89	0xbb632cc8	-0.0034664143
90	0x3ccac64c	0.024752758
91	0x3d7ab850	0.06121093
92	0xbca7160a	-0.020396251
93	0x000226bf	1.9757e-40
94	0x3d2341e5	0.039857764
95	0x3c889dd3	0.016676819
96	0x00049c43	4.23398e-40
97	0x3dd47786	0.1037436
98	0x3a20f5e3	0.00061401556
99	0xbd1ec89f	-0.038765546

model.encoder.layers.3.weight f4 [10, 100]
0	0x800370f0	-3.16021e-40
1	0x00018505	1.39554e-40
2	0x000431e5	3.85241e-40
3	0x8006689c	-5.8854e-40
4	0x80039ece	-3.32475e-40
5	0x80052a71	-4.74403e-40
6	0x000105b9	9.3888e-41
7	0x8005f205	-5.45998e-40
8	0x8003b90d	-3.4189e-40
9	0x800071d1	-4.083e-41
10	0x00056fc9	4.99278e-40
11	0x0005c978	5.31451e-40
12	0x80049e08	-4.24033e-40
13	0x00056f4d	4.99105e-40
14	0x8004522a	-3.96817e-40
15	0x8002d9e1	-2.61831e-40
16	0x80069f58	-6.08175e-40
17	0x80009720	-5.4213e-41
18	0x0005afa7	5.2219e-40
19	0x800665ab	-5.87485e-40
20	0x80047a9c	-4.11326e-40
21	0x8004e762	-4.50346e-40
22	0x00056328	4.94748e-40
23	0x0004e45d	4.49263e-40
24	0x00064fff	5.7971e-40
25	0x0006c5d6	6.21983e-40
26	0x0001f8e3	1.81119e-40
27	0x00054e06	4.87167e-40
28	0x80052baa	-4.74841e-40
29	0x0006081e	5.53925e-40
30	0x80056ce0	-4.98234e-40
31	0x80016a38	-1.2994e-40
32	0x800584b1	-5.06778e-40
33	0x80045c77	-4.00512e-40
34	0x8006cc02	-6.24197e-40
35	0x00036b21	3.13937e-40
36	0x800401b6	-3.67956e-40
37	0x0005b382	5.23573e-40
38	0x80047977	-4.10915e-40
39	0x8005657f	-4.95587e-40
40	0x8005fd17	-5.49969e-40
41	0x00059327	5.11966e-40
42	0x00055caa	4.92419e-40
43	0x8005619c	-4.94193e-40
44	0x00021675	1.91727e-40
45	0x00058a71	5.08841e-40
46	0x00017df6	1.37022e-40
47	0x800328db	-2.90163e-40
48	0x0001f7d6	1.80742e-40
49	0x0001352c	1.1091e-40
50	0x0005bdca	5.27261e-40
51	0x000380d9	3.21728e-40
52	0x8001922b	-1.4427e-40
53	0x800424e9	-3.80583e-40
54	0x80064de0	-5.78949e-40
55	0x8005bb4e	-5.2637e-40
56	0x00065483	5.8133e-40
57	0x00018bef	1.42034e-40
58	0x0003a63d	3.35142e-40
59	0x00053567	4.78335e-40
60	0x0003619c	3.10522e-40
61	0x8002ef0f	-2.69429e-40
62	0x0001d587	1.68435e-40
63	0x8000fa7a	-8.9854e-41
64	0x8000b030	-6.3204e-41
65	0x000597d5	5.13645e-40
66	0x800349c8	-3.01974e-40
67	0x8000bbbf	-6.735e-41
68	0x800557ec	-4.90718e-40
69	0x80003ef2	-2.258e-41
70	0x800623d6	-5.63868e-40
71	0x0006d020	6.25674e-40
72	0x800409b6	-3.70826e-40
73	0x80046fa7	-4.07395e-40
74	0x80020c71	-1.88134e-40
75	0x00038e3a	3.26528e-40
76	0x80056f0b	-4.99012e-40
77	0x80067e55	-5.96332e-40
78	0x8005050c	-4.60988e-40
79	0x000636b8	5.70642e-40
80	0x00017442	1.33541e-40
81	0x8005f200	-5.45991e-40
82	0x00053bda	4.80648e-40
83	0x8005c017	-5.28086e-40
84	0x00054600	4.84289e-40
85	0x00028827	2.32513e-40
86	0x0005e7e2	5.42361e-40
87	0x00034232	2.99253e-40
88	0x8005a4b4	-5.18262e-40
89	0x8004f8f6	-4.56652e-40
90	0x00033b17	2.96704e-40
91	0x80042200	-3.79539e-40
92	0x000521ca	4.71299e-40
93	0x0005b95c	5.25672e-40
94	0x8006c977	-6.23285e-40
95	0x0000b8cf	6.6297e-41
96	0x800327ed	-2.89829e-40
97	0x8005757b	-5.01322e-40
98	0x00001033	5.811e-42
99	0x80057b26	-5.03355e-40
100	0xbe35b13c	-0.17743391
101	0xbb3364ef	-0.0027373394
102	0x3e06af31	0.13152768
103	0x0002035a	1.84873e-40
104	0x0005e3ea	5.40938e-40
105	0x3e1937cd	0.14962693
106	0x80043aab	-3.88388e-40
107	0x3ee4e879	0.44708613
108	0xbd8db93d	-0.06920097
109	0x0002b677	2.49127e-40
110	0x8005fce1	-5.49893e-40
111	0x3dcbd69a	0.099530414
112	0x3d86c05b	0.06579658
113	0x3d6d7f9f	0.057983037
114	0x80054ce0	-4.86755e-40
115	0x8004c413	-4.3768e-40
116	0x00052cb9	4.75221e-40
117	0x3e208e8b	0.15679376
118	0xbdff9f4e	-0.12481557
119	0xbe820fff	-0.2540283
120	0x3e2aa615	0.16664918
121	0x3e1622a2	0.14661649
122	0x3dd2820a	0.10278709
123	0x3da32f3f	0.07967996
124	0x8006d7d7	-6.28442e-40
125	0x0005585b	4.90873e-40
126	0x0000da43	7.8298e-41
127	0x3e3e58d6	0.18588576
128	0x3e2ebcb8	0.17064178
129	0x3db4414a	0.088015154
130	0x3db6c771	0.08924759
131	0x3e51bbf4	0.20481855
132	0x00034980	3.01873e-40
133	0x3e0f87c1	0.1401663
134	0x3e1c36de	0.15255305
135	0x800350b5	-3.04459e-40
136	0x00005ceb	3.3333e-41
137	0x80053c26	-4.80755e-40
138	0x3dabe7cf	0.08393823
139	0x3d1b0b89	0.037852798
140	0x3e28e890	0.16494966
141	0x00020986	1.87087e-40
142	0x00052f98	4.76251e-40
143	0x3df3d27c	0.11905381
144	0x3e0d838b	0.13819711
145	0x3e2c1cb8	0.1680783
146	0x8004263b	-3.81056e-40
147	0x3e49c1c9	0.1970283
148	0x8001ce47	-1.65834e-40
149	0xbea9af3c	-0.33141506
150	0x00048fd4	4.18938e-40
151	0x3e1b8398	0.15186918
152	0x800232a2	-2.01835e-40
153	0x800199fe	-1.47077e-40
154	0x3e01f2cd	0.12690277
155	0x0005722e	5.00137e-40
156	0x8005692c	-4.96906e-40
157	0x8005d24b	-5.34616e-40
158	0x3e02fc91	0.12791659
159	0x8005e398	-5.40823e-40
160	0x00007bfe	4.448e-41
161	0x000560cf	4.93906e-40
162	0x3e274bb3	0.1633747
163	0xbd435c94	-0.04769571
164	0x3dfdf53e	0.12400292
165	0x8005572f	-4.90453e-40
166	0x3dcc2919	0.09968776
167	0x3e1367e4	0.143951
168	0x0004a16c	4.25249e-40
169	0x80039b33	-3.31181e-40
170	0x0002b108	2.47178e-40
171	0x80053b7c	-4.80516e-40
172	0x8004d803	-4.44832e-40
173	0x0005cb02	5.32003e-40
174	0x8004e083	-4.47882e-40
175	0x3db17ea1	0.08666731
176	0x3e8a20a9	0.26978043
177	0x3e17d38b	0.14826791
178	0xbe7997fd	-0.24374385
179	0x3e30fdc1	0.172843
180	0x00059cbb	5.15402e-40
181	0x3df7b619	0.12095279
182	0x3e9a45d5	0.30131403
183	0x8003fb0a	-3.65562e-40
184	0x8004066c	-3.69646e-40
185	0x3e1e1f05	0.1544152
186	0x0002a901	2.44298e-40
187	0x800023b9	-1.2815e-41
188	0x3e38d9c1	0.18051817
189	0x3e20cb20	0.15702486
190	0xbedb5b2c	-0.42842996
191	0x3e22496d	0.15848322
192	0x3e395484	0.18098646
193	0x80017718	-1.34558e-40
194	0x3de63972	0.112414256
195	0x3bb1b61b	0.00542332
196	0x00017b6d	1.36112e-40
197	0x3dda477b	0.10658165
198	0xbefb1926	-0.49042624
199	0x3e35022e	0.17676613
200	0x000546bd	4.84554e-40
201	0x8004c11b	-4.36615e-40
202	0x0000e324	8.1483e-41
203	0x0000eedf	8.5691e-41
204	0x00049eb2	4.24271e-40
205	0x8000f00e	-8.6115e-41
206	0x00004ee4	2.83e-41
207	0x80011a2d	-1.01226e-40
208	0x8005e678	-5.41854e-40
209	0x00022008	1.95162e-40
210	0x0005c105	5.2842e-40
211	0x00055fe7	4.93581e-40
212	0x0004030d	3.68436e-40
213	0x00009b9c	5.5822e-41
214	0x000278f5	2.27062e-40
215	0x8004f515	-4.55261e-40
216	0x80053fff	-4.82135e-40
217	0x8004f772	-4.56109e-40
218	0x8005c17f	-5.28591e-40
219	0x00051936	4.68221e-40
220	0x00027013	2.23876e-40
221	0x0001bfcc	1.60639e-40
222	0x80001c5e	-1.0176e-41
223	0x80014f1d	-1.20216e-40
224	0x00048bd7	4.17507e-40
225	0x800576d7	-5.01809e-40
226	0x8004d0b5	-4.42212e-40
227	0x0000f5be	8.8156e-41
228	0x80069b09	-6.06629e-40
229	0x00062412	5.63953e-40
230	0x80068bdc	-6.01185e-40
231	0x00054b92	4.86287e-40
232	0x8000ad6f	-6.2216e-41
233	0x80008622	-4.8118e-41
234	0x0005836a	5.0632e-40
235	0x0004a3e8	4.2614e-40
236	0x000334e4	2.9448e-40
237	0x8005ec37	-5.43915e-40
238	0x80019f69	-1.49021e-40
239	0x00059285	5.11739e-40
240	0x0006029e	5.51952e-40
241	0x00068c9e	6.01457e-40
242	0x00051bec	4.69194e-40
243	0x0004c86d	4.39241e-40
244	0x0001ff8a	1.83506e-40
245	0x0003b205	3.39368e-40
246	0x8003935e	-3.28372e-40
247	0x0002af7d	2.46624e-40
248	0x800554c9	-4.89593e-40
249	0x000569dc	4.97153e-40
250	0x80068483	-5.98549e-40
251	0x00059d5f	5.15632e-40
252	0x80024747	-2.0924e-40
253	0x80060835	-5.53957e-40
254	0x0001546e	1.22123e-40
255	0x0004bf49	4.35962e-40

model.encoder.layers.3.bias f4 [10]
0	0x800408b8	-3.7047e-40
1	0x3e1a12a2	0.1504617
2	0x000297af	2.38085e-40
3	0x000619d5	5.6028e-40
4	0x3d1955ab	0.037435215
5	0x3dbf51c7	0.0934177
6	0x00051282	4.65817e-40
7	0x3dad6d35	0.08468095
8	0x80068ae0	-6.00832e-40
9	0x0001342d	1.10553e-40

model.predictor_linear.0.weight f4 [1, 10]
0	0x38d73a3f	0.00010262848
1	0xbe85ba73	-0.26118812
2	0x3d8238d9	0.06358499
3	0x3d450de2	0.048108943
4	0x3a98f085	0.001166836
5	0x3e89ac97	0.26889488
6	0x3d05ee78	0.032698125
7	0x3e8efd6b	0.27927718
8	0xbcceaaa0	-0.025227845
9	0xbc28b02e	-0.010295911

exp_avg f4 [100, 1]
0	0xbcbcf7bb	-0.023067346
1	0x3a48cc99	0.0007659882
2	0x3a5f4f32	0.0008518576
3	0x3a333a51	0.0006836998
4	0x3a01c269	0.0004949929
5	0x3a1e303e	0.00060344103
6	0x3a8219e9	0.0009925935
7	0x3a4e10ce	0.00078607805
8	0x39bbad9a	0.00035796763
9	0x3a53e34f	0.0008082883
10	0xbbefd198	-0.0073186867
11	0xbab7e20c	-0.0014029159
12	0x3a39abaf	0.0007082773
13	0xba4bcf01	-0.00077746814
14	0xb877d2df	-5.9085778e-05
15	0xb8dcdda3	-0.000105317005
16	0x3a3da0bd	0.00072337297
17	0xba0b0add	-0.0005304048
18	0xbaac6ac0	-0.0013154373
19	0xbb334e07	-0.002735974
20	0xb83fcabd	-4.5726763e-05
21	0x38d3d8f3	0.00010101674
22	0x39bfcd1c	0.00036583177
23	0x398a1135	0.0002633423
24	0x39d67469	0.00040903993
25	0x3a38aa38	0.00070444075
26	0x39bd00d1	0.00036049497
27	0xb9a2c046	-0.00031042303
28	0x39e415d5	0.00043503815
29	0x3a59fa0a	0.0008315152
30	0x3a06e21f	0.0005145389
31	0x39fa50b7	0.00047743853
32	0xb991eee5	-0.00027834545
33	0xb869df28	-5.575936e-05
34	0x39450065	0.00018787531
35	0x39167fd6	0.00014352737
36	0xb9913b06	-0.0002770053
37	0x394ead5d	0.00019710274
38	0x39a7c041	0.00031995962
39	0x3a093ae6	0.0005234912
40	0x3a08d37e	0.0005219503
41	0x3a1bc620	0.00059423037
42	0x3a0a7fa3	0.00052833016
43	0x3a2e9dff	0.00066611165
44	0x3a01e221	0.00049546553
45	0x3a019147	0.00049426075
46	0x3a0607e4	0.000511287
47	0xba23aba2	-0.0006243532
48	0x3a1bfdec	0.0005950618
49	0x39d26106	0.0004012661
50	0x3a0aa5b3	0.00052889733
51	0xb9548e45	-0.00020270895
52	0x3a132b85	0.000561409
53	0xb8139a8a	-3.5191457e-05
54	0x3a0e22d0	0.00054220576
55	0x39b91422	0.0003530095
56	0x3a104332	0.0005503177
57	0x3a022c92	0.0004965748
58	0x3a0a9809	0.0005286937
59	0x399d0b1d	0.00029953654
60	0x398a2593	0.00026349406
61	0xba776fef	-0.00094389817
62	0xba18a943	-0.0005823562
63	0xb97c1fff	-0.00024044512
64	0x39ab5163	0.000326763
65	0x395dd1c9	0.00021154353
66	0x39da5b02	0.00041648006
67	0x3a1005e6	0.0005494043
68	0x39cecc1c	0.00039443455
69	0x3a04454c	0.00050457264
70	0x39bff07d	0.00036609537
71	0x394c50c9	0.00019485051
72	0x3a031f0f	0.00050018815
73	0xb98a52ad	-0.0002638301
74	0x39a8fb29	0.00032230586
75	0x39ceb7de	0.00039428374
76	0x39957f7f	0.00028514487
77	0x39e36c3c	0.00043377455
78	0x39bb7310	0.00035753148
79	0x394eb447	0.0001971285
80	0x3a3f33cf	0.0007293792
81	0x3a4ab1a0	0.00077321567
82	0x3a22bb1b	0.00062076905
83	0xb9956357	-0.0002849351
84	0x3a2f7abc	0.0006694009
85	0x3a249ce0	0.000627948
86	0x3a3e7954	0.0007266004
87	0x3967e4d1	0.00022115117
88	0x3a1591c4	0.00057056197
89	0x3a011c4b	0.00049251755
90	0xba6b931d	-0.000898646
91	0xb9febc00	-0.00048586726
92	0xb99991c7	-0.00029291047
93	0xbb3cce82	-0.0028809612
94	0xbb661ff6	-0.0035114265
95	0xbad028f8	-0.001588135
96	0xba5d35e5	-0.0008438512
97	0xbb826958	-0.003979843
98	0xba9152af	-0.0011087264
99	0xba332fff	-0.000683546

exp_avg_sq f4 [100, 1]
0	0x3b72637b	0.0036985565
1	0x35debd96	1.6595466e-06
2	0x368ae970	4.139896e-06
3	0x368b0727	4.1433555e-06
4	0x372a752d	1.0160072e-05
5	0x36801e8f	3.8182548e-06
6	0x3779399f	1.48549725e-05
7	0x362f268d	2.6099472e-06
8	0x37c4ab29	2.3444723e-05
9	0x36c4c93f	5.8646833e-06
10	0x396a0dac	0.00022321072
11	0x374a6e2b	1.2065789e-05
12	0x35ffe614	1.9065942e-06
13	0x36e6cf79	6.878687e-06
14	0x35def52a	1.6611641e-06
15	0x36db3a1c	6.5334734e-06
16	0x3651f21d	3.1284355e-06
17	0x36d0ed5c	6.2265153e-06
18	0x3722728e	9.682624e-06
19	0x37f38a6b	2.9032313e-05
20	0x35a42767	1.223042e-06
21	0x353fdb9a	7.1472607e-07
22	0x3502f33d	4.878273e-07
23	0x356f200b	8.9081067e-07
24	0x34ca7058	3.7707173e-07
25	0x362c9e04	2.5721974e-06
26	0x34eef1d6	4.4506913e-07
27	0x36162fb6	2.2379513e-06
28	0x35054984	4.965334e-07
29	0x358ae000	1.0346994e-06
30	0x34dcf0cb	4.1153393e-07
31	0x34ed50b6	4.4203415e-07
32	0x367af71b	3.7396737e-06
33	0x3600a938	1.9171985e-06
34	0x36399ab4	2.7657197e-06
35	0x35d02d2f	1.5510358e-06
36	0x368e2d26	4.2371857e-06
37	0x361a2dbc	2.297441e-06
38	0x35da235e	1.6252559e-06
39	0x350edf0f	5.3223715e-07
40	0x360dfdc1	2.1158341e-06
41	0x36022e56	1.939848e-06
42	0x362d394d	2.5812362e-06
43	0x35299c9b	6.3185297e-07
44	0x357f5b58	9.5127825e-07
45	0x361c0311	2.3247596e-06
46	0x350d9a4d	5.275113e-07
47	0x375e424e	1.3247669e-05
48	0x35a70eab	1.2446739e-06
49	0x36b63bea	5.4309976e-06
50	0x34d64f44	3.991828e-07
51	0x371c4abe	9.315727e-06
52	0x351191a3	5.422864e-07
53	0x363d6b0e	2.8225509e-06
54	0x3533ba22	6.6953555e-07
55	0x359d1399	1.1703115e-06
56	0x34cd443c	3.8233873e-07
57	0x35086d46	5.082296e-07
58	0x357650b4	9.175958e-07
59	0x3584f70c	9.906666e-07
60	0x353f05a3	7.116125e-07
61	0x36816609	3.856378e-06
62	0x36b4c4e0	5.3873373e-06
63	0x364ea581	3.0792728e-06
64	0x34df0280	4.1538806e-07
65	0x3593f0b5	1.1022408e-06
66	0x3509302e	5.110659e-07
67	0x35568c0c	7.992501e-07
68	0x3509a307	5.1273713e-07
69	0x34c3b4a1	3.6453005e-07
70	0x3516a238	5.6115414e-07
71	0x3630750f	2.629418e-06
72	0x351a7095	5.75333e-07
73	0x3764c174	1.3634901e-05
74	0x3587cb7d	1.0117507e-06
75	0x360bcb97	2.083112e-06
76	0x3610dc22	2.1585806e-06
77	0x34d3ed69	3.947455e-07
78	0x3642f072	2.904821e-06
79	0x36b550bb	5.4036186e-06
80	0x36992137	4.563622e-06
81	0x369da2ad	4.6979026e-06
82	0x357fa202	9.5230655e-07
83	0x360dbf0d	2.1121843e-06
84	0x374b55d8	1.211973e-05
85	0x37fc50e8	3.0078416e-05
86	0x36559009	3.1823313e-06
87	0x354fb6cd	7.737952e-07
88	0x35943116	1.1041145e-06
89	0x34db323b	4.0828476e-07
90	0x36fc9c93	7.528413e-06
91	0x36ce2432	6.143492e-06
92	0x36a3a8df	4.8774377e-06
93	0x37eba07c	2.8088914e-05
94	0x3849c245	4.8103062e-05
95	0x3786800c	1.6033671e-05
96	0x3720aaec	9.576539e-06
97	0x381031d1	3.437867e-05
98	0x36fb488f	7.48883e-06
99	0x37377075	1.0933833e-05
