logs/l1_coef-0.01/version_1/checkpoints/epoch=2009-step=2010.ckpt (torch, 518107 bytes, 30 tensors)

model.pi f4 [100, 1]
000000 7a 08 0e 3f 21 52 0e 3f 09 c6 0a 3f 0d 1e 0a 3f
       0.55481684 0.5559407 0.5420843 0.53952104
000010 97 e9 e7 3e 0a 38 0b 3f 51 9c 03 3f 71 ac 11 3f
       0.45295402 0.54382384 0.51410395 0.5690375
000020 e5 a6 03 3f 5e 92 11 3f 3e ec 18 3f 7a e5 11 3f
       0.51426536 0.56863964 0.59735477 0.5699078
000030 9b bd 01 3f 31 26 0b 3f 08 e8 c1 3e b3 17 06 3f
       0.5067994 0.5435515 0.37872338 0.5237991
000040 9d 4c d7 3e b0 c0 04 3f 3b 4e 12 3f c5 17 0d 3f
       0.4205064 0.5185652 0.5715062 0.55114394
000050 c3 58 e6 3e 7f 5b e5 3e b8 bd d6 3e 8b 9c d3 3e
       0.44989595 0.44796368 0.4194162 0.4133037
000060 b5 5a e7 3e 39 ce ba 3e d0 79 d9 3e 47 db dc 3e
       0.4518639 0.3648546 0.42475748 0.43136045
000070 b5 17 d7 3e 78 e7 b0 3e db f0 d7 3e 05 d0 b1 3e
       0.42010275 0.34551597 0.42175946 0.3472902
000080 7a 28 f4 3e 57 26 de 3e d2 9f d4 3e a1 6e b2 3e
       0.4768713 0.43388626 0.41528183 0.34850028
000090 f3 3d 01 3f 72 02 e8 3e 43 2b b5 3e 9b 59 b5 3e
       0.5048515 0.45314366 0.3538457 0.35419926
0000a0 45 b3 cd 3e 11 b7 b5 3e d4 5d c4 3e 30 cc b0 3e
       0.40175834 0.3549123 0.38352835 0.34530783
0000b0 1e 87 a8 3e f2 7c c3 3e 68 f8 b7 3e 4f 32 ec 3e
       0.32915586 0.38181263 0.35931706 0.46132132
0000c0 c9 aa aa 3e 9f 1a ee 3e 0a 40 b6 3e 9a 9c f0 3e
       0.33333424 0.46504685 0.35595733 0.46994478
0000d0 c6 df cb 3e f9 80 d6 3e 24 48 be 3e ce 43 c6 3e
       0.39819163 0.41895273 0.37164414 0.38723606
0000e0 63 e0 af 3e 69 c2 b8 3e d8 0a b0 3e c4 ce b5 3e
       0.3435088 0.36085823 0.34383273 0.35509312
0000f0 46 3f bd 3e 06 c1 09 3f 61 c3 f0 3e c1 aa f7 3e
       0.36962336 0.53810155 0.47024062 0.48372462
000100 d3 8d ad 3e c8 44 b2 3e fa 03 af 3e 47 08 b1 3e
       0.33897266 0.348181 0.3418272 0.34576628
000110 51 5e b2 3e 33 cf a8 3e cd 70 d8 3e 2f 3c d6 3e
       0.34837583 0.3297058 0.4227356 0.4184279
000120 a2 e8 e3 3e 1c 4b a6 3e fc 85 cc 3e ec 9c c2 3e
       0.44513422 0.3247918 0.39945972 0.38010347
000130 fc c3 f9 3e 23 52 f4 3e 31 20 ca 3e 0b 5a d6 3e
       0.48782337 0.47718915 0.39477685 0.41865572
000140 2f 6e ae 3e 02 00 b8 3e 76 95 a9 3e 22 a2 f6 3e
       0.34068438 0.35937506 0.33121842 0.48170573
000150 dc b3 d8 3e f5 d4 d4 3e 8d 4a c1 3e 47 9a d3 3e
       0.42324722 0.41568723 0.3775219 0.41328642
000160 51 3f c4 3e 56 23 c1 3e a9 41 09 3f 96 59 08 3f
       0.38329557 0.37722272 0.53615814 0.532617
000170 84 01 01 3f 35 5d 0a 3f 91 63 0b 3f d4 23 0c 3f
       0.5039294 0.5404847 0.544488 0.5474217
000180 de ba 06 3f d1 09 0f 3f 62 d9 07 3f 07 64 fc 3e
       0.52628887 0.55874354 0.53066075 0.49295065

model.encoder.layers.0.weight f4 [100, 100]
000000 70 ca cb 3c 78 d8 d2 3c d6 64 af 3c c4 06 b3 3c
       0.024876803 0.025737986 0.021410387 0.021853812
000010 9a 5c 23 3c 8c 5a b2 3c 89 e5 8a 3c bd 33 d8 3c
       0.009970808 0.021771692 0.016955154 0.026391858
000020 5f f9 50 3c f0 ff fe 3c d5 ef 49 bd 37 f5 15 bd
       0.012754767 0.0311279 -0.049300987 -0.03661081
000030 3c 58 01 bd 25 c5 07 bd 39 54 e6 bb 4d ed 02 bd
       -0.031578287 -0.033146996 -0.007029083 -0.03196459
000040 7e c9 84 bc d8 0a e2 bc 0b e3 2e bd 1c e5 10 bd
       -0.01620936 -0.027593061 -0.042696994 -0.035374746
000050 62 2e 5e bc 7f df 80 bc 98 4f 25 bc 9d cf d8 bb
       -0.013560863 -0.015731571 -0.010089777 -0.0066165463
000060 d2 ae 6d bc 75 78 ce 3a 3b 62 14 bc b7 32 27 bc
       -0.014507012 0.0015752452 -0.009056623 -0.010204962
000070 fb d5 14 bc 57 51 a0 3b f9 ed 07 3c d2 8d a3 b9
       -0.00908422 0.004892509 0.008296483 -0.00031195447
000080 50 53 7a 3c bb f0 33 3c c2 34 02 3c d1 fb 4e 3b
       0.015278652 0.010982688 0.007947149 0.00315832
000090 10 b9 a4 3c 1e e3 57 3c aa 6d c2 bb 02 ea d0 3a
       0.020107776 0.013176708 -0.005933483 0.001593888
0000a0 e9 c4 e6 3b dd 34 06 3b ea cd 9b 3b 45 20 76 bb
       0.0070425165 0.0020478286 0.0047547715 -0.0037555855
0000b0 9b 28 9e b9 0f a7 a6 3b ec c1 9f ba 02 b6 87 3c
       -0.00030166362 0.005085833 -0.001218853 0.01656628
0000c0 52 d2 a8 ba bf a1 83 3c e0 09 03 bb 66 5f b9 bc
       -0.0012880063 0.016068337 -0.00199949 -0.022628497
0000d0 35 de 08 bc 77 0f 3c 3c 1b 5e d4 bb 11 1e 1d 3c
       -0.00835376 0.0114782965 -0.006480945 0.009589688
0000e0 06 66 a4 b9 f0 ba 58 bb c0 80 2f 3b 78 76 60 3b
       -0.0003135653 -0.0033070408 0.0026779622 0.00342503
0000f0 52 01 ff 3b f0 18 ad 3c c7 95 74 3c 2b 0d 8c 3c
       0.00778214 0.021130055 0.014928288 0.017096123
000100 52 9c ab b9 72 9c 7a 3b 12 7a b3 ba 2f 77 2d bb
       -0.0003273213 0.0038240221 -0.0013692996 -0.0026468744
000110 07 6a c2 3b 3f 67 eb ba 09 16 2c bc 6e 27 2a bc
       0.0059330496 -0.0017959847 -0.0105033 -0.010385377
000120 8d fb 5b bc ad 22 b8 3a 03 10 04 bc 8f 27 af bb
       -0.013426674 0.001404842 -0.008060458 -0.005345292
000130 c9 4a a8 bc fe 80 99 bc 0d e5 cf bb 9b 0b 17 bc
       -0.020543473 -0.018738266 -0.0063444437 -0.009219076
000140 5a c9 e0 ba b7 8c ae bb 63 44 f5 ba 7f d5 87 3c
       -0.0017149851 -0.005326833 -0.0018712397 0.016581295
000150 74 1e 43 bc 2f 21 3e bc 04 64 a9 ba e8 85 d9 3b
       -0.011909116 -0.011604591 -0.0012923484 0.0066382773
000160 77 1c dc bb ba cb 97 3b 86 13 82 3c 64 cc 81 3c
       -0.0067172605 0.0046324404 0.01587845 0.015844531
000170 d9 a8 09 3c a6 94 8e 3c 93 7e 9b 3c 3a 59 94 3c
       0.008402073 0.017404865 0.018981254 0.018108953
000180 3f a7 74 3c 88 c5 c7 3c df c2 82 3c a2 98 ee 3b
       0.014932453 0.024386182 0.015962062 0.007281379
000190 98 2d cc 3c a4 37 d3 3c b0 ca af 3c 98 6a b3 3c
       0.024924085 0.025783367 0.021458954 0.021901414
0001a0 b1 2e 24 3c 61 c4 b2 3c 55 4e 8b 3c d4 99 d8 3c
       0.010020898 0.021822156 0.017005125 0.026440538
0001b0 98 c7 51 3c 9a 5e ff 3c e9 11 4a bd b8 17 16 bd
       0.0128039345 0.03117304 -0.049333487 -0.036643714
0001c0 80 7d 01 bd e4 e5 07 bd 25 68 e7 bb c6 0f 03 bd
       -0.031613827 -0.033178225 -0.0070619755 -0.031997465
0001d0 2b 13 85 bc 45 58 e2 bc 07 04 2f bd b6 07 11 bd
       -0.016244492 -0.02762998 -0.04272845 -0.035407744
0001e0 1e bd 5e bc e3 24 81 bc 1d e0 25 bc a0 eb d9 bb
       -0.013594894 -0.01576466 -0.010124234 -0.006650403
0001f0 1e 36 6e bc c3 e0 c9 3a c9 e5 14 bc 8e b8 27 bc
       -0.01453927 0.0015402067 -0.009087988 -0.010236872
000200 be 68 15 bc 8b 0d a0 3b cd bf 08 3c 1b 40 87 b9
       -0.009119211 0.004884427 0.00834651 -0.0002579697
000210 fe 15 7b 3c e3 e2 34 3c b6 0d 03 3c 61 12 52 3b
       0.015325068 0.011040422 0.007998874 0.0032054412
000220 61 20 a5 3c f3 b6 58 3c bb cd c0 bb a2 e4 d7 3a
       0.020157041 0.013227212 -0.0058839 0.0016471336
000230 67 4c e8 3b 6c 39 09 3b 80 3b 9d 3b 5d ee 72 bb
       0.007089186 0.0020938767 0.0047983527 -0.0037068345
000240 ed c4 85 b9 60 34 a8 3b 91 4f 99 ba 4f 17 88 3c
       -0.00025514458 0.0051331967 -0.0011696686 0.016612677
000250 47 a9 a2 ba b9 fc 83 3c 81 68 04 bb fc a0 b9 bc
       -0.0012410068 0.016111718 -0.002020389 -0.022659771
000260 28 4c 09 bc a8 ca 3b 3c 1b e7 d4 bb bb cf 1c 3c
       -0.0083799735 0.011461891 -0.0064972765 0.009571011
000270 46 be ad b9 fd 51 5a bb 69 20 2e 3b 50 31 5f 3b
       -0.00033138896 -0.003331303 0.002656961 0.0034056492
000280 e4 fc fe 3b 8e 44 ad 3c 24 87 74 3c b3 26 8c 3c
       0.0077816118 0.021150853 0.014924798 0.017108297
000290 57 96 b7 b9 f5 27 7a 3b 6b d1 b6 ba 98 2f 2f bb
       -0.00035016492 0.003817079 -0.001394791 -0.002673125
0002a0 0f d5 c2 3b 34 f0 eb ba 04 7b 2c bc 2c 88 2a bc
       0.0059458087 -0.0018000663 -0.010527376 -0.0104084425
0002b0 5c 53 5c bc e8 08 b7 3a 4f 72 04 bc bf 6c af bb
       -0.013447609 0.0013964446 -0.008083894 -0.0053535397
0002c0 13 80 a8 bc de b0 99 bc 81 ad d0 bb f6 61 17 bc
       -0.020568883 -0.018761095 -0.0063683395 -0.009239664
0002d0 d7 56 dd ba c5 63 ad bb a2 0b f3 ba 53 2a 88 3c
       -0.0016886842 -0.0052914345 -0.0018542896 0.016621744
0002e0 1c bd 42 bc fc b7 3d bc c7 12 a4 ba 51 b4 da 3b
       -0.0118859075 -0.01157951 -0.0012517803 0.0066743274
0002f0 33 c3 db bb 7b a1 98 3b 48 7b 82 3c 69 1d 82 3c
       -0.006706619 0.004657922 0.015927926 0.015883164
000300 9c 67 0a 3c bd f4 8e 3c a4 e1 9b 3c e7 b9 94 3c
       0.008447554 0.017450685 0.019028492 0.018155051
000310 fc 67 75 3c 19 1d c8 3c a7 2a 83 3c 0f f4 ef 3b
       0.014978405 0.024427937 0.01601155 0.007322795
000320 da db ce 3c e0 d0 d5 3c 58 90 b2 3c 0a 22 b6 3c
       0.025251318 0.026100576 0.021797344 0.022233028
000330 bf fb 29 3c 83 7e b5 3c d8 2d 8e 3c 08 3e db 3c
       0.010374962 0.022155052 0.017355844 0.026762977
000340 c2 6a 57 3c bb f9 00 3d 03 0b 4b bd 22 26 17 bd
       0.013148012 0.03148816 -0.04957105 -0.0369016
000350 1b 97 02 bd f1 f7 08 bd 99 e5 f0 bb f2 22 04 bd
       -0.031882387 -0.03343958 -0.007351589 -0.03225989
000360 17 79 87 bc 3a a2 e4 bc fe 00 30 bd dc 1b 12 bd
       -0.016537232 -0.027909387 -0.042969696 -0.0356711
000370 bf fa 62 bc 92 42 83 bc f6 0e 2a bc e4 e4 e1 bb
       -0.013853728 -0.016022954 -0.0103795435 -0.006893741
000380 d9 37 72 bc 21 d9 a7 3a 84 e7 18 bc 48 cd 2b bc
       -0.014783823 0.0012805798 -0.009332541 -0.010485955
000390 bb f0 19 bc 65 24 9d 3b 44 17 0e 3c 3f ec 82 38
       -0.0093957735 0.0047955983 0.008672539 6.242887e-05
0003a0 85 15 80 3c 18 78 3a 3c 7e 5e 08 3c a7 33 64 3b
       0.015635261 0.011381172 0.00832331 0.0034820826
0003b0 cb db a7 3c db f9 5d 3c 80 c6 b6 bb a6 06 00 3b
       0.020490548 0.01354834 -0.0055778623 0.0019535213
0003c0 65 89 f2 3b 1e de 1c 3b 25 eb a7 3b 27 a3 5f bb
       0.0074016326 0.0023936103 0.005124467 -0.0034124346
0003d0 3e 90 c3 37 f3 be b2 3b 6f 63 59 ba ce a5 8a 3c
       2.331298e-05 0.005454892 -0.000829271 0.016924765
0003e0 eb d4 76 ba 76 6e 86 3c bf d4 14 bb da af bb bc
       -0.00094158825 0.016410094 -0.0022709814 -0.022911001
0003f0 91 fa 0c bc c6 18 38 3c dc de dc bb ac 15 19 3c
       -0.008604662 0.011236375 -0.006740434 0.009343546

model.encoder.layers.0.bias f4 [100]
000000 62 d4 58 bc 1b 56 59 bc 11 a8 5d bc c6 a2 59 3c
       -0.01323423 -0.013265158 -0.01352884 0.013283437
000010 08 55 5a 3c 06 78 5d 3c 3a 83 5c 3c d9 7d 5c bc
       0.013325937 0.013517385 0.013459021 -0.013457739
000020 8e 74 57 bc ef 6e 55 bc c7 9a 5b bc c8 f4 5a bc
       -0.013150347 -0.013026937 -0.013403601 -0.013364024
000030 f9 d5 5d bc 2e f7 5c bc 98 ae 5a 3c 75 45 60 bc
       -0.013539785 -0.013486667 0.01334729 -0.013688435
000040 71 9a 5c 3c 87 12 5c bc b4 e8 5c 3c 73 9a 5c bc
       0.013464556 -0.013432152 0.013483215 -0.013464558
000050 25 53 51 3c 47 11 5c 3c 9b de 59 bc 97 6a 5d bc
       0.012776171 0.013431854 -0.013297702 -0.0135141825
000060 3d 79 5b 3c 26 8c 59 bc ef aa 5d 3c 22 b7 5e bc
       0.013395605 -0.013278043 0.013529523 -0.013593467
000070 a9 fc 5b bc 26 2b 58 3c f5 81 56 bc 94 b4 5b 3c
       -0.013426938 0.013193881 -0.013092508 0.013409752
000080 cb c2 5d 3c 16 4a 5c 3c bd 21 5f 3c 6e 2e 5e bc
       0.013535212 0.013445398 0.013618884 -0.013560874
000090 5b 36 5e bc 0b da 5e 3c 0b 48 5e 3c 88 f0 5d bc
       -0.013562764 0.01360179 0.013566981 -0.013546117
0000a0 49 cf 5a bc 02 b2 58 3c 9c b0 5b bc 3c 0e 5d bc
       -0.013355085 0.013226034 -0.013408806 -0.013492163
0000b0 ad a4 56 bc fb 88 5c bc e6 d2 5f 3c f5 1d 5c 3c
       -0.013100785 -0.013460393 0.013661122 0.013434877
0000c0 fe 77 5a bc 5b 31 59 3c 12 40 5a bc fc 0a 5b bc
       -0.013334272 0.013256396 -0.01332094 -0.013369318
0000d0 d5 d8 5e 3c 15 55 5b 3c cd ae 5d bc fb 18 5c 3c
       0.0136015015 0.013386984 -0.013530445 0.01343369
0000e0 ae 30 59 3c c2 fc 5b bc 6e fa 5d bc 00 01 5d bc
       0.013256235 -0.013426961 -0.013548477 -0.013489008
0000f0 0b a9 5a bc 9d b3 5e 3c e5 94 5c 3c 19 f2 5a bc
       -0.013345967 0.013592628 0.013463234 -0.013363385
000100 e8 b1 5d bc 79 41 5a bc 32 c5 5e bc ad 39 5e 3c
       -0.013531186 -0.013321274 -0.01359682 0.013563556
000110 bb cf 5b 3c b0 15 5d bc dd 7c 59 3c 69 62 5c 3c
       0.013416226 -0.01349394 0.013274399 0.013451197
000120 06 50 5c 3c 99 44 5d 3c 06 03 5b bc 7b 93 5b bc
       0.013446813 0.0135051245 -0.01336742 -0.013401861
000130 a6 06 5d bc 30 65 59 3c 32 79 5c bc 4a 2d 58 bc
       -0.013490355 0.013268754 -0.01345663 -0.0131943915
000140 9b 6d 5b bc 45 00 59 3c 2b d2 5b bc 97 da 5d bc
       -0.013392831 0.013244693 -0.013416807 -0.013540885
000150 90 fc 5c bc 7e e2 5b 3c 26 61 5d bc 5f 1d 60 3c
       -0.01348795 0.013420699 -0.0135119315 0.013678878
000160 19 c9 5a 3c f8 84 5e bc c1 bf 57 3c 70 90 5c 3c
       0.0133536095 -0.013581507 0.013168276 0.013462171
000170 67 4d 59 bc 4d a8 5d bc 20 66 59 3c be 85 5c bc
       -0.013263083 -0.013528896 0.013268977 -0.013459621
000180 3e 0d 58 bc 17 3b 5e bc 99 d9 5b bc e1 8b 5e bc
       -0.013186751 -0.013563893 -0.013418579 -0.013583154

model.encoder.layers.1.0.weight f4 [100, 100]
000000 c9 23 50 bd 55 f1 4f bd 02 94 4d bd 31 ba 4f 3d
       -0.050815377 -0.05076726 -0.05018998 0.050714675
000010 f1 38 4f 3d c6 97 4d 3d 97 3e 4e 3d a3 36 4e bd
       0.050591413 0.05019357 0.05035266 -0.050345074
000020 1e ea 50 bd f9 39 52 bd 4e 85 4e bd 04 f6 4e bd
       -0.05100452 -0.05132482 -0.050420098 -0.050527588
000030 52 79 4d bd 1e 0d 4e bd e0 30 4f 3d f2 12 4c bd
       -0.05016453 -0.05030548 0.05058372 -0.049822755
000040 59 4d 4e 3d 51 33 4e bd 3b ee 4d 3d 4a 01 4e bd
       0.050366733 -0.050341908 0.050276022 -0.050294198
000050 8d d6 54 3d c2 74 4e 3d 5d e1 4f bd 62 c3 4d bd
       0.051962424 0.050404318 -0.050752033 -0.05023516
000060 e6 b8 4e 3d 86 75 4f bd e1 87 4d 3d 81 f0 4c bd
       0.0504693 -0.05064919 0.050178412 -0.05003405
000070 5e a4 4e bd 8b 89 50 3d 13 54 51 bd 4a 7d 4e 3d
       -0.05044972 0.05091242 -0.05110557 0.050412454
000080 80 d0 4d 3d 56 51 4e 3d 28 bd 4c 3d 1e 56 4d bd
       0.05024767 0.050370537 0.04998508 -0.050130956
000090 25 93 4d bd 66 e6 4c 3d 2d 39 4d 3d 43 53 4d bd
       -0.050189156 0.050024413 0.050103355 -0.050128233
0000a0 f7 35 4f bd 4e 2c 50 3d 2a a0 4e bd 68 d4 4d bd
       -0.050588574 0.050823502 -0.050445713 -0.050251395
0000b0 eb aa 51 bd dc fa 4d bd c8 66 4c 3d 37 3c 4e 3d
       -0.05118839 -0.050288066 0.049902707 0.050350394
0000c0 89 50 4f bd ba fd 4f 3d 7f 40 4f bd db c0 4e bd
       -0.050613914 0.050779082 -0.050598618 -0.05047689
0000d0 2a cc 4c 3d 6d ea 4e 3d 49 68 4d bd 5a 4b 4e 3d
       0.049999394 0.050516535 -0.050148282 0.05036483
0000e0 9d ef 4f 3d 76 8d 4e bd 23 67 4d bd 6e 0c 4e bd
       0.050765622 -0.050427876 -0.050147187 -0.050304823
0000f0 9f 20 4f bd 63 03 4d 3d 2f 23 4e 3d c1 2b 4f bd
       -0.05056822 0.050052058 0.050326522 -0.050578836
000100 ba 8f 4d bd 3a b1 4f bd 22 ee 4c bd 58 38 4d 3d
       -0.050185896 -0.050706126 -0.05003179 0.05010256
000110 15 7b 4e 3d 1c d0 4d bd 18 cd 4f 3d c6 85 4e 3d
       0.05041035 -0.050247297 0.050732702 0.050420545
000120 b6 45 4e 3d e4 9f 4d 3d 72 9c 4e bd 66 9b 4e bd
       0.05035945 0.05020131 -0.050442167 -0.05044117
000130 0f a9 4d bd e0 d5 4f 3d 09 41 4e bd 02 5c 50 bd
       -0.050210055 0.050741076 -0.05035499 -0.050868995
000140 cb e8 4e bd fc 0f 50 3d 1c 74 4e bd e7 5e 4d bd
       -0.050514977 0.050796494 -0.0504037 -0.050139334
000150 fa e4 4d bd fa 2e 4e 3d 7d b5 4d bd 14 31 4c 3d
       -0.050267197 0.05033777 -0.05022191 0.049851492
000160 64 cb 4e 3d 66 48 4d bd a1 1d 51 3d d0 19 4e 3d
       0.050486937 -0.050117873 0.051053647 0.050317585
000170 5b 02 50 bd c3 9a 4d bd 03 d2 4f 3d b8 06 4e bd
       -0.050783496 -0.05019642 0.050737392 -0.050299376
000180 b4 eb 50 bd 59 64 4d bd 0a a5 4e bd e6 3b 4d bd
       -0.051006034 -0.050144527 -0.050450362 -0.05010595
000190 8e 80 4e bd 2d 7e 4e bd 7e 6d 4d bd 0e 55 4e 3d
       -0.050415568 -0.0504133 -0.050153248 0.050374083
0001a0 d5 05 4e 3d 0d 5c 4d 3d 38 bf 4d 3d 89 b3 4d bd
       0.05029853 0.050136615 0.05023119 -0.050220046
0001b0 a2 e2 4e bd 31 a0 4f bd 8b b4 4d bd b5 fd 4d bd
       -0.050509103 -0.05068988 -0.050221007 -0.050290782
0001c0 05 5f 4d bd 40 ad 4d bd cc 20 4e 3d 61 ca 4c bd
       -0.050139446 -0.050214052 0.050324246 -0.04999769
0001d0 b1 d4 4d 3d 1e 83 4d bd 3a 92 4d 3d a5 85 4d bd
       0.050251666 -0.05017387 0.05018828 -0.05017628
0001e0 1e 25 51 3d cd cd 4d 3d 5c 95 4e bd 4d 8d 4d bd
       0.05106079 0.050245095 -0.05043541 -0.050183583
0001f0 4e e4 4d 3d 94 06 4e bd 01 5b 4d 3d 63 24 4d bd
       0.050266556 -0.050299242 0.050135616 -0.05008353
000200 b0 f9 4d bd 36 b6 4e 3d 0b 05 4f bd fa b7 4d 3d
       -0.05028695 0.05046674 -0.05054192 0.05022428
000210 0a c2 4d 3d 11 b5 4d 3d a3 0e 4d 3d 5d 60 4d bd
       0.05023388 0.050221507 0.050062787 -0.050140727
000220 8f af 4d bd da 1f 4d 3d 47 4a 4d 3d eb 44 4d bd
       -0.050216254 0.050079204 0.050119665 -0.050114553
000230 99 33 4e bd 86 82 4e 3d 8a df 4d bd 80 7a 4d bd
       -0.050342176 0.050417446 -0.05026201 -0.050165653
000240 fc 69 4f bd 99 76 4d bd 64 f4 4c 3d d3 95 4d 3d
       -0.050638184 -0.05016193 0.050037757 0.05019171
000250 89 2f 4e bd 4d 78 4e 3d 1e 0b 4e bd e8 c6 4d bd
       -0.0503383 0.050407697 -0.05030357 -0.05023852
000260 74 03 4d 3d 84 0f 4e 3d 44 39 4d bd d5 a4 4d 3d
       0.05005212 0.050307766 -0.05010344 0.050206024
000270 63 68 4e 3d 33 e2 4d bd 87 62 4d bd 52 af 4d bd
       0.05039252 -0.05026455 -0.05014279 -0.050216027
000280 cf 0e 4e bd 70 33 4d 3d a6 ab 4d 3d a7 2d 4e bd
       -0.05030709 0.050097883 0.050212525 -0.050336506
000290 f7 6e 4d bd 7b 84 4e bd fc 21 4d bd 2d 46 4d 3d
       -0.050154652 -0.050419312 -0.05008124 0.050115753
0002a0 54 c0 4d 3d 17 7b 4d bd 30 62 4e 3d d0 fa 4d 3d
       0.050232247 -0.050166216 0.050386608 0.05028802
0002b0 33 b3 4d 3d b1 56 4d 3d 91 a0 4d bd 09 c7 4d bd
       0.050219726 0.050131503 -0.050201956 -0.050238643
0002c0 1c 46 4d bd bf 60 4e 3d 6e b6 4d bd f1 85 4e bd
       -0.05011569 0.050385233 -0.050222807 -0.050420705
0002d0 c6 13 4e bd 04 83 4e 3d 4c bc 4d bd 21 3e 4d bd
       -0.050311826 0.050417915 -0.050228402 -0.05010808
0002e0 47 82 4d bd 6d 73 4d 3d 9e 78 4d bd dc db 4c 3d
       -0.05017307 0.050158907 -0.050163858 0.05001436
0002f0 22 ba 4d 3d 1c 69 4d bd 8c 2c 4f 3d b9 9d 4d 3d
       0.05022634 -0.05014907 0.050579593 0.050199244
000300 ef 87 4e bd d1 76 4d bd 3b 5a 4e 3d e7 80 4d bd
       -0.050422605 -0.05016214 0.05037902 -0.05017176
000310 57 12 4f bd 54 73 4d bd 99 ea 4d bd a9 67 4d bd
       -0.0505546 -0.050158814 -0.050272558 -0.050147686
000320 da b8 51 bd 55 9c 51 bd 12 c4 4f bd 78 69 51 3d
       -0.05120168 -0.05117448 -0.050724097 0.051125973
000330 d9 fc 50 3d 18 bf 4f 3d fd 4b 50 3d bf 44 50 bd
       0.051022384 0.05071935 0.050853718 -0.05084681
000340 5c 53 52 bd e9 5f 53 bd 23 71 50 bd fa d3 50 bd
       -0.05134903 -0.05160514 -0.050889146 -0.050983407
000350 8f ac 4f bd dd 27 50 bd c1 04 51 3d 91 93 4e bd
       -0.050701674 -0.050819267 0.051029924 -0.0504337
000360 39 5f 50 3d 59 2c 50 bd 32 0a 50 3d de 0f 50 bd
       0.05087206 -0.050823543 0.050790973 -0.050796382
000370 3c 6b 55 3d a7 73 50 3d b9 9f 51 bd 09 ef 4f bd
       0.05210422 0.050891545 -0.051177714 -0.05076507
000380 d3 a5 50 3d 2e 1f 51 bd 4e b5 4f 3d da 40 4f bd
       0.050939392 -0.051055126 0.050710015 -0.050598957
000390 0c a3 50 bd d3 08 52 3d 63 9a 52 bd f5 6e 50 3d
       -0.050936744 0.051277947 -0.051416766 0.050887067
0003a0 e3 0d 50 3d e6 53 50 3d 76 18 4f 3d 8b 99 4f bd
       0.050794493 0.05086126 0.050560437 -0.05068354
0003b0 03 e1 4f bd 3c 39 4f 3d 38 7f 4f 3d ee 8c 4f bd
       -0.050751697 0.050591692 0.050658435 -0.05067151
0003c0 e9 11 51 bd ce bf 51 3d 9e 94 50 bd 0a f0 4f bd
       -0.05104247 0.05120831 -0.050922982 -0.05076603
0003d0 be fa 52 bd 36 06 50 bd 8d d9 4e 3d f2 3a 50 3d
       -0.051508658 -0.050787173 0.05050044 0.050837465
0003e0 86 1f 51 bd 83 a0 51 3d 75 03 51 bd 9a 9c 50 bd
       -0.051055454 0.051178467 -0.051028688 -0.050930597
0003f0 a1 1c 4f 3d c2 d3 50 3d 31 92 4f bd c1 49 50 3d
       0.050564412 0.050983198 -0.05067653 0.050851587

model.encoder.layers.1.0.bias f4 [100]
000000 7c 38 68 3c 32 04 82 3c 37 d9 73 3c 27 cb 82 3c
       0.014173623 0.015871141 0.014883331 0.015966011
000010 07 7a 73 3c c2 01 81 3c 21 3f 73 3c 97 f0 80 3c
       0.014860637 0.015747909 0.014846594 0.015739722
000020 b7 17 81 3c d8 18 7c 3c b3 df 82 3c 54 4b 7d 3c
       0.015758378 0.015386783 0.015975809 0.015459854
000030 0b 37 78 3c 95 e8 6e 3c f8 6a 82 3c fe 58 7b 3c
       0.015149842 0.014581819 0.015920147 0.015341042
000040 d3 7b 71 3c 35 92 46 3c 99 57 82 3c 58 7d 05 00
       0.014738995 0.012119819 0.01591091 5.04142e-40
000050 06 a4 7f 3c e1 ba 7a 3c 3d f2 7b 3c bd f3 80 3c
       0.015603071 0.0153033445 0.015377578 0.015741223
000060 6f 13 04 3d 8f 5d 82 3c 12 10 82 3c 5f 08 09 3d
       0.032245096 0.015913753 0.015876804 0.03345525
000070 0c ed 7f 3c e9 cb 67 3c a5 12 82 3c 86 2d 46 3c
       0.015620481 0.014147737 0.015878031 0.012095815
000080 fe 31 77 3c d1 89 82 3c 08 e3 72 3c a5 78 7d 3c
       0.015087603 0.015934857 0.014824636 0.015470658
000090 18 e5 67 3c 7f 2a 82 3c 74 05 82 3c 37 a7 7b 3c
       0.014153741 0.015889404 0.01587174 0.015359691
0000a0 82 2e 81 3c 4d 2d 81 3c 89 e2 82 3c 8b c1 6e 3c
       0.015769247 0.015768671 0.015977161 0.014572511
0000b0 d6 4d 6e 3c 11 f6 82 3c d3 8e 67 3c 70 9b 81 3c
       0.014544925 0.015986474 0.014133173 0.015821189
0000c0 1b fd 80 3c 80 26 80 3c 92 97 82 3c ea f2 81 3c
       0.01574569 0.015643358 0.015941415 0.0158629
0000d0 48 1f 82 3c 33 11 7f 3c ed b3 68 3c 12 9a 81 3c
       0.015884057 0.015568065 0.014203054 0.015820537
0000e0 29 2f 7f 3c 71 61 82 3c b1 f0 82 3c bd fb 79 3c
       0.015575209 0.015915604 0.015983911 0.015257773
0000f0 07 73 68 3c 54 ef 82 3c 58 22 82 3c 93 6b 82 3c
       0.014187581 0.015983261 0.015885517 0.015920436
000100 67 3f 81 3c 3b 3d 81 3c 61 c6 75 3c c2 21 82 3c
       0.015777303 0.015776267 0.0150009105 0.015885238
000110 da ce 81 3c 57 81 82 3c d8 5e 82 3c a5 d8 82 3c
       0.015845705 0.015930815 0.015914366 0.015972445
000120 7f 58 81 3c 07 b4 80 3c 8d 1d 46 3c c1 d8 82 3c
       0.015789269 0.015710844 0.012092006 0.015972497
000130 60 c1 80 3c e6 80 73 3c d9 3c 82 3c b1 f3 80 3c
       0.015717208 0.014862275 0.015898155 0.015741201
000140 59 b7 6e 3c af e1 82 3c 0c 2a 7f 3c 4b c1 80 3c
       0.014570081 0.015976755 0.01557399 0.01571717
000150 70 bf 7b 3c 0f c5 81 3c c3 55 21 3c be ce 82 3c
       0.0153654665 0.015841035 0.009847107 0.015967723
000160 9f 83 82 3c 0d 7d 45 3c d4 a3 6e 3c 3a fc 80 3c
       0.015931902 0.01205374 0.014565427 0.015745271
000170 b4 47 80 3c 2d 29 80 3c 9e 85 7e 3c d3 4b 82 3c
       0.01565919 0.015644634 0.0155347865 0.015905296
000180 26 77 81 3c 9f 70 68 3c 35 02 7f 3c 96 02 81 3c
       0.015803885 0.014187007 0.015564491 0.015748303

model.encoder.layers.2.0.weight f4 [100, 100]
000000 ef 2d 4c 3d 02 42 49 3d e4 7b 4b 3d 6c 57 49 3d
       0.049848493 0.049135216 0.0496787 0.049155638
000010 44 95 4b 3d 32 b1 49 3d 30 98 4b 3d a7 b2 49 3d
       0.049702898 0.049241252 0.049705684 0.04924264
000020 96 b0 49 3d 67 f4 49 3d c6 55 49 3d 25 e6 49 3d
       0.04924067 0.049305346 0.049154066 0.04929175
000030 fc 9c 4a 3d d2 23 4c 3d 24 47 49 3d 59 08 4a 3d
       0.04946612 0.04983885 0.04914011 0.049324367
000040 b1 0a 4c 3d 03 a4 4a 3d e8 4d 49 3d 3f 8a 03 80
       0.049814884 0.04947282 0.049146563 -3.251e-40
000050 e9 cd 49 3d 42 0e 4a 3d b3 f3 49 3d d8 b2 49 3d
       0.049268637 0.049330004 0.049304675 0.049242824
000060 e0 63 2e bd 38 49 49 3d b5 41 49 3d 46 05 31 bd
       -0.042575717 0.049142092 0.04913493 -0.04321792
000070 46 c6 49 3d b1 40 4c 3d 71 2f 49 3d fc 91 4a 3d
       0.049261354 0.049866382 0.04911751 0.049455628
000080 97 dd 4a 3d c9 5b 49 3d 56 a7 4b 3d e3 e3 49 3d
       0.04952773 0.0491598 0.04972013 0.049289595
000090 5f 12 4c 3d 08 4b 49 3d 43 31 49 3d f1 f8 49 3d
       0.049822208 0.04914382 0.049119245 0.049309675
0000a0 f0 ae 49 3d 61 9a 49 3d 0e 22 49 3d 6b 2e 4c 3d
       0.0492391 0.049219493 0.049104743 0.049848955
0000b0 87 1e 4c 3d 55 3d 49 3d c0 f0 4b 3d be 91 49 3d
       0.0498338 0.049130756 0.049790144 0.049211256
0000c0 5a b2 49 3d 3c c6 49 3d f2 44 49 3d d0 31 49 3d
       0.049242355 0.049261317 0.049138017 0.04911977
0000d0 aa 52 49 3d fd d3 49 3d 6f 46 4c 3d 9a 92 49 3d
       0.0491511 0.049274433 0.04987186 0.049212076
0000e0 4d d2 49 3d 1f 3c 49 3d 20 3d 49 3d e8 42 4a 3d
       0.049272824 0.0491296 0.04913056 0.049380213
0000f0 9f 16 4c 3d 4f 3d 49 3d 24 4c 49 3d c7 4c 49 3d
       0.04982626 0.049130734 0.04914488 0.049145486
000100 e2 ab 49 3d d0 ab 49 3d d6 67 4b 3d 17 4c 49 3d
       0.049236186 0.04923612 0.049659573 0.04914483
000110 ce 67 49 3d 7d 4c 49 3d d5 48 49 3d b6 56 49 3d
       0.04917126 0.04914521 0.049141724 0.04915496
000120 83 8d 49 3d 8e a3 49 3d 4b a6 4a 3d 30 32 49 3d
       0.04920722 0.049228244 0.049474996 0.04912013
000130 3c a3 49 3d 23 81 4b 3d 7b 3e 49 3d 3e b2 49 3d
       0.049227938 0.0496837 0.04913185 0.04924225
000140 d9 20 4c 3d 23 2e 49 3d ef d2 49 3d 9e a3 49 3d
       0.049836013 0.049116265 0.049273428 0.049228303
000150 dc f5 49 3d 58 8f 49 3d 81 c4 4b 3d 5f 33 49 3d
       0.049306735 0.04920897 0.049747948 0.049121257
000160 f1 45 49 3d 68 95 4a 3d d3 2e 4c 3d d0 b1 49 3d
       0.049138967 0.04945889 0.049849343 0.04924184
000170 bc bf 49 3d ce c2 49 3d 2d d9 49 3d d8 60 49 3d
       0.049255118 0.049258046 0.04927938 0.049164623
000180 25 95 49 3d 17 2f 4c 3d 7d d4 49 3d d8 b0 49 3d
       0.0492145 0.049849596 0.04927491 0.049240917
000190 59 06 42 3d f1 81 4f 3d 61 dd 44 3d bd 6c 4e 3d
       0.047369335 0.05066103 0.048062686 0.05039667
0001a0 5b a0 44 3d c6 cd 4b 3d d7 9a 44 3d f2 c6 4b 3d
       0.04800449 0.049756788 0.04799923 0.049750276
0001b0 79 d5 4b 3d 9e ad 4a 3d 67 71 4e 3d d0 df 4a 3d
       0.04976413 0.04948198 0.050401118 0.04952985
0001c0 f0 63 47 3d ca f3 41 3d 37 2c 4f 3d 8c 3a 4a 3d
       0.048679292 0.047351636 0.050579276 0.04937224
0001d0 d7 9a 43 3d d8 ee 3f 3d 65 e5 4e 3d 79 b9 02 00
       0.04775509 0.04685864 0.050511736 2.50206e-40
0001e0 29 48 4b 3d 17 1e 4a 3d 1e a6 4a 3d fc c5 4b 3d
       0.049629364 0.049345102 0.049474828 0.04974936
0001f0 b0 c6 1e bd be 25 4f 3d ef 81 4f 3d b5 57 20 bd
       -0.038763702 0.050573103 0.050661024 -0.039146144
000200 e4 71 4b 3d d8 40 42 3d aa 33 50 3d a2 e9 3f 3d
       0.04966916 0.04742512 0.05083052 0.04685367
000210 10 6d 46 3d da 56 4e 3d aa 84 44 3d fd eb 4a 3d
       0.048443854 0.050375797 0.04797808 0.049541462
000220 b8 ba 41 3d e7 19 4f 3d c3 28 50 3d 9f 98 4a 3d
       0.04729721 0.05056181 0.050820123 0.049461957
000230 9e dd 4b 3d fe 7a 4c 3d 20 7e 50 3d 74 13 42 3d
       0.049771897 0.049921982 0.050901532 0.047381833
000240 be e1 41 3d 5f 62 4f 3d 60 72 41 3d 75 a3 4c 3d
       0.047334425 0.050630923 0.047228217 0.049960572
000250 42 cc 4b 3d 23 67 4b 3d 0e 38 4f 3d 5c 26 50 3d
       0.049755342 0.049658906 0.050590567 0.050817832
000260 da cd 4e 3d ec 30 4b 3d 36 64 42 3d fa a2 4c 3d
       0.050489284 0.049607202 0.04745885 0.049960114
000270 ef 35 4b 3d 2d 9c 4f 3d dc 5d 4f 3d 0a dd 48 3d
       0.049611982 0.05068605 0.05062662 0.049038924
000280 92 c3 41 3d 07 5e 4f 3d d3 12 4f 3d a1 e7 4e 3d
       0.04730565 0.05062678 0.05055506 0.050513867
000290 ef e6 4b 3d 45 e7 4b 3d a6 0c 45 3d 56 12 4f 3d
       0.049780782 0.049781103 0.048107766 0.050554596
0002a0 9f 10 4e 3d ce ea 4e 3d f9 26 4f 3d a8 72 4e 3d
       0.05030882 0.050516896 0.050574277 0.050402313
0002b0 e3 db 4c 3d 6d 48 4c 3d 33 f0 3f 3d 7f c7 4f 3d
       0.050014388 0.049873758 0.04685993 0.050727364
0002c0 8a 4f 4c 3d 4d d0 44 3d 74 94 4f 3d 53 c8 4b 3d
       0.04988054 0.048050214 0.050678685 0.04975159
0002d0 1d eb 41 3d b2 04 50 3d 66 35 4b 3d 84 4f 4c 3d
       0.047343362 0.050785728 0.04961147 0.04988052
0002e0 9e 9f 4a 3d 57 af 4c 3d 95 d9 41 3d 4c cc 4f 3d
       0.04946863 0.049971905 0.047326643 0.050731942
0002f0 26 38 4f 3d 4e 27 40 3d 8c 11 42 3d 01 cd 4b 3d
       0.050590657 0.046912484 0.047380015 0.049756054
000300 30 8d 4b 3d 7d 81 4b 3d de 17 4b 3d 72 3d 4e 3d
       0.049695194 0.049684037 0.04958331 0.050351568
000310 7c 92 4c 3d 12 0b 42 3d 96 30 4b 3d 9c ce 4b 3d
       0.049944386 0.04737384 0.049606882 0.049757585
000320 5a b7 4a 3d 86 c3 49 3d 81 31 4b 3d 34 d2 49 3d
       0.049491264 0.04925873 0.049607757 0.04927273
000330 ce 3a 4b 3d 61 13 4a 3d 10 3b 4b 3d be 14 4a 3d
       0.049616627 0.049334887 0.049616873 0.049336188
000340 4c 11 4a 3d 6b 45 4a 3d bf cf 49 3d f7 3a 4a 3d
       0.0493329 0.04938261 0.049270388 0.04937264
000350 60 b8 4a 3d b7 a9 4a 3d bf c7 49 3d 8f 52 4a 3d
       0.04949224 0.04947826 0.04926276 0.04939514
000360 8c 47 4b 3d 90 cd 48 3d 82 cc 49 3d 25 e2 03 00
       0.04962878 0.049024165 0.0492673 3.56632e-40
000370 24 28 4a 3d 56 58 4a 3d 46 45 4a 3d 7b 14 4a 3d
       0.049354687 0.04940065 0.04938247 0.049335938
000380 49 ef 2c bd 03 ca 49 3d d5 c4 49 3d fc db 2e bd
       -0.042220388 0.04926492 0.04925998 -0.042690262
000390 2b 23 4a 3d 7a da 4a 3d 45 b7 49 3d 72 bb 48 3d
       0.049349945 0.04952476 0.049247045 0.049006887
0003a0 e7 df 4a 3d 2a d5 49 3d 05 41 4b 3d 54 3b 4a 3d
       0.049529936 0.049275555 0.049622554 0.049372986
0003b0 60 87 4a 3d c6 cb 49 3d 9a b7 49 3d 06 48 4a 3d
       0.04944551 0.0492666 0.04924736 0.049385093
0003c0 bc 11 4a 3d fa 00 4a 3d 7b ad 49 3d 4d bf 4a 3d
       0.04933332 0.049317338 0.04923771 0.049498845
0003d0 0c 9f 4a 3d d2 be 49 3d 75 4e 4a 3d 95 fb 49 3d
       0.049468085 0.049254246 0.04939123 0.049312193
0003e0 be 13 4a 3d 79 22 4a 3d 43 c5 49 3d fd b9 49 3d
       0.049335234 0.049349282 0.04926039 0.049249638
0003f0 d8 cf 49 3d 47 2e 4a 3d a3 ed 4a 3d 18 fb 49 3d
       0.04927048 0.04936054 0.049543034 0.049311727

model.encoder.layers.2.0.bias f4 [100]
000000 c4 2b 4e 39 3e 8a d3 37 4c cb ba b9 f1 b0 46 ba
       0.00019661995 2.5217534e-05 -0.00035628153 -0.0007579467
000010 72 e2 4f 3b a4 78 ab b9 15 e2 01 3d 17 11 43 b7
       0.0031720665 -0.00032705546 0.03170975 -1.1626885e-05
000020 d5 d0 c2 3a 4d fd 58 ba ae 8c 00 b6 52 b1 40 36
       0.0014863262 -0.0008277491 -1.9155373e-06 2.8713443e-06
000030 40 82 b4 3a 40 56 61 38 f9 8d 61 ba 06 1a 57 ba
       0.0013771728 5.3724507e-05 -0.00086042244 -0.0008205477
000040 4d bf 6e 38 ca 8a 14 b7 05 6c d3 b9 68 7c 22 38
       5.6921785e-05 -8.853802e-06 -0.00040325537 3.8739672e-05
000050 a1 71 b2 3a a1 b9 9c 3a ef b0 ae 02 ee 14 95 b8
       0.0013614186 0.0011957177 2.5668557e-37 -7.108772e-05
000060 b4 54 9e 3a 33 72 44 35 5c e0 5b ba b6 1f 54 ba
       0.0012079687 7.318187e-07 -0.0008387619 -0.00080918835
000070 1e 13 55 ba 70 11 49 ba 3c f7 9d 3a 7b fe 8d b9
       -0.0008128154 -0.000767014 0.0012051831 -0.00027083218
000080 77 1f 50 ba f3 7d 51 ba fb 6c 3a 38 85 ff 49 3a
       -0.0007939259 -0.0007991485 4.444735e-05 0.0007705617
000090 f4 1d 87 38 93 55 4d ba 7c 9f 54 ba f2 9c 2a 38
       6.442881e-05 -0.0007832881 -0.0008110923 4.0677325e-05
0000a0 5d 75 41 b7 a5 32 c5 3a 1e 09 23 39 15 71 1b 36
       -1.1531022e-05 0.0015045 0.00015548288 2.3162622e-06
0000b0 5b fd 53 38 53 db d2 b7 fa da 4f ba 8d 65 d3 3a
       5.0542276e-05 -2.5136082e-05 -0.00079290534 0.0016128287
0000c0 43 c5 4e ba ec f8 d5 36 c2 80 d7 3a 8a 87 50 ba
       -0.00078876707 6.376873e-06 0.0016441571 -0.0007954767
0000d0 a0 95 48 ba 53 a5 53 38 1d 33 50 ba 3f d1 be b5
       -0.00076516904 5.046029e-05 -0.0007942187 -1.4217002e-06
0000e0 5d 13 33 37 55 73 3d 38 8f 77 52 ba 9f 68 a5 3a
       1.067374e-05 4.5168523e-05 -0.000802868 0.001261968
0000f0 f9 6e a3 b9 f1 fb 4d ba b0 31 b1 3a 13 1d 45 38
       -0.00031172464 -0.00078576716 0.0013518836 4.6995538e-05
000100 1a 6b ba 3a 5a 9a a1 3a 04 e9 b9 3a 68 0a 4f ba
       0.0014222593 0.0012329326 0.0014183824 -0.0007897974
000110 b6 61 59 ba 77 2e 0e 38 de 99 fe 3a 9b 2c 4e ba
       -0.0008292453 3.3898712e-05 0.0019424518 -0.0007864923
000120 a2 9b 9f 3a 97 84 51 ba 2f b7 e7 3a 9b cc c2 3a
       0.001217712 -0.0007992475 0.0017678494 0.0014862003
000130 3e c8 4e ba 62 9c 51 ba 5a 75 03 38 ef 9b 38 37
       -0.0007888115 -0.000799602 3.1342126e-05 1.1003561e-05
000140 32 2d aa b9 b2 9f 07 00 1a 4e 45 84 92 eb 53 ba
       -0.000324586 7.00136e-40 -2.3193101e-36 -0.0008084114
000150 60 c6 03 3b 2c a5 4b ba 35 ab c0 3a 38 89 c2 3a
       0.0020107254 -0.0007768448 0.0014699461 0.001484192
000160 93 e7 2d 38 49 9e f4 b7 fd e6 cf 37 4b 0e c9 3a
       4.1462084e-05 -2.9160774e-05 2.4783885e-05 0.0015339343
000170 d2 2f 5f ba f9 2e 5e ba 3e ef 4d 37 98 15 ad b9
       -0.00085139007 -0.00084756274 1.2274655e-05 -0.0003301322
000180 74 88 05 38 85 ae 30 38 cc 97 c5 3a c4 77 9c 3a
       3.1836753e-05 4.2124204e-05 0.0015075146 0.0011937548

model.encoder.layers.3.weight f4 [10, 100]
000000 f6 31 08 00 74 82 03 80 72 98 06 80 9d b4 04 00
       7.52607e-40 -3.22304e-40 -6.057e-40 4.32134e-40
000010 2a ca 01 80 67 9a 01 80 ff bd 06 00 59 71 07 00
       -1.64358e-40 -1.47225e-40 6.19171e-40 6.8351e-40
000020 3c 29 08 80 74 2e 00 00 7f 07 02 80 6b ec 06 00
       -7.49476e-40 1.6664e-41 -1.8636e-40 6.35824e-40
000030 6e bf 02 00 06 8b 01 00 3a 8e 00 80 cf d5 07 80
       2.52343e-40 1.41708e-40 -5.1021e-41 -7.19549e-40
000040 8f 32 02 00 da ec 06 00 a0 9a 06 00 a7 91 03 80
       2.01808e-40 6.3598e-40 6.06482e-40 -3.27757e-40
000050 57 29 06 80 9e 99 06 00 04 c9 06 00 c9 ca 05 80
       -5.65843e-40 6.0612e-40 6.23124e-40 -5.31923e-40
000060 5a 6e 02 00 4e 97 07 00 dd 60 07 80 56 a4 03 80
       2.23258e-40 6.97126e-40 -6.77596e-40 -3.34459e-40
000070 38 41 04 80 a2 3a 04 80 4b c3 01 80 0c 09 06 00
       -3.90738e-40 -3.88375e-40 -1.61893e-40 5.54258e-40
000080 b7 39 03 00 b6 3f 06 80 2d 37 05 80 4e 64 04 80
       2.9621e-40 -5.73868e-40 -4.78971e-40 -4.03325e-40
000090 61 30 00 00 88 3a 05 80 5f 85 00 00 c0 de 04 80
       1.7355e-41 -4.80175e-40 4.7845e-41 -4.4725e-40
0000a0 b3 ad 05 00 be a5 05 00 ed 02 00 00 51 7e 01 00
       5.21489e-40 5.18635e-40 1.05e-42 1.37149e-40
0000b0 33 b0 07 80 60 da 07 00 b4 a3 04 00 1b b0 00 80
       -7.06057e-40 7.21187e-40 4.26068e-40 -6.3175e-41
0000c0 c2 4b 05 00 bd d3 00 00 d3 48 00 80 11 37 04 80
       4.86354e-40 7.5957e-41 -2.6124e-41 -3.87096e-40
0000d0 fc 31 06 80 e8 88 02 00 9c b9 06 80 50 c8 03 00
       -5.68944e-40 2.32784e-40 -6.17597e-40 3.47365e-40
0000e0 6f e3 03 80 14 a0 07 80 9a 61 01 80 de c6 02 00
       -3.57094e-40 -7.00274e-40 -1.26848e-40 2.55011e-40
0000f0 fe 1b 04 80 12 c6 06 80 cf 80 05 00 34 a8 05 80
       -3.77384e-40 -6.22067e-40 5.05385e-40 -5.19517e-40
000100 4b 27 07 80 97 10 05 80 dd c3 02 80 b6 9b 05 00
       -6.56944e-40 -4.65129e-40 -2.53933e-40 5.15036e-40
000110 ff 1e 08 80 46 08 05 80 e4 59 05 80 c3 12 04 80
       -7.45803e-40 -4.62145e-40 -4.91424e-40 -3.74072e-40
000120 f8 67 03 00 65 d6 02 80 c0 4b 04 80 72 09 02 80
       3.12803e-40 -2.60581e-40 -3.94516e-40 -1.8706e-40
000130 78 05 06 80 a2 e9 02 00 c4 0e 04 80 bf 6a 00 80
       -5.52975e-40 2.67483e-40 -3.72639e-40 -3.8293e-41
000140 60 01 01 80 c3 d0 00 80 02 0d 02 00 57 85 01 00
       -9.2329e-41 -7.489e-41 1.88337e-40 1.39669e-40
000150 23 57 07 00 85 e5 05 80 15 e3 07 00 81 bf 07 80
       6.74107e-40 -5.41514e-40 7.2431e-40 -7.11547e-40
000160 6c c4 06 80 0d 9e 07 00 d2 82 01 00 d5 cc 07 00
       -6.21476e-40 6.99546e-40 1.38765e-40 7.16328e-40
000170 18 60 03 80 aa 81 01 00 c4 2f 06 00 c3 8d 06 80
       -3.09978e-40 1.3835e-40 5.68148e-40 -6.01867e-40
000180 c0 3d 03 80 74 ce 02 00 1e 19 02 00 a2 af 00 80
       -2.97658e-40 2.57732e-40 1.92681e-40 -6.3005e-41
000190 1d bc 4f 3d f9 4e 62 3d 90 74 52 3d 88 a2 63 3d
       0.05071651 0.055251095 0.051380694 0.055574924
0001a0 fa 92 66 3d e4 c1 52 3d 7b c7 14 bd be 5e 62 3d
       0.05629251 0.05145444 -0.036323052 0.055266134
0001b0 56 67 53 3d d8 67 63 3d ac 16 07 80 be 5b 62 3d
       0.05161222 0.055518955 -6.50982e-40 0.055263273
0001c0 35 16 61 3d 1c 45 62 3d 3b 0f 63 3d 8b 72 63 3d
       0.05495282 0.05524169 0.055434447 0.05552916
0001d0 af 45 62 3d 82 5c 62 3d 43 63 59 3d c7 52 62 3d
       0.055242237 0.055264004 0.05307318 0.055254724
0001e0 da f3 48 3d 19 2a 49 3d d3 26 05 00 4e 7b 62 3d
       0.04906068 0.049112413 4.73105e-40 0.055293374
0001f0 3c fa 48 3d 34 5e 62 3d 75 1d 61 3d 45 7d 63 3d
       0.049066767 0.05526562 0.054959733 0.05553939
000200 18 79 63 3d 54 9e 63 3d f7 fa 48 3d f4 f3 52 3d
       0.055535406 0.055570915 0.049067464 0.051502183
000210 e9 8a 63 3d f4 85 63 3d 23 4e 62 3d 1e 94 4b 3d
       0.055552397 0.05554767 0.0552503 0.049701802
000220 29 3f 62 3d 5b 94 63 3d 1f 7d 63 3d 03 4f 62 3d
       0.055236015 0.055561405 0.055539247 0.055251133
000230 3d 5a 62 3d 4b d4 52 3d f1 bc 50 3d 91 55 62 3d
       0.05526184 0.05147199 0.05096144 0.055257384
000240 80 4a 62 3d fa 60 62 3d 0e 89 63 3d e1 5f 56 3d
       0.05524683 0.055268265 0.055550627 0.05233753
000250 17 8e 63 3d 08 58 62 3d e3 10 4b 3d bd 86 63 3d
       0.05555543 0.055259734 0.04957665 0.05554842
000260 27 a3 63 3d 19 42 62 3d 50 83 63 3d f0 59 62 3d
       0.055575516 0.055238817 0.05554515 0.055261552
000270 ad 51 62 3d 73 47 62 3d d3 7a 63 3d f9 e0 63 3d
       0.055253673 0.05524392 0.055537056 0.055634473
000280 a4 8a 52 3d c1 92 63 3d 99 fb 48 3d 67 4b 62 3d
       0.05140175 0.055559877 0.049068067 0.05524769
000290 2b 68 53 3d 88 11 49 3d 5c 37 53 3d c6 e5 61 3d
       0.051613014 0.049088985 0.051566467 0.05515077
0002a0 ff 67 63 3d 60 4b 62 3d be 84 70 3d 5a 90 63 3d
       0.0555191 0.055247664 0.058720343 0.055557586
0002b0 be fe 48 3d 9b 85 63 3d 4f 20 71 3d 14 66 53 3d
       0.049071066 0.055547338 0.058868703 0.05161102
0002c0 99 8b 63 3d 72 85 63 3d a9 50 62 3d 8a 52 62 3d
       0.055553053 0.055547185 0.055252705 0.055254497
0002d0 89 81 52 3d eb f3 03 00 15 b4 05 80 d0 79 63 3d
       0.051393066 3.63008e-40 -5.23779e-40 0.05553609
0002e0 a0 13 66 3d e3 9c 63 3d a9 f9 48 3d d0 c7 52 3d
       0.05617106 0.05556954 0.04906622 0.051460087
0002f0 d1 4a 62 3d 87 64 62 3d da 5a 62 3d 4a 45 4e 3d
       0.05524713 0.05527165 0.055262424 0.050359048
000300 13 48 63 3d 74 4b 63 3d 62 5f 62 3d f8 53 5b 3d
       0.055488657 0.05549188 0.055266745 0.053546876
000310 6d 51 62 3d a2 4a 62 3d 74 73 54 3d 08 f9 48 3d
       0.055253435 0.055246957 0.051867917 0.04906562
000320 33 0e 4f 3d 24 41 69 3d 84 c8 51 3d 51 f3 62 3d
       0.05055065 0.05694689 0.051216617 0.055407826
000330 8f 1d 66 3d 01 17 52 3d d8 5a 14 bd 55 2f 69 3d
       0.056180533 0.05129147 -0.036219448 0.056929905
000340 fc cb 52 3d 53 b8 62 3d ef aa 07 00 6f 42 69 3d
       0.051464066 0.055351567 7.04168e-40 0.05694812
000350 90 94 60 3d e0 63 69 3d 51 5b 62 3d 3e bf 62 3d
       0.05482918 0.056980014 0.055262867 0.055358164
000360 e2 48 69 3d e5 40 69 3d 78 fc 58 3d f4 30 69 3d
       0.056954272 0.056946654 0.052975148 0.05693145
000370 95 40 48 3d 22 74 48 3d e3 24 02 80 46 ec 68 3d
       0.048889715 0.048938878 -1.96903e-40 0.056865953
000380 ef 47 48 3d e1 3e 69 3d 64 6b 60 3d 45 cd 62 3d
       0.048896726 0.05694473 0.054789916 0.05537154
000390 62 c8 62 3d eb ed 62 3d 23 47 48 3d 62 49 52 3d
       0.05536688 0.055402678 0.048895966 0.051339515
0003a0 62 dc 62 3d 05 d8 62 3d 02 3d 69 3d be e0 4a 3d
       0.055385955 0.055381794 0.056942947 0.049530737
0003b0 63 5b 69 3d ae e1 62 3d fb c9 62 3d 40 2f 69 3d
       0.05697192 0.055391006 0.055368405 0.056929827
0003c0 61 28 69 3d c6 37 52 3d 75 10 50 3d 0f 3d 69 3d
       0.056923274 0.05132272 0.050796945 0.056942996
0003d0 13 55 69 3d 4b 4c 69 3d e3 d8 62 3d bd c8 55 3d
       0.0569659 0.056957524 0.05538262 0.052193392
0003e0 33 df 62 3d b0 35 69 3d c0 5d 4a 3d f2 d6 62 3d
       0.05538864 0.056935966 0.049405813 0.05538077
0003f0 8f f4 62 3d 18 55 69 3d 91 d4 62 3d d2 34 69 3d
       0.05540901 0.056965917 0.0553785 0.05693514

model.encoder.layers.3.bias f4 [10]
000000 da 2e c1 b9 72 84 29 bb 54 f2 0e bb 2e 8e 2c bb
       -0.00036846736 -0.0025866297 -0.002181192 -0.0026329863
000010 3a cc 11 ba 80 31 3a bb 55 d3 18 ba 9c fb 29 bb
       -0.0005561743 -0.0028410852 -0.0005829831 -0.0025937324
000020 2a d7 1b bb 80 f4 10 bb
       -0.002377937 -0.002211839

model.predictor_linear.0.weight f4 [1, 10]
000000 b8 ce a5 13 2f 5f 97 be 1e 15 aa be 76 e3 57 be
       4.1855696e-27 -0.29564807 -0.33219236 -0.21082863
000010 b5 01 51 3b ff 10 bb bd e6 57 97 3d da ca 43 be
       0.0031891887 -0.09134101 0.07389812 -0.1912035
000020 2d ad 05 be 9f 60 86 be
       -0.13054343 -0.2624559

exp_avg f4 [100, 1]
000000 c5 63 bb ba 90 4c 0f ba 0d 42 19 ba d5 9f 0e ba
       -0.0014296701 -0.0005466426 -0.0005846329 -0.0005440687
000010 f1 45 3d 3a 18 e7 86 ba 86 05 86 b9 61 e7 22 bb
       0.00072202 -0.001029226 -0.00025562587 -0.002485715
000020 db f1 88 b8 13 8f 0d bb 89 b8 05 bb 6b a4 02 ba
       -6.5300344e-05 -0.0021600171 -0.002040418 -0.00049836066
000030 01 52 83 3a 12 73 36 39 49 fa 76 3a 75 f8 31 3a
       0.0010018946 0.0001739974 0.00094214507 0.0006789037
000040 59 c7 6d 3a ce 3f 56 3a 80 07 23 38 67 0e a9 b9
       0.00090705376 0.000817296 3.8869213e-05 -0.00032244922
000050 9d be 26 3a 2b 95 4c 3a d2 12 22 3a a6 84 5a 3a
       0.0006360801 0.000780421 0.0006182614 0.0008335806
000060 02 34 85 39 ab 38 4b 3a ba 55 3e 3a 7e 7c 15 3a
       0.00025406486 0.00077522796 0.0007260699 0.00057024497
000070 c4 fe 52 3a 13 be 5d 3a 30 19 08 3a b4 0c 4f 3a
       0.00080488273 0.0008458804 0.00051917415 0.0007898316
000080 7c 2a be 38 6b cc 84 39 af be 10 3a 7f 25 47 3a
       9.067819e-05 0.00025329305 0.0005521578 0.0007596835
000090 ca b5 14 b8 8e 5c 99 39 36 68 4c 3a dc fd 46 3a
       -3.5455254e-05 0.00029251393 0.0007797511 0.00075909286
0000a0 13 91 50 3a 10 1b 4a 3a 46 81 51 3a 53 a1 5d 3a
       0.0007956188 0.0007709721 0.00079919805 0.000845452
0000b0 90 e6 4f 3a 51 32 4a 3a a3 34 4a 3a 5d 9e f1 39
       0.000793078 0.0007713186 0.0007713532 0.00046085092
0000c0 4b 84 4e 3a ed 8d 0d 3a f5 0e 47 3a 4d 05 48 b9
       0.00078779896 0.0005399872 0.00075934763 -0.00019075461
0000d0 c7 a7 1e 3a 26 0c 1e 3a 11 26 44 3a 56 07 61 3a
       0.00060522225 0.0006029032 0.0007482479 0.0008584162
0000e0 8b 39 4e 3a 65 88 43 3a b4 64 53 3a bf 77 5b 3a
       0.0007866851 0.0007458984 0.0008064017 0.00083720306
0000f0 d0 39 38 3a 7c 42 b0 39 1f a9 96 39 6b df 25 3a
       0.00070276577 0.0003361887 0.00028736235 0.00063275424
000100 65 61 51 3a cd 80 47 3a ad 11 52 3a 39 39 55 3a
       0.000798723 0.00076104404 0.0008013498 0.0008133832
000110 df 98 3d 3a cb 45 4e 3a ff c9 13 3a b1 bf df 39
       0.00072325574 0.00078686763 0.0005637705 0.00042676696
000120 d0 32 14 3a 31 57 59 3a 68 06 23 3a d3 fd 3d 3a
       0.00056533236 0.00082908856 0.0006218911 0.00072476006
000130 73 8c e1 b9 ee 28 e6 39 88 3c 16 3a 6d 3f 50 3a
       -0.00043019987 0.00043899514 0.0005731066 0.00079440215
000140 a9 0f 3f 3a 81 e0 2b 3a cd 7a 3f 3a 60 14 90 3a
       0.00072884053 0.0006556586 0.00073043705 0.00109924
000150 ae 42 72 39 a0 f0 c4 37 11 77 42 3a db 7f 78 3a
       0.00023103759 2.347707e-05 0.0007418255 0.0009479501
000160 5f 15 18 3a eb 3f 67 3a 0e df 37 3a 5e 59 32 3a
       0.00058015244 0.0008821475 0.0007014134 0.0006803478
000170 76 f7 75 3a 19 78 48 3a 96 b7 25 3a 2c e6 16 3a
       0.0009382883 0.00076472905 0.0006321607 0.0005756344
000180 4b a6 86 3a f6 8d 17 3a b1 c4 47 3a 26 e3 3f 3a
       0.0010272948 0.00057813467 0.0007620557 0.00073199195

exp_avg_sq f4 [100, 1]
000000 6b 5d 1b 38 ba 20 92 37 57 ad b1 37 58 d5 a5 37
       3.7041882e-05 1.7419796e-05 2.1180762e-05 1.9768879e-05
000010 28 ce 81 36 73 0b c4 37 76 ed 99 37 01 f8 0d 38
       3.8684993e-06 2.3370352e-05 1.8349598e-05 3.384799e-05
000020 c0 1f 63 37 86 bb 7c 38 be 9d 82 38 5a f5 c3 37
       1.3537647e-05 6.0256127e-05 6.228265e-05 2.3360062e-05
000030 5d ca 65 37 3a 9f 63 37 7f 41 8b 36 70 46 13 37
       1.369658e-05 1.3567327e-05 4.1501476e-06 8.778283e-06
000040 62 5b 1c 37 6e ba ae 37 7d 2c d9 37 60 fe 14 38
       9.319601e-06 2.082923e-05 2.5889132e-05 3.5522855e-05
000050 9a 34 a5 36 f2 ad c2 36 f4 da 36 36 16 a6 29 36
       4.923507e-06 5.8019004e-06 2.724756e-06 2.5279637e-06
000060 2e a7 8e 36 b9 e0 60 35 05 68 45 36 ec f0 53 36
       4.251392e-06 8.377352e-07 2.9415835e-06 3.1581685e-06
000070 22 62 70 36 ba 38 93 35 c3 1e 54 36 97 d4 3a 35
       3.5819908e-06 1.0968863e-06 3.1608367e-06 6.959976e-07
000080 30 4c 0b 37 05 9c 4b 36 f2 66 29 36 46 8d 5b 35
       8.302784e-06 3.0340173e-06 2.5242884e-06 8.178944e-07
000090 99 51 26 37 0d 2b b3 36 d1 be 84 35 6b 0c 70 35
       9.9133695e-06 5.3396275e-06 9.890301e-07 8.942504e-07
0000a0 0e 2e 02 36 30 23 42 35 6b 19 ae 35 62 f0 6f 35
       1.9398317e-06 7.2321836e-07 1.2971408e-06 8.938424e-07
0000b0 f4 a0 16 35 78 d0 ad 35 b8 16 48 35 06 db 89 36
       5.611357e-07 1.2950177e-06 7.4538866e-07 4.108416e-06
0000c0 01 ef 1d 35 e4 42 bc 36 ef ec 65 35 9c ac 1c 37
       5.8834854e-07 5.6106237e-06 8.565393e-07 9.338513e-06
0000d0 ab a8 14 36 1e e9 f3 35 66 aa cc 35 0a 46 a1 35
       2.2151896e-06 1.8172757e-06 1.5248777e-06 1.2015819e-06
0000e0 a2 3f 2f 35 6a b2 88 35 45 26 31 35 62 b9 4f 35
       6.528518e-07 1.0184715e-06 6.599333e-07 7.7383277e-07
0000f0 de 92 32 35 08 00 a1 36 f2 c2 f3 35 90 13 3c 36
       6.652389e-07 4.7981775e-06 1.8161647e-06 2.802557e-06
000100 ef 21 6d 35 9a b4 2b 35 47 a9 71 35 b5 94 93 35
       8.833876e-07 6.3965274e-07 9.0025827e-07 1.0995633e-06
000110 c2 bd 33 35 4c e8 23 35 a0 17 9f 36 af 79 96 36
       6.695883e-07 6.106027e-07 4.7413196e-06 4.484514e-06
000120 b6 90 d5 36 82 72 1a 35 23 1b 49 36 66 54 ea 35
       6.3647412e-06 5.75361e-07 2.996713e-06 1.7458922e-06
000130 4e 04 b6 37 29 08 4d 37 d9 1a 19 36 04 b5 99 36
       2.1698095e-05 1.2220852e-05 2.2814404e-06 4.5808283e-06
000140 52 31 26 35 ab 6c 8f 35 37 e5 27 35 24 06 7e 37
       6.191159e-07 1.0685957e-06 6.25459e-07 1.51410095e-05
000150 f9 7e a6 36 84 3f 95 36 c0 f5 89 35 52 70 4f 36
       4.961967e-06 4.4479402e-06 1.0278818e-06 3.0910783e-06
000160 3a 53 fd 35 82 0e ce 35 90 78 88 37 ed 7d 5c 37
       1.8874191e-06 1.5352418e-06 1.6268605e-05 1.3142341e-05
000170 e2 b5 15 37 2e 88 c2 37 a6 7d af 37 92 4e a5 37
       8.92344e-06 2.3190016e-05 2.0920135e-05 1.970612e-05
000180 d8 3d 50 37 7e 5c e2 37 b4 e9 79 37 cd 67 b2 36
       1.2412165e-05 2.698437e-05 1.489597e-05 5.3168974e-06
