logs/l1_coef-1.0/version_0/checkpoints/epoch=3789-step=3790.ckpt (torch, 566207 bytes, 72 tensors)

model.encoder.layers.0.weight f4 [100, 100]
0	0x37a6ca8b	1.9883058e-05
1	0xb3b25836	-8.3048164e-08
2	0x371894ef	9.094582e-06
3	0xb78c3af3	-1.671675e-05
4	0x36cdad0e	6.1296223e-06
5	0x36993a37	4.5665324e-06
6	0x35a19610	1.2039109e-06
7	0x37c7bd31	2.3810748e-05
8	0xb63777fb	-2.7338963e-06
9	0xb7f3cb27	-2.9062458e-05
10	0xb693ab64	-4.400894e-06
11	0x369d1d76	4.6823943e-06
12	0x37a222ec	1.9328167e-05
13	0x354da1ae	7.6603726e-07
14	0xb61e5080	-2.3590692e-06
15	0xb7d5ccb9	-2.548691e-05
16	0x378a3346	1.6474758e-05
17	0x370308ed	7.810287e-06
18	0xb85955fe	-5.1816918e-05
19	0xb5ff170d	-1.9005689e-06
20	0xb7a2f433	-1.9425619e-05
21	0x36f10688	7.18312e-06
22	0x37dcb11f	2.6308522e-05
23	0xb7727848	-1.4452329e-05
24	0x3575f18f	9.1621126e-07
25	0xb744123e	-1.1686758e-05
26	0xb795dbe5	-1.786458e-05
27	0xb7ba34d0	-2.219752e-05
28	0x370eb354	8.505613e-06
29	0xb7c67267	-2.3656712e-05
30	0xb4f9f149	-4.6555422e-07
31	0x379bdf59	1.8581444e-05
32	0x37523b02	1.2530714e-05
33	0x370cc47f	8.390401e-06
34	0xb6b14115	-5.2825876e-06
35	0x3718821b	9.090199e-06
36	0x379178cb	1.7341596e-05
37	0x36a634ee	4.9533473e-06
38	0xb7be8d6d	-2.2715622e-05
39	0xb6a96bf8	-5.0491617e-06
40	0x37d19444	2.4983783e-05
41	0xb6888464	-4.068528e-06
42	0xb52d4ee4	-6.4562323e-07
43	0x37a6a8d2	1.9867355e-05
44	0x378017c2	1.5269852e-05
45	0x37ef1785	2.8501972e-05
46	0xb6d68f81	-6.394403e-06
47	0xb5801c88	-9.545047e-07
48	0xb6a1d05f	-4.8224315e-06
49	0xb7f1e979	-2.8838158e-05
50	0xb4774825	-2.3029914e-07
51	0xb7db9143	-2.6174477e-05
52	0x3823a2f8	3.9014005e-05
53	0xb6246780	-2.449815e-06
54	0x355d118d	8.2354455e-07
55	0x3832f0d7	4.2662807e-05
56	0xb583be2e	-9.81561e-07
57	0xb7f03e4f	-2.8639244e-05
58	0xb780d485	-1.5357751e-05
59	0xb6f5b357	-7.322447e-06
60	0x36f9f9f7	7.449878e-06
61	0xb7a40ee1	-1.9557252e-05
62	0x337f4153	5.9431226e-08
63	0xb7cd0e39	-2.4444527e-05
64	0xb4cf008f	-3.855716e-07
65	0xb769c0b6	-1.3932751e-05
66	0xb7db3e8d	-2.6135962e-05
67	0xb44abc07	-1.888112e-07
68	0xb68d2a79	-4.207072e-06
69	0xb524730d	-6.126218e-07
70	0x378d5721	1.6849082e-05
71	0xb7531799	-1.2582074e-05
72	0x37dcb262	2.630911e-05
73	0xb73ce7d9	-1.12596545e-05
74	0xb62d9067	-2.5863062e-06
75	0xb84ca99e	-4.879536e-05
76	0xb6dc657c	-6.5683253e-06
77	0x38087073	3.2529653e-05
78	0xb744c17c	-1.17275595e-05
79	0x367e7766	3.7918448e-06
80	0x380a758a	3.301123e-05
81	0x360e9999	2.1249054e-06
82	0x365247d3	3.1334246e-06
83	0x3749c845	1.20271625e-05
84	0x3742a78e	1.1602313e-05
85	0xb7fc57bb	-3.0081594e-05
86	0xb5f274a5	-1.8064353e-06
87	0xb68b5b13	-4.1531252e-06
88	0x37292cb2	1.0083591e-05
89	0x3518f6d5	5.69836e-07
90	0x36da1b5e	6.5000922e-06
91	0x3563e7f9	8.4901654e-07
92	0x37ec15bf	2.8143519e-05
93	0x37106e89	8.608805e-06
94	0xb727f36b	-1.0010651e-05
95	0x35bed2c7	1.4217447e-06
96	0x3653b9b4	3.1549544e-06
97	0x376637c4	1.3722052e-05
98	0xb5f3c016	-1.8160815e-06
99	0x38164b90	3.583316e-05
100	0x37ee00b7	2.8372144e-05
101	0x37a639d2	1.9815667e-05
102	0x37171359	9.004806e-06
103	0x379c07a9	1.8600216e-05
104	0xb778c32e	-1.4827396e-05
105	0xb7be1693	-2.2660277e-05
106	0x343efb0d	1.778646e-07
107	0x36d3cabb	6.311891e-06
108	0xb7b5b868	-2.1662752e-05
109	0x37a28109	1.9371992e-05
110	0x354ce841	7.6333896e-07
111	0x36c1d6d5	5.776858e-06
112	0xb5171c37	-5.629294e-07
113	0xb785e332	-1.5960632e-05
114	0xb8081324	-3.2442753e-05
115	0xb606605d	-2.0023647e-06
116	0xb7768fd7	-1.4696233e-05
117	0xb5fb7b85	-1.8736906e-06
118	0xb7f76e8f	-2.9496177e-05
119	0x37b7c507	2.1907048e-05
120	0xb6330630	-2.667668e-06
121	0x3449fa0a	1.8810547e-07
122	0x36e810e4	6.916105e-06
123	0xb6dbb0af	-6.5472773e-06
124	0xb7a5ffcf	-1.9788653e-05
125	0xb6df436a	-6.653766e-06
126	0xb80f2db6	-3.413643e-05
127	0xb6cbabf5	-6.06989e-06
128	0xb691b04c	-4.3418604e-06
129	0xb5e4817c	-1.7025009e-06
130	0xb7a17be5	-1.9250389e-05
131	0x3704171d	7.873195e-06
132	0xb7846f98	-1.5787591e-05
133	0x34fc7f07	4.7031082e-07
134	0x35b6b786	1.3613469e-06
135	0x36cb1f42	6.0535103e-06
136	0xb5964abe	-1.1197624e-06
137	0xb6aa33a4	-5.0724066e-06
138	0x379d3c76	1.8744013e-05
139	0x379aaead	1.843957e-05
140	0xb51c5270	-5.823449e-07
141	0xb6f03884	-7.1591367e-06
142	0xb7cf0a91	-2.4681243e-05
143	0x36f5ad37	7.321734e-06
144	0x3772f20d	1.4480681e-05
145	0x36e5b3be	6.8456566e-06
146	0x361358de	2.1956434e-06
147	0xb63d092b	-2.816853e-06
148	0xb788f1cf	-1.6325064e-05
149	0x37545a60	1.2657227e-05
150	0xb65ececc	-3.320095e-06
151	0x36c5be90	5.893242e-06
152	0x3681fb9b	3.8737903e-06
153	0xb4cee61a	-3.853791e-07
154	0x34515fd7	1.9499508e-07
155	0xb8048442	-3.1594427e-05
156	0x36f84849	7.399391e-06
157	0x370ab51d	8.26761e-06
158	0x37b64c14	2.1731517e-05
159	0xb72ef7fb	-1.0428946e-05
160	0xb64de360	-3.067973e-06
161	0xb690988d	-4.3092937e-06
162	0x37a1aeb1	1.9274043e-05
163	0x363a7501	2.7784265e-06
164	0xb6959f97	-4.4591247e-06
165	0x380b125e	3.315729e-05
166	0xb6dcd8fb	-6.581771e-06
167	0xb6fdea35	-7.567253e-06
168	0x37538497	1.2607451e-05
169	0x37035489	7.827891e-06
170	0xb7924ece	-1.7441253e-05
171	0x3723d0bd	9.764158e-06
172	0xb6ff2a83	-7.604541e-06
173	0xb73896b6	-1.1002345e-05
174	0xb7ab079c	-2.0388332e-05
175	0xb7998608	-1.8301434e-05
176	0x37aac1dd	2.0355854e-05
177	0xb7a8df0c	-2.0131025e-05
178	0x3792d989	1.7505854e-05
179	0xb7b4add1	-2.1538612e-05
180	0xb782db86	-1.5599431e-05
181	0x36868d69	4.0099735e-06
182	0xb784c2bd	-1.5826308e-05
183	0xb5dd1580	-1.647204e-06
184	0x37851545	1.586474e-05
185	0xb78fc278	-1.7137485e-05
186	0xb790835d	-1.7227308e-05
187	0x378486fc	1.5798483e-05
188	0x373a84fb	1.1117426e-05
189	0xb7650735	-1.3651142e-05
190	0x38112819	3.4608038e-05
191	0xb7c5183e	-2.3495519e-05
192	0xb428ffa6	-1.5739224e-07
193	0x374d70e6	1.2245238e-05
194	0x37be8a78	2.2714245e-05
195	0xb6c97c88	-6.004764e-06
196	0xb6e85fd9	-6.925297e-06
197	0x370c63d5	8.367894e-06
198	0xb72a291b	-1.014236e-05
199	0xb6dcfcfc	-6.585962e-06
200	0x3783773f	1.5671945e-05
201	0x37dc191e	2.623774e-05
202	0x37266e76	9.92009e-06
203	0x375152a8	1.2476616e-05
204	0x37271e7a	9.961072e-06
205	0xb6500929	-3.0999747e-06
206	0x372394e8	9.750227e-06
207	0xb772e3a8	-1.4477329e-05
208	0xb61b0e29	-2.3105042e-06
209	0x368628cd	3.998261e-06
210	0x37eb0062	2.8014361e-05
211	0x38017452	3.086433e-05
212	0x368ba473	4.161667e-06
213	0x380ee1b0	3.4065626e-05
214	0x35cf20c1	1.5432234e-06
215	0x37e91385	2.7784854e-05
216	0xb755ce91	-1.2743884e-05
217	0x37935fd2	1.7568385e-05
218	0x37840084	1.5735866e-05
219	0x360f9d61	2.1400267e-06
220	0x37338f63	1.0702616e-05
221	0xb7dfd2c6	-2.668182e-05
222	0x37d5cb0a	2.5486126e-05
223	0xb652f4bb	-3.143489e-06
224	0x37648a25	1.3622023e-05
225	0xb76e8966	-1.4217896e-05
226	0xb827c66f	-4.000071e-05
227	0xb8316352	-4.2292588e-05
228	0xb7379e78	-1.0944546e-05
229	0x369d7bf2	4.6933937e-06
230	0xb6c0d263	-5.746538e-06
231	0xb78689bd	-1.6038184e-05
232	0xb68bb700	-4.163827e-06
233	0xb631d6cd	-2.6500086e-06
234	0xb8114c8d	-3.4641987e-05
235	0xb4a5402a	-3.078033e-07
236	0xb74ec39d	-1.2324102e-05
237	0xb78f1d8e	-1.706069e-05
238	0x37af49ab	2.089593e-05
239	0x37e827bc	2.7675058e-05
240	0x36c81b8d	5.963672e-06
241	0x378da5cc	1.6885715e-05
242	0x37a9db46	2.0248477e-05
243	0x3773cac3	1.4531138e-05
244	0x3704584b	7.88837e-06
245	0xb7839f9e	-1.5690744e-05
246	0xb60146f3	-1.9263796e-06
247	0xb68b1927	-4.145451e-06
248	0xb7cf7068	-2.4728666e-05
249	0x37617e17	1.3440403e-05
250	0xb49a2db1	-2.871798e-07
251	0x38044a5c	3.1540505e-05
252	0xb56f06b0	-8.904417e-07
253	0x3765f82a	1.3707244e-05
254	0x379a021a	1.835921e-05
255	0xb653019d	-3.144239e-06

model.encoder.layers.0.bias f4 [100]
0	0x36e6ac31	6.87458e-06
1	0xb7a29ff7	-1.9386394e-05
2	0xb697fbe4	-4.5294746e-06
3	0xb687bd51	-4.045353e-06
4	0x36a17c5a	4.8126503e-06
5	0x36e8d601	6.939052e-06
6	0xb7dcd316	-2.6324338e-05
7	0x3808f563	3.265346e-05
8	0x36c4193c	5.844193e-06
9	0x36938d74	4.3974087e-06
10	0xb7b0da88	-2.1082597e-05
11	0x3625a563	2.4683184e-06
12	0xb7f791f1	-2.9512654e-05
13	0xb76b2493	-1.4015607e-05
14	0xb7d6997e	-2.5582263e-05
15	0x37692aa8	1.3897814e-05
16	0xb5817cdf	-9.647591e-07
17	0x37f7f66d	2.9559445e-05
18	0xb8148c5b	-3.5416666e-05
19	0x3421d922	1.5073286e-07
20	0x37bc1ec3	2.2425671e-05
21	0x37086086	8.128705e-06
22	0xb73f1e8c	-1.1391599e-05
23	0x380fdff2	3.4302422e-05
24	0xb7a5590a	-1.9710995e-05
25	0x3631d40d	2.6498485e-06
26	0xb7aa17ad	-2.0276604e-05
27	0x3839f161	4.433224e-05
28	0x37d8041e	2.5751124e-05
29	0x371fc10e	9.522088e-06
30	0x3708e0f7	8.15861e-06
31	0x37a3293e	1.9450319e-05
32	0x34217042	1.5035133e-07
33	0xb7556c61	-1.2721023e-05
34	0x382b549a	4.084837e-05
35	0x34934941	2.7434183e-07
36	0x374c3484	1.2171575e-05
37	0xb59d9858	-1.1741749e-06
38	0xb78927f4	-1.6350277e-05
39	0xb63a622d	-2.7773306e-06
40	0xb7a9b81c	-2.0232103e-05
41	0xb74e52ad	-1.2297806e-05
42	0x371ca0cd	9.335764e-06
43	0xb7cd3654	-2.4463203e-05
44	0xb82ce2b3	-4.1219126e-05
45	0xb7a01c1a	-1.9086572e-05
46	0xb7ba2f6b	-2.2195009e-05
47	0x378596f1	1.5925123e-05
48	0xb68bcac4	-4.166128e-06
49	0xb6ccdc19	-6.1052965e-06
50	0x36c40a8d	5.8424835e-06
51	0x380d49bd	3.3685694e-05
52	0x37b2740b	2.127329e-05
53	0xb72e757c	-1.0398562e-05
54	0x37b95d18	2.2097069e-05
55	0xb83b8399	-4.4706834e-05
56	0x35a5e2de	1.2359485e-06
57	0x366d5746	3.5366552e-06
58	0x36155653	2.2252977e-06
59	0xb7a4a751	-1.9628236e-05
60	0x3564ceec	8.523773e-07
61	0x36fb416d	7.4879995e-06
62	0xb6247560	-2.4506226e-06
63	0xb6fef147	-7.5978783e-06
64	0x34c7eccd	3.7238934e-07
65	0xb6980304	-4.530304e-06
66	0xb374585d	-5.6891043e-08
67	0xb70277f4	-7.776533e-06
68	0x36d3db75	6.313838e-06
69	0xb77ba278	-1.49985935e-05
70	0x371bae66	9.279325e-06
71	0x3810d59b	3.453121e-05
72	0x37a4137c	1.9559397e-05
73	0xb6ae2f60	-5.1911193e-06
74	0x36165278	2.2399745e-06
75	0xb83673a7	-4.349989e-05
76	0x37546dff	1.2661795e-05
77	0xb79026f5	-1.7184278e-05
78	0x37ef1bc8	2.8503957e-05
79	0x37c5c357	2.3575192e-05
80	0x37716304	1.4387773e-05
81	0xb72e3fdf	-1.0386079e-05
82	0x37929bc6	1.7477094e-05
83	0xb782b38b	-1.5580814e-05
84	0xb853a04c	-5.045561e-05
85	0x37da74fb	2.6042098e-05
86	0xb7c597bc	-2.3554887e-05
87	0x37b6c189	2.1786213e-05
88	0x37800eb7	1.5265641e-05
89	0xb6aeab0b	-5.205516e-06
90	0x34cf2349	3.8582428e-07
91	0x375de114	1.3225032e-05
92	0xb70d71e7	-8.430775e-06
93	0xb750f017	-1.2453666e-05
94	0xb7143c8d	-8.8355855e-06
95	0x36e1f8cd	6.7344868e-06
96	0x370edbd8	8.515046e-06
97	0x358b37cc	1.0372546e-06
98	0x36eb8693	7.0192123e-06
99	0x356141eb	8.3914955e-07

model.encoder.layers.1.0.weight f4 [100, 100]
0	0x36e7f262	6.9125535e-06
1	0x37aaeb97	2.0375284e-05
2	0xb791af6c	-1.7367034e-05
3	0x3693c508	4.403879e-06
4	0xb5857a13	-9.9448e-07
5	0xb778ed76	-1.483724e-05
6	0xb6997ae9	-4.574064e-06
7	0x377f574a	1.5219508e-05
8	0xb685a230	-3.98259e-06
9	0x36b03221	5.2510445e-06
10	0xb8047442	-3.1579526e-05
11	0x358896fe	1.0176734e-06
12	0x36d18212	6.2438276e-06
13	0xb828908b	-4.0188937e-05
14	0x37638711	1.3561702e-05
15	0xb78172d5	-1.5431471e-05
16	0x36a7820d	4.9921277e-06
17	0x37bc2c31	2.2431925e-05
18	0xb7493c8c	-1.1994631e-05
19	0xb7424925	-1.1580331e-05
20	0xb760c79e	-1.3397917e-05
21	0x374d0cda	1.2221944e-05
22	0xb7d23458	-2.5058325e-05
23	0xb6fca4f5	-7.5293888e-06
24	0xb79627d3	-1.7899938e-05
25	0xb786b215	-1.605697e-05
26	0xb5a20f2a	-1.2074354e-06
27	0x3684f88e	3.962842e-06
28	0x3726c6a8	9.940624e-06
29	0x37133fa1	8.7766975e-06
30	0x35dbe279	1.6382684e-06
31	0x3783c139	1.5706393e-05
32	0xb65d7715	-3.300088e-06
33	0xb4eaca14	-4.3732928e-07
34	0xb7975994	-1.8042316e-05
35	0xb683a349	-3.923113e-06
36	0xb8123cb3	-3.4865643e-05
37	0xb7ae214a	-2.0757918e-05
38	0x376edd1f	1.4237389e-05
39	0x35c6142c	1.475802e-06
40	0x378dc974	1.6902319e-05
41	0xb7e0fca9	-2.6820535e-05
42	0xb714ecb2	-8.876597e-06
43	0x3674af1c	3.646076e-06
44	0x370ffdcb	8.582555e-06
45	0xb487bc50	-2.5282725e-07
46	0xb7269423	-9.928862e-06
47	0xb70be6dd	-8.338798e-06
48	0x37a46554	1.9597508e-05
49	0x37d82a38	2.5768866e-05
50	0x37d0fe37	2.491391e-05
51	0xb7c92141	-2.3976552e-05
52	0xb75727fd	-1.2824309e-05
53	0xb7c69ac6	-2.3675511e-05
54	0x3713e3d2	8.814926e-06
55	0xb6bc2a8d	-5.60779e-06
56	0xb68f0348	-4.262114e-06
57	0x37b90ada	2.2058772e-05
58	0x371d0379	9.358738e-06
59	0x3796b1ee	1.7964248e-05
60	0x371893e5	9.09434e-06
61	0xb69913d7	-4.562065e-06
62	0x36ae64dd	5.197346e-06
63	0x37ea5385	2.7933866e-05
64	0xb7501422	-1.2402454e-05
65	0x376c0eb6	1.4070121e-05
66	0x37ec0a9c	2.8138333e-05
67	0xb6214b2f	-2.4034632e-06
68	0xb6f23a14	-7.218923e-06
69	0x368e5607	4.2419447e-06
70	0xb71222ac	-8.710351e-06
71	0x37b3cd93	2.143419e-05
72	0xb5bca6d1	-1.4055641e-06
73	0x36a1af8f	4.8186116e-06
74	0xb644b2ec	-2.9310422e-06
75	0x373a7ab2	1.1115031e-05
76	0xb79abd40	-1.8446357e-05
77	0x37f796de	2.9514948e-05
78	0x37ac97e9	2.0574736e-05
79	0x3792e3cd	1.7510634e-05
80	0xb68eb8df	-4.2534516e-06
81	0xb686d025	-4.0177424e-06
82	0x361c06bd	2.3249734e-06
83	0xb6cd850d	-6.1249652e-06
84	0xb78b5918	-1.6611579e-05
85	0x368e1549	4.2344077e-06
86	0x34e22b13	4.212712e-07
87	0x37dea1b1	2.6539756e-05
88	0xb75d8695	-1.3203961e-05
89	0xb82e7099	-4.1589698e-05
90	0x3775e500	1.4656456e-05
91	0xb76aa3e6	-1.39856475e-05
92	0x37f8da87	2.9665664e-05
93	0xb74a86c6	-1.2071518e-05
94	0x37f93985	2.9709898e-05
95	0x373c9ccf	1.1242183e-05
96	0xb7020dbe	-7.751803e-06
97	0xb543f7f9	-7.300401e-07
98	0xb6b46f8a	-5.377403e-06
99	0x376849e9	1.3845486e-05
100	0x37998304	1.830003e-05
101	0xb61950a0	-2.2845707e-06
102	0xb645a5be	-2.9451762e-06
103	0x372e0ebd	1.037464e-05
104	0x37aec3b6	2.0833551e-05
105	0xb35c53f9	-5.1299114e-08
106	0xb5a14a9b	-1.2017148e-06
107	0xb7964afe	-1.7916314e-05
108	0xb7890ccd	-1.6337633e-05
109	0x3651b5be	3.1249215e-06
110	0xb51ecea6	-5.91603e-07
111	0xb70e7b35	-8.492546e-06
112	0xb7ea0ed0	-2.7901871e-05
113	0xb7a5b9e0	-1.9756088e-05
114	0xb7a884a0	-2.0088919e-05
115	0xb6f63b14	-7.338249e-06
116	0x374bce00	1.2147706e-05
117	0xb705f676	-7.984801e-06
118	0xb7e3f850	-2.7176138e-05
119	0x37fc2a05	3.0060308e-05
120	0xb74950c2	-1.19993365e-05
121	0xb76faa67	-1.4285185e-05
122	0x376b6836	1.4031355e-05
123	0x377210d6	1.4428244e-05
124	0xb82d62fe	-4.1338608e-05
125	0xb6606c33	-3.3441581e-06
126	0xb53a4a4e	-6.9398527e-07
127	0x379ed1cb	1.893276e-05
128	0xb7ba6d34	-2.222378e-05
129	0xb7c0d59c	-2.2987653e-05
130	0x37c1832c	2.3068475e-05
131	0x38281daa	4.0081948e-05
132	0xb7a744de	-1.994002e-05
133	0xb75cc5f3	-1.31591105e-05
134	0x36c31e39	5.8149712e-06
135	0x3755920e	1.2729795e-05
136	0x36427d68	2.8981249e-06
137	0x3737e6fc	1.096143e-05
138	0xb7189d98	-9.096599e-06
139	0x3709b94d	8.20898e-06
140	0xb6db171f	-6.5294003e-06
141	0x36a23266	4.8338434e-06
142	0xb6e7e0ad	-6.910492e-06
143	0xb71162b0	-8.665651e-06
144	0x38063651	3.1998676e-05
145	0x36bb29ae	5.5778864e-06
146	0x36883a68	4.059915e-06
147	0xb705643a	-7.950754e-06
148	0xb79243ac	-1.7436068e-05
149	0x379b448a	1.8509356e-05
150	0xb7c0d84e	-2.2988908e-05
151	0xb553e959	-7.894319e-07
152	0x378d30b8	1.6831196e-05
153	0xb7e46a03	-2.7229084e-05
154	0x370d54af	8.423972e-06
155	0xb6867789	-4.007427e-06
156	0x36b9a4f8	5.5326345e-06
157	0x35cce628	1.5266169e-06
158	0x362d6469	2.5837455e-06
159	0x378f5b3f	1.7089418e-05
160	0xb8290a11	-4.0302115e-05
161	0xb7c69047	-2.3670624e-05
162	0x375077a9	1.2425627e-05
163	0x37b0e71e	2.1088457e-05
164	0x3827679e	3.9912404e-05
165	0xb771af93	-1.4405598e-05
166	0xb5c16db3	-1.4411547e-06
167	0x36b47a26	5.378638e-06
168	0x350d594a	5.2656526e-07
169	0x3617fbba	2.2647278e-06
170	0x377ca1d4	1.5058049e-05
171	0x36bd1b62	5.6358267e-06
172	0xb745cf4e	-1.1790382e-05
173	0xb783498d	-1.5650667e-05
174	0xb70f8bd5	-8.556021e-06
175	0x381106ef	3.457715e-05
176	0x370b3086	8.296343e-06
177	0x363acaef	2.7834283e-06
178	0xb82ca1d5	-4.1158713e-05
179	0x35f5eb1a	1.8322346e-06
180	0xb7ba7a1a	-2.2229786e-05
181	0xb75231cf	-1.2528572e-05
182	0xb6ea9eef	-6.9922457e-06
183	0x37bb43e1	2.2323746e-05
184	0x3769ff64	1.3947345e-05
185	0xb74b2848	-1.2109122e-05
186	0x38186000	3.632903e-05
187	0x373b6cac	1.1171371e-05
188	0xb775da27	-1.46539305e-05
189	0x371638a4	8.953884e-06
190	0x379959de	1.8280869e-05
191	0xb79ed417	-1.893383e-05
192	0x373d050f	1.1266456e-05
193	0xb6fe4b71	-7.5785724e-06
194	0xb753e444	-1.2629727e-05
195	0xb78ef5c7	-1.7042168e-05
196	0x37c157c2	2.3048258e-05
197	0x37e43bc9	2.7207558e-05
198	0x37461e07	1.1808711e-05
199	0x37dcb979	2.6312411e-05
200	0xb74ece5a	-1.2326602e-05
201	0xb6bb0c62	-5.574476e-06
202	0xb6b56502	-5.405979e-06
203	0x382911a8	4.0309184e-05
204	0x377c63e8	1.5043632e-05
205	0xb740d48f	-1.1493582e-05
206	0xb7b7de33	-2.191877e-05
207	0x33cd96e2	9.573502e-08
208	0x3721767e	9.623936e-06
209	0x36b1855b	5.2905357e-06
210	0x36e3c938	6.788552e-06
211	0x3712f0dc	8.758358e-06
212	0x376f886b	1.4277272e-05
213	0xb7fd5e48	-3.0203853e-05
214	0xb57205a4	-9.0160233e-07
215	0x37ed15dd	2.8262783e-05
216	0x378ec49b	1.701927e-05
217	0xb7a0c19a	-1.9163639e-05
218	0xb76cbb2d	-1.4110276e-05
219	0x369ceb14	4.676529e-06
220	0xb4f7a981	-4.6130666e-07
221	0xb5c6fb48	-1.4825282e-06
222	0xb691cc73	-4.3451378e-06
223	0x3794abff	1.7723067e-05
224	0x37aeab1d	2.0822097e-05
225	0x356b7c7c	8.772547e-07
226	0xb6fbace6	-7.500511e-06
227	0x3738f9c4	1.1025408e-05
228	0xb6eaff2b	-7.003449e-06
229	0x37b74b65	2.1850408e-05
230	0xb80e58b8	-3.3938064e-05
231	0x36d17858	6.2426952e-06
232	0x36834a52	3.9127563e-06
233	0xb75915ea	-1.293931e-05
234	0x37746eac	1.4569301e-05
235	0xb77f7d58	-1.5228368e-05
236	0x37a9a6c2	2.0224023e-05
237	0x364a56e1	3.0150916e-06
238	0x37655192	1.3668456e-05
239	0xb7dcc77b	-2.6318934e-05
240	0x3810801a	3.445158e-05
241	0xb7c5e018	-2.3588582e-05
242	0xb6ffb2cf	-7.6204083e-06
243	0x36835960	3.914509e-06
244	0x366b5e34	3.5072562e-06
245	0x3611ddb5	2.1735734e-06
246	0x378b4ef0	1.660685e-05
247	0xb72cebf9	-1.0306941e-05
248	0xb7000647	-7.630856e-06
249	0x37185660	9.080017e-06
250	0xb84c1146	-4.8653477e-05
251	0x376e5259	1.42050785e-05
252	0x370ffc95	8.582273e-06
253	0xb4aaec41	-3.1836865e-07
254	0x36492a4f	2.997596e-06
255	0x36b8dc34	5.5092623e-06

model.encoder.layers.1.0.bias f4 [100]
0	0xb688cc30	-4.0768864e-06
1	0x374a1d5c	1.2046974e-05
2	0xb6c8d48e	-5.985209e-06
3	0x36b87f43	5.4984425e-06
4	0xb4e2aac4	-4.222003e-07
5	0xb6e629db	-6.8594068e-06
6	0x373b8614	1.1177286e-05
7	0x373c3238	1.1217366e-05
8	0xb716e725	-8.994514e-06
9	0x38155384	3.560215e-05
10	0x36b00240	5.2454707e-06
11	0xb728bd27	-1.0057621e-05
12	0x37583adb	1.2888307e-05
13	0xb701ee6c	-7.744511e-06
14	0x371332d0	8.7737135e-06
15	0x37bdc011	2.2619994e-05
16	0xb7929290	-1.7472805e-05
17	0xb753b054	-1.2617635e-05
18	0xb59f6076	-1.1874497e-06
19	0xb7b4a310	-2.1533604e-05
20	0x3786c604	1.6066253e-05
21	0xb6cc2fcb	-6.0852376e-06
22	0x37771ede	1.4729534e-05
23	0xb76d0f49	-1.412986e-05
24	0x37a4f723	1.9665405e-05
25	0xb5a065ab	-1.1950518e-06
26	0xb7a42280	-1.9566389e-05
27	0x377c6acf	1.5045239e-05
28	0x35dd619d	1.6494192e-06
29	0xb5b5dc08	-1.3549588e-06
30	0xb75a6b8b	-1.3018852e-05
31	0x378106bf	1.538114e-05
32	0x3735d4e3	1.0838007e-05
33	0x37d4115c	2.5280453e-05
34	0x37105c47	8.604554e-06
35	0xb708757a	-8.133584e-06
36	0x375392c1	1.2610749e-05
37	0xb75097bd	-1.2433095e-05
38	0xb6d4b8bc	-6.3395983e-06
39	0x3420452f	1.492633e-07
40	0x362df3e4	2.5920972e-06
41	0xb70d7ba7	-8.433045e-06
42	0xb7cb51db	-2.4237603e-05
43	0x35c56e3e	1.4709728e-06
44	0xb7358e97	-1.082164e-05
45	0xb6cc55c1	-6.089657e-06
46	0x34d0bf91	3.8882402e-07
47	0xb790873d	-1.7229113e-05
48	0xb7ca2341	-2.4096693e-05
49	0x37a1c57a	1.9284653e-05
50	0xb794bd29	-1.773106e-05
51	0x3726aa1b	9.933977e-06
52	0x36f3406d	7.2494645e-06
53	0x372d10da	1.0315527e-05
54	0xb7524b8c	-1.2534565e-05
55	0xb78406d9	-1.5738815e-05
56	0x36ced6ab	6.164269e-06
57	0xb76465b6	-1.361354e-05
58	0x35fa76ee	1.8661065e-06
59	0x37498030	1.201038e-05
60	0xb7934050	-1.7553713e-05
61	0x375fe661	1.3345475e-05
62	0xb7985d64	-1.81633e-05
63	0xb72ff0eb	-1.0486906e-05
64	0xb774f415	-1.4600363e-05
65	0x3840c452	4.5959205e-05
66	0xb7c707f6	-2.3726356e-05
67	0xb5fa9e90	-1.8672599e-06
68	0x376176cf	1.3438707e-05
69	0x3796c26c	1.7971928e-05
70	0xb80b365e	-3.3190816e-05
71	0xb7511594	-1.2462395e-05
72	0x37958ed2	1.782869e-05
73	0x354cf6e6	7.6355207e-07
74	0xb79759ab	-1.8042358e-05
75	0xb7a31331	-1.944005e-05
76	0xb72faff1	-1.0471777e-05
77	0x36bc26de	5.6073613e-06
78	0x37402107	1.1451782e-05
79	0xb63be0e1	-2.7996068e-06
80	0x356ff84c	8.939576e-07
81	0x372f8688	1.0462136e-05
82	0xb6f72c37	-7.366321e-06
83	0xb75ddd8b	-1.32242085e-05
84	0x377bd10a	1.50094365e-05
85	0xb790c948	-1.7259867e-05
86	0xb619093d	-2.2804154e-06
87	0xb7b45380	-2.1496555e-05
88	0x3796ac67	1.7961675e-05
89	0x35ab43e7	1.2760255e-06
90	0x36151977	2.2217553e-06
91	0x35bb4f8e	1.3955739e-06
92	0xb6f67de3	-7.3460265e-06
93	0xb680de4c	-3.840576e-06
94	0xb7d568b6	-2.5440339e-05
95	0x3789f0a3	1.6443728e-05
96	0x374dc546	1.22648835e-05
97	0xb72be56f	-1.0245813e-05
98	0xb5af8148	-1.3076142e-06
99	0x3823a7e1	3.9018578e-05

model.encoder.layers.2.0.weight f4 [100, 100]
0	0x376b4143	1.4022286e-05
1	0xb7ae9f34	-2.0816551e-05
2	0xb7916395	-1.7331718e-05
3	0xb7a78b40	-1.9972795e-05
4	0xb70cfac4	-8.403036e-06
5	0xb7bb188d	-2.230357e-05
6	0xb5c199a3	-1.4424335e-06
7	0x3790d813	1.7266755e-05
8	0xb7c9f658	-2.407578e-05
9	0x35d48d49	1.583635e-06
10	0xb72d46cc	-1.0328087e-05
11	0x37ce3355	2.4581017e-05
12	0x3779e2ca	1.489436e-05
13	0xb62ad169	-2.5453867e-06
14	0xb776146d	-1.4667498e-05
15	0xb76d091a	-1.412842e-05
16	0xb74a06e1	-1.204174e-05
17	0xb71af100	-9.2352275e-06
18	0xb7893c84	-1.6359852e-05
19	0xb7453835	-1.1755202e-05
20	0xb7220ee8	-9.659423e-06
21	0xb7f54c62	-2.9241844e-05
22	0x361631a7	2.2380643e-06
23	0xb722fd78	-9.714968e-06
24	0xb53d52a3	-7.052824e-07
25	0xb6599e88	-3.2427797e-06
26	0x350d551e	5.2650455e-07
27	0x36d67583	6.391377e-06
28	0xb782847d	-1.5558902e-05
29	0x3691153e	4.3238097e-06
30	0x356c7607	8.8088603e-07
31	0x356dcb18	8.858492e-07
32	0xb6381669	-2.743118e-06
33	0xb62d848c	-2.5856161e-06
34	0x383cdc4b	4.5027857e-05
35	0xb7580b8e	-1.2877294e-05
36	0x36c9df94	6.0162947e-06
37	0x3791311a	1.7308212e-05
38	0x3791857c	1.7347505e-05
39	0xb79943e7	-1.827064e-05
40	0xb68fd490	-4.2864776e-06
41	0xb67cd115	-3.7672628e-06
42	0x352cc4a4	6.4361143e-07
43	0xb7baa087	-2.224768e-05
44	0x371cbe6b	9.34266e-06
45	0xb665eaf8	-3.426043e-06
46	0xb58c805f	-1.0468174e-06
47	0x33802109	5.9664735e-08
48	0x35ac41c0	1.2834134e-06
49	0x371480c5	8.851469e-06
50	0x36a60dce	4.9487926e-06
51	0xb78a2055	-1.6465938e-05
52	0xb672d819	-3.6186595e-06
53	0xb685be31	-3.98585e-06
54	0xb686687c	-4.005675e-06
55	0x380ea618	3.4010125e-05
56	0x366ef9c3	3.5610144e-06
57	0xb71f96f7	-9.512288e-06
58	0xb79658ce	-1.7922746e-05
59	0x37d52480	2.5408575e-05
60	0xb80c04d2	-3.338309e-05
61	0x371091f5	8.617052e-06
62	0x37756cc0	1.4628458e-05
63	0xb6603772	-3.3410874e-06
64	0xb79b8143	-1.8537632e-05
65	0xb83efc04	-4.5534238e-05
66	0xb77f2206	-1.5207106e-05
67	0x378afc1f	1.6568285e-05
68	0xb61cb76d	-2.335258e-06
69	0xb78b40a0	-1.6600185e-05
70	0xb6ed96e8	-7.080718e-06
71	0x37aab58a	2.0350115e-05
72	0x37d67660	2.556591e-05
73	0x370dcc0a	8.4517615e-06
74	0x377a1f86	1.4908501e-05
75	0x36a2c3ca	4.850769e-06
76	0x37a79d44	1.9981184e-05
77	0x383e6a83	4.5398727e-05
78	0xb764145a	-1.35945975e-05
79	0xb6b290e5	-5.3216813e-06
80	0x38096097	3.27533e-05
81	0xb7cfc598	-2.4768335e-05
82	0xb4e1dae1	-4.206877e-07
83	0xb6a355f7	-4.867786e-06
84	0xb7a8fcee	-2.014494e-05
85	0x373aa585	1.1125002e-05
86	0x3761d125	1.345974e-05
87	0x36930e33	4.3825944e-06
88	0x37c7973c	2.3793073e-05
89	0x369238e3	4.3577616e-06
90	0xb768e272	-1.3881001e-05
91	0xb7647e46	-1.3619259e-05
92	0xb6a03b42	-4.77527e-06
93	0x377a5b5c	1.49224325e-05
94	0xb78a8adc	-1.6515543e-05
95	0x37bc225a	2.2427343e-05
96	0xb79034db	-1.719075e-05
97	0xb850d472	-4.978892e-05
98	0x35645c18	8.5070633e-07
99	0x37aa66c7	2.0313439e-05
100	0x37672105	1.3776361e-05
101	0x3712dddd	8.753935e-06
102	0xb73c6db3	-1.1231215e-05
103	0xb75dcd62	-1.3220446e-05
104	0xb7608850	-1.3383178e-05
105	0x34ac4af4	3.2092032e-07
106	0x37ce26d5	2.4575196e-05
107	0x36ecd846	7.0585256e-06
108	0x36ca2e15	6.025434e-06
109	0x37952379	1.7778702e-05
110	0x37291a03	1.0079241e-05
111	0x382b3c88	4.082595e-05
112	0x34f75526	4.606929e-07
113	0xb758e143	-1.2927051e-05
114	0xb720bd76	-9.5808555e-06
115	0xb700d3a9	-7.6786755e-06
116	0x37442817	1.16918445e-05
117	0xb7cf8ead	-2.4742762e-05
118	0x371043c3	8.598846e-06
119	0xb716a938	-8.980096e-06
120	0x3738dfed	1.1019391e-05
121	0x36e5247b	6.8289787e-06
122	0xb7634553	-1.3546395e-05
123	0x37051434	7.932122e-06
124	0x37310215	1.0550507e-05
125	0x36099010	2.0498446e-06
126	0xb76bab37	-1.4046956e-05
127	0x34371bc4	1.7053304e-07
128	0xb832147f	-4.2457596e-05
129	0x373205f9	1.0611017e-05
130	0x35d275cd	1.5680504e-06
131	0xb67e4475	-3.7888797e-06
132	0x368ccace	4.1959347e-06
133	0x36d4f278	6.3463194e-06
134	0x37bab7a0	2.2258435e-05
135	0x3799f60b	1.8353594e-05
136	0x3474cf8d	2.2799777e-07
137	0xb83e0e97	-4.5313118e-05
138	0x351d9c9e	5.8714966e-07
139	0xb841c5bf	-4.619895e-05
140	0xb7149429	-8.855984e-06
141	0xb7ef9152	-2.855869e-05
142	0x3780b3ef	1.5342577e-05
143	0x377ae453	1.4954322e-05
144	0x3797001a	1.800065e-05
145	0xb603fd6a	-1.9668028e-06
146	0x35d96f7a	1.6200204e-06
147	0xb2f74cac	-2.878945e-08
148	0x3712bf80	8.746865e-06
149	0x368fe23c	4.2880692e-06
150	0x3694faae	4.4399267e-06
151	0x36db3144	6.532444e-06
152	0xb79bd72d	-1.8577639e-05
153	0x37279c54	9.990374e-06
154	0xb59e0867	-1.1774363e-06
155	0xb742b1c1	-1.1604688e-05
156	0x3786b8e8	1.6060148e-05
157	0xb803808c	-3.1352552e-05
158	0xb7b1ead5	-2.1209396e-05
159	0x369e08e1	4.7098006e-06
160	0x37cf7aab	2.4733445e-05
161	0xb67e234e	-3.78695e-06
162	0xb7344c91	-1.0746663e-05
163	0x377232a6	1.44361165e-05
164	0x360bc14b	2.0825125e-06
165	0xb764a8a5	-1.3629125e-05
166	0x37736507	1.4507451e-05
167	0xb509f629	-5.139469e-07
168	0x362570f0	2.4652654e-06
169	0xb75400f4	-1.2636407e-05
170	0xb55f6260	-8.321713e-07
171	0x37028a33	7.780781e-06
172	0x37cef4e9	2.4671159e-05
173	0xb807ff68	-3.2424374e-05
174	0xb4b5d20c	-3.3866706e-07
175	0xb6ede708	-7.090046e-06
176	0x377c1e5d	1.502744e-05
177	0xb7226df3	-9.681552e-06
178	0x371aff43	9.238548e-06
179	0x372dbb95	1.0355278e-05
180	0x35290d36	6.297663e-07
181	0x35b4008f	1.3411208e-06
182	0xb72893c0	-1.0047981e-05
183	0x36b7f7b7	5.482663e-06
184	0xb69ed059	-4.733022e-06
185	0xb7e7f344	-2.7650625e-05
186	0xb6af0d46	-5.2169516e-06
187	0x3791271a	1.7303555e-05
188	0xb70224b9	-7.757154e-06
189	0xb7ccf325	-2.4431918e-05
190	0x36a4bbdf	4.909452e-06
191	0xb7950132	-1.776274e-05
192	0x37148829	8.85319e-06
193	0x37a4de0d	1.9653724e-05
194	0xb70f8832	-8.555175e-06
195	0x364a49b0	3.0143237e-06
196	0x37ab72ee	2.0438307e-05
197	0x372ac95b	1.0179671e-05
198	0xb6d0c82b	-6.2221857e-06
199	0xb64aa20f	-3.0194676e-06
200	0xb8201ed6	-3.817569e-05
201	0x3648f3b1	2.994417e-06
202	0xb68b68be	-4.1547164e-06
203	0xb73d2b90	-1.1275421e-05
204	0x373280f0	1.0639647e-05
205	0x37d42242	2.5288322e-05
206	0x37c05d53	2.2931641e-05
207	0x374065a3	1.1467756e-05
208	0xb78cbbd2	-1.6776761e-05
209	0xb4c1f7d5	-3.6129373e-07
210	0x379f7c1f	1.9012075e-05
211	0xb7521d7e	-1.2523842e-05
212	0xb64ece8d	-3.081662e-06
213	0x3604e0b5	1.980033e-06
214	0x371b893e	9.270674e-06
215	0x3784552a	1.5775284e-05
216	0xb815301c	-3.5569174e-05
217	0x35bdc158	1.4137868e-06
218	0x380107a8	3.0763127e-05
219	0x3800cd1a	3.0708594e-05
220	0x3640d46b	2.8733873e-06
221	0xb7633984	-1.3543646e-05
222	0xb71c97fc	-9.333711e-06
223	0x38129f32	3.4957375e-05
224	0x36c0449a	5.730032e-06
225	0x35932f4b	1.0966118e-06
226	0x360a2638	2.0585849e-06
227	0xb7ee1a57	-2.8384076e-05
228	0xb7232699	-9.724544e-06
229	0x374f55e6	1.2358161e-05
230	0x36532479	3.146268e-06
231	0x36811dd7	3.8479734e-06
232	0xb7b93837	-2.2079896e-05
233	0x36accb32	5.1496545e-06
234	0xb7c14eff	-2.3044178e-05
235	0x361d62bb	2.3452292e-06
236	0x370ff3ec	8.580257e-06
237	0xb79cb8f1	-1.868277e-05
238	0x37d7f506	2.5744095e-05
239	0x37287b70	1.004232e-05
240	0x3583342b	9.775443e-07
241	0x36a0ca89	4.79195e-06
242	0xb75893c2	-1.2909006e-05
243	0xb70064fc	-7.652907e-06
244	0xb7daa2b3	-2.6063388e-05
245	0xb4641f45	-2.124553e-07
246	0xb80dc9fc	-3.3805132e-05
247	0x37ea1977	2.7906832e-05
248	0xb74f4b94	-1.2355758e-05
249	0x367934ae	3.7134555e-06
250	0xb6db3b00	-6.533577e-06
251	0xb67e52cc	-3.7897144e-06
252	0xb6a55836	-4.9276523e-06
253	0x379cd797	1.8697041e-05
254	0xb61f71b1	-2.3759023e-06
255	0x3709936f	8.200163e-06

model.encoder.layers.2.0.bias f4 [100]
0	0x37170926	9.002431e-06
1	0xb6630fc2	-3.3834808e-06
2	0x372986d6	1.0104579e-05
3	0xb6c9b917	-6.011814e-06
4	0x35e018bf	1.6696503e-06
5	0x36107ec3	2.1531457e-06
6	0x37f6f571	2.9439778e-05
7	0x37f0c46b	2.8701694e-05
8	0x36ded667	6.6410753e-06
9	0x34b30491	3.334467e-07
10	0xb76f448b	-1.4261469e-05
11	0x376cdcaa	1.41180735e-05
12	0xb5a402a5	-1.2219722e-06
13	0xb78bbb85	-1.6657412e-05
14	0x36901b13	4.2946863e-06
15	0xb76395d0	-1.3565135e-05
16	0xb7a2611c	-1.9357125e-05
17	0xb6f0ff16	-7.1822533e-06
18	0xb7c49fb5	-2.343939e-05
19	0x37a2220c	1.932776e-05
20	0xb714215b	-8.829254e-06
21	0xb71fb405	-9.519053e-06
22	0xb80a6089	-3.299167e-05
23	0x3788ca41	1.6306645e-05
24	0xb7b3912a	-2.140606e-05
25	0xb6c9921c	-6.007276e-06
26	0x378555af	1.5894735e-05
27	0x363d13fc	2.8174827e-06
28	0xb752c707	-1.2563315e-05
29	0x37535c8d	1.2598129e-05
30	0xb76d4665	-1.4142691e-05
31	0x35fae068	1.8691762e-06
32	0xb70daaaf	-8.443995e-06
33	0xb7b82b93	-2.19548e-05
34	0x370b285e	8.294444e-06
35	0x35533094	7.8674316e-07
36	0x37ac56b8	2.054438e-05
37	0xb786f67a	-1.608882e-05
38	0x371cbb8d	9.341992e-06
39	0xb72b7919	-1.02205895e-05
40	0xb764af17	-1.3630625e-05
41	0x372efc4f	1.0429953e-05
42	0xb76a11dd	-1.3951646e-05
43	0xb8096bc0	-3.2763695e-05
44	0x3783bcdb	1.570436e-05
45	0x37d067b0	2.4843815e-05
46	0x35e5a29f	1.7109159e-06
47	0xb7263c2a	-9.908379e-06
48	0x35583b44	8.0552513e-07
49	0xb746672b	-1.182574e-05
50	0xb59007af	-1.0731072e-06
51	0x37a50d47	1.9675716e-05
52	0xb7607507	-1.3378688e-05
53	0xb77fcf81	-1.5247498e-05
54	0x367fec27	3.813542e-06
55	0x37964dff	1.7917713e-05
56	0x372a860b	1.0163999e-05
57	0x37d8566b	2.5789448e-05
58	0xb74a49f5	-1.2057358e-05
59	0x35b8056a	1.3710644e-06
60	0x3592e154	1.0943427e-06
61	0xb7561ab8	-1.2761615e-05
62	0xb66b0cf8	-3.5025278e-06
63	0xb73fb230	-1.1425975e-05
64	0x33ac3158	8.01835e-08
65	0xb7685903	-1.3849002e-05
66	0xb5fa14c5	-1.8632496e-06
67	0xb27b602a	-1.4631988e-08
68	0xb6c2c05d	-5.8040446e-06
69	0xb78d8a03	-1.6872777e-05
70	0xb7cda39e	-2.4514095e-05
71	0xb67bb1df	-3.750545e-06
72	0xb7c8e37c	-2.3947789e-05
73	0x33d13c2b	9.7432654e-08
74	0xb6d9f497	-6.495578e-06
75	0x37bdf0bf	2.2642662e-05
76	0xb79ec53b	-1.892691e-05
77	0x378d1ef5	1.6822925e-05
78	0x37cd6827	2.4486404e-05
79	0x35f42202	1.8189314e-06
80	0xb8066db4	-3.205026e-05
81	0x374c2380	1.2167613e-05
82	0x3693d2b7	4.405472e-06
83	0xb7daf592	-2.6101978e-05
84	0xb7572b9e	-1.2825154e-05
85	0xb5d90111	-1.616807e-06
86	0xb620781a	-2.3911766e-06
87	0xb72476fc	-9.802865e-06
88	0xb416f24c	-1.4057986e-07
89	0x34b6a7bd	3.4022187e-07
90	0xb78f416b	-1.7077391e-05
91	0xb65cbf4d	-3.2893906e-06
92	0xb6d23f5e	-6.2658646e-06
93	0x368b6765	4.1545595e-06
94	0xb7060fe6	-7.990724e-06
95	0x36bceccd	5.630404e-06
96	0x379484d0	1.770482e-05
97	0x37d3ca26	2.5247293e-05
98	0xb80a7ff9	-3.3020948e-05
99	0x3614e3e9	2.218638e-06

model.encoder.layers.3.weight f4 [10, 100]
0	0xb531cddb	-6.62372e-07
1	0x37e247b5	2.697469e-05
2	0x361be113	2.322781e-06
3	0xb5b22f2a	-1.327576e-06
4	0x376a65a6	1.3971154e-05
5	0xb5a7ed6c	-1.2511568e-06
6	0xb75da2f8	-1.3210571e-05
7	0x36886e15	4.065931e-06
8	0x374c5e9e	1.2181377e-05
9	0x37a5b631	1.9754372e-05
10	0xb79311fe	-1.7532144e-05
11	0xb7936068	-1.7568658e-05
12	0xb77c062e	-1.5021809e-05
13	0x37bae181	2.2277936e-05
14	0xb79395d4	-1.7593535e-05
15	0xb6d6dcf2	-6.4034184e-06
16	0xb65b531f	-3.2681926e-06
17	0x384d9ed7	4.902374e-05
18	0xb67c553f	-3.7600546e-06
19	0x37641241	1.3594109e-05
20	0x37eb785c	2.807023e-05
21	0xb64837a0	-2.98347e-06
22	0x37147676	8.849069e-06
23	0xb692a749	-4.3706136e-06
24	0x37eabb38	2.7982154e-05
25	0xb7379ba2	-1.0943886e-05
26	0xb6fd2f18	-7.54547e-06
27	0xb6df5671	-6.655981e-06
28	0x376e0f8d	1.4189526e-05
29	0x378cfb0c	1.6806203e-05
30	0x3803c4bb	3.1416053e-05
31	0x360e75c7	2.1228204e-06
32	0x3740d45d	1.14935365e-05
33	0xb7e5a7d8	-2.7377086e-05
34	0xb7a359af	-1.9472876e-05
35	0x380abc47	3.307711e-05
36	0x38313c0b	4.2256008e-05
37	0xb6234a85	-2.4332269e-06
38	0xb6a0d573	-4.7932203e-06
39	0xb809404c	-3.2723226e-05
40	0xb7015276	-7.708199e-06
41	0xb7a4176f	-1.9561236e-05
42	0x351395ee	5.4979944e-07
43	0xb7abd55b	-2.048414e-05
44	0x37fc66b0	3.0088559e-05
45	0xb650f8a4	-3.1139143e-06
46	0x3848db9c	4.7888243e-05
47	0x37cd761d	2.4492905e-05
48	0x360302df	1.9522192e-06
49	0x3793a6ad	1.760138e-05
50	0x351b29a3	5.780259e-07
51	0xb6d4e894	-6.345168e-06
52	0xb724544c	-9.794789e-06
53	0x38441a67	4.675463e-05
54	0xb5ba2881	-1.3869868e-06
55	0x37c17dcd	2.3065973e-05
56	0x37701a1f	1.43111965e-05
57	0x3735bfe9	1.0833123e-05
58	0x37379b06	1.0943744e-05
59	0xb62cc28e	-2.5743243e-06
60	0xb75d6722	-1.3196639e-05
61	0x363634f8	2.7150945e-06
62	0xb729975d	-1.0108427e-05
63	0x3726bd40	9.938434e-06
64	0xb7a807a2	-2.0030715e-05
65	0xb663aed5	-3.3927402e-06
66	0x37f154fc	2.8769013e-05
67	0xb669ed54	-3.4857849e-06
68	0xb746a0ed	-1.1839188e-05
69	0x3587888f	1.0098028e-06
70	0xb74b20f9	-1.210742e-05
71	0xb6e2b740	-6.756658e-06
72	0xb589dfe8	-1.0272461e-06
73	0x3515cb34	5.5802525e-07
74	0x370606e3	7.988626e-06
75	0xb7a0cfc5	-1.9170237e-05
76	0xb7cf85a3	-2.4738552e-05
77	0x36a96bfe	5.0491644e-06
78	0xb7e4c4e2	-2.7271399e-05
79	0x370706c5	8.048203e-06
80	0x37395b34	1.1048094e-05
81	0xb77371fc	-1.4510468e-05
82	0x37761ade	1.4668998e-05
83	0xb74f016a	-1.2338491e-05
84	0xb80614f2	-3.1967596e-05
85	0x3797d78b	1.8100973e-05
86	0x33880288	6.333454e-08
87	0x378ee8b6	1.7036084e-05
88	0xb716e75e	-8.994566e-06
89	0xb4b32efd	-3.3375537e-07
90	0x34913c18	2.705208e-07
91	0xb7455435	-1.1761721e-05
92	0xb698e2f4	-4.556374e-06
93	0x3723eb3d	9.770328e-06
94	0xb75264b5	-1.2540423e-05
95	0x370afbff	8.284113e-06
96	0x37d519ac	2.5403533e-05
97	0x36705ea9	3.5817886e-06
98	0x37131cdc	8.768602e-06
99	0x36269ef2	2.4828446e-06
100	0x366c440a	3.5206344e-06
101	0xb77d7dc1	-1.51092545e-05
102	0xb802badd	-3.1168445e-05
103	0xb74eaa7e	-1.2318253e-05
104	0xb6b50026	-5.3942376e-06
105	0xb61311d1	-2.1915077e-06
106	0xb68322d5	-3.908159e-06
107	0xb72d15ee	-1.0316709e-05
108	0xb7b86382	-2.1980846e-05
109	0x3755a993	1.2735271e-05
110	0x3703932f	7.842477e-06
111	0x377ecfd2	1.5187967e-05
112	0x3623de18	2.4418168e-06
113	0xb6f02eca	-7.1580043e-06
114	0x371ea897	9.456787e-06
115	0x3754fa42	1.2694452e-05
116	0xb6f6b36a	-7.352258e-06
117	0xb82dd5bb	-4.1445466e-05
118	0xb6f498be	-7.289548e-06
119	0x37efb48d	2.8575096e-05
120	0x3653b1a2	3.1544846e-06
121	0x38391163	4.412363e-05
122	0xb7ca883d	-2.4143717e-05
123	0x37777cac	1.4751375e-05
124	0x3788db76	1.6314658e-05
125	0xb708a227	-8.143986e-06
126	0x37820e19	1.5503772e-05
127	0x37035b54	7.829472e-06
128	0xb6a9cbef	-5.0603335e-06
129	0x36f5a674	7.3209467e-06
130	0x368f7866	4.2757483e-06
131	0xb69e3ae0	-4.715621e-06
132	0x3749b631	1.2022953e-05
133	0xb782b6ee	-1.5582391e-05
134	0x3711c13b	8.6876635e-06
135	0xb63eb7b8	-2.8419145e-06
136	0xb73209b9	-1.06118905e-05
137	0xb68a2902	-4.1174944e-06
138	0xb3b05523	-8.211125e-08
139	0x37804171	1.5289263e-05
140	0xb8009d53	-3.0664098e-05
141	0xb6365891	-2.7171666e-06
142	0xb78f5d84	-1.7090475e-05
143	0x37d6bf77	2.5599946e-05
144	0xb78009ee	-1.5263413e-05
145	0xb540b1b9	-7.1784194e-07
146	0xb6999f23	-4.5782813e-06
147	0x358058da	9.562602e-07
148	0x36ed4763	7.071461e-06
149	0xb84ab355	-4.832757e-05
150	0x37886df7	1.626367e-05
151	0x373eb5ad	1.1367182e-05
152	0xb73a773b	-1.1114224e-05
153	0xb68031c3	-3.8204903e-06
154	0xb723f2a1	-9.7720485e-06
155	0x36bc268a	5.607323e-06
156	0x3756debc	1.2807253e-05
157	0xb706377d	-7.999942e-06
158	0xb560d048	-8.374959e-07
159	0x35932cd9	1.0965406e-06
160	0x3801b39b	3.0923267e-05
161	0x37196fea	9.145568e-06
162	0x378b4ab4	1.6604878e-05
163	0x375c41a8	1.3128309e-05
164	0x37e33113	2.708336e-05
165	0x37c32b5c	2.3266002e-05
166	0x3793feed	1.7642475e-05
167	0x35c7ca8d	1.4885605e-06
168	0x37a3e5e0	1.9538158e-05
169	0xb746e93c	-1.1856024e-05
170	0xb811db6d	-3.477505e-05
171	0x37e7961f	2.7607251e-05
172	0xb7bbaafc	-2.2371758e-05
173	0xb6f4606b	-7.282991e-06
174	0xb77e0769	-1.5141305e-05
175	0xb6c1c058	-5.77424e-06
176	0x378f0839	1.7050757e-05
177	0xb792d13e	-1.7501992e-05
178	0xb809ccb8	-3.2854005e-05
179	0xb6f1ebe0	-7.209819e-06
180	0xb7cdedbe	-2.4548612e-05
181	0xb617018f	-2.250166e-06
182	0x36835183	3.9135934e-06
183	0xb72a5150	-1.0151722e-05
184	0xb62ff186	-2.6217617e-06
185	0xb79718b0	-1.8012099e-05
186	0xb781027e	-1.5379159e-05
187	0xb693778f	-4.39486e-06
188	0x378364a7	1.5663287e-05
189	0xb7eab7e1	-2.7980599e-05
190	0x37cf781f	2.4732259e-05
191	0xb72d1ffd	-1.0319051e-05
192	0xb77ca571	-1.505889e-05
193	0xb705a500	-7.965835e-06
194	0x34ab5c80	3.1918535e-07
195	0x37ee4717	2.8404915e-05
196	0xb72b199e	-1.0198359e-05
197	0xb7b277d2	-2.127505e-05
198	0x3619f262	2.2939862e-06
199	0x36754a07	3.6550935e-06
200	0xb4b0953c	-3.2891137e-07
201	0x37953802	1.7788265e-05
202	0xb7721609	-1.44294545e-05
203	0x34cbc697	3.795619e-07
204	0xb8209332	-3.828406e-05
205	0x378788b5	1.6156913e-05
206	0xb71b493a	-9.255769e-06
207	0x37ffa350	3.0474417e-05
208	0x3696ed7e	4.497996e-06
209	0xb795b919	-1.7848377e-05
210	0xb7f9a152	-2.9758234e-05
211	0xb6c18e43	-5.7684097e-06
212	0x368507c7	3.9646143e-06
213	0x3622d3fc	2.4263272e-06
214	0x37e302e8	2.7061862e-05
215	0xb84b437e	-4.846183e-05
216	0xb778249d	-1.4790477e-05
217	0x378baca4	1.6650483e-05
218	0x35ca2f49	1.5063935e-06
219	0x375338d5	1.2589812e-05
220	0x36743c24	3.639384e-06
221	0xb779630d	-1.4864619e-05
222	0xb702bd68	-7.792703e-06
223	0x3702438d	7.764332e-06
224	0x358ffa21	1.0727127e-06
225	0xb50592f9	-4.9760234e-07
226	0xb65d83a0	-3.3008182e-06
227	0xb72aeaab	-1.01874275e-05
228	0x36278514	2.49624e-06
229	0xb8079725	-3.2327272e-05
230	0xb7317e1e	-1.0579386e-05
231	0xb806a3c3	-3.2100605e-05
232	0x3748d11a	1.1969614e-05
233	0xb53ea1ea	-7.101613e-07
234	0x339e38d9	7.367789e-08
235	0x32d8f873	2.5258691e-08
236	0x375a4ff8	1.3012432e-05
237	0xb80fe6ec	-3.430892e-05
238	0xb6743d70	-3.6394595e-06
239	0x33c43e3c	9.1382816e-08
240	0x37849d37	1.5808835e-05
241	0x353a9d33	6.9519155e-07
242	0xb6ca2601	-6.0244934e-06
243	0xb6b9938d	-5.530607e-06
244	0xb5b28a1d	-1.330223e-06
245	0xb6a3d180	-4.8821676e-06
246	0xb7867ad3	-1.603124e-05
247	0xb657ec90	-3.2175194e-06
248	0xb70f7d70	-8.55267e-06
249	0xb6869bac	-4.011634e-06
250	0xb6f631c1	-7.3371634e-06
251	0x361ca704	2.3343027e-06
252	0xb6d1cc88	-6.252496e-06
253	0xb7af414e	-2.0892036e-05
254	0x374468dd	1.1706926e-05
255	0xb6bb3d08	-5.5801393e-06

model.encoder.layers.3.bias f4 [10]
0	0xb626cf75	-2.4856683e-06
1	0x3770b11a	1.4346349e-05
2	0xb821a200	-3.8536265e-05
3	0x376563fc	1.3672743e-05
4	0x37dae7f4	2.6095637e-05
5	0x36c9fbdf	6.0195885e-06
6	0x372e5c73	1.0392733e-05
7	0xb7d3e1f9	-2.5258387e-05
8	0x358a722a	1.0315027e-06
9	0xb7b7e87e	-2.1923563e-05

model.decoder_x.layers.0.weight f4 [10, 10]
0	0x37c99bde	2.4033649e-05
1	0xb6a125f5	-4.8025927e-06
2	0xb49cf769	-2.923728e-07
3	0xb5e266bd	-1.6868213e-06
4	0x3858a1df	5.1649167e-05
5	0x37222a53	9.665807e-06
6	0x37a35737	1.9471727e-05
7	0x378843f1	1.6244101e-05
8	0x37830962	1.5620786e-05
9	0xb7d27cfb	-2.509215e-05
10	0x3806b154	3.211324e-05
11	0xb739f315	-1.1083456e-05
12	0xb6c9a2d8	-6.0092243e-06
13	0xb72c3e5e	-1.026652e-05
14	0x37c3f8c6	2.3361656e-05
15	0x35216b17	6.013301e-07
16	0xb6f44fe2	-7.2810662e-06
17	0x37335d4d	1.0690955e-05
18	0xb79b5550	-1.8517167e-05
19	0xb703533d	-7.827589e-06
20	0xb68791f8	-4.0403065e-06
21	0xb74a450b	-1.2056214e-05
22	0x36ec20f4	7.0371843e-06
23	0x377c22e0	1.502849e-05
24	0x36ff9fa6	7.6181777e-06
25	0xb76c49b5	-1.4083857e-05
26	0xb6fb9663	-7.4978902e-06
27	0xb7c07bdd	-2.2945862e-05
28	0xb605a0c8	-1.9912131e-06
29	0xb7903088	-1.7188737e-05
30	0xb6939d2e	-4.3992395e-06
31	0x36e941c0	6.9515954e-06
32	0x37e21815	2.6952514e-05
33	0xb7e70c73	-2.7543143e-05
34	0x37655824	1.36699855e-05
35	0x371f14d9	9.4819925e-06
36	0x3779a683	1.4880326e-05
37	0xb56c7179	-8.8081975e-07
38	0xb7c28bb7	-2.3191662e-05
39	0xb7e45fe5	-2.7224372e-05
40	0x3797682c	1.8049112e-05
41	0x37a0fd46	1.9191426e-05
42	0xb76d4904	-1.4143301e-05
43	0x3654cc19	3.1709262e-06
44	0x37d9018b	2.5869134e-05
45	0xb7dfba30	-2.6670372e-05
46	0xb7990fa2	-1.82463e-05
47	0xb7c2752a	-2.3181161e-05
48	0xb844d16f	-4.692509e-05
49	0x383d923a	4.5197296e-05
50	0x370518a9	7.933159e-06
51	0x3794aa73	1.7722346e-05
52	0x371be4be	9.291978e-06
53	0xb7ed624b	-2.8298373e-05
54	0x38256d45	3.944083e-05
55	0x372e8eb1	1.0404431e-05
56	0x37a9f5d6	2.0260846e-05
57	0xb7010b68	-7.691655e-06
58	0xb7b68352	-2.1757241e-05
59	0xb781902b	-1.5445132e-05
60	0xb63f6d26	-2.852475e-06
61	0xb554d34c	-7.928363e-07
62	0x37a41d16	1.9563868e-05
63	0x37af8414	2.092313e-05
64	0xb6863753	-3.999952e-06
65	0xb79f0c88	-1.8960112e-05
66	0xb7bf870f	-2.2831866e-05
67	0x37982832	1.813853e-05
68	0xb52727e8	-6.227042e-07
69	0x37a0a421	1.9149915e-05
70	0xb7dfb8f5	-2.6669799e-05
71	0x378ba5a5	1.6647225e-05
72	0xb7f250f2	-2.8886341e-05
73	0xb5ee4df4	-1.7755069e-06
74	0xb61bb818	-2.3203957e-06
75	0xb6fc4450	-7.518138e-06
76	0x374caaf2	1.2199149e-05
77	0xb6e01710	-6.678405e-06
78	0x373b4e99	1.11643685e-05
79	0x358a6e70	1.0313943e-06
80	0x374eb0f7	1.231976e-05
81	0x3727f12a	1.0010126e-05
82	0x378e03ee	1.6929549e-05
83	0xb6007043	-1.9138831e-06
84	0x37705410	1.4324687e-05
85	0x36620d49	3.3684357e-06
86	0x374f6af9	1.2363068e-05
87	0x36a84365	5.014636e-06
88	0xb808157f	-3.2444947e-05
89	0x37adc23e	2.0713658e-05
90	0x38466886	4.7304224e-05
91	0xb5e7caf6	-1.7269911e-06
92	0xb736775a	-1.0875834e-05
93	0x37d0f700	2.491055e-05
94	0xb739fe68	-1.1086093e-05
95	0x375bff07	1.3112795e-05
96	0x3788e01d	1.6316824e-05
97	0x35a10ff2	1.2000075e-06
98	0x37533dba	1.2590952e-05
99	0x35aac653	1.2723707e-06

model.decoder_x.layers.0.bias f4 [10]
0	0xb43ca5cc	-1.7569181e-07
1	0xb69731a7	-4.505931e-06
2	0x379d6b19	1.876573e-05
3	0x3814caa7	3.5474684e-05
4	0x359e7a4d	1.1807512e-06
5	0x373c9fef	1.1242911e-05
6	0x35cc8cf6	1.524021e-06
7	0x3780be4e	1.5347407e-05
8	0xb6234026	-2.4326232e-06
9	0x3769ea4e	1.39424355e-05

model.decoder_x.layers.1.0.weight f4 [10, 10]
0	0x371e4a97	9.434901e-06
1	0x38089fbf	3.2573702e-05
2	0xb73f6f64	-1.1410422e-05
3	0xb6826e7d	-3.8871644e-06
4	0x375d5628	1.3192686e-05
5	0x35b80b57	1.3712369e-06
6	0x372642e8	9.909949e-06
7	0xb49c4bd7	-2.9112445e-07
8	0xb78c5c39	-1.6732245e-05
9	0xb78694f1	-1.6043401e-05
10	0x382324a3	3.889635e-05
11	0xb64c7f47	-3.0472454e-06
12	0xb6422999	-2.8932466e-06
13	0xb7764613	-1.4679058e-05
14	0xb7d1283e	-2.493348e-05
15	0x37d65d30	2.5554182e-05
16	0xb6ccf9fe	-6.1087767e-06
17	0x37747fb0	1.4573263e-05
18	0xb793894f	-1.7587705e-05
19	0x382d943f	4.138448e-05
20	0x36b9585a	5.523715e-06
21	0x37b4a077	2.1532394e-05
22	0xb692744a	-4.364677e-06
23	0x35b9fa2a	1.3856381e-06
24	0x350f372b	5.335193e-07
25	0x36955048	4.449892e-06
26	0x359d2cbd	1.1710432e-06
27	0x36c2eb55	5.809047e-06
28	0x3763ae5f	1.3570853e-05
29	0x37f06da6	2.8661289e-05
30	0xb73af176	-1.1142683e-05
31	0xb6d88c5d	-6.453642e-06
32	0x372b4fa4	1.0210937e-05
33	0xb54233fd	-7.2346285e-07
34	0xb7040f06	-7.871311e-06
35	0x373c468d	1.12221e-05
36	0xb68a3c1d	-4.1197186e-06
37	0xb7daf0e1	-2.6099793e-05
38	0xb67062d8	-3.5820322e-06
39	0x362d923b	2.5864126e-06
40	0xb84589fb	-4.7096964e-05
41	0xb827c565	-3.999974e-05
42	0x37991486	1.8248578e-05
43	0xb4b3b688	-3.3474157e-07
44	0xb549e8c2	-7.521704e-07
45	0x380d8a96	3.3746088e-05
46	0xb7cfe3bb	-2.4782368e-05
47	0x36f19689	7.1998843e-06
48	0x3768c3fa	1.3873907e-05
49	0x380b14de	3.3159617e-05
50	0x35f9c411	1.8609009e-06
51	0xb65b0d3f	-3.2641253e-06
52	0x37855304	1.5893493e-05
53	0xb76b464e	-1.4023461e-05
54	0xb742bea3	-1.1607687e-05
55	0x3598f185	1.1395174e-06
56	0x331a3c19	3.5910578e-08
57	0x36d2f040	6.2864565e-06
58	0xb76e50eb	-1.4204746e-05
59	0xb6172f40	-2.2528257e-06
60	0x35c4d6fe	1.4665709e-06
61	0x3793619f	1.7569224e-05
62	0x378c1a7b	1.6701631e-05
63	0xb790540c	-1.7205275e-05
64	0x37638b71	1.3562721e-05
65	0xb7e387b2	-2.7123697e-05
66	0xb7c2648c	-2.3173423e-05
67	0xb69e7fa0	-4.7236244e-06
68	0x374506fc	1.1743741e-05
69	0x37ff86fc	3.0461226e-05
70	0x3694024e	4.411012e-06
71	0x373c750b	1.1232924e-05
72	0xb68a2741	-4.1172902e-06
73	0x3521193e	6.0013906e-07
74	0x36e97ceb	6.9584835e-06
75	0xb77c6617	-1.504414e-05
76	0x3796ed44	1.7991879e-05
77	0xb78d39f8	-1.6835504e-05
78	0x36a94be1	5.045426e-06
79	0x3843980c	4.6633228e-05
80	0xb76f339b	-1.4257525e-05
81	0xb74fdb98	-1.238929e-05
82	0xb70f42f9	-8.5390575e-06
83	0x37922372	1.7421062e-05
84	0x370cf542	8.401754e-06
85	0xb6e23162	-6.741074e-06
86	0x37ce71ab	2.4610044e-05
87	0x380e6db0	3.3957593e-05
88	0xb60aedfe	-2.0702132e-06
89	0xb581c47d	-9.668435e-07
90	0xb72fbf47	-1.0475348e-05
91	0x374a5873	1.2060732e-05
92	0xb70a810d	-8.255488e-06
93	0xb798d8db	-1.8220793e-05
94	0xb5f26b91	-1.8061711e-06
95	0x36dcb934	6.5780714e-06
96	0x37c1999a	2.307892e-05
97	0xb625be3b	-2.4697645e-06
98	0x36cee22f	6.1656096e-06
99	0xb72fab06	-1.0470632e-05

model.decoder_x.layers.1.0.bias f4 [10]
0	0x38081165	3.2441127e-05
1	0xb782aef7	-1.5578682e-05
2	0xb7d69535	-2.5580268e-05
3	0x3651e9a2	3.127942e-06
4	0xb79d06e2	-1.8719064e-05
5	0x372bd4a1	1.0241901e-05
6	0x3743e035	1.1675108e-05
7	0x3571f6a3	9.01384e-07
8	0x375ad4f1	1.3043392e-05
9	0xb56f2e8e	-8.9102184e-07

model.decoder_x.layers.2.0.weight f4 [10, 10]
0	0x385b0c4b	5.2225118e-05
1	0x36218f59	2.4074309e-06
2	0x373bb9ab	1.1189298e-05
3	0x36afcd2d	5.239292e-06
4	0x3783c2bb	1.5707095e-05
5	0x36ee9230	7.109971e-06
6	0xb7a284bf	-1.937372e-05
7	0xb6fb1168	-7.4824093e-06
8	0xb77e1dd0	-1.5146521e-05
9	0x33e74bb7	1.0770548e-07
10	0x3681ae82	3.864815e-06
11	0xb7511eae	-1.2464514e-05
12	0xb68e0614	-4.2326374e-06
13	0xb68feb74	-4.2891425e-06
14	0xb799ef55	-1.8350469e-05
15	0x3853f953	5.053852e-05
16	0x36d5159c	6.3504103e-06
17	0x372ef15b	1.0427403e-05
18	0xb658f886	-3.2331168e-06
19	0x3691551e	4.3312457e-06
20	0x3727c7ea	1.0000522e-05
21	0xb785ff1c	-1.597363e-05
22	0x383e7044	4.5404086e-05
23	0xb6fcf94e	-7.539208e-06
24	0xb73d8006	-1.1295086e-05
25	0x3787f343	1.6206532e-05
26	0x37a9399d	2.0173198e-05
27	0x376cc5d8	1.411276e-05
28	0xb60bc5e5	-2.0827804e-06
29	0x37280fa0	1.0017218e-05
30	0x37d4ef16	2.5383702e-05
31	0xb5be7f20	-1.4193101e-06
32	0x3657bbde	3.214685e-06
33	0xb7007024	-7.655504e-06
34	0x370da746	8.443201e-06
35	0xb79c1d6e	-1.8610353e-05
36	0xb72195df	-9.631242e-06
37	0x35d79cc1	1.606437e-06
38	0x371dce65	9.405984e-06
39	0xb73ea656	-1.1363611e-05
40	0x3699e89a	4.5868337e-06
41	0xb72d9ce0	-1.0348129e-05
42	0xb684d091	-3.958187e-06
43	0xb5ac0985	-1.2817769e-06
44	0x3832d213	4.2634154e-05
45	0xb8196b8b	-3.65782e-05
46	0x375153c2	1.2476872e-05
47	0x33b5b618	8.461592e-08
48	0x361ecc42	2.3662728e-06
49	0xb6da6ee0	-6.509814e-06
50	0xb4854ef2	-2.483062e-07
51	0x36c7c819	5.9539566e-06
52	0xb791cb84	-1.7380116e-05
53	0xb6ae0141	-5.18575e-06
54	0x347fa0b8	2.3807195e-07
55	0xb5ee4744	-1.7753123e-06
56	0x384ead0d	4.9275393e-05
57	0xb6b78e52	-5.4703933e-06
58	0xb575449f	-9.136947e-07
59	0xb836617b	-4.3482967e-05
60	0xb7a225fa	-1.932959e-05
61	0xb7990769	-1.8242472e-05
62	0xb409e868	-1.2843668e-07
63	0x36e2e050	6.7614383e-06
64	0xb7e80b64	-2.766186e-05
65	0xb613699b	-2.1966177e-06
66	0xb775ae6e	-1.4643751e-05
67	0xb72e82e9	-1.0401688e-05
68	0xb75e90e6	-1.3265968e-05
69	0x37ad94b8	2.069246e-05
70	0xb5b56e91	-1.351773e-06
71	0xb76c584a	-1.4087253e-05
72	0xb68ecb03	-4.2555635e-06
73	0xb8430c07	-4.6502824e-05
74	0xb71325d7	-8.770693e-06
75	0x36151106	2.221264e-06
76	0xb78d0add	-1.6813568e-05
77	0x37080816	8.108114e-06
78	0xb7874e76	-1.612979e-05
79	0xb7423932	-1.1576618e-05
80	0x37dd0a46	2.6350037e-05
81	0xb7b31a98	-2.1350847e-05
82	0x37a8f610	2.0141742e-05
83	0x370f132e	8.52793e-06
84	0xb8028535	-3.1118474e-05
85	0xb67404b9	-3.6361582e-06
86	0x37d5bca6	2.5479425e-05
87	0x368831da	4.0589193e-06
88	0x368da281	4.2210454e-06
89	0x37e2548d	2.6980671e-05
90	0x370e2f01	8.4748035e-06
91	0x371177c2	8.670557e-06
92	0x3786ee58	1.6085032e-05
93	0x383a2d2e	4.4387933e-05
94	0x3699279f	4.564368e-06
95	0x372aa71c	1.0171698e-05
96	0xb7f3848c	-2.902958e-05
97	0x37c73b4d	2.3750263e-05
98	0xb635d976	-2.709768e-06
99	0x37ec4d4a	2.8169383e-05

model.decoder_x.layers.2.0.bias f4 [10]
0	0xb668e75c	-3.4705363e-06
1	0x36a90485	5.0371186e-06
2	0x3722c430	9.701631e-06
3	0xb6a73abb	-4.983825e-06
4	0x3798c973	1.821362e-05
5	0xb806ae0a	-3.2110176e-05
6	0xb78ba15e	-1.6645234e-05
7	0x370346db	7.824706e-06
8	0xb7434636	-1.1639253e-05
9	0x36aa13c5	5.0686963e-06
