logs/l1_coef-0.001/version_1/checkpoints/epoch=2019-step=2020.ckpt (torch, 518107 bytes, 30 tensors)

model.pi f4 [100, 1]
000000 f6 d9 0a 3f cf f7 04 3f 61 e5 09 3f b2 a9 0a 3f
       0.5423883 0.51940626 0.5386563 0.54165184
000010 9e 8e d4 3e b6 85 0b 3f f4 6d 01 3f 98 05 11 3f
       0.41515058 0.545009 0.505584 0.5664916
000020 dc 0a f7 3e 10 ba 10 3f eb 09 21 3f 92 cf 13 3f
       0.48250473 0.5653391 0.6290576 0.577386
000030 76 92 00 3f ae 64 16 3f 8c 3f ca 3e 52 c4 13 3f
       0.5022348 0.58747375 0.39501607 0.57721436
000040 c6 62 f1 3e 8f 50 06 3f 80 e3 19 3f a6 99 17 3f
       0.4714567 0.5246667 0.6011276 0.59218824
000050 77 04 df 3e aa 28 dc 3e eb 57 cd 3e 44 c2 ce 3e
       0.43558094 0.42999774 0.4010614 0.40382588
000060 4a 95 d8 3e f5 3e ce 3e a1 a6 cc 3e 68 0f e1 3e
       0.423014 0.40282407 0.39970878 0.43957067
000070 2e d4 d4 3e 27 0a cf 3e af f3 c7 3e 96 66 bf 3e
       0.4156813 0.40437433 0.39053103 0.37382954
000080 ef 2b ed 3e a6 65 c7 3e 65 98 cd 3e 70 4d a8 3e
       0.4632258 0.3894474 0.4015533 0.3287158
000090 fa 80 fb 3e f8 e6 da 3e 48 0c dd 3e 7e 31 b9 3e
       0.4912184 0.4275434 0.43173432 0.36170572
0000a0 e4 6e d4 3e 17 97 b8 3e 0b 2f c6 3e 70 77 aa 3e
       0.41490853 0.36052772 0.38707766 0.3329425
0000b0 40 86 a7 3e 91 49 c3 3e c3 23 b2 3e 58 e5 fc 3e
       0.32719612 0.38142064 0.3479291 0.49393725
0000c0 2a c4 b2 3e 31 fc f9 3e 4c df b4 3e be a1 05 3f
       0.34915286 0.4882522 0.35326612 0.52199924
0000d0 5a eb ce 3e 45 0b f4 3e 47 76 b5 3e 51 dd cd 3e
       0.40413934 0.47664848 0.354418 0.40207914
0000e0 66 47 aa 3e 51 5e b5 3e 71 d8 ae 3e d0 64 b8 3e
       0.33257598 0.3542352 0.34149507 0.36014414
0000f0 7b c5 c1 3e 41 47 07 3f d7 ca 00 3f 7c 4f fe 3e
       0.37845978 0.528431 0.5030951 0.49670017
000100 99 f5 ae 3e dc 8d b3 3e 7d 66 ac 3e a7 8f b0 3e
       0.3417175 0.35069168 0.33671942 0.34484598
000110 c0 b7 af 3e 70 93 aa 3e cd 19 bd 3e d8 25 b7 3e
       0.34319878 0.3331561 0.36933747 0.3577106
000120 73 ab c0 3e 6c c2 f3 3e 3d 6e b8 3e 32 c5 c9 3e
       0.37630805 0.4760927 0.36021605 0.3940826
000130 29 d2 d0 3e f4 30 c7 3e d2 95 ca 3e 24 02 cf 3e
       0.4078534 0.38904536 0.3956743 0.4043132
000140 02 99 d1 3e 5c 2c da 3e c8 a6 b5 3e b6 ba db 3e
       0.40937048 0.4261197 0.35478806 0.42915887
000150 9e 1a fe 3e 9e 36 f7 3e 99 47 d7 3e c6 10 c3 3e
       0.49629682 0.48283857 0.42046812 0.38098735
000160 e9 df d6 3e de 6f ba 3e a5 69 04 3f 7e 8b f0 3e
       0.41967705 0.36413473 0.517237 0.46981424
000170 dd 82 fb 3e 8c 32 08 3f 29 2b 0c 3f 44 93 05 3f
       0.49123278 0.5320213 0.5475336 0.52177835
000180 82 1c 01 3f 2b 0c 0e 3f ff 80 02 3f 9e ae de 3e
       0.50434124 0.55487317 0.5097808 0.43492597

model.encoder.layers.0.weight f4 [100, 100]
000000 98 56 b5 3c 5c 3e 9e 3c 3f d2 ad 3c c9 9b b4 3c
       0.022136018 0.019316845 0.021218417 0.02204694
000010 c4 53 f1 3a 6d 22 bc 3c 78 a0 7b 3c a3 00 dd 3c
       0.0018411805 0.022965634 0.015358083 0.026977843
000020 80 e0 ba 3b bd 10 f2 3c 60 d1 70 bd 5c 9e 22 bd
       0.005703032 0.029548997 -0.058793426 -0.039701805
000030 eb 2e fb bc bc 70 25 bd 20 7d 1d bc 2e 96 21 bd
       -0.03066202 -0.040390715 -0.009612352 -0.039449863
000040 64 50 aa bc 9c 41 eb bc 0d 3d 4f bd 13 0b 3a bd
       -0.020790286 -0.028717808 -0.050595332 -0.045420717
000050 07 fe 40 bc 81 c3 5b bc 51 5f e5 bb fd d1 6b bb
       -0.011779315 -0.013413311 -0.006999888 -0.0035983317
000060 01 03 36 bc 89 8c 24 3c 4e 8c a8 bb 32 11 43 bc
       -0.011109115 0.010043272 -0.0051436787 -0.011905955
000070 70 78 0e bc c8 bc 20 3c 1b 7b 5c 3b 46 82 f9 bb
       -0.008695707 0.009810634 0.0033642713 -0.0076144068
000080 c3 98 54 3c eb 38 b1 3b 90 39 c1 3b 43 05 95 ba
       0.012975874 0.0054083965 0.0058967546 -0.0011369366
000090 52 3f 9b 3c 93 3c 07 3c fa 04 53 bc 2e 9d c2 bb
       0.018951092 0.008254188 -0.0128796045 -0.0059391474
0000a0 81 a1 05 3c 96 eb 50 3b 4b 82 b6 3b 93 3a bf ba
       0.008156181 0.0031878701 0.0055697314 -0.00145896
0000b0 9e 77 ca b8 38 eb a2 3b f1 8d 03 bb 15 0d a3 3c
       -9.654391e-05 0.004971888 -0.0020073617 0.019903699
0000c0 18 e5 8c bb a3 d3 9b 3c 20 c2 18 bb d3 fd f9 bc
       -0.004299771 0.019021815 -0.0023309067 -0.03051654
0000d0 fd 66 02 bc 3d 40 83 3c fb a6 49 bb 9b 4b 28 3c
       -0.007959125 0.016021842 -0.0030769694 0.010271932
0000e0 91 ec c0 b9 43 b2 e5 ba fe 01 4b 3b 95 f8 8a 3b
       -0.0003679735 -0.001752444 0.003097653 0.004241059
0000f0 ba e0 0b 3c f3 62 9f 3c 49 b4 8c 3c be f0 93 3c
       0.008537466 0.019456362 0.01717581 0.01805913
000100 f1 37 24 3b df ff 92 3b 7f 9d d3 38 4e 1e 99 39
       0.0025057758 0.0044860686 0.000100906 0.00029205013
000110 13 90 a5 3b c0 ab 3d bb 93 07 64 3b a3 e6 8a 3a
       0.0050525754 -0.0028941482 0.0034794554 0.00105973
000120 aa 08 7e bb ba 1f 77 3c 9f e0 2b 3b 87 ed e4 3b
       -0.0038762488 0.015083248 0.0026226414 0.0069863233
000130 32 98 f9 bb b7 ac 97 bb 2f 6b ce 3b e6 cc f7 3b
       -0.00761702 -0.0046287435 0.0062993984 0.0075622676
000140 a2 45 eb bb 34 0c 19 bc 56 dc 1d bb 2e a4 2f 3c
       -0.0071799317 -0.009341288 -0.002408763 0.010720296
000150 cd 15 a1 bc 73 f6 8e bc 04 1e 07 bc b5 cf 99 3b
       -0.019663716 -0.0174515 -0.008246902 0.00469395
000160 20 f9 03 bc ec aa 64 bb 72 64 61 3c 86 b7 ea 3b
       -0.0080550015 -0.0034891916 0.013756858 0.007162991
000170 ac e2 05 3c b3 72 86 3c 4e 8c b6 3c c8 22 61 3c
       0.008171719 0.016412115 0.0222837 0.013741203
000180 03 a8 4c 3c d0 4c cf 3c ab f0 54 3c 79 b1 ea 3a
       0.012491229 0.025305182 0.012996833 0.0017905674
000190 6b 38 b0 bc da 31 9a bc 6f 8b a9 bc 0f d6 af bc
       -0.021511277 -0.0188226 -0.02069637 -0.021464376
0001a0 0c c1 b9 ba f8 82 b7 bc 91 54 71 bc f5 34 d9 bc
       -0.0014171912 -0.022401318 -0.014729635 -0.02651451
0001b0 9c cf a4 bb d6 f7 ed bc 1d 11 70 3d ef 50 21 3d
       -0.005029632 -0.029048841 0.05861007 0.039383825
0001c0 f0 d8 f7 3c 40 2e 24 3d 01 7b 15 3c cc 50 20 3d
       0.030254811 0.04008317 0.009123565 0.039139554
0001d0 18 6d a6 3c 76 8d e7 3c f6 74 4e 3d 01 f0 38 3d
       0.020315692 0.028265696 0.05040451 0.04515076
0001e0 2b 66 3a 3c 82 1f 55 3c 8a a8 d6 3b 51 50 4d 3b
       0.011376898 0.013008 0.006550853 0.003132839
0001f0 7d 48 2f 3c 96 97 2d bc 22 27 99 3b 7a 79 3c 3c
       0.010698435 -0.010595223 0.0046738544 0.011503572
000200 fe 7d 07 3c 45 67 28 bc 72 27 71 bb 48 6b f0 3b
       0.008269785 -0.010278528 -0.0036797193 0.0073370077
000210 16 5c 59 bc ba c9 bb bb d3 d3 cd bb ff 80 51 3a
       -0.013266584 -0.005730835 -0.006281355 0.0007991939
000220 96 fa 9c bc 86 28 0b bc 8a dc 4e 3c 7f ea b8 3b
       -0.019162457 -0.008493548 0.012625823 0.0056431885
000230 67 ba 0b bc 04 e2 68 bb 43 02 c2 bb 81 3a 8f 3a
       -0.0085283285 -0.0035535106 -0.00592068 0.001092747
000240 0b a9 8e b9 14 ef ae bb 67 4c de 3a 0f ca a6 bc
       -0.00027210297 -0.005338559 0.0016960026 -0.02036002
000250 45 30 83 3b 66 53 9f bc a0 e8 f6 3a 97 19 f8 3c
       0.004003557 -0.019448947 0.0018837638 0.03028564
000260 6e e9 f7 3b d9 d6 87 bc 97 2a 2c 3b a9 d2 2f bc
       0.007565669 -0.01658194 0.0026270503 -0.010731378
000270 5c eb 67 b8 c8 7c a9 3a 57 44 6a bb 76 17 9b bb
       -5.5293887e-05 0.0012930864 -0.00357463 -0.0047330214
000280 98 1b 14 bc e0 19 a4 bc 99 91 91 bc f5 72 98 bc
       -0.009039782 -0.02003187 -0.017769622 -0.018609503
000290 8f 2e 45 bb 7c 4e a3 bb 52 e4 17 ba 9a 65 50 ba
       -0.0030087566 -0.0049837213 -0.0005794215 -0.000794971
0002a0 ec 33 b4 bb 31 9b 23 3b 1d 30 81 bb c6 58 c3 ba
       -0.0054993536 0.0024964327 -0.003942503 -0.0014903776
0002b0 9d 3e 62 3b a0 20 7f bc 16 04 4a bb b6 ea f3 bb
       0.0034522184 -0.015571743 -0.003082519 -0.007443751
0002c0 8a 42 ed 3b f2 18 89 3b b4 9c dc bb dc d3 03 bc
       0.007240598 0.004183882 -0.0067325477 -0.008046117
0002d0 df 81 e1 3b c4 bd 14 3c c6 15 05 3b 2c 3f 35 bc
       0.006881937 0.009078447 0.0020307167 -0.011062425
0002e0 8c 54 9f 3c e3 51 8d 3c 57 ee 02 3c 16 6a a5 bb
       0.019449495 0.01725096 0.007991395 -0.005048047
0002f0 69 cf fc 3b d1 0b 50 3b 5d c2 63 bc 06 c3 f3 bb
       0.007715155 0.0031745324 -0.01390132 -0.00743902
000300 04 b1 05 bc c0 77 88 bc 80 33 b7 bc ba 2c 64 bc
       -0.00815988 -0.016658664 -0.022363424 -0.013926679
000310 21 95 4d bc dd 34 cf bc 4b bc 56 bc 4d 6a 06 bb
       -0.012547762 -0.025293762 -0.013106416 -0.0020510138
000320 ca c5 b0 3c 7f 98 9a 3c 2e ff a9 3c 12 5c b0 3c
       0.021578688 0.018871544 0.020751562 0.021528278
000330 17 01 be 3a aa 0c b8 3c 1c 59 72 3c 89 ae d9 3c
       0.0014496174 0.022466976 0.014791753 0.026572483
000340 71 f7 a6 3b 30 73 ee 3c 66 36 70 bd 7c 7a 21 bd
       0.0050954153 0.02910766 -0.05864563 -0.03942345
000350 5b 34 f8 bc d0 57 24 bd 26 35 16 bc d4 7a 20 bd
       -0.030298403 -0.040122807 -0.009167945 -0.039179638
000360 cc cc a6 bc da f1 e7 bc ec 98 4e bd 93 18 39 bd
       -0.020361327 -0.028313566 -0.050438806 -0.04518945
000370 19 1e 3b bc 9c d3 55 bc e2 62 d8 bb 1b a8 50 bb
       -0.01142075 -0.01305094 -0.0066035846 -0.003183848
000380 68 17 30 bc 78 a9 2c 3c ed f9 9a bb 7c 4a 3d bc
       -0.010747768 0.010538451 -0.0047295005 -0.011553403
000390 80 41 08 bc a8 93 27 3c 4b db 6d 3b 72 0d f2 bb
       -0.008316398 0.010228075 0.003629404 -0.0073868567
0003a0 eb b1 58 3c 79 25 ba 3b 34 22 cc 3b 83 c8 5d ba
       0.013226013 0.0056807366 0.0062296633 -0.00084603595
0003b0 88 ba 9c 3c 7b 7e 0a 3c ab 93 4f bc dc 90 ba bb
       0.019131914 0.008453007 -0.012669484 -0.005693538
0003c0 34 f5 0a 3c 2a a4 65 3b 43 7b c0 3b 45 98 95 ba
       0.008481313 0.0035040476 0.005874069 -0.0011413178
0003d0 4a b1 6a 39 d5 81 ad 3b 06 6c e4 ba d1 66 a6 3c
       0.00022382024 0.005295018 -0.0017427213 0.020312699
0003e0 ea 7d 84 bb fe e5 9e 3c 7b 0e fe ba 06 63 f8 bc
       -0.0040433304 0.019396778 -0.0019382978 -0.030320656
0003f0 3c 87 f9 bb 2d 65 87 3c 92 b6 2f bb 77 12 2f 3c
       -0.007614998 0.016527737 -0.0026811701 0.010685555

model.encoder.layers.0.bias f4 [100]
000000 6e 9c 15 bc 3b 60 0e 3c c2 48 0f bc 38 74 15 bc
       -0.009131534 0.008689935 -0.008745374 -0.009121947
000010 99 2b 14 bc b3 2a 13 bc 8b 91 11 3c e5 b3 14 3c
       -0.009043598 -0.008982348 0.008884798 0.009076093
000020 88 84 12 3c cd be 13 bc cd b1 11 bc 92 12 13 3c
       0.008942731 -0.009017658 -0.008892489 0.0089765955
000030 ab bc 15 bc cf 14 16 3c 60 6a 14 bc 59 23 18 bc
       -0.00913922 0.009160235 -0.009058565 -0.009285771
000040 d7 71 13 3c 2e 2f 0e 3c 51 28 17 bc 44 bf 12 bc
       0.0089993095 0.008678241 -0.009225921 -0.008956734
000050 01 95 0c 3c 4c fb 15 3c 65 b3 15 3c a3 08 13 bc
       0.008580447 0.009154152 0.009137009 -0.008974227
000060 dd c8 13 bc bf 29 11 3c bc 56 14 bc 79 89 10 3c
       -0.0090200575 0.008860051 -0.009053882 0.008821839
000070 2a c1 16 bc 19 30 16 bc 11 cc 17 bc 6d 8d 11 bc
       -0.009201327 -0.009166741 -0.009264962 -0.008883816
000080 e4 17 0d 3c 69 18 14 3c 5a 53 15 bc d2 d4 12 bc
       0.008611653 0.009039023 -0.009114111 -0.008961873
000090 8d 61 12 bc cc b0 16 3c 39 b5 10 bc 2c 7c 17 3c
       -0.008934391 0.009197425 -0.008832269 0.0092459135
0000a0 6a 44 10 3c 38 8a 15 bc f4 56 17 3c f2 a0 15 3c
       0.008805374 -0.009127192 0.00923704 0.009132611
0000b0 1a cc 12 3c a7 b6 13 bc 32 27 14 3c 79 ff 11 bc
       0.008959794 -0.009015716 0.009042548 -0.008911007
0000c0 a4 88 14 3c 8c bc 13 3c 51 e3 0d bc ae e1 16 3c
       0.009065781 0.009017121 -0.0086601535 0.00920908
0000d0 da b1 13 3c b5 a2 12 bc cc 21 13 3c de 68 16 3c
       0.009014571 -0.008949925 0.008980226 0.009180276
0000e0 82 fd 13 bc 81 b8 15 3c f4 b2 15 bc 95 6e 0f 3c
       -0.009032609 0.009138227 -0.009136904 0.008754392
0000f0 3b 45 0e bc 91 0d 11 3c 28 46 12 3c a5 f1 10 bc
       -0.008683498 0.008853332 0.008927859 -0.008846675
000100 47 fa 0f bc c9 34 15 3c 52 86 11 3c 41 5f 10 3c
       -0.008787698 0.009106823 0.008882122 0.008811773
000110 65 24 14 bc ea 34 14 bc 22 c8 13 bc 54 d1 14 bc
       -0.00904188 -0.009045819 -0.009019883 -0.009083111
000120 25 6a 13 3c e0 92 11 bc 9b 30 0c bc 54 ca 12 bc
       0.008997475 -0.008885115 -0.00855651 -0.008959372
000130 0a 9e 16 bc ac f0 0d 3c c7 85 14 bc 24 df 10 3c
       -0.009192953 0.008663338 -0.009065098 0.008842263
000140 19 a0 12 3c d2 ff 13 3c 4e 2e 16 bc 77 8e 14 bc
       0.008949303 0.00903316 -0.009166313 -0.009067169
000150 f3 53 13 3c b2 ae 0f 3c dc 67 0f 3c ad 61 0e bc
       0.008992183 0.008769678 0.008752789 -0.00869028
000160 fd 2e 16 bc bc 8f 14 bc 27 39 15 3c 59 8c 15 3c
       -0.009166476 -0.009067472 0.009107864 0.0091277
000170 7d 15 16 bc b0 ae 11 3c 93 c1 14 3c 5a 2c 13 bc
       -0.009160397 0.008891746 0.009079355 -0.008982742
000180 1d b2 0f bc aa 5c 10 bc 04 3b 16 bc 41 e9 13 bc
       -0.008770493 -0.008811155 -0.009169344 -0.00902778

model.encoder.layers.1.0.weight f4 [100, 100]
000000 35 e9 5d bd 49 22 6c 3d 41 95 6b bd e2 90 5e bd
       -0.05417748 0.057649884 -0.057515386 -0.05433739
000010 44 d3 61 bd 99 4c 64 bd 42 02 68 3d bf 73 60 3d
       -0.05513312 -0.05573711 0.05664278 0.054797884
000020 66 ea 65 3d 9e f0 62 bd 74 b5 67 bd 85 ad 64 3d
       0.056131743 -0.05540525 -0.05656953 0.055829544
000030 74 91 5d bd 33 bd 5c 3d 5e 33 61 bd f0 50 57 bd
       -0.054093793 0.053891372 -0.05498063 -0.052567422
000040 bf a0 63 3d a6 35 6c 3d d1 fa 59 bd 58 5c 65 bd
       0.05557322 0.05766835 -0.053217713 -0.05599627
000050 77 dd 6b 3d e0 04 5d 3d 78 a9 5d 3d 82 9e 64 bd
       0.057584252 0.053959727 0.054116696 -0.055815227
000060 73 f1 62 bd 3a e9 68 3d b5 4a 61 bd 95 05 6a 3d
       -0.055406045 0.056863047 -0.055002887 0.05713423
000070 65 f7 5a bd ca 8f 5c bd 49 21 58 bd 7c 0e 68 bd
       -0.05345859 -0.053848065 -0.05276612 -0.05665444
000080 25 1e 6c 3d 14 42 62 3d db bf 5e bd 53 32 65 bd
       0.057645936 0.0552388 -0.054382186 -0.055956196
000090 1a 33 66 bd 38 fe 5a 3d f4 b0 69 bd 37 f2 58 3d
       -0.056201078 0.0534651 -0.05705352 0.05296537
0000a0 63 64 6a 3d 78 11 5e bd 1b 59 59 3d c3 bc 5d 3d
       0.057224642 -0.05421588 0.053063493 0.054135095
0000b0 8c 34 65 3d ca 21 63 bd 94 dc 61 3d 0b 20 67 bd
       0.055958316 -0.055452146 0.055142 -0.056427043
0000c0 b3 ee 60 3d 3f e4 62 3d ec 41 6c bd d6 a7 5a 3d
       0.05491514 0.055393454 -0.057680055 0.053382717
0000d0 39 2c 63 3d e4 99 65 bd 22 8f 64 3d 51 e3 5b 3d
       0.055462096 -0.056054965 0.055800565 0.053683583
0000e0 99 38 62 bd 44 a4 5d 3d de 98 5d bd d0 67 6b 3d
       -0.055229757 0.054111734 -0.054100864 0.05747205
0000f0 5a 22 6c bd 33 0e 69 3d 91 87 66 3d 31 57 69 bd
       -0.057649948 0.056898307 0.05628163 -0.056967918
000100 64 c8 6a bd df 1b 5f 3d 32 12 68 3d 67 35 6a 3d
       -0.057320014 0.05446994 0.056657977 0.057179835
000110 32 f0 61 bd 17 cb 61 bd fc af 62 bd d5 53 60 bd
       -0.05516071 -0.055125322 -0.055343613 -0.05476745
000120 be ab 63 3d 1c e6 67 bd 4c 98 6b bd c4 46 65 bd
       0.055583708 -0.056615934 -0.05751829 -0.05597569
000130 dc 42 5b bd fd 3c 6c 3d 0c c4 60 bd 04 72 69 3d
       -0.05353056 0.05767535 -0.054874465 0.0569935
000140 45 b7 65 3d 4c 4c 62 3d 40 6b 5c bd 78 a9 60 bd
       0.056082983 0.055248544 -0.05381322 -0.054849118
000150 05 26 64 3d a1 39 6b 3d ab 6f 6b 3d f4 17 6c bd
       0.05570032 0.057428006 0.05747954 -0.05764003
000160 92 64 5c bd 0b d4 60 bd cc f2 5e 3d 3e 21 5e 3d
       -0.05380685 -0.05488972 0.054430768 0.05423092
000170 3e a9 5c bd 19 c4 67 3d b8 3e 60 3d bb 48 64 bd
       -0.05387234 0.056583498 0.054747313 -0.055733424
000180 dd 23 6b bd b4 48 6a bd bc 7a 5c bd fc 91 62 bd
       -0.05740725 -0.05719824 -0.053827986 -0.055315003
000190 6d 82 5b bd d1 c1 66 3d dd 6b 66 bd 56 0c 5c bd
       -0.05359118 0.05633718 -0.05625521 -0.053722702
0001a0 f5 bf 5e bd b0 c2 60 bd e3 b7 63 3d e7 9a 5d 3d
       -0.054382283 -0.05487317 0.05559529 0.054102805
0001b0 e0 0f 62 3d a3 a5 5f bd 4e 78 63 bd d9 0e 61 3d
       0.05519092 -0.054601323 -0.055534653 0.0549458
0001c0 16 3d 5b bd db 8b 5a 3d 29 3a 5e bd a7 00 56 bd
       -0.053525053 0.053356033 -0.054254685 -0.052246716
0001d0 31 38 60 3d ed c9 66 3d 70 3f 58 bd 37 9d 61 bd
       0.05474109 0.056344915 -0.052794874 -0.055081572
0001e0 a1 40 66 3d 67 ca 5a 3d 1a 52 5b 3d 24 06 61 bd
       0.05621398 0.053415682 0.053545095 -0.054937497
0001f0 f3 a5 5f bd 46 6a 64 3d 3b 4e 5e bd 4a 44 65 3d
       -0.05460162 0.055765413 -0.054273825 0.05597333
000200 d6 12 59 bd 56 65 5a bd 76 b3 56 bd a4 c1 63 bd
       -0.05299648 -0.053319298 -0.05241724 -0.055604592
000210 69 89 66 3d f6 14 5f 3d 9a 37 5c bd e4 7a 61 bd
       0.05628339 0.05446335 -0.053763963 -0.05504884
000220 a0 4a 62 bd c5 16 59 3d a8 06 65 bd 77 63 57 3d
       -0.05524695 0.05300023 -0.05591455 0.05258509
000230 aa 8e 65 3d 08 a5 5b bd 79 b5 57 3d 70 60 5b 3d
       0.05604426 -0.053624183 0.0526633 0.053558767
000240 e2 7c 61 3d 93 ce 5f bd 6a c6 5e 3d 36 03 63 bd
       0.05505074 -0.054640364 0.05438844 -0.055422984
000250 9e ff 5d 3d b9 9a 5f 3d 16 c4 66 bd 58 d1 58 3d
       0.054198854 0.054590914 -0.056339346 0.05293402
000260 92 d7 5f 3d 41 cd 61 bd f7 f4 60 3d b0 d7 59 3d
       0.054648943 -0.055127386 0.054921117 0.05318421
000270 2d 15 5f bd 93 4b 5b 3d ae 43 5b bd fa 4b 66 3d
       -0.054463554 0.05353887 -0.05353134 0.0562248
000280 27 bb 66 bd 64 8a 64 3d 17 8a 62 3d cf c0 64 bd
       -0.056330826 0.055796042 0.055307474 -0.05584794
000290 83 d6 65 bd 1e 85 5c 3d 5e c6 63 3d c9 6a 65 3d
       -0.056112777 0.053837888 0.0556091 0.05601004
0002a0 2e d4 5e bd 28 b9 5e bd 59 72 5f bd e0 83 5d bd
       -0.05440157 -0.054375798 -0.05455241 -0.054080844
0002b0 0a 3e 60 3d 6d a2 63 bd fd f6 65 bd e2 8a 61 bd
       0.054746665 -0.055574823 -0.05614375 -0.05506409
0002c0 ab 4e 59 bd 70 c4 66 3d 10 df 5d bd 3f d6 64 3d
       -0.05305354 0.05633968 -0.054167807 0.055868383
0002d0 26 e6 61 3d 48 20 5f 3d db 46 5a bd ea cb 5d bd
       0.055151127 0.054474145 -0.05329023 -0.054149546
0002e0 ab a0 60 3d f3 25 66 3d c6 53 66 3d 61 b4 66 bd
       0.054840725 0.056188535 0.056232236 -0.056324366
0002f0 0d 3e 5a bd 06 ec 5d bd 1c 62 5c 3d ce b0 5b 3d
       -0.053281832 -0.054180168 0.053804502 0.05363541
000300 5a 7b 5a bd cf 87 63 3d cf 6f 5d 3d 3c c0 60 bd
       -0.053340293 0.05554944 0.054061707 -0.05487083
000310 63 17 66 bd 4e 77 65 bd b2 54 5a bd 40 56 5f bd
       -0.056174647 -0.05602198 -0.053303428 -0.054525614
000320 d3 5c 5d bd e2 d9 68 3d 3a 8e 68 bd d5 e9 5d bd
       -0.054043602 0.056848414 -0.056776263 -0.054178078
000330 79 b5 60 bd 56 ca 62 bd 83 d8 65 3d fd 86 5f 3d
       -0.054860566 -0.055368744 0.056114685 0.054572094
000340 5e 22 64 3d a6 a5 61 bd 1a 96 65 bd ac 1a 63 3d
       0.055696838 -0.055089615 -0.05605135 0.05544536
000350 9b 0f 5d bd 8e 58 5c 3d c9 2b 60 bd 77 9d 57 bd
       -0.05396996 0.05379539 -0.054729257 -0.052640405
000360 d7 3a 62 3d 94 e0 68 3d 1c f1 59 bd 1d ad 63 bd
       0.055231895 0.0568548 -0.053208455 -0.055585016
000370 ae 34 68 3d 00 96 5c 3d b8 25 5d 3d a5 10 63 bd
       0.056690864 0.05385399 0.05399105 -0.055435795
000380 63 a6 61 bd 7f 8f 66 3d f8 3f 60 bd af 6a 67 3d
       -0.05509032 0.056289192 -0.054748505 0.056498226
000390 8d cf 5a bd e5 2f 5c bd d4 53 58 bd b9 e0 65 bd
       -0.053420592 -0.053756613 -0.05281432 -0.056122515
0003a0 97 8a 68 3d f3 0f 61 3d 9f 13 5e bd d8 89 63 bd
       0.056772795 0.05494685 -0.05421793 -0.05555138
0003b0 91 5f 64 bd cf d4 5a 3d b5 2a 67 bd 29 0d 59 3d
       -0.0557552 0.053425606 -0.056437213 0.052991066
0003c0 18 b4 67 3d dc 7b 5d bd c4 65 59 3d 80 35 5d 3d
       0.056568235 -0.0540732 0.053075567 0.0540061
0003d0 69 8d 63 3d cb cf 61 bd d9 bc 60 3d bc 1e 65 bd
       0.05555478 -0.055129807 0.0548676 -0.055937514
0003e0 a5 ef 5f 3d 5f 99 61 3d da d6 68 bd 36 8a 5a 3d
       0.054671902 0.055077907 -0.056845523 0.053354464
0003f0 ea d7 61 3d 58 df 63 bd 5d 00 63 3d 9d 9a 5b 3d
       0.055137552 -0.05563292 0.05542027 0.053614248

model.encoder.layers.1.0.bias f4 [100]
000000 15 fe 27 3c df ae 41 3c d6 b0 37 3c 4b fa 42 3c
       0.010253449 0.011821478 0.011211595 0.011900495
000010 3c 98 61 04 2c 72 36 3c bb 7b 42 3c 93 c5 44 3c
       2.6518525e-36 0.011135619 0.01187032 0.012009996
000020 13 e8 2d 3c 86 09 43 3c 6e 7f 27 3c 76 24 40 3c
       0.010614413 0.011904126 0.010223253 0.011727443
000030 a9 ab 46 3c fd 77 37 3c 37 41 2e 3c 1e fa 1f 3c
       0.012125888 0.011198041 0.010635666 0.009764222
000040 69 c0 27 3c 0b 86 02 80 1d ef 41 3c 23 db 15 3c
       0.010238745 -2.31757e-40 0.011836794 0.009146485
000050 ad 7a 42 3c ae e6 27 3c 02 cf 38 3c 8e a3 42 3c
       0.0118700685 0.010247869 0.011279823 0.011879815
000060 4c 99 2e 3c bc 2c 36 3c 69 50 37 3c 31 da 43 3c
       0.010656666 0.011119064 0.011188605 0.011953876
000070 39 73 42 3c 69 31 28 3c ef f6 17 3c 0c 66 42 3c
       0.011868292 0.010265687 0.009275182 0.01186515
000080 48 3c 36 3c 38 07 38 3c 5f d1 3c 3c e2 2d 2a 3c
       0.011122771 0.01123219 0.011524527 0.010386916
000090 89 f6 42 3c 8b 28 0b 3c 24 df 42 3c 97 4b 37 3c
       0.011899599 0.008493553 0.011894021 0.011187456
0000a0 ce d5 2e 3c e2 96 2e 3c 6b a1 41 3c 17 98 2a 3c
       0.010671092 0.01065609 0.01181827 0.010412238
0000b0 cb ba 17 3c f0 c4 2e 3c ec 1a 0a 3c 34 12 38 3c
       0.0092608435 0.010667071 0.00842927 0.011234809
0000c0 1c e5 37 3c 40 27 42 3c 01 e7 27 3c 9f 9f 42 3c
       0.0112240575 0.011850178 0.010247947 0.011878877
0000d0 8c cd 27 3c b8 18 42 3c 33 a2 12 3c d2 19 38 3c
       0.010241877 0.011846714 0.008949804 0.011236625
0000e0 d6 5e 42 3c e2 41 42 3c dc 6e 3e 3c 97 91 20 3c
       0.011863431 0.011856528 0.011623111 0.009800336
0000f0 2a 3e 40 3c 2f 85 2c 3c 8e 31 42 3c 3e 6f 36 3c
       0.011733571 0.0105298 0.011852635 0.011134921
000100 ba ae 37 3c 17 e9 42 3c 53 8a 43 3c b0 33 21 3c
       0.011211092 0.011896393 0.0119348345 0.009838983
000110 0d 76 40 3c 4c 75 33 3c d0 1e 2d 3c f2 5a 42 3c
       0.0117468955 0.010953259 0.010566428 0.011862503
000120 9a b3 20 3c e7 4f 2a 3c f9 b8 37 3c 59 70 33 3c
       0.009808445 0.010395027 0.0112135345 0.010952079
000130 fe aa 2c 3c 7a cd 07 00 76 ce 16 3c 88 d8 41 3c
       0.010538815 7.1656e-40 0.009204498 0.01183141
000140 d9 d0 2d 3c 30 c4 1f 3c e2 e7 2a 3c 97 9f 2d 3c
       0.010608875 0.009751365 0.010431262 0.010597131
000150 31 42 37 3c 3f 15 28 3c fe 31 45 3c db 8d 42 3c
       0.011185215 0.010258972 0.012035845 0.011874641
000160 d3 e2 41 3c 0b 3a 28 3c 96 79 18 3c 63 77 44 3c
       0.011833864 0.010267745 0.009306332 0.011991355
000170 94 6a 33 3c eb 0c 28 3c 69 f9 42 3c 86 2c 38 3c
       0.010950703 0.010256986 0.011900284 0.011241084
000180 ce 16 43 3c af 9f 20 3c c6 02 07 00 83 4d 42 3c
       0.0119072925 0.009803697 6.43843e-40 0.011859301

model.encoder.layers.2.0.weight f4 [100, 100]
000000 fb 91 74 3d 7f 1e 72 3d 84 51 73 3d f8 02 72 3d
       0.05970953 0.059111115 0.05940391 0.059084862
000010 ec 79 01 80 b7 20 73 3d a8 0d 72 3d 90 e2 71 3d
       -1.35573e-40 0.05935737 0.059095055 0.059053957
000020 49 9c 73 3d c3 06 72 3d 1c cb 74 3d 59 40 72 3d
       0.059475217 0.05908848 0.059764013 0.059143398
000030 5e c7 71 3d 3b 42 73 3d cd 63 73 3d 86 b5 76 3d
       0.059028022 0.059389334 0.05942135 0.060231708
000040 92 78 74 3d 5f e2 00 80 87 18 72 3d 29 39 77 3d
       0.059685297 -8.1207e-41 0.059105422 0.060357247
000050 43 0d 72 3d 28 83 74 3d 87 a9 72 3d 1a 0e 72 3d
       0.05909468 0.059695393 0.059243705 0.05909548
000060 2a 53 73 3d da 43 73 3d 07 05 73 3d 40 f5 71 3d
       0.059405483 0.05939088 0.059330966 0.05907178
000070 83 11 72 3d f8 70 74 3d 60 5a 76 3d 0d 13 72 3d
       0.05909873 0.059678048 0.060144782 0.0591002
000080 50 24 73 3d aa 39 73 3d 97 72 72 3d a6 fe 73 3d
       0.059360802 0.059381165 0.059191313 0.059569024
000090 3e 03 72 3d 4e bc 7d 3d b2 09 72 3d 84 0b 73 3d
       0.059085123 0.06194716 0.059091277 0.059337154
0000a0 6e 30 73 3d ae 38 73 3d cd 25 72 3d a6 48 74 3d
       0.059372358 0.059380226 0.05911808 0.059639595
0000b0 74 27 76 3d be 4c 73 3d fa 8d 7a 3d 2b 1c 73 3d
       0.06009622 0.05939936 0.061170556 0.059353035
0000c0 3b 1e 73 3d 06 11 72 3d 50 3e 74 3d de 0d 72 3d
       0.059355002 0.059098266 0.05962974 0.059095256
0000d0 4a 78 74 3d 5e 12 72 3d e7 0d 81 3d 91 4f 73 3d
       0.05968503 0.059099548 0.0630148 0.059402052
0000e0 cd 0e 72 3d d6 0f 72 3d cf 5d 72 3d a9 67 76 3d
       0.059096146 0.059097134 0.059171494 0.06015745
0000f0 49 3d 72 3d b8 8a 73 3d a8 11 72 3d b1 20 73 3d
       0.059140477 0.059458464 0.05909887 0.05935735
000100 4e 21 73 3d c6 03 72 3d 84 00 72 3d 8c 45 76 3d
       0.059357934 0.05908563 0.059082523 0.06012492
000110 16 33 72 3d bf 28 73 3d b0 97 73 3d 70 16 72 3d
       0.05913075 0.05936503 0.059470832 0.05910343
000120 0a 51 76 3d 7a 3c 74 3d 85 45 73 3d c4 48 73 3d
       0.06013588 0.059627987 0.05939247 0.059395567
000130 c7 92 73 3d b0 06 07 00 01 7d 77 3d 95 22 72 3d
       0.05946615 6.45247e-40 0.060421947 0.05911501
000140 e8 74 73 3d 3e 2a 76 3d 49 66 74 3d 71 81 73 3d
       0.059437662 0.06009888 0.05966786 0.059449617
000150 75 0f 73 3d 78 4d 74 3d 3f dd 71 3d ef 0e 72 3d
       0.059340913 0.059644192 0.059048887 0.059096273
000160 29 23 72 3d 76 70 74 3d f9 47 76 3d 82 ea 71 3d
       0.059115563 0.059677564 0.060127232 0.059061535
000170 99 48 73 3d 6c 40 74 3d 7c 03 72 3d c0 19 73 3d
       0.059395406 0.05963175 0.059085354 0.05935073
000180 fd 04 72 3d aa 64 76 3d b9 da 03 80 ea 0e 72 3d
       0.05908679 0.060154594 -3.5397e-40 0.059096254
000190 83 6d 00 00 ca 49 07 80 c8 08 08 00 1a c0 03 80
       3.9285e-41 -6.69319e-40 7.37834e-40 -3.4442e-40
0001a0 b3 25 00 80 04 dd 03 00 3f 25 08 00 fb f7 06 00
       -1.3524e-41 3.54792e-40 7.48045e-40 6.39972e-40
0001b0 c8 cb 06 80 e1 5d 07 80 44 bf 06 80 b3 bb 03 80
       -6.24116e-40 -6.76526e-40 -6.19626e-40 -3.4284e-40
0001c0 0f ab 06 00 57 40 03 00 cb 60 00 80 d6 69 04 80
       6.12377e-40 2.98587e-40 -3.4723e-41 -4.05309e-40
0001d0 3a 39 06 00 4b ed 03 80 88 f6 07 00 c9 07 01 00
       5.71542e-40 -3.60631e-40 7.31287e-40 9.4628e-41
0001e0 50 37 02 00 d1 6d 00 80 ba 29 07 80 23 fd 05 00
       2.03513e-40 -3.9395e-41 -6.57817e-40 5.49986e-40
0001f0 0b 33 08 00 ee 4c 07 00 c6 6e 05 80 f0 3b 06 00
       7.52995e-40 6.70446e-40 -4.98916e-40 5.72515e-40
000200 da 8d 05 00 b5 31 08 00 33 0d 06 00 d4 15 08 00
       5.10064e-40 7.52515e-40 5.55748e-40 7.42514e-40
000210 fa 2a 08 80 49 66 07 80 90 d1 06 80 13 5d 03 80
       -7.50101e-40 -6.79541e-40 -6.2619e-40 -3.08895e-40
000220 cf 2f 07 00 af 37 02 80 07 71 07 80 8e 10 04 80
       6.59999e-40 -2.03647e-40 -6.83395e-40 -3.7328e-40
000230 c7 c5 00 80 b9 f8 03 80 e1 0a 04 00 bf 23 06 00
       -7.0949e-41 -3.64731e-40 3.71245e-40 5.63836e-40
000240 e0 58 07 80 4b 27 04 00 ee 12 08 00 51 de 03 00
       -6.74731e-40 3.81438e-40 7.41475e-40 3.55259e-40
000250 5d b8 06 80 ca 5c 03 80 a1 dc 06 00 0d 72 05 00
       -6.1715e-40 -3.08793e-40 6.3016e-40 5.00091e-40
000260 14 dd 02 80 6a a2 01 80 5b c6 00 80 64 48 04 80
       -2.62979e-40 -1.50099e-40 -7.1157e-41 -3.93311e-40
000270 86 8e 01 00 a1 15 08 80 18 32 07 80 35 a4 07 80
       1.42963e-40 -7.42443e-40 -6.60819e-40 -7.01755e-40
000280 d2 fa 01 80 d5 cb 04 00 ea b6 03 80 2a f5 05 80
       -1.81813e-40 4.40463e-40 -3.41124e-40 -5.47126e-40
000290 2f ef 07 80 61 0e 02 80 ff f6 06 80 c9 31 08 80
       -7.28651e-40 -1.88829e-40 -6.39618e-40 -7.52544e-40
0002a0 1b 65 07 00 ff 26 05 00 26 91 04 80 34 b4 02 80
       6.79118e-40 4.73167e-40 -4.19411e-40 -2.48316e-40
0002b0 15 61 03 00 c5 9d 02 00 99 68 05 00 04 a4 05 80
       3.10333e-40 2.40268e-40 4.967e-40 -5.18015e-40
0002c0 70 73 00 00 4c 75 04 00 8a c1 06 80 8b 14 08 80
       4.1411e-41 4.0942e-40 -6.20442e-40 -7.42053e-40
0002d0 07 25 03 80 b5 a1 07 00 db c4 03 80 62 11 08 80
       -2.8879e-40 7.00858e-40 -3.46125e-40 -7.4092e-40
0002e0 89 2b 05 00 b4 7a 03 00 90 0e 06 00 4f 3a 06 00
       4.74795e-40 3.19524e-40 5.56237e-40 5.7193e-40
0002f0 27 e1 07 80 a0 80 01 00 08 fc 06 80 dc 49 02 00
       -7.23618e-40 1.37977e-40 -6.41425e-40 2.10167e-40
000300 26 4f 04 00 4b ce 05 80 11 ac 06 80 c3 e4 07 80
       3.95735e-40 -5.33181e-40 -6.12739e-40 -7.24913e-40
000310 a4 01 06 80 4f 08 08 80 6e 3d 08 80 43 2f 07 00
       -5.51602e-40 -7.37665e-40 -7.56721e-40 6.59803e-40
000320 ac 43 57 3d 55 74 62 3d 78 eb 5c 3d cb 00 63 3d
       0.05255477 0.055286724 0.053935498 0.055420678
000330 44 64 06 00 68 6c 5e 3d 0d ee 62 3d df 57 63 3d
       5.86982e-40 0.054302603 0.055402804 0.055503722
000340 e3 49 5b 3d 61 b1 62 3d 71 10 56 3d 29 bf 61 3d
       0.05353726 0.055344943 0.052261773 0.055113945
000350 0d ab 63 3d 79 94 5d 3d 58 82 5d 3d d5 16 53 3d
       0.05558305 0.054096673 0.054079384 0.051535446
000360 52 ce 57 3d da f2 03 00 0b 83 62 3d e9 d3 52 3d
       0.052686997 3.62625e-40 0.055300754 0.051471625
000370 5e ec 62 3d e8 57 57 3d 00 57 60 3d 46 a0 62 3d
       0.0554012 0.05257407 0.05477047 0.05532863
000380 68 cb 5d 3d ac ea 5d 3d 75 c1 5e 3d 36 2e 63 3d
       0.05414906 0.05417888 0.054383714 0.055463992
000390 d1 97 62 3d f9 a8 57 3d d0 a7 53 3d 7e 96 62 3d
       0.055320565 0.05265138 0.05167371 0.0553193
0003a0 92 60 5e 3d 61 ae 5d 3d aa 41 61 3d 25 25 5a 3d
       0.054291315 0.05412138 0.054994263 0.05325808
0003b0 dc 03 63 3d 11 ab 4f 3d 49 ac 62 3d 56 7a 5e 3d
       0.055423602 0.05070025 0.055340085 0.054315887
0003c0 8d 47 5e 3d 0f 3a 5e 3d 53 06 62 3d a3 8f 58 3d
       0.054267455 0.054254588 0.055181812 0.052871358
0003d0 a3 d5 53 3d 25 d1 5d 3d 0f 05 50 3d c3 1f 5e 3d
       0.05171741 0.054154534 0.050786074 0.05422951
0003e0 ac 15 5e 3d d1 e0 62 3d a7 d9 58 3d b2 a0 62 3d
       0.054219887 0.055390183 0.052941944 0.055329032
0003f0 7e cd 57 3d b6 df 62 3d a4 21 55 3d ad 8e 5c 3d
       0.052686207 0.05538913 0.052034035 0.053847004

model.encoder.layers.2.0.bias f4 [100]
000000 bb 4e a4 3a 1e f3 01 00 a5 e3 e5 ba 70 1d 6b ba
       0.001253567 1.7905e-40 -0.0017539157 -0.0008968925
000010 eb 6d 72 ba a5 57 6f ba d0 97 df ba 54 a4 68 ba
       -0.00092479464 -0.00091301865 -0.0017058793 -0.00088745845
000020 99 00 6e ba 0d b1 42 b0 6f f6 e9 ba ed 15 04 80
       -0.00090790685 -7.0828393e-10 -0.0017849932 -3.75207e-40
000030 5e a5 02 00 63 83 0e 3d f4 8f 28 b9 e9 ea 71 ba
       2.42994e-40 0.03479327 -0.00016075355 -0.0009228425
000040 a2 66 e4 ba da b9 e1 ba a4 2e 1c ba 33 33 f9 39
       -0.0017425606 -0.0017221526 -0.0005957878 0.00047531127
000050 08 87 c0 b9 25 2a 92 b8 8b cd 68 ba 70 1f fb 3a
       -0.000367217 -6.9696725e-05 -0.0008880726 0.0019159149
000060 7a 30 0e 3d 5b 19 f4 b5 66 a3 69 ba cc 28 71 ba
       0.0347142 -1.8186796e-06 -0.0008912593 -0.00091994996
000070 86 2e e1 ba b2 4e e5 ba 14 70 9d b8 ca f9 6c ba
       -0.0017180003 -0.0017494767 -7.5072196e-05 -0.0009039907
000080 c6 68 81 3a 27 b7 e0 ba 8b c3 a3 b8 c9 d7 66 ba
       0.0009873144 -0.0017144427 -7.8088684e-05 -0.0008805958
000090 f4 43 e6 ba 0e f9 e3 ba b2 5b dd ba dd 91 87 3a
       -0.0017567859 -0.001739295 -0.0016888289 0.0010343153
0000a0 54 72 88 3a 74 84 27 ba 3c 04 2c 3a d9 13 6c ba
       0.0010410049 -0.00063902815 0.000656191 -0.0009005643
0000b0 2f 03 dc ba 3f 63 ea ba 92 6a e3 ba 50 25 de ba
       -0.0016785617 -0.0017882361 -0.0017350486 -0.0016948376
0000c0 3c 9b 6d ba 10 6c 29 ba 14 0f e2 ba dd f9 74 39
       -0.0009063964 -0.0006462941 -0.0017246925 0.00023362735
0000d0 51 1c e6 ba 81 a1 56 b7 15 4f e5 ba d2 b1 e4 ba
       -0.0017556046 -1.2792997e-05 -0.0017494882 -0.0017448014
0000e0 cf 6d e3 ba fc 12 32 ba 88 38 04 00 4b 9e a0 3a
       -0.0017351451 -0.000679299 3.87622e-40 0.0012254206
0000f0 f3 d5 00 00 89 01 74 ba 0f c8 e5 ba e8 04 e7 ba
       7.675e-41 -0.000930809 -0.0017530936 -0.0017625364
000100 e6 e2 e2 ba 98 f5 dd ba 09 e6 a6 38 73 4f e7 ba
       -0.0017310053 -0.0016934155 7.958344e-05 -0.0017647579
000110 9e bc e3 ba 28 27 99 39 52 f8 a4 b9 9c 8b 65 ba
       -0.0017374938 0.00029211608 -0.0003146553 -0.000875646
000120 48 0e 07 3a 78 4d ea ba 9a 7d 01 3a 7c 46 67 ba
       0.00051519694 -0.0017875871 0.00049396756 -0.00088224537
000130 49 89 66 39 db 30 7a ba 93 38 be 0e 9e d8 38 b7
       0.00021985652 -0.0009544023 4.6893095e-30 -1.101769e-05
000140 43 da e0 ba 35 16 e3 ba d3 d7 73 ba ef 38 bc 39
       -0.0017154891 -0.0017325344 -0.00093018747 0.00035900573
000150 26 f8 02 00 eb 8b e5 ba 02 0d e1 39 20 7d 4d ba
       2.7269e-40 -0.0017513012 0.00042925036 -0.00078387745
000160 02 25 e4 ba a2 59 6a ba 9c 9e 6a ba cb a6 7c ba
       -0.0017406049 -0.0008939748 -0.0008950026 -0.0009637891
000170 44 50 00 39 4d c7 a0 3a a7 0b 70 ba 79 e3 e6 ba
       0.00012236933 0.0012266428 -0.000915701 -0.00176154
000180 9b 8d 9e 3a f8 da 6f ba 71 9a e5 ba 9e 81 f9 80
       0.0012096645 -0.00091497554 -0.0017517341 -2.2913536e-38

model.encoder.layers.3.weight f4 [10, 100]
000000 5a fc 78 3d 87 a6 02 80 0b 10 6f 3d dd 26 70 3d
       0.060787536 -2.4341e-40 0.05836491 0.058630813
000010 24 0a 70 3d 84 0e 70 3d d9 03 6f 3d 67 33 70 3d
       0.05860342 0.058607593 0.05835328 0.05864277
000020 b1 17 70 3d 50 8b eb b3 94 15 6f 3d a2 a7 07 80
       0.058616344 -1.0968381e-07 0.058370188 -7.02984e-40
000030 b2 65 00 80 87 76 1f bd 12 7f 6f 3d f8 0d 70 3d
       -3.6481e-41 -0.038931396 0.058470793 0.05860707
000040 ca 0e 6f 3d 92 08 6f 3d 64 7b 6e 3d c2 84 71 3d
       0.058363713 0.058357783 0.058223143 0.0589645
000050 c7 8b 5b 3d bf 2b 74 3d 23 2b 70 3d 5f 48 77 3d
       0.0536001 0.059612032 0.05863489 0.060371753
000060 8e 7e 20 bd 1e 0f 01 00 62 28 70 3d 5e 08 70 3d
       -0.039183192 9.7259e-41 0.058632262 0.05860173
000070 df 04 6f 3d 99 0f 6f 3d 99 02 74 3d fd 19 70 3d
       0.058354255 0.058364484 0.05957279 0.058618534
000080 ae 1f 79 3d f9 04 6f 3d 41 c2 70 3d fc 31 70 3d
       0.060821228 0.05835435 0.058779005 0.05864142
000090 4f 12 6f 3d 9c 0d 6f 3d c7 24 6f 3d 22 42 76 3d
       0.05836707 0.05836259 0.058384683 0.060121663
0000a0 01 56 78 3d 7b 67 65 3d a7 be 67 3d 33 25 70 3d
       0.060628895 0.05600689 0.056578305 0.058629226
0000b0 5a 22 6f 3d 71 17 6f 3d 7b 0a 6f 3d 5d 23 6f 3d
       0.05838237 0.058371965 0.058359604 0.058383334
0000c0 30 15 70 3d bf c1 6f 3d 01 08 6f 3d da d3 5f 3d
       0.058613956 0.05853438 0.058357242 0.054645397
0000d0 fe 0f 6f 3d 2b b8 07 00 6b 0f 6f 3d f7 10 6f 3d
       0.05836486 7.08915e-40 0.058364313 0.05836579
0000e0 e0 09 6f 3d 55 c0 58 3d f8 6d 03 80 4c b1 77 3d
       0.058359027 0.052917797 -3.14956e-40 0.060471818
0000f0 bc fa 03 00 f5 05 70 3d 19 10 6f 3d 61 14 6f 3d
       3.65453e-40 0.05859943 0.05836496 0.058369044
000100 d7 08 6f 3d 52 21 6f 3d 40 fa 5e 3d ac 13 6f 3d
       0.05835804 0.058381386 0.054437876 0.05836837
000110 e2 0d 6f 3d 46 cb 59 3d 26 ad 58 3d b6 2f 70 3d
       0.05836285 0.053172372 0.052899502 0.05863925
000120 35 4e 79 3d ba 1a 6f 3d b8 a7 79 3d 68 26 70 3d
       0.0608656 0.058375098 0.060950965 0.058630377
000130 a6 5c 73 3d 66 f3 6f 3d af fe 00 00 a7 4b 5e 3d
       0.05941453 0.058581732 9.1363e-41 0.054271366
000140 74 07 6f 3d 6f 0c 6f 3d fe 06 70 3d 10 a3 74 3d
       0.058356717 0.058361467 0.05860042 0.05972582
000150 e4 ce 05 80 2b 0f 6f 3d d4 91 6b 3d f1 85 61 3d
       -5.33396e-40 0.058364075 0.05751212 0.055059377
000160 12 0f 6f 3d 43 2b 70 3d d4 2c 70 3d 4f f3 6f 3d
       0.05836398 0.058635008 0.0586365 0.058581647
000170 9f 5f 5d 3d f6 2d 77 3d 16 15 70 3d a3 13 6f 3d
       0.05404627 0.060346566 0.05861386 0.058368336
000180 bb 3e 77 3d bf 10 70 3d 10 14 6f 3d e2 b8 06 00
       0.06036256 0.05860972 0.058368742 6.17336e-40
000190 fe a4 07 80 e4 e3 07 80 8d da 7f b6 35 7d 00 80
       -7.02037e-40 -7.246e-40 -3.8125174e-06 -4.4916e-41
0001a0 75 81 06 80 26 6f 05 00 23 b9 93 b6 83 fd 01 80
       -5.97453e-40 4.9905e-40 -4.402494e-06 -1.82778e-40
0001b0 46 9a 03 80 3c ca 07 80 95 34 69 b6 e5 1e 08 80
       -3.3085e-40 -7.15396e-40 -3.4750312e-06 -7.45767e-40
0001c0 77 3a 08 00 f8 a1 07 00 2c 2c 07 00 42 73 00 80
       7.55657e-40 7.00952e-40 6.58694e-40 -4.1347e-41
0001d0 a7 08 85 b6 3e 67 8e b6 33 fd 04 00 ff d8 07 80
       -3.964716e-06 -4.2439488e-06 4.58173e-40 -7.20692e-40
0001e0 1c 7a 00 80 25 75 00 80 fd 0f 03 80 8f 14 01 80
       -4.3805e-41 -4.2024e-41 -2.81242e-40 -9.921e-41
0001f0 bd 23 08 80 29 21 06 80 80 a7 03 80 80 bd 00 00
       -7.47504e-40 -5.62909e-40 -3.35594e-40 6.798e-41
000200 87 d3 90 b6 0f ee 80 b6 62 77 05 80 b8 a7 03 80
       -4.3161594e-06 -3.842411e-06 -5.02004e-40 -3.35673e-40
000210 1d 45 06 80 c4 79 92 b6 01 f1 07 80 18 89 05 00
       -5.75806e-40 -4.3653145e-06 -7.29304e-40 5.08357e-40
000220 42 6c 79 b6 a2 9b 85 b6 4d 01 49 b6 2e 32 01 00
       -3.7166906e-06 -3.981827e-06 -2.9952091e-06 1.09837e-40
000230 da 15 03 80 a5 2d 00 00 da 1d 08 00 36 33 04 80
       -2.83345e-40 1.6374e-41 7.45393e-40 -3.85713e-40
000240 b8 de 4f b6 7d ed 66 b6 2d 5a 88 b6 25 4b 45 b6
       -3.0975043e-06 -3.4410907e-06 -4.0636137e-06 -2.9399027e-06
000250 5d 9c 02 80 49 af 06 00 3c 48 8e b6 04 07 05 80
       -2.39764e-40 6.13893e-40 -4.240339e-06 -4.61694e-40
000260 9a 70 7e b6 ab 10 00 00 78 3b 82 b6 b4 50 83 b6
       -3.7914492e-06 5.98e-42 -3.881225e-06 -3.9134993e-06
000270 cc 96 89 b6 d7 fd 02 00 0a d4 00 80 b2 74 02 80
       -4.1004732e-06 2.74732e-40 -7.6065e-41 -2.25533e-40
000280 11 12 05 80 70 d0 07 80 60 1e 81 b6 ea 14 77 b6
       -4.65658e-40 -7.17622e-40 -3.8480357e-06 -3.6818042e-06
000290 d0 bd 8a b6 a2 f0 48 b6 f0 f7 04 80 af c0 74 b6
       -4.1348176e-06 -2.994239e-06 -4.56285e-40 -3.647099e-06
0002a0 ae 82 85 b6 3a 42 05 80 dd 80 05 80 3d 23 03 00
       -3.978922e-06 -4.82935e-40 -5.05405e-40 2.88148e-40
0002b0 e4 10 08 80 b2 12 64 b6 57 d2 07 80 b9 ee 03 80
       -7.40743e-40 -3.398553e-06 -7.18304e-40 -3.61144e-40
0002c0 5d 9d 06 00 5f a4 01 00 d9 d6 03 00 6e 03 03 80
       6.07464e-40 1.50801e-40 3.5258e-40 -2.76737e-40
0002d0 57 f6 8e b6 3c 8e 88 b6 ee 96 00 80 0b 8e 03 00
       -4.2606075e-06 -4.069674e-06 -5.4143e-41 3.26462e-40
0002e0 54 32 06 00 d7 18 81 b6 2d 5b 03 80 02 82 03 00
       5.69067e-40 -3.8473913e-06 -3.08214e-40 3.22145e-40
0002f0 c1 3d 83 b6 e2 9f 04 80 ba 99 03 80 93 2f 04 80
       -3.9112933e-06 -4.24697e-40 -3.30653e-40 -3.84408e-40
000300 05 24 08 00 78 77 07 80 a6 f5 01 00 29 4d 77 b6
       7.47605e-40 -6.85706e-40 1.79958e-40 -3.6850781e-06
000310 ca bf 02 80 a8 6c 06 80 9a 83 80 b6 8c c3 01 00
       -2.52472e-40 -5.89991e-40 -3.8300177e-06 1.61984e-40
000320 85 1c 79 3d e5 cc 03 80 8d 61 6f 3d d8 77 70 3d
       0.060818214 -3.49009e-40 0.05844264 0.058708042
000330 80 5a 70 3d 31 60 70 3d 9c 55 6f 3d f1 84 70 3d
       0.058680058 0.058685485 0.058431253 0.058720533
000340 5b 66 70 3d 3e 12 b4 b3 63 67 6f 3d 2e d4 05 00
       0.058691364 -8.3852214e-08 0.058448207 5.35293e-40
000350 cc e5 00 80 f1 8b 1f bd cf ae 6f 3d 2b 61 70 3d
       -8.2436e-41 -0.038951818 0.05851632 0.058686417
000360 ae 60 6f 3d 10 59 6f 3d 68 c9 6e 3d 6e b0 71 3d
       0.05844181 0.058434546 0.058297545 0.059006147
000370 a7 96 5b 3d 82 3d 74 3d fb 7b 70 3d 1d 62 77 3d
       0.05361047 0.05962897 0.058711987 0.060396302
000380 a3 93 20 bd ed a7 01 80 f7 76 70 3d 0b 5c 70 3d
       -0.039203297 -1.52076e-40 0.058707204 0.05868153
000390 9e 55 6f 3d 2c 61 6f 3d 5b 19 74 3d 9d 69 70 3d
       0.05843126 0.05844228 0.059594493 0.05869447
0003a0 a3 36 79 3d 9a 55 6f 3d c4 ef 70 3d 37 83 70 3d
       0.06084312 0.058431245 0.05882241 0.058718886
0003b0 d9 63 6f 3d 34 5e 6f 3d 41 76 6f 3d 5a 5b 76 3d
       0.05844483 0.05843945 0.058462385 0.060145713
0003c0 b9 77 78 3d be b5 65 3d 01 f4 67 3d df 73 70 3d
       0.06066105 0.056081526 0.056629185 0.058704253
0003d0 6a 72 6f 3d 12 68 6f 3d c7 5a 6f 3d 53 73 6f 3d
       0.058458723 0.05844886 0.05843618 0.05845959
0003e0 c9 67 70 3d 0d 12 70 3d 5e 58 6f 3d da 11 60 3d
       0.058692727 0.058610965 0.058433883 0.054704525
0003f0 cd 61 6f 3d 8e 97 00 80 84 60 6f 3d 5b 63 6f 3d
       0.05844288 -5.4368e-41 0.058441654 0.058444362

model.encoder.layers.3.bias f4 [10]
000000 3f d8 d9 ba 9a ca 0f ba a4 d1 db ba 58 8c e9 ba
       -0.0016620232 -0.0005485207 -0.0016770852 -0.0017818315
000010 32 34 d2 ba 58 1c 0e ba f6 2b e0 ba ba b9 0f ba
       -0.0016037284 -0.00054210937 -0.0017102945 -0.00054826925
000020 df 9d 0f ba d1 44 19 ba
       -0.0005478542 -0.0005846741

model.predictor_linear.0.weight f4 [1, 10]
000000 69 12 6a be e4 28 cc 3d d0 47 63 be b6 dc 97 be
       -0.22858585 0.09968737 -0.22195363 -0.29660577
000010 81 11 8b be a7 22 6b 3b b0 32 a2 be 2f 18 c3 3d
       -0.27161792 0.0035878809 -0.31679296 0.09526097
000020 8a aa 83 3d 6e f4 16 3d
       0.06429012 0.0368542

exp_avg f4 [100, 1]
000000 1b 41 90 3a 3b 8b 60 3a 29 49 16 3a 09 ef 6c 3a
       0.0011005731 0.0008565669 0.00057329476 0.00090383046
000010 83 0b 1b 3a 7f 2b b9 3a c3 20 b8 3a 6a 5d 74 ba
       0.0005914496 0.0014127343 0.001404785 -0.0009321781
000020 0b 61 0b 3a 88 f7 5f b9 12 c3 75 bb 65 c2 86 ba
       0.000531689 -0.0002135915 -0.0037500304 -0.0010281323
000030 b0 cb 62 3a 5a 06 d4 ba 32 de 9e 3a 51 7d 11 3a
       0.00086515676 -0.0016176209 0.0012120663 0.00055499846
000040 4b e6 d8 3a 9e 18 a2 3a 45 31 07 ba e5 b0 e4 ba
       0.0016548125 0.0012366956 -0.0005157183 -0.0017447738
000050 48 51 0f 38 66 18 36 36 55 f0 40 39 01 de f5 39
       3.4169556e-05 2.7134315e-06 0.00018400078 0.00046895447
000060 56 e2 4d b9 9e b7 1a 39 53 83 91 39 f7 22 7a 39
       -0.0001963464 0.00014754987 0.000277544 0.00023854883
000070 5b 54 10 3a 80 e6 92 3a 4e 83 0e 3a cc 55 c1 39
       0.0005505734 0.001120761 0.0005436436 0.00036875752
000080 95 c7 77 39 d3 35 c7 39 ee 49 f3 39 f0 03 11 3a
       0.00023630106 0.0003799634 0.00046403654 0.0005531898
000090 d3 6e 58 38 42 18 d3 39 03 25 0d b9 ac 77 d1 39
       5.1601626e-05 0.0004026313 -0.00013460596 0.0003995275
0000a0 fb df 8d 38 ab 08 cd 39 56 42 93 39 c7 f8 19 3a
       6.7651235e-05 0.00039107105 0.0002808745 0.00058735575
0000b0 e9 1e 0f 3a bb 17 98 39 ce 00 1d 3a 1a 9e 90 ba
       0.0005459623 0.0002900938 0.00059891946 -0.0011033446
0000c0 28 a9 44 3a a9 af 2c ba a8 dd 0e 3a 95 7e 1d ba
       0.0007502013 -0.00065874547 0.00054498995 -0.0006007937
0000d0 bb a3 51 39 ab 73 0c b9 45 f3 15 3a 0c 92 77 39
       0.00019992788 -0.0001339453 0.0005720149 0.00023610162
0000e0 a7 2d 0e 3a 84 de 0e 3a 81 28 f2 39 c9 98 e9 39
       0.0005423673 0.00054500275 0.00046188015 0.00044555057
0000f0 b4 33 12 3a 9f 4d 17 b8 de 9a 3b 39 99 16 17 3a
       0.00055771624 -3.6073496e-05 0.00017891402 0.000576356
000100 1e 8a f1 39 c6 57 2b 3a ff ac 0d 3a b8 c3 10 3a
       0.00046070007 0.00065362116 0.00054045016 0.00055223284
000110 c3 8d 2a 3a 21 39 fa 39 39 21 6d 3a f3 2b 2e 3a
       0.00065061095 0.0004772628 0.0009045783 0.0006644122
000120 b9 e3 1d 39 44 20 e2 3a a4 4d 50 3a dc a1 aa 3a
       0.0001505752 0.0017252048 0.00079461397 0.0013018209
000130 e7 94 b1 b9 11 ce 93 38 87 7b 96 3a 21 26 9e 3a
       -0.00033871012 7.047889e-05 0.0011480906 0.0012065807
000140 57 fc 14 39 4f 73 93 b8 25 03 03 3a 72 59 87 3a
       0.00014208384 -7.030984e-05 0.0004997722 0.0010326339
000150 7e c6 d1 ba df 22 b8 ba 8a 3e 70 b9 23 97 1c 3a
       -0.001600459 -0.0014048478 -0.00022911481 0.0005973449
000160 b8 55 87 39 7e 0d f9 39 ec 4e fb b9 ef c9 03 39
       0.00025813072 0.00047503033 -0.00047933252 0.0001256836
000170 6d ba c3 39 98 83 55 ba a9 e5 d2 ba 38 04 40 ba
       0.00037332196 -0.0008144914 -0.0016090173 -0.00073248474
000180 4a b2 d1 b7 01 54 e0 ba 37 6a 05 ba a3 e5 e0 39
       -2.4997764e-05 -0.0017114879 -0.00050893746 0.00042895702

exp_avg_sq f4 [100, 1]
000000 ce 7b 33 38 2e 5f 5e 37 75 bf 07 38 cd 25 fe 37
       4.2792228e-05 1.3254392e-05 3.2364816e-05 3.0296762e-05
000010 96 23 13 36 39 57 13 38 59 92 a3 37 c2 63 65 38
       2.192542e-06 3.5128764e-05 1.9499263e-05 5.469076e-05
000020 f7 3b 1e 37 2f d3 b4 38 ed 17 17 39 41 d6 e9 37
       9.4314955e-06 8.622405e-05 0.00014409395 2.7875534e-05
000030 40 b6 8b 37 d1 d4 01 38 d9 5e 07 37 85 e2 ad 37
       1.6654958e-05 3.0954197e-05 8.0687105e-06 2.0728688e-05
000040 99 60 b5 37 91 ae ff 37 51 0c 55 38 0c 48 ab 38
       2.1621863e-05 3.0479658e-05 5.0794628e-05 8.167335e-05
000050 00 68 da 36 96 db ec 36 ce 43 26 36 42 fc 20 36
       6.5090135e-06 7.0589113e-06 2.4775395e-06 2.3988691e-06
000060 26 6c 6d 36 c2 c8 49 36 09 54 15 36 19 c4 c8 36
       3.5378703e-06 3.006819e-06 2.2251645e-06 5.9832932e-06
000070 31 9b bf 36 72 bb 8a 36 5f 93 cf 35 91 39 b0 35
       5.7103102e-06 4.134542e-06 1.5465592e-06 1.3129776e-06
000080 2d b6 01 37 fe 1d c8 35 42 77 f8 35 9a f7 10 35
       7.731415e-06 1.490989e-06 1.8512148e-06 5.400449e-07
000090 3b 3f 1c 37 6e 9a 84 36 56 90 71 36 29 66 94 35
       9.313047e-06 3.9518845e-06 3.5995813e-06 1.1056592e-06
0000a0 cb 4a 26 36 78 20 6e 35 21 7a bf 35 6c f6 2d 35
       2.4779463e-06 8.870916e-07 1.4266153e-06 6.4806113e-07
0000b0 2e 59 12 35 69 fc 9f 35 49 d5 2d 35 0f 56 f9 36
       5.451901e-07 1.1919884e-06 6.4757893e-07 7.430797e-06
0000c0 8e 3f 98 35 98 b1 19 37 7f 4d 4a 35 6f 90 e8 37
       1.1343379e-06 9.16086e-06 7.5363636e-07 2.7723812e-05
0000d0 9f c3 1d 36 a5 a6 99 36 10 f4 5d 35 5a 1c ee 35
       2.350869e-06 4.5791553e-06 8.2684073e-07 1.7740633e-06
0000e0 c3 bf 13 35 83 73 4f 35 24 91 29 35 5c 0d 86 35
       5.504082e-07 7.72816e-07 6.3168613e-07 9.987666e-07
0000f0 16 2b 49 35 3f 4c 90 36 fb de 2e 36 9d c8 89 36
       7.4941033e-07 4.3004106e-06 2.6057812e-06 4.1062726e-06
000100 4c 4c 22 35 b6 29 36 35 8f e8 2b 35 35 c6 45 35
       6.046073e-07 6.786098e-07 6.404088e-07 7.367665e-07
000110 26 d5 2c 35 cd 0d 15 35 80 42 aa 35 44 51 5b 35
       6.4385165e-07 5.552691e-07 1.2685341e-06 8.1702115e-07
000120 3c 43 cd 35 58 ad 4f 37 3a 8d 85 35 3c c5 40 36
       1.5293258e-06 1.2378521e-05 9.950375e-07 2.8725035e-06
000130 ea 66 8e 36 cc bb 27 36 44 e6 58 36 ed 08 76 36
       4.2439106e-06 2.4994251e-06 3.232054e-06 3.6662052e-06
000140 41 6b 4d 36 0c ab 74 36 40 12 5e 35 12 00 f3 36
       3.060981e-06 3.6458396e-06 8.2728e-07 7.2419725e-06
000150 0b 1d c2 37 df f5 8a 37 15 2d 8c 36 3f 63 fd 35
       2.3140126e-05 1.6565375e-05 4.1775734e-06 1.8878853e-06
000160 64 02 57 36 ac e4 81 35 b4 1a 71 37 b9 f5 82 36
       3.2038888e-06 9.677801e-07 1.4370937e-05 3.902908e-06
000170 4a 86 2d 37 45 29 b3 37 c7 c9 02 38 f9 c8 77 37
       1.034287e-05 2.135768e-05 3.1182335e-05 1.476914e-05
000180 32 c4 47 37 11 b8 16 38 a8 b4 45 37 d6 19 dc 35
       1.1907005e-05 3.5934212e-05 1.1784177e-05 1.6398797e-06
