logs/l1_coef-0.01/version_0/checkpoints/epoch=4799-step=4800.ckpt (torch, 566207 bytes, 72 tensors)

model.encoder.layers.0.weight f4 [100, 100]
00000000: 4535 82b7 4b07 a937 e0cd 3c37 18f1 21b7
00000010: 96bd c7b6 ad42 a6b6 ff6a 81b7 f90e 41b6
00000020: f7c1 1537 4278 0538 3087 3736 8fce d6b7
00000030: ac16 8936 abe6 96b7 0d90 be37 a228 2736
00000040: 5190 c436 ae44 da36 ebd2 84b5 20a5 5537
00000050: 0fa8 a8b7 422c b435 3588 b636 4331 b0b5
00000060: 2901 2237 74a6 1b37 7b2f 8eb5 fc01 45b5
00000070: 0338 6a36 71e4 7337 3473 6f37 a8a9 19b7
00000080: 8bd5 0937 0ebe 0fb5 0bc1 01b7 c18d 34b6
00000090: 46eb 2bb7 abd0 0537 e0ed c9b5 41b8 6a37
000000a0: a056 b1b6 28d2 6cb7 0d1d 53b6 0841 c036
000000b0: fcc9 19b7 46b7 f335 a3aa 7cb7 0fc6 abb7
000000c0: 1421 75b7 c62c 7437 aa48 3bb5 699e 0e37
000000d0: 8d00 b737 fa58 d5b5 99f5 cd35 04fd c2b7
000000e0: 42f2 26b7 c80a 5337 3ceb 9937 4492 8137
000000f0: ad6d 77b7 56eb 0c38 a91c 9d36 8b9a a437
00000100: 15f9 d336 a78e b4b5 f14d ec36 3879 66b7
00000110: 66ac 47b6 98d1 5bb6 3459 54b7 5326 e836
00000120: 5666 0eb6 23c9 a3b6 70ca 2ab6 0828 90b7
00000130: 4e90 9a36 9919 6eb5 7fbb 0eb7 9877 1837
00000140: 892b 2637 029c 8237 e06a deb7 3f60 e2b5
00000150: 7f97 5a36 8cb9 b8b6 f9c3 b536 56d5 0137
00000160: 23b6 5fb6 6781 3fb6 096d 30b4 b27e 5b37
00000170: 5a5e f2b7 715a 00b8 e1b2 6ab7 a98e 5635
00000180: f9ee 9636 b39b bfb6 5727 dab6 5f29 a436
00000190: 367d 8834 7147 c636 2eb9 6b37 b0ce b8b7
000001a0: 8140 8f37 61fc 6cb6 b2b1 0bb7 d5e7 6fb7
000001b0: c1ee 8cb7 f463 38b7 2ef7 8b37 d36e cfb7
000001c0: 453f 9337 5162 5bb7 f044 e635 f7cb ffb5
000001d0: 20fd a737 bd5e f8b3 eca1 d036 68a9 d6b6
000001e0: 5288 9037 a28a 3f37 7d43 0ab8 a568 74b7
000001f0: e7ff cb37 71bd 9536 aa53 9337 7e2e 90b7
00000200: f79b 4eb7 d24d 4234 73e4 0c37 d9e7 2e36
00000210: 1cbe 1bb7 5ffe 0336 1654 aab7 a41b 25b7
00000220: 8f9f 4e36 4e98 5037 007c 1fb7 ddfc ebb7
00000230: e61c c6b7 3936 d137 93c8 ddb6 840f a5b7
00000240: c601 b1b6 32d7 d236 c6d7 0137 3c23 3fb3
00000250: d16c 7536 2b7a 9bb7 d039 5c37 4179 3037
00000260: 80fe 8437 eb14 1cb7 4d28 49b7 8d68 67b5
00000270: 04b9 9636 a631 2837 6384 1eb7 53c1 d536
00000280: 9487 b337 675a 9bb6 7cc2 2535 950d d3b6
00000290: a3ef abb5 a556 2cb7 64da 16b7 f46e 50b7
000002a0: a869 8637 b4b8 63b6 2a7c 4bb7 c70c d137
000002b0: ff41 c137 03f7 2538 7622 8c37 76b6 b537
000002c0: 3370 cc36 0f3b 4037 f76b 40b5 bb0d 2eb7
000002d0: 2e98 4a35 efe6 d536 eca3 c6b6 8191 94b7
000002e0: a612 03b7 d3cb a5b7 e948 84b7 5da5 3e35
000002f0: 49e4 2137 ad5d 7c37 8729 64b7 7ec4 3fb7
00000300: 4584 33b7 c687 7e36 3e96 53b6 fe49 bbb5
00000310: dd9e a0b7 bfd3 4237 ced5 17b7 a68b 5d37
00000320: d315 9db6 d320 d136 b6ce 3db7 ca49 2db7
00000330: fa79 abb5 afa0 7d36 a2a8 a235 1723 9137
00000340: c3d7 40b7 110e c2b5 1d4d 30b5 db6a 66b7
00000350: fb1e 3735 0bb0 1bb6 d81e b835 ce8a e2b6
00000360: b78a 5237 4a00 8537 be97 9b37 5b1d 3437
00000370: ffa3 10b5 fe50 9db5 8515 01b7 3e7b 8eb7
00000380: 403e 2b37 09b2 61b6 3ad7 8037 c3d4 4e37
00000390: c608 c036 c4bb 1837 c64d 1b36 b962 8eb6
000003a0: 30b1 c8b5 ad50 c536 9243 f035 b1de deb6
000003b0: 2e1a 0ab8 8a5c fbb6 cc47 3137 4026 9cb7
000003c0: 5ec4 c137 119e 3137 0285 d036 d920 a5b6
000003d0: f17a 08b7 6104 86b7 30dd 9637 d73b 03b8
000003e0: 9575 3536 d4d5 d637 a2d0 0bb7 b7d0 80b7
000003f0: 332d 9cb6 5992 a5b6 7e56 5ab6 e97e 3238
-1.5522013e-05 2.0149766e-05 1.1253607e-05 -9.652482e-06 -5.952733e-06 -4.9549476e-06 -1.5427822e-05 -2.8767956e-06
8.926253e-06 3.182167e-05 2.7347814e-06 -2.5606974e-05 4.0855575e-06 -1.7988807e-05 2.2716844e-05 2.490859e-06
5.858056e-06 6.5049016e-06 -9.896152e-07 1.27342355e-05 -2.0105419e-05 1.3423926e-06 5.4398793e-06 -1.3127359e-06
9.656223e-06 9.277475e-06 -1.0593643e-06 -7.3391107e-07 3.490132e-06 1.4537117e-05 1.4272333e-05 -9.159012e-06
8.215556e-06 -5.354822e-07 -7.7339455e-06 -2.6904602e-06 -1.0247173e-05 7.976002e-06 -1.5044898e-06 1.3990387e-05
-5.2850955e-06 -1.4115627e-05 -3.145836e-06 5.7296165e-06 -9.166539e-06 1.815825e-06 -1.50601e-05 -2.0477017e-05
-1.461084e-05 1.4553958e-05 -6.976867e-07 8.500742e-06 2.1815556e-05 -1.5895632e-06 1.5345169e-06 -2.3244422e-05
-9.950776e-06 1.257909e-05 1.834856e-05 1.5446109e-05 -1.4747883e-05 3.3597775e-05 4.682301e-06 1.9622288e-05
6.317287e-06 -1.3452562e-06 7.0424217e-06 -1.3737292e-05 -2.975366e-06 -3.2755543e-06 -1.2656954e-05 6.9186003e-06
-2.1219216e-06 -4.881194e-06 -2.5449808e-06 -1.7184779e-05 4.606357e-06 -8.869916e-07 -8.507514e-06 9.087751e-06
9.904507e-06 1.5569854e-05 -2.651423e-05 -1.6866323e-06 3.2572714e-06 -5.505228e-06 5.4170346e-06 7.73867e-06
-3.3335607e-06 -2.853654e-06 -1.6430944e-07 1.3082916e-05 -2.8892584e-05 -3.060181e-05 -1.3989135e-05 7.992881e-07
4.4981684e-06 -5.7103694e-06 -6.501486e-06 4.892397e-06 2.5423077e-07 5.9091767e-06 1.4050207e-05 -2.2030756e-05
1.7076965e-05 -3.5313644e-06 -8.3264185e-06 -1.4299488e-05 -1.6800479e-05 -1.0990527e-05 1.6685193e-05 -2.472793e-05
1.7553228e-05 -1.3076308e-05 1.7156399e-06 -1.9058342e-06 2.0025822e-05 -1.1565633e-07 6.2177332e-06 -6.3974185e-06
1.7229617e-05 1.1416765e-05 -3.2964617e-05 -1.4567898e-05 2.431865e-05 4.4626e-06 1.7562725e-05 -1.7187787e-05
-1.231487e-05 1.8095969e-07 8.39784e-06 2.6062974e-06 -9.282983e-06 1.9668585e-06 -2.0304735e-05 -9.841202e-06
3.0789267e-06 1.2433227e-05 -9.5060095e-06 -2.8131932e-05 -2.3616896e-05 2.493999e-05 -6.609663e-06 -1.9676758e-05
-5.2752175e-06 6.2835397e-06 7.739238e-06 -4.45027e-08 3.6571184e-06 -1.8534329e-05 1.3126482e-05 1.0518649e-05
1.5854137e-05 -9.303195e-06 -1.1989917e-05 -8.620635e-07 4.491887e-06 1.002514e-05 -9.448358e-06 6.3704006e-06
2.1401596e-05 -4.629884e-06 6.17503e-07 -6.289871e-06 -1.2810236e-06 -1.0272172e-05 -8.991545e-06 -1.2423599e-05
1.6023245e-05 -3.3933147e-06 -1.2128652e-05 2.4920691e-05 2.3038125e-05 3.9569113e-05 1.6705348e-05 2.1661846e-05
6.0927355e-06 1.1457842e-05 -7.1682683e-07 -1.0374405e-05 7.5472315e-07 6.374779e-06 -5.919943e-06 -1.771073e-05
-7.81255e-06 -1.9764446e-05 -1.5769578e-05 7.102115e-07 9.6495e-06 1.5042181e-05 -1.3599528e-05 -1.1430237e-05
-1.0700028e-05 3.792798e-06 -3.1528903e-06 -1.395412e-06 -1.9147463e-05 1.1612602e-05 -9.050082e-06 1.3205141e-05
-4.6815053e-06 6.2325066e-06 -1.13134065e-05 -1.0328784e-05 -1.2775993e-06 3.7793468e-06 1.2119019e-06 1.7301687e-05
-1.1494328e-05 -1.445822e-06 -6.5677324e-07 -1.37339475e-05 6.8217895e-07 -2.319927e-06 1.3718045e-06 -6.751484e-06
1.25492725e-05 1.585497e-05 1.85481e-05 1.0735671e-05 -5.3882826e-07 -1.1720983e-06 -7.69401e-06 -1.6985108e-05
1.0206888e-05 -3.3631243e-06 1.5359012e-05 1.2328094e-05 5.7230673e-06 9.103624e-06 2.314207e-06 -4.2434226e-06
-1.495273e-06 5.8804494e-06 1.7901059e-06 -6.6420403e-06 -3.2926146e-05 -7.491156e-06 1.0566739e-05 -1.861446e-05
2.3098833e-05 1.0586825e-05 6.214367e-06 -4.921207e-06 -8.134856e-06 -1.5976084e-05 1.7984392e-05 -3.1288564e-05
2.7039544e-06 2.561036e-05 -8.333622e-06 -1.535598e-05 -4.654424e-06 -4.9344203e-06 -3.2534876e-06 4.25567e-05

model.encoder.layers.0.bias f4 [100]
00000000: 6e86 18b5 abad 68b6 af0c f3b7 0267 91b7
00000010: 5cb4 1137 ef51 ccb7 15e9 49b6 1fcd e1b6
00000020: fba2 cfb5 0c02 48b6 c78b b037 65d9 2eb6
00000030: 8403 5e37 4450 7e36 de1b 9f36 c696 c0b7
00000040: 3d6c 4cb7 0cdc da36 051b 7eb6 7393 50b7
00000050: 3917 be36 250a ba37 7432 0c34 a55d 1d37
00000060: 9a3c feb6 d6df 0fb7 bf72 2f37 5b60 8b37
00000070: 6b7a 90b7 59c6 8437 42c3 1937 1fc6 25b8
00000080: 3182 d036 5c20 9c37 b41e cab6 848b 6db6
00000090: 1449 a437 7877 7f37 d626 0438 3450 81b6
000000a0: d450 0738 fbeb dcb6 7ec1 4a36 ffe3 0bb7
000000b0: ab6a e8b6 56e0 6635 46b9 6334 7079 9337
000000c0: bd9b 4e37 0969 f7b6 41b9 2137 bbcb 80b7
000000d0: 33a3 cab7 1fb5 84b7 4e29 c2b7 8cc4 b6b5
000000e0: b0da d637 deba f837 8ae2 fdb6 2e8c a437
000000f0: cc9e 1ab7 dfce f436 289d e0b6 39c4 bab5
00000100: a81b 2936 25e1 b0b5 8681 3c35 68fd 60b7
00000110: eebe 4837 124e ceb5 8ff4 31b7 14e0 a137
00000120: cb39 4db7 a62f c2b5 8d78 f837 9a30 7537
00000130: 830e 6237 a5f5 2337 4207 9db6 4fcf 78b5
00000140: 6eb2 0cb7 7903 65b7 e0f2 16b7 cd33 b4b6
00000150: 09f6 abb5 0c26 ecb5 9087 30b7 3b09 0038
00000160: 682d be36 1d5a 13b6 26c2 4a35 0687 32b7
00000170: 8470 c8b6 1062 bdb6 b8d2 ebb5 e532 b2b6
00000180: 9819 d6b7 086c 5b37 727e d2b6 8e52 0a38
-5.6820033e-07 -3.4671782e-06 -2.8973764e-05 -1.7333314e-05 8.684667e-06 -2.4356848e-05 -3.0087006e-06 -6.729402e-06
-1.5470135e-06 -2.9803514e-06 2.1045924e-05 -2.605456e-06 1.323305e-05 3.789567e-06 4.7418134e-06 -2.2958393e-05
-1.2184549e-05 6.522523e-06 -3.7864677e-06 -1.2432097e-05 5.6651447e-06 2.2177652e-05 1.3056871e-07 9.379733e-06
-7.576845e-06 -8.57558e-06 1.0457529e-05 1.661496e-05 -1.7223143e-05 1.5827989e-05 9.164973e-06 -3.952358e-05
6.2140393e-06 1.8611718e-05 -6.0236434e-06 -3.539696e-06 1.9584353e-05 1.5227e-05 3.150742e-05 -3.8538365e-06
3.2261785e-05 -6.5839827e-06 3.0212973e-06 -8.33813e-06 -6.9265566e-06 8.600813e-07 2.1208425e-07 1.7580314e-05
1.23148175e-05 -7.3734013e-06 9.639481e-06 -1.5353658e-05 -2.4156272e-05 -1.5819967e-05 -2.3145836e-05 -1.3617259e-06
2.5612622e-05 2.965092e-05 -7.56636e-06 1.96156e-05 -9.216088e-06 7.2958496e-06 -6.6940156e-06 -1.3915188e-06
2.519906e-06 -1.3178548e-06 7.022394e-07 -1.3410441e-05 1.1965383e-05 -1.5370917e-06 -1.0606963e-05 1.929704e-05
-1.2232408e-05 -1.4467994e-06 2.962004e-05 1.4614454e-05 1.34740285e-05 9.772751e-06 -4.6798095e-06 -9.2688873e-07
-8.386194e-06 -1.3650272e-05 -8.9972455e-06 -5.3704484e-06 -1.2812098e-06 -1.7594443e-06 -1.0521981e-05 3.0526175e-05
5.6677272e-06 -2.195716e-06 7.553339e-07 -1.0641064e-05 -5.973563e-06 -5.644055e-06 -1.7570192e-06 -5.3107383e-06
-2.5522706e-05 1.307857e-05 -6.273208e-06 3.297865e-05

model.encoder.layers.1.0.weight f4 [100, 100]
00000000: a24e 8737 445b cbb5 4117 6837 5442 99b7
00000010: 3921 a736 39a6 9e36 72c7 91b5 0264 66b7
00000020: 9c76 9136 0b30 54b7 8207 a7b7 78a8 1b37
00000030: 1492 1b37 3d7b 79b7 b10c c9b6 6297 7eb5
00000040: 8149 84b7 0460 aa36 868d 0cb6 35a6 5bb7
00000050: 9711 e337 6503 e337 88cb b637 c764 0037
00000060: 7549 32b7 b659 e7b7 d313 5eb7 2b52 e1b7
00000070: ae44 84b7 9d0f 9336 7e58 a2b6 704f e537
00000080: c094 c1b5 bb4e d6b7 a40f 7336 ad1b 1db5
00000090: 7aac 23b7 91bf b5b6 15c9 7cb7 60cf 23b7
000000a0: 024d 5437 6adf 10b7 af43 55b6 2df3 1a37
000000b0: 8fc0 c136 a54d ecb5 e54d 5ab6 3843 01b6
000000c0: cb86 70b7 f105 2536 3fc7 1837 98ee bbb4
000000d0: c549 08b7 9b87 c9b6 0e69 eb36 a489 a0b6
000000e0: 2e6f 5637 3a9c a136 28c4 82b7 be3e 94b7
000000f0: 66e0 a536 18c4 5735 effb e436 7806 a736
00000100: df6c 38b7 d5ab b536 4cab d334 4495 3cb7
00000110: 0dee 8fb4 30bf 15b7 5675 afb7 4991 7735
00000120: d413 33b7 c206 b4b7 fd84 80b5 c2ef 0d37
00000130: 82e0 31b6 b429 8f37 093e 10b6 d745 d5b6
00000140: 56fe 2336 a728 87b7 15d3 53b6 0c8c c2b6
00000150: 8636 3037 38ae 9a37 cf9a 9637 109c 5cb7
00000160: a1c8 9037 2fcc ecb6 3285 50b7 204b 5c37
00000170: c183 4cb7 ea9c c0b6 7042 45b7 d5ab cdb7
00000180: 9ec8 8f37 e0f8 2d37 22d8 67b7 fac6 5bb7
00000190: f080 c5b6 e21b 94b7 373b f936 195b c136
000001a0: fe32 4d36 6af3 ae37 0e3b 9c37 1e7a 8137
000001b0: 9df8 0735 4624 81b6 5818 aa35 b084 9837
000001c0: 3dbd 10b7 7c66 d236 ad69 9936 220c d137
000001d0: cbd9 87b7 e98f 0735 10a2 2337 87ea 1837
000001e0: 0c18 b637 32a2 95b7 c02b 8937 e39b 2b37
000001f0: 118c d7b7 b41d 96b6 3637 2bb7 1a2a c237
00000200: d064 fe36 63a5 f0b5 199f 00b6 3103 49b7
00000210: 4e3f c436 7d3e a336 ff3c e4b7 adb6 c8b6
00000220: 3a78 94b7 de82 01b7 0bea 45b6 745f 5437
00000230: eca8 be37 2259 9bb7 d557 5b37 7462 71b7
00000240: 5db5 95b6 8c9f 59b7 81a7 f936 23fd 80b7
00000250: 7310 c0b6 0348 c5b7 a420 4737 4b49 59b7
00000260: 71e8 9c36 be01 4036 b2ab e9b7 400d feb6
00000270: caf9 3137 c21f 26b5 c506 0638 5c26 64b7
00000280: e382 91b7 bcdd f935 5e2c e637 9edd 74b7
00000290: 7557 ac36 271b de36 55b5 e9b7 4dc9 6d36
000002a0: 553d e336 4067 a636 8a81 1e37 41fd 33b7
000002b0: a7e1 c4b7 e083 5bb7 1933 11b7 7406 4937
000002c0: 8fb3 35b7 9498 5cb7 08eb 8436 7a9c 1236
000002d0: 7fad c437 4551 b2b6 90f8 18b7 cff8 8837
000002e0: 0062 a035 5406 1fb7 7d64 0037 d940 cf36
000002f0: 3df5 bbb7 b003 3937 8109 a837 c54c 9eb7
00000300: 9d35 4cb7 52bd ce37 1ece 96b7 6304 51b7
00000310: 983e e537 3888 d8b6 2d24 8b36 c72f ec37
00000320: 3c6f e937 f571 23b7 35fd 9937 1c96 15b7
00000330: a9a2 adb6 016a c1b7 b6ec a6b7 24f7 4ab7
00000340: 27a9 84b7 0354 d836 dd76 e0b6 6d77 d336
00000350: de52 c137 f8de d835 6ede 56b7 def2 32b5
00000360: ceea 94b7 c9a2 64b5 4350 a3b7 f6b1 95b7
00000370: bf14 6f37 8a5a 74b7 8d9d d3b6 d347 e4b7
00000380: b23e 63b6 a078 a936 3265 8136 235b 7137
00000390: b76c bf36 e18a abb6 7d59 8bb7 42fe e536
000003a0: bb33 dab4 6c8b bb37 40be a4b6 f5ba 7437
000003b0: 5f9a e4b6 e4fd 9bb6 1bbf 9437 75fe 5fb5
000003c0: aaf0 d636 7136 3db7 788a 3e37 331b 0736
000003d0: 8d07 b537 79c9 8f37 9723 8437 5618 9b37
000003e0: 24fa abb6 abcd 6037 ee03 0937 6bf1 a6b7
000003f0: 7a06 5136 11bd 08b8 95de 7437 4944 e537
1.612987e-05 -1.515124e-06 1.3833692e-05 -1.8269908e-05 4.9808555e-06 4.728118e-06 -1.0861388e-06 -1.3732353e-05
4.3351447e-06 -1.2647371e-05 -1.9911447e-05 9.277945e-06 9.272731e-06 -1.487025e-05 -5.9917443e-06 -9.4842665e-07
-1.5769854e-05 5.0775725e-06 -2.0944003e-06 -1.3092115e-05 2.70687e-05 2.706209e-05 2.1790867e-05 7.652859e-06
-1.062673e-05 -2.757912e-05 -1.3236847e-05 -2.6860353e-05 -1.5767608e-05 4.382759e-06 -4.838278e-06 2.7335918e-05
-1.4422912e-06 -2.554745e-05 3.6218926e-06 -5.852733e-07 -9.755715e-06 -5.4165216e-06 -1.50671885e-05 -9.76384e-06
1.26541145e-05 -8.6350865e-06 -3.177887e-06 9.235734e-06 5.774265e-06 -1.7605968e-06 -3.2529872e-06 -1.9261624e-06
-1.4336499e-05 2.4590374e-06 9.106297e-06 -3.5005064e-07 -8.1234075e-06 -6.0060534e-06 7.0157757e-06 -4.784395e-06
1.278128e-05 4.816361e-06 -1.558855e-05 -1.7672191e-05 4.9435066e-06 8.0379095e-07 6.8242584e-06 4.977741e-06
-1.0992603e-05 5.4142242e-06 3.9426448e-07 -1.1240427e-05 -2.680903e-07 -8.925606e-06 -2.0916264e-05 9.222609e-07
-1.0673848e-05 -2.1460819e-05 -9.575448e-07 8.460078e-06 -2.6505736e-06 1.7066348e-05 -2.1493781e-06 -6.356025e-06
2.4436936e-06 -1.6112184e-05 -3.1564316e-06 -5.797954e-06 1.0503112e-05 1.8439358e-05 1.7953482e-05 -1.3149358e-05
1.7259563e-05 -7.057118e-06 -1.2428778e-05 1.3130513e-05 -1.2190024e-05 -5.740313e-06 -1.1757584e-05 -2.451792e-05
1.7140348e-05 1.0369549e-05 -1.3818995e-05 -1.3099745e-05 -5.886068e-06 -1.7655959e-05 7.427672e-06 5.7624534e-06
3.0577062e-06 2.0855765e-05 1.8624149e-05 1.5434864e-05 5.06532e-07 -3.8487224e-06 1.2673072e-06 1.81816e-05
-8.627129e-06 6.2704185e-06 4.5720576e-06 2.4920391e-05 -1.6194672e-05 5.0500836e-07 9.75329e-06 9.114511e-06
2.1707288e-05 -1.7837712e-05 1.6352045e-05 1.02286895e-05 -2.569522e-05 -4.4738063e-06 -1.0205249e-05 2.3146207e-05
7.581526e-06 -1.7929527e-06 -1.9166093e-06 -1.1981277e-05 5.848625e-06 4.865053e-06 -2.7208122e-05 -5.9817307e-06
-1.769896e-05 -7.719469e-06 -2.9491518e-06 1.2658409e-05 2.2728425e-05 -1.8518946e-05 1.3073867e-05 -1.4387642e-05
-4.4616595e-06 -1.2971355e-05 7.4402783e-06 -1.5376665e-05 -5.723961e-06 -2.3517763e-05 1.1868924e-05 -1.2951273e-05
4.676222e-06 2.8611244e-06 -2.7855716e-05 -7.5713324e-06 1.0608181e-05 -6.188603e-07 3.1954394e-05 -1.359879e-05
-1.7346296e-05 1.8616479e-06 2.7438797e-05 -1.4595133e-05 5.136181e-06 6.6192765e-06 -2.7860204e-05 3.5432925e-06
6.772267e-06 4.9592054e-06 9.4476945e-06 -1.0728197e-05 -2.3470098e-05 -1.3084122e-05 -8.654571e-06 1.1982036e-05
-1.0830247e-05 -1.3148547e-05 3.961268e-06 2.1846777e-06 2.3445811e-05 -5.3142744e-06 -9.117779e-06 1.6328324e-05
1.1949451e-06 -9.478612e-06 7.652791e-06 6.17663e-06 -2.2406335e-05 1.1027718e-05 2.0031586e-05 -1.8870816e-05
-1.217183e-05 2.4645273e-05 -1.7977374e-05 -1.2458392e-05 2.7328075e-05 -6.4531596e-06 4.146734e-06 2.815564e-05
2.7827562e-05 -9.74209e-06 1.835693e-05 -8.916042e-06 -5.174738e-06 -2.3056755e-05 -1.989897e-05 -1.209768e-05
-1.5814394e-05 6.447082e-06 -6.6895577e-06 6.302193e-06 2.3045981e-05 1.6158147e-06 -1.2807182e-05 -6.6663586e-07
-1.7752314e-05 -8.51735e-07 -1.9468489e-05 -1.7845054e-05 1.425034e-05 -1.4564614e-05 -6.3066313e-06 -2.7213164e-05
-3.386213e-06 5.050635e-06 3.8562803e-06 1.4385939e-05 5.7048996e-06 -5.1123648e-06 -1.6611762e-05 6.8543313e-06
-4.0643303e-07 2.235706e-05 -4.909729e-06 1.4587063e-05 -6.8129007e-06 -4.6489167e-06 1.7731965e-05 -8.344426e-07
6.405714e-06 -1.12779535e-05 1.1357122e-05 2.01324e-06 2.1580398e-05 1.7140746e-05 1.5752199e-05 1.8488772e-05
-5.1253173e-06 1.3399326e-05 8.166751e-06 -1.9901161e-05 3.1147197e-06 -3.260101e-05 1.4595357e-05 2.7330725e-05

model.encoder.layers.1.0.bias f4 [100]
00000000: 4325 53b6 2227 7f37 4b7f c836 5ea5 3c37
00000010: 7dee 4037 d162 abb7 88dc fd36 cadf a0b7
00000020: 3a86 90b7 25e0 15b7 ecab d536 57fa 10b8
00000030: 8bb1 a834 4697 6ab6 228a 5f37 1c36 96b7
00000040: 3d6b 2b36 39cb b436 0d44 d636 5d38 91b3
00000050: 3acc abb6 a7cb 91b7 3a70 59b5 d218 18b7
00000060: 67d5 0036 3764 4037 bcd3 e636 58f4 eeb6
00000070: a534 0ab7 4cfb 9eb6 241b 6637 2383 be37
00000080: 003c 1635 9c7b 5636 1899 a936 7f39 9ab7
00000090: da19 6cb6 37e2 1037 6154 9737 044e 6eb7
000000a0: 1d28 8fb7 da7a d6b7 fcd1 df36 5683 9cb6
000000b0: 22fa 59b6 8978 5b37 9505 3ab6 3119 f1b7
000000c0: e732 82b7 c49c 86b7 05ec c136 3f93 cf36
000000d0: e27f 1737 4e89 f3b7 f520 e5b6 c245 0bb8
000000e0: 11b6 cfb5 4191 b937 101a d337 ac86 ba34
000000f0: ff90 00b7 dd2e 1237 3854 2a37 4a4f 2937
00000100: 2b90 99b7 d3d1 ceb7 adf1 6137 3ffa 1337
00000110: 9273 2d37 13c5 2236 d0ff 4f37 acca 0237
00000120: 43ff 4036 33f6 a0b7 603b bf36 a068 0937
00000130: 210a 5db7 7d38 a837 7186 0738 afc2 49b7
00000140: 4761 87b6 f2d2 c937 dfb9 d8b7 aacc 64b7
00000150: 62d7 5ab7 9d34 ecb7 9274 01b6 9dd8 8e37
00000160: 05c5 4e37 bb79 4f37 46d4 36b6 2538 f3b7
00000170: fb12 67b6 0ae2 a5b6 9e19 edb6 297e 8637
00000180: 395d 8bb7 baac 4cb7 2791 c2b7 b552 23b7
-3.146314e-06 1.5208296e-05 5.9752833e-06 1.1244176e-05 1.1499619e-05 -2.0430803e-05 7.565661e-06 -1.9177696e-05
-1.7228642e-05 -8.93328e-06 6.367909e-06 -3.4565423e-05 3.1421618e-07 -3.495677e-06 1.3323997e-05 -1.790659e-05
2.5543407e-06 5.3880763e-06 6.385619e-06 -6.762341e-08 -5.1199722e-06 -1.738018e-05 -8.100211e-07 -9.065685e-06
1.9197703e-06 1.1467425e-05 6.8791833e-06 -7.121398e-06 -8.237698e-06 -4.7380217e-06 1.37153875e-05 2.271083e-05
5.5966666e-07 3.1960435e-06 5.054415e-06 -1.8385004e-05 -3.5181788e-06 8.635739e-06 1.8039895e-05 -1.420407e-05
-1.7065608e-05 -2.5567995e-05 6.6703633e-06 -4.664452e-06 -3.2481116e-06 1.30814815e-05 -2.771941e-06 -2.874117e-05
-1.552091e-05 -1.6047044e-05 5.7793245e-06 6.1862224e-06 9.030076e-06 -2.9031795e-05 -6.8285685e-06 -3.320515e-05
-1.547569e-06 2.2121358e-05 2.5165296e-05 3.4743186e-07 -7.663154e-06 8.713189e-06 1.0152398e-05 1.0091646e-05
-1.8306155e-05 -2.465482e-05 1.3467315e-05 8.820148e-06 1.0338512e-05 2.4254593e-06 1.23977225e-05 7.795792e-06
2.8758811e-06 -1.9188132e-05 5.6991557e-06 8.190196e-06 -1.3174985e-05 2.0053465e-05 3.2311716e-05 -1.2025862e-05
-4.034638e-06 2.4059296e-05 -2.583576e-05 -1.3637511e-05 -1.304396e-05 -2.8157892e-05 -1.929035e-06 1.7028588e-05
1.2324429e-05 1.2366504e-05 -2.7243673e-06 -2.8994002e-05 -3.443273e-06 -4.9436976e-06 -7.0661326e-06 1.6032793e-05
-1.6613501e-05 -1.2199564e-05 -2.3194194e-05 -9.734814e-06

model.encoder.layers.2.0.weight f4 [100, 100]
00000000: 5b1a 1237 d42f 6a34 632c d1b6 4e73 5cb7
00000010: bbdd f5b6 c3d8 18b7 900b a4b7 099a a536
00000020: c595 b536 bebe 1e37 a6b7 92b6 28fb 3937
00000030: 37de dcb6 57bf 96b6 bb09 8fb7 be0b b2b6
00000040: 988d 87b6 4a84 d436 66ad 0d37 1724 d437
00000050: 85b0 9437 f9d0 3c35 7ed5 03b7 3055 6137
00000060: 8cd0 97b6 8ad5 1f37 8b36 ceb6 fb84 6537
00000070: 9a89 7637 f6d9 d036 0761 1337 f875 8b37
00000080: b748 a5b7 30c8 09b7 c206 16b7 c68c 7337
00000090: 4b3f a837 6de0 5236 5f65 4c37 3e3d cf35
000000a0: a0da 93b7 d426 bc35 a0a8 86b7 101d 1bb6
000000b0: 725e c3b6 0f99 8237 0d85 d736 2bbb b9b7
000000c0: bb7e f737 1e40 f5b5 2cf5 f336 71eb 7437
000000d0: 74c1 22b5 826c 93b6 69c7 d336 d4d2 3b37
000000e0: 9ec1 b0b7 ed38 05b7 4787 5ab7 f2d4 63b7
000000f0: d6ff 31b7 564a 8e37 65ce 89b7 53e7 b3b6
00000100: c8bd 32b7 88df 9eb7 2181 8bb5 d6e5 91b7
00000110: e372 af37 d4a3 84b6 b7cb 41b6 5239 0f36
00000120: e3e4 5bb7 6774 43b6 5b59 1eb7 dfa4 ecb7
00000130: 9ca7 cb35 ef6a ceb6 a277 08b7 be3b d236
00000140: 230d b3b4 fef3 f4b5 6366 b637 553d 2ab7
00000150: c7d5 0db7 72dd 3037 c39f b0b7 8896 2eb7
00000160: cbd7 b836 79c0 f6b6 0c54 ceb6 0b8d b9b3
00000170: 6f56 c1b7 f052 1537 5d8f 1eb6 a399 5837
00000180: 06b1 62b4 f02e 0537 6030 c137 4828 c136
00000190: e72d d436 ba81 97b6 1a7b 0738 14ef adb6
000001a0: f265 9936 9ab4 7936 5211 8937 7e2a 9f36
000001b0: 92b2 1937 7f6f 51b6 3096 d536 0f9b fd37
000001c0: 2eb3 81b6 8451 dd35 03ce 03b7 7b5d f3b6
000001d0: bf18 7bb7 45f4 68b5 736e 63b7 0f21 2536
000001e0: 6ddd 7335 8b8e b0b7 dc72 b637 4e90 0e37
000001f0: 7176 9037 f836 3337 35ff 8b37 1e34 86b6
00000200: 4c7e d5b6 789a 5ab6 decf 31b5 a4a3 0037
00000210: 33b9 4fb6 2129 4c37 1c9f 7137 e2a8 73b7
00000220: 4175 af37 0874 2b37 125d 5db5 f2c5 b336
00000230: 0abb 0e37 3fc4 3135 0e88 ab37 f4c9 8fb6
00000240: ce50 f336 1c17 24b7 abfb 5136 506c a4b6
00000250: 362a 2737 3535 4435 8ba9 9a37 82a9 3437
00000260: 1510 bbb7 c8a7 4336 ba56 ca37 0282 d3b6
00000270: 2281 8537 d9a5 9437 6225 8834 02bc b0b7
00000280: f134 ee37 7d53 c537 9d46 68b5 8cae 2b37
00000290: 43c2 4337 1a5b a4b6 96cd 2ab7 e448 07b6
000002a0: 35ee bfb6 a3ea 6f37 8fd5 cc37 08f4 2037
000002b0: cf4e 4db7 4e0d 14b6 2cf1 7437 9d6d 1f36
000002c0: cf59 9bb6 7c17 34b6 0907 1637 c63d 8535
000002d0: 18fd 00b7 b35a 1537 c51c 8cb7 5317 e835
000002e0: fce4 efb7 2c45 9936 12b9 5bb7 8120 3d37
000002f0: cf38 94b7 fae3 7036 e556 0a37 f32d 0db6
00000300: 4bc9 9cb7 3f42 e3b7 9e34 2c37 d084 33b7
00000310: 7a1e d536 2efc 3937 980b 01b7 65e6 3537
00000320: 324b 7bb7 fbae f8b7 f4ee 16b7 61da 1937
00000330: 3155 cbb6 b0f1 9037 66ef 1bb7 93c7 8936
00000340: 83e2 96b7 5772 9637 4b17 87b7 9979 84b7
00000350: 488b 53b7 08c8 c9b7 a73f 64b7 82e7 93b6
00000360: 78c8 4f37 7630 a4b6 7885 bd37 1baf 21b7
00000370: 9af3 ad37 977e 25b5 dcde d2b6 6611 2235
00000380: 267b e5b7 1c13 e437 7d6b 0738 a45e 2e36
00000390: abfe 5f37 677a b436 0f78 fe37 a3a8 65b5
000003a0: fe41 73b7 0aaf 7037 5b76 ecb7 e0a1 c237
000003b0: 5a65 4c37 6c37 eb37 cd97 fbb7 d29b 91b7
000003c0: d9e5 2538 bd55 84b7 78fe d335 9e5f 7c37
000003d0: 6e58 9937 860c 0e36 148a 8537 36fc 7437
000003e0: 0ead b036 659c b037 3374 3537 377f 7036
000003f0: 6690 d137 356a 5b37 ee97 42b6 c3c1 c9b7
8.7084145e-06 2.1810348e-07 -6.2338527e-06 -1.3139868e-05 -7.327382e-06 -9.110375e-06 -1.9555708e-05 4.9353152e-06
5.411656e-06 9.4619445e-06 -4.3725186e-06 1.1085336e-05 -6.58238e-06 -4.4926232e-06 -1.705146e-05 -5.3061804e-06
-4.039797e-06 6.333493e-06 8.444627e-06 2.5289175e-05 1.7725173e-05 7.0339553e-07 -7.857916e-06 1.3430879e-05
-4.5244287e-06 9.526857e-06 -6.145628e-06 1.3680426e-05 1.46947805e-05 6.224257e-06 8.784474e-06 1.6625025e-05
-1.9703393e-05 -8.212446e-06 -8.94227e-06 1.4516705e-05 2.0056634e-05 3.1423072e-06 1.218295e-05 1.5440526e-06
-1.762557e-05 1.4018392e-06 -1.6052567e-05 -2.3113716e-06 -5.8224477e-06 1.5568481e-05 6.4229885e-06 -2.2140875e-05
2.9503708e-05 -1.8272583e-06 7.270506e-06 1.4598351e-05 -6.0631214e-07 -4.3935734e-06 6.3115044e-06 1.1195156e-05
-2.1070995e-05 -7.940672e-06 -1.3025309e-05 -1.3579835e-05 -1.0609589e-05 1.6962334e-05 -1.6427783e-05 -5.3615454e-06
-1.0653814e-05 -1.8939158e-05 -1.0393888e-06 -1.7392373e-05 2.0915124e-05 -3.9529787e-06 -2.8877819e-06 2.1342025e-06
-1.3106709e-05 -2.912502e-06 -9.438339e-06 -2.8210166e-05 1.5173459e-06 -6.151727e-06 -8.134086e-06 6.2654426e-06
-3.3350906e-07 -1.8250428e-06 2.1743768e-05 -1.014707e-05 -8.454029e-06 1.0541977e-05 -2.105523e-05 -1.04062565e-05
5.508749e-06 -7.353778e-06 -6.1490628e-06 -8.6403894e-08 -2.3047642e-05 8.9004025e-06 -2.3627283e-06 1.2910375e-05
-2.1112291e-07 7.938346e-06 2.302992e-05 5.7565376e-06 6.323436e-06 -4.515253e-06 3.2301155e-05 -5.183634e-06
4.5716233e-06 3.7209015e-06 1.6339738e-05 4.743516e-06 9.161087e-06 -3.1208326e-06 6.365379e-06 3.0232155e-05
-3.865359e-06 1.6489507e-06 -7.856174e-06 -7.252847e-06 -1.49665275e-05 -8.6782194e-07 -1.355597e-05 2.4606159e-06
9.084677e-07 -2.1047212e-05 2.1749576e-05 8.497458e-06 1.7221291e-05 1.068203e-05 1.6688931e-05 -3.9995784e-06
-6.3625976e-06 -3.2574444e-06 -6.6240125e-07 7.667495e-06 -3.0953204e-06 1.2168924e-05 1.4401765e-05 -1.452325e-05
2.0916226e-05 1.021941e-05 -8.246435e-07 5.3576596e-06 8.507408e-06 6.6223214e-07 2.0448144e-05 -4.2852425e-06
7.2513712e-06 -9.780542e-06 3.1289917e-06 -4.90019e-06 9.963804e-06 7.3093116e-07 1.843718e-05 1.0768303e-05
-2.2299626e-05 2.9154926e-06 2.4120662e-05 -6.303425e-06 1.5914968e-05 1.7720204e-05 2.5359174e-07 -2.1068383e-05
2.8396464e-05 2.3523107e-05 -8.652949e-07 1.0233034e-05 1.1668136e-05 -4.8981865e-06 -1.0180656e-05 -2.0158996e-06
-5.7199745e-06 1.4300141e-05 2.4418141e-05 9.593561e-06 -1.2237301e-05 -2.2061463e-06 1.45996855e-05 2.375665e-06
-4.629815e-06 -2.683576e-06 8.942335e-06 9.927251e-07 -7.6883225e-06 8.90221e-06 -1.6702697e-05 1.7292135e-06
-2.859765e-05 4.567808e-06 -1.3096507e-05 1.1272846e-05 -1.7669428e-05 3.5895487e-06 8.245673e-06 -2.1037383e-06
-1.8690384e-05 -2.7091357e-05 1.026425e-05 -1.0700154e-05 6.3514426e-06 1.1085574e-05 -7.691699e-06 1.0842084e-05
-1.4978274e-05 -2.9645385e-05 -8.996332e-06 9.170356e-06 -6.059789e-06 1.7278682e-05 -9.294459e-06 4.1061517e-06
-1.7986871e-05 1.7934637e-05 -1.61041e-05 -1.579225e-05 -1.2609009e-05 -2.4054214e-05 -1.3604679e-05 -4.4078924e-06
1.2384837e-05 -4.8932225e-06 2.2592707e-05 -9.637118e-06 2.0736643e-05 -6.16515e-07 -6.284432e-06 6.037502e-07
-2.7356273e-05 2.7188617e-05 3.2286614e-05 2.5983109e-06 1.335113e-05 5.3786675e-06 3.0335066e-05 -8.5554547e-07
-1.4499294e-05 1.4345869e-05 -2.8188506e-05 2.3201981e-05 1.2182945e-05 2.803999e-05 -2.999222e-05 -1.7357906e-05
3.9553128e-05 -1.5775551e-05 1.5794785e-06 1.5042633e-05 1.82802e-05 2.1166938e-06 1.5919133e-05 1.4602256e-05
5.265355e-06 2.1053662e-05 1.0815495e-05 3.5836836e-06 2.4981982e-05 1.30781455e-05 -2.8996687e-06 -2.4051295e-05

model.encoder.layers.2.0.bias f4 [100]
00000000: b883 96b4 5ec1 3937 e57b c6b6 7b51 1cb7
00000010: 03aa 3437 a519 69b6 d621 a537 8f4b 0737
00000020: 2d7b 81b7 2e72 08b7 aff8 98b7 275e 1537
00000030: 10e7 a737 f81b e437 a65c 53b5 888c 4cb7
00000040: ae22 3537 c047 3937 c908 b937 fb7d f036
00000050: 2e7c 20b7 e4a6 cf36 0924 3837 c5ca 6f34
00000060: 8a3e 37b7 1e77 2c37 24a8 7eb4 b69f 00b7
00000070: 0734 acb7 4435 4cb7 4b1a d2b7 3429 3db6
00000080: 5329 f9b6 9fce 80b7 0827 8837 fbef d934
00000090: 4f75 e137 533b 0db7 14ca 8cb7 88a6 1b37
000000a0: 9690 0137 7490 73b7 c2e9 9cb4 3f19 8837
000000b0: 73aa 6737 6649 5d37 5792 36b6 c108 22b7
000000c0: 837f d8b7 3244 fe36 473b 9535 ea8c e2b6
000000d0: 2c36 d6b7 c442 ee37 525b 8bb7 23ea 1937
000000e0: 9596 b637 5a18 a637 5f67 2cb7 6111 b137
000000f0: 0d83 07b7 a7dc d6b7 5cd1 85b7 32aa 3137
00000100: d24a 0fb6 75f1 3435 c988 30b7 b534 b0b4
00000110: 3a03 1fb6 e6b6 c237 e515 a537 cff5 e6b7
00000120: fe86 5cb7 6691 30b7 b2c9 3d35 3a8a 94b7
00000130: 3848 5fb7 11e3 a6b7 f36c e536 4140 a437
00000140: d571 a8b6 81e2 bf35 3685 f936 6159 81b7
00000150: 2e1b eb37 4128 b6b7 49d7 fbb6 b102 50b7
00000160: 1297 9137 89dc 8537 33dd cf33 e7f4 8f37
00000170: 1968 22b6 a99a 80b5 edb6 8e34 6b88 e436
00000180: 7966 fb36 fde0 fb36 afd2 e5b6 6eca 82b7
-2.8035515e-07 1.1071881e-05 -5.915283e-06 -9.317296e-06 1.076842e-05 -3.4734633e-06 1.9685289e-05 8.064219e-06
-1.5435357e-05 -8.132816e-06 -1.8235614e-05 8.903014e-06 2.0015548e-05 2.7192742e-05 -7.8738447e-07 -1.21920675e-05
1.0796515e-05 1.1043565e-05 2.205781e-05 7.1672234e-06 -9.565656e-06 6.1885094e-06 1.0975645e-05 2.2332377e-07
-1.0922211e-05 1.0279733e-05 -2.3716763e-07 -7.66658e-06 -2.0528225e-05 -1.2171749e-05 -2.5046194e-05 -2.8187178e-06
-7.425589e-06 -1.5355005e-05 1.6230639e-05 4.0594009e-07 2.6876716e-05 -8.418067e-06 -1.67834e-05 9.2774935e-06
7.722663e-06 -1.4517562e-05 -2.9227346e-07 1.622422e-05 1.3808359e-05 1.3189716e-05 -2.7205294e-06 -9.657991e-06
-2.5808584e-05 7.577729e-06 1.1118617e-06 -6.7517294e-06 -2.5536014e-05 2.8402901e-05 -1.6612616e-05 9.174025e-06
2.1766211e-05 1.9800082e-05 -1.0276067e-05 2.1108137e-05 -8.07714e-06 -2.5613537e-05 -1.5952326e-05 1.0589649e-05
-2.1352212e-06 6.740659e-07 -1.0522265e-05 -3.2820904e-07 -2.3694724e-06 2.321177e-05 1.9679728e-05 -2.75326e-05
-1.3144452e-05 -1.0524271e-05 7.070149e-07 -1.7707342e-05 -1.33086505e-05 -1.9894478e-05 6.837415e-06 1.9580244e-05
-5.020042e-06 1.429653e-06 7.436286e-06 -1.5419619e-05 2.802684e-05 -2.1714835e-05 -7.5054454e-06 -1.2398393e-05
1.7355695e-05 1.595753e-05 9.6794246e-08 1.716097e-05 -2.4200474e-06 -9.581755e-07 2.6582657e-07 6.8108106e-06
7.4923123e-06 7.506575e-06 -6.8492586e-06 -1.5591471e-05

model.encoder.layers.3.weight f4 [10, 100]
00000000: 0306 11b6 d29e 22b6 34a7 5837 9b0d d6b7
00000010: 3133 c0b6 928f 6537 002b 93b7 beb9 7bb3
00000020: 3b96 e536 23c1 73b7 7317 95b5 ac90 33b7
00000030: aadb 86b6 2019 d836 5932 d736 1c44 6b36
00000040: cc39 cdb6 4e24 5a36 8f1e 90b7 043d 99b7
00000050: d12f 8337 1480 7cb7 069e 48b5 86a1 15b7
00000060: d987 9336 aa38 7cb7 e691 6236 adc9 f336
00000070: e582 8037 3502 d035 c87f 3db7 1fc4 34b7
00000080: 03ce 99b7 746d dfb4 b614 6036 8a69 9c36
00000090: bd2c 3a37 51d7 cd36 bc2f 06b8 d894 2135
000000a0: e40d feb6 3b96 3bb7 2676 f436 1d78 c137
000000b0: bd66 4cb7 e28a 7237 f340 bbb6 b2c2 e137
000000c0: faaf 68b7 8657 83b7 a50c 3f36 8181 9b37
000000d0: 6e63 b336 3838 c1b6 d29f df36 9f22 68b7
000000e0: 23d2 3437 d63f 97b7 aaa9 2337 5168 86b7
000000f0: a6f7 7ab6 84e4 0137 5ae0 b9b7 912e 9b36
00000100: 7868 dc37 8161 a436 5c21 39b6 0a1c 2ab7
00000110: e6f6 d635 b259 0437 0efb 2637 ac06 7537
00000120: 7c3c 52b7 7cd0 0cb6 6a45 1137 6534 5b37
00000130: efcf 6237 b9d6 f2b7 37c3 0737 816e e7b7
00000140: 4994 4d37 9482 6337 6b1d 88b7 770f abb5
00000150: 843b 3fb7 f624 2636 6ce9 b1b6 0351 27b6
00000160: d83d 3db7 e734 3fb7 7690 73b7 86fa d6b6
00000170: de56 0d37 f9b8 3834 79e7 af35 d47c 7eb4
00000180: c529 f7b5 3cbd 3537 ede3 9eb7 ac58 9735
00000190: 5709 9537 309a 5137 6ef5 2137 721f 9cb7
000001a0: 3fbd 4837 7bb6 a437 9a9e aa35 98e6 80b7
000001b0: 5320 75b6 6cac a337 ada9 9c36 0aad 7fb7
000001c0: 5668 7437 4ecd 8235 6b5c 74b7 293a 9ab7
000001d0: 5fed 4db6 c768 d836 15e3 1936 7a22 38b7
000001e0: 410b 1ab7 0c19 0c37 0b84 8237 3b9e 64b6
000001f0: ac21 8337 1ce2 1eb6 443b 99b7 c171 6536
00000200: 7b89 5837 1955 deb7 f5d5 be37 0848 1836
00000210: a0d6 d2b5 90b9 a437 eed8 f6b6 5db5 5cb7
00000220: ba22 27b6 eb17 04b8 0800 9ab7 e3ca 70b7
00000230: cff2 8b37 919f d4b6 a61a ebb7 15f4 7237
00000240: ae10 b5b7 c47b b6b7 f560 f2b6 75d4 f636
00000250: f736 8b36 a187 b637 d5d9 0cb7 bf14 6bb6
00000260: e7b1 8c36 998f e937 223b 7337 3b49 8fb7
00000270: dadb f6b6 a72b d536 46dc ab37 cbec d637
00000280: 73b4 d037 d8b9 05b7 1443 4936 3604 4037
00000290: 8f4a 2cb7 a8df 12b7 83ab 5cb7 82c6 1b37
000002a0: 79ad 0037 f653 0e34 f0bc d236 4763 9b37
000002b0: 3075 9537 f2b5 80b7 a040 fe35 be5b 1737
000002c0: 507b 90b7 3422 9bb7 e437 9937 369e 5cb7
000002d0: 24a5 50b7 5399 04b8 a840 10b7 96f1 8d37
000002e0: 7e81 0cb6 4626 9cb6 23a0 1537 bafe c437
000002f0: 9b5a 54b7 848d abb7 e873 e537 5fb6 8936
00000300: 6ba3 b2b5 42ac 5b37 047b 91b6 6419 0ab7
00000310: 5026 c4b7 5160 9337 c885 fbb4 0ff9 2c36
00000320: f287 19b7 7ea7 1e37 ff1c a235 7cef 10b8
00000330: 1351 e1b7 0613 9c36 b813 bbb7 a096 01b6
00000340: 145b c337 6043 42b6 d79e da35 6447 8f37
00000350: 7c45 3fb7 3459 cc37 d562 8b37 00df de36
00000360: a50e ed37 8bbd 0737 3331 7c36 6b6a 9b36
00000370: 36dd 95b6 8aa2 ebb7 ee76 d736 0223 4635
00000380: d61f 40b7 05f5 f636 1701 ca36 b370 18b7
00000390: 7c5a e2b6 009b cdb7 366e 4cb7 5ad8 1637
000003a0: c1b0 93b7 4f3a 47b7 31f0 c0b6 380c f7b6
000003b0: 5772 c637 8969 07b5 be43 84b6 e01e ecb5
000003c0: 919b f4b6 d0f5 2a36 8470 9e37 8f21 1db7
000003d0: c1da e537 6ea8 9337 ff7e 4db7 cba2 4536
000003e0: 3610 b9b7 181a ba36 3bbf c5b6 9373 63b7
000003f0: 8707 d1b7 bb55 3437 5b91 d5b6 527d a135
-2.1610183e-06 -2.4232327e-06 1.2913533e-05 -2.5517124e-05 -5.7280054e-06 1.3682891e-05 -1.7543789e-05 -5.8609423e-08
6.842221e-06 -1.4528897e-05 -1.110819e-06 -1.07029155e-05 -4.0190835e-06 6.4402266e-06 6.4133606e-06 3.5057374e-06
-6.1162045e-06 3.2505664e-06 -1.7180368e-05 -1.8267434e-05 1.5638683e-05 -1.5050191e-05 -7.473576e-07 -8.9187e-06
4.396756e-06 -1.5033564e-05 3.3761548e-06 7.2654425e-06 1.5319742e-05 1.549785e-06 -1.1295029e-05 -1.0774499e-05
-1.8334953e-05 -4.1616624e-07 3.3390656e-06 4.6614487e-06 1.109688e-05 6.134542e-06 -3.1992546e-05 6.019377e-07
-7.571407e-06 -1.1181047e-05 7.285521e-06 2.3063325e-05 -1.2183268e-05 1.445666e-05 -5.5805954e-06 2.6912752e-05
-1.386925e-05 -1.5657173e-05 2.8468578e-06 1.8537745e-05 5.346191e-06 -5.758393e-06 6.6645234e-06 -1.3836338e-05
1.0777762e-05 -1.8030329e-05 9.75506e-06 -1.6022621e-05 -3.7397053e-06 7.742205e-06 -2.215819e-05 4.624781e-06
2.627469e-05 4.898932e-06 -2.7586566e-06 -1.0139318e-05 1.6016099e-06 7.888697e-06 9.952824e-06 1.4604691e-05
-1.2531058e-05 -2.098298e-06 8.658835e-06 1.3065616e-05 1.3519063e-05 -2.8948636e-05 8.092079e-06 -2.7588803e-05
1.22534775e-05 1.3560657e-05 -1.6226162e-05 -1.2744994e-06 -1.1398344e-05 2.4757442e-06 -5.302185e-06 -2.4932094e-06
-1.1279677e-05 -1.1396804e-05 -1.4517564e-05 -6.4068618e-06 8.42448e-06 1.7203628e-07 1.3105883e-06 -2.3701006e-07
-1.8415091e-06 1.08325e-05 -1.8941204e-05 1.1276184e-06 1.7766533e-05 1.249327e-05 9.653491e-06 -1.8611292e-05
1.1964991e-05 1.9635298e-05 1.2712146e-06 -1.5366168e-05 -3.652666e-06 1.9511404e-05 4.668915e-06 -1.5239473e-05
1.4567826e-05 9.745506e-07 -1.4565051e-05 -1.8385314e-05 -3.0685549e-06 6.4494993e-06 2.2930956e-06 -1.0975282e-05
-9.181736e-06 8.350482e-06 1.5558695e-05 -3.406675e-06 1.5632097e-05 -2.3675448e-06 -1.8266619e-05 3.4189873e-06
1.2906613e-05 -2.6504089e-05 2.2749397e-05 2.2691693e-06 -1.5708683e-06 1.9636733e-05 -7.3566252e-06 -1.3155249e-05
-2.4905153e-06 -3.1493528e-05 -1.8358245e-05 -1.4352353e-05 1.6683158e-05 -6.3366683e-06 -2.8026592e-05 1.4481154e-05
-2.1584648e-05 -2.1753724e-05 -7.2234493e-06 7.3561046e-06 4.1489216e-06 2.1759248e-05 -8.395368e-06 -3.5029805e-06
4.1930357e-06 2.7842632e-05 1.4497697e-05 -1.7081029e-05 -7.3569654e-06 6.3529765e-06 2.0487361e-05 2.5621053e-05
2.487956e-05 -7.970688e-06 2.9990379e-06 1.1445072e-05 -1.0269358e-05 -8.754352e-06 -1.3152955e-05 9.284939e-06
7.669784e-06 1.3255325e-07 6.280483e-06 1.852367e-05 1.7816754e-05 -1.5343514e-05 1.8943283e-06 9.021662e-06
-1.722356e-05 -1.8493367e-05 1.8265047e-05 -1.3149858e-05 -1.2436216e-05 -3.1614047e-05 -8.598123e-06 1.6921007e-05
-2.0937e-06 -4.653618e-06 8.918377e-06 2.3483637e-05 -1.265728e-05 -2.0450687e-05 2.73529e-05 4.104149e-06
-1.3309594e-06 1.3093524e-05 -4.3356576e-06 -8.231353e-06 -2.3382861e-05 1.7568616e-05 -4.6849732e-07 2.5774968e-06
-9.151163e-06 9.456531e-06 1.207838e-06 -3.4555313e-05 -2.6859843e-05 4.651377e-06 -2.230132e-05 -1.9310173e-06
2.3288223e-05 -2.894747e-06 1.6288494e-06 1.7080172e-05 -1.1400665e-05 2.4360234e-05 1.6616113e-05 6.642076e-06
2.8259421e-05 8.0907585e-06 3.7579564e-06 4.6317487e-06 -4.4662984e-06 -2.8089871e-05 6.4213446e-06 7.381169e-07
-1.1451504e-05 7.3598953e-06 6.020196e-06 -9.086146e-06 -6.7458586e-06 -2.4510082e-05 -1.2185008e-05 8.99107e-06
-1.7606073e-05 -1.18749e-05 -5.750008e-06 -7.362596e-06 2.3656683e-05 -5.0444993e-07 -3.941793e-06 -1.7592356e-06
-7.289877e-06 2.5475056e-06 1.8887462e-05 -9.365743e-06 2.7400793e-05 1.7602197e-05 -1.2248521e-05 2.9450046e-06
-2.2061267e-05 5.5462697e-06 -5.8933197e-06 -1.3557164e-05 -2.4918247e-05 1.0748797e-05 -6.3648163e-06 1.2031908e-06

model.encoder.layers.3.bias f4 [10]
00000000: c505 6fb6 e880 99b7 6523 6737 de2e e1b6
00000010: 59ef 0a37 d498 95b6 ce87 6635 a7b0 a3b6
00000020: c672 6137 8421 7137
-3.5617134e-06 -1.8299048e-05 1.3776914e-05 -6.7109786e-06 8.281168e-06 -4.4583376e-06 8.58793e-07 -4.8783436e-06
1.3437768e-05 1.4372523e-05

model.decoder_x.layers.0.weight f4 [10, 10]
00000000: 61c9 38b7 1076 7037 da3a 06b8 b6bf 2337
00000010: 364d a4b7 b3b5 e8b6 7ea6 73b7 002b afb7
00000020: 79fe 4d36 331c 9536 d354 ec36 49b2 10b6
00000030: 4f0c f935 a29a e537 d987 1037 ed02 57b6
00000040: 660f 23b6 b95d bf36 c25c f0b6 8e2f 3036
00000050: 09cf 8437 f658 c8b4 f43c 8037 f437 ff37
00000060: c6bf 4d36 3cf5 e9b4 18ea 9337 3f22 ed37
00000070: 9cbc 1237 7002 aeb6 005f 9636 a222 e136
00000080: c534 aeb6 91e3 5cb7 db65 ed37 7731 f3b7
00000090: 5dd9 0337 8e97 2a37 8201 b536 1d82 0838
000000a0: 770a 66b7 be13 d3b6 9bcd 3ab7 95ab 16b7
000000b0: 1c19 b335 cdb9 2935 242a 9836 d531 62b7
000000c0: 2f41 5bb7 5907 d3b7 bddf a7b7 b560 a637
000000d0: 3a56 29b7 14d8 0bb5 a91e d436 8873 6936
000000e0: a061 0ab7 8c9b 51b6 4bbf c4b7 b92e 42b6
000000f0: 9804 1537 7510 1337 c429 17b7 22dd 0138
00000100: e52c 8f37 70cf c2b6 7b41 1cb7 f325 eb37
00000110: c494 c937 20f9 b2b7 8f99 9a37 f9bb 84b7
00000120: 778a d2b6 d655 9db7 036b 3637 174a 0bb8
00000130: ac96 96b7 84fb c635 fea7 03b8 1535 75b6
00000140: 2c1f 99b7 fe69 c136 ec5a 8b37 90ae b7b6
00000150: 45e4 f736 9cf1 5b35 a24e 99b7 8a44 9c36
00000160: e14e 5b37 b1f6 2e36 6565 c0b6 a867 d436
00000170: d148 9637 8fda a134 02bd fab7 751b 7e35
00000180: 52f8 9eb6 a059 9236 a97b 3837 d2e9 2336
-1.1014142e-05 1.4332603e-05 -3.20029e-05 9.760193e-06 -1.9586278e-05 -6.9352914e-06 -1.4522693e-05 -2.088165e-05
3.0695503e-06 4.443829e-06 7.043223e-06 -2.1561448e-06 1.8555528e-06 2.7370934e-05 8.614698e-06 -3.20392e-06
-2.4297856e-06 5.7031543e-06 -7.163356e-06 2.6253724e-06 1.5832034e-05 -3.731763e-07 1.5287173e-05 3.0424424e-05
3.0659007e-06 -4.3578063e-07 1.7632774e-05 2.8268549e-05 8.746192e-06 -5.185888e-06 4.481408e-06 6.7095543e-06
-5.1917473e-06 -1.3166006e-05 2.8300032e-05 -2.8990891e-05 7.858817e-06 1.0168076e-05 5.394396e-06 3.2546104e-05
-1.3711505e-05 -6.2905883e-06 -1.1134335e-05 -8.980646e-06 1.3343847e-06 6.322778e-07 4.534859e-06 -1.3482252e-05
-1.3068594e-05 -2.5156582e-05 -2.0012138e-05 1.9833775e-05 -1.0093261e-05 -5.209597e-07 6.3216617e-06 3.4786954e-06
-8.248171e-06 -3.1233967e-06 -2.3454098e-05 -2.893545e-06 8.882162e-06 8.7657145e-06 -9.010026e-06 3.0961943e-05
1.7067834e-05 -5.8057994e-06 -9.31357e-06 2.8031855e-05 2.4030342e-05 -2.1335261e-05 1.8429737e-05 -1.5823158e-05
-6.274607e-06 -1.8755829e-05 1.0872961e-05 -3.3209184e-05 -1.7951555e-05 1.482535e-06 -3.138929e-05 -3.6538743e-06
-1.8253537e-05 5.7641873e-06 1.661243e-05 -5.4741467e-06 7.3877477e-06 8.1935445e-07 -1.8275638e-05 4.6571413e-06
1.3071783e-05 2.6071614e-06 -5.73385e-06 6.3301595e-06 1.7915301e-05 3.014761e-07 -2.9890336e-05 9.466233e-07
-4.737675e-06 4.361573e-06 1.09960465e-05 2.4424994e-06

model.decoder_x.layers.0.bias f4 [10]
00000000: 6ec6 1e36 43d4 01b7 1378 8b37 cf41 1536
00000010: bdaf afb6 0bde 3bb7 70e6 9fb6 b1bf d6b6
00000020: 1a1b 9037 8c43 5532
2.3659336e-06 -7.73842e-06 1.6626005e-05 2.2241036e-06 -5.235865e-06 -1.1197767e-05 -4.7653957e-06 -6.400013e-06
1.7178758e-05 1.241359e-08

model.decoder_x.layers.1.0.weight f4 [10, 10]
00000000: f987 36b7 606e a337 fc9f a135 8ef5 f9b6
00000010: eaee 0c37 2ccd 02b7 2815 9e37 cd64 6637
00000020: 0d43 40b6 8bf7 a5b7 60a1 30b4 a5dc 5bb7
00000030: 3b27 62b6 dcd0 9337 ec94 d7b7 0ea0 0634
00000040: 3603 4a36 e65a 8e37 c1c0 6bb7 0d12 6e37
00000050: 2cbb 08b7 37a7 8ab7 9d5a 9236 80d0 8b36
00000060: 533f a7b7 5dd0 3b37 59d9 3236 fdea f535
00000070: 4c40 59b7 68a3 cbb7 9948 c035 fe76 4237
00000080: 45a3 9eb6 5293 c4b6 d8ea 6637 3e19 ce37
00000090: 5cbe dc33 55d7 3eb7 f092 81b7 9a18 43b7
000000a0: 7d7d 43b7 5165 5036 b9df 4e37 8fc3 bfb5
000000b0: 60f3 0c37 676d d6b7 3837 1cb7 58a1 c136
000000c0: e8fc d437 6dc3 0437 474d e3b3 1b2d a5b7
000000d0: 1b08 10b6 4f2d 11b7 7be4 8c36 515e 7536
000000e0: 4727 59b7 e7bc ccb6 14dc 6f35 fb24 63b6
000000f0: 9e08 93b6 2c41 b6b6 b856 ce35 299a 30b7
00000100: d68d 9837 36ba c0b6 cd38 5cb7 0b2d 4036
00000110: 692d 1637 a0f8 cdb7 27f6 2d36 ec2d d5b7
00000120: 5c4d eab7 dab4 0c38 6a5d c537 6166 ffb6
00000130: 3592 4337 c041 8c37 6d32 0cb8 7ff6 7e35
00000140: 2b46 71b7 6cec 9f37 08c7 a2b6 aa5a c5b7
00000150: f332 a3b6 659f e4b5 4c25 5d37 69de 0737
00000160: b972 9235 d7f7 97b7 ae79 23b6 1e3e 90b5
00000170: 8640 d435 1393 e9b7 5c3d 1ab7 41b7 81b5
00000180: cb52 83b7 c771 b036 0a49 1b37 0684 1937
-1.0879704e-05 1.9482512e-05 1.2041996e-06 -7.4493646e-06 8.400277e-06 -7.796374e-06 1.884492e-05 1.3732538e-05
-2.8649258e-06 -1.9784804e-05 -1.6449985e-07 -1.310479e-05 -3.369946e-06 1.7621023e-05 -2.5699344e-05 1.253795e-07
3.0102215e-06 1.6970047e-05 -1.40519705e-05 1.4190108e-05 -8.149811e-06 -1.6528747e-05 4.361688e-06 4.1667954e-06
-1.9937439e-05 1.1194582e-05 2.665058e-06 1.8322313e-06 -1.2949178e-05 -2.4275578e-05 1.4326243e-06 1.1591006e-05
-4.727774e-06 -5.8584055e-06 1.3763747e-05 2.4568868e-05 1.02791745e-07 -1.1375018e-05 -1.5446421e-05 -1.1628634e-05
-1.1652123e-05 3.105339e-06 1.2330646e-05 -1.4287524e-06 8.401315e-06 -2.5561732e-05 -9.311181e-06 5.770631e-06
2.5390138e-05 7.913314e-06 -1.0584568e-07 -1.9690537e-05 -2.146239e-06 -8.653223e-06 4.1989238e-06 3.6562744e-06
-1.2943353e-05 -6.101665e-06 8.9354694e-07 -3.3847161e-06 -4.3819446e-06 -5.4316097e-06 1.5373435e-06 -1.0526311e-05
1.818586e-05 -5.7437237e-06 -1.3126247e-05 2.8636448e-06 8.95127e-06 -2.455368e-05 2.5922288e-06 -2.5412963e-05
-2.7930997e-05 3.3547032e-05 2.352773e-05 -7.6115107e-06 1.1656947e-05 1.6719918e-05 -3.3425564e-05 9.498107e-07
-1.4381057e-05 1.906437e-05 -4.8511465e-06 -2.3526449e-05 -4.86371e-06 -1.7033714e-06 1.318131e-05 8.098411e-06
1.0911236e-06 -1.8116012e-05 -2.435972e-06 -1.0746915e-06 1.581401e-06 -2.7844251e-05 -9.193402e-06 -9.664583e-07
-1.565497e-05 5.258454e-06 9.255726e-06 9.15025e-06

model.decoder_x.layers.1.0.bias f4 [10]
00000000: fff2 2437 7a2a a4b7 01af a637 1b29 7936
00000010: 3df1 d1b6 a764 9b37 543f 4d37 eaa7 8037
00000020: 25e4 e734 9bab c1b6
9.831739e-06 -1.9570103e-05 1.9870235e-05 3.7127818e-06 -6.256769e-06 1.852431e-05 1.2233697e-05 1.533698e-05
4.31931e-07 -5.7718257e-06

model.decoder_x.layers.2.0.weight f4 [10, 10]
00000000: 98af a1b6 eb32 1cb6 debf 3037 bd6d e937
00000010: 8fc8 d3b6 66d1 c9b6 7f8a 35b8 ddb2 8b36
00000020: e183 0eb7 50a9 ba36 4342 4db6 359f 64b6
00000030: 4589 9a36 1263 e4b7 5ddb a8b5 41f5 1c36
00000040: 1601 adb7 1a9e 4bb6 2f54 ceb5 e113 6836
00000050: 6799 0c36 ca3f 2a37 9eed 95b7 3a53 47b6
00000060: 9ff8 6637 2064 1fb7 872b 2237 3381 b736
00000070: f428 f8b6 b57a 25b7 d0e4 3837 2b63 3f33
00000080: b406 cc37 3400 35b7 5d11 30b7 4916 9cb7
00000090: 24a4 16b7 e237 e9b6 7367 c536 5fb2 6c37
000000a0: 4bfa e3b7 9d08 e6b6 7010 7e37 33ef 2236
000000b0: d5cc 8b37 9bd1 0e37 9d41 88b5 42e1 1eb7
000000c0: 5055 83b5 1f3b a437 61fb 26b7 1bec 8436
000000d0: 56e3 5a37 353b 3837 52a0 feb6 2114 94b7
000000e0: 374e d237 0794 97b7 d760 a1b7 0da6 dc37
000000f0: 9a10 8037 d49f 51b6 4971 9c36 1b9b b936
00000100: 7201 4e37 4fe8 3937 6c00 08b8 61b9 79b7
00000110: e294 3838 dd8d 6cb6 499e 70b7 3ad2 d5b6
00000120: e437 2137 6990 9b37 c496 0737 c4d0 04b7
00000130: 293c 1a36 0605 2fb7 f28b ecb3 7f39 ebb7
00000140: 6f75 9637 04e7 8436 569c 63b7 619d 41b7
00000150: 55ec c0b6 0b5a f237 e353 20b3 8e73 9b36
00000160: 9e28 e436 0f3f 8db6 bcb4 ff36 ec86 af37
00000170: c0b8 d136 c675 3e37 9ba1 d5b6 24c7 b1b5
00000180: fae4 73b7 8757 0a36 0719 1bb5 332c c2b7
-4.8186157e-06 -2.327545e-06 1.053509e-05 2.7826865e-05 -6.311638e-06 -6.014644e-06 -4.3282747e-05 4.1633452e-06
-8.494565e-06 5.5629425e-06 -3.058595e-06 -3.4067318e-06 4.605538e-06 -2.7225851e-05 -1.2580819e-06 2.3388568e-06
-2.0623713e-05 -3.0341384e-06 -1.5372697e-06 3.4582265e-06 2.0950918e-06 1.0147642e-05 -1.7872833e-05 -2.9701755e-06
1.3766955e-05 -9.500451e-06 9.666087e-06 5.4688658e-06 -7.3957435e-06 -9.863336e-06 1.1020529e-05 4.4560846e-08
2.4321816e-05 -1.0788488e-05 -1.049446e-05 -1.8607027e-05 -8.978914e-06 -6.9504467e-06 5.8831006e-06 1.4108226e-05
-2.717706e-05 -6.855537e-06 1.5143407e-05 2.4279113e-06 1.6665474e-05 8.512662e-06 -1.0151886e-06 -9.469981e-06
-9.78509e-07 1.9577854e-05 -9.9529e-06 3.961393e-06 1.3046743e-05 1.098104e-05 -7.5884536e-06 -1.7652348e-05
2.5070372e-05 -1.8069533e-05 -1.923779e-05 2.6303367e-05 1.526652e-05 -3.123646e-06 4.6623504e-06 5.5314863e-06
1.2278893e-05 1.1080948e-05 -3.242532e-05 -1.4884718e-05 4.4007676e-05 -3.5249316e-06 -1.4341968e-05 -6.3723683e-06
9.609361e-06 1.8544686e-05 8.08173e-06 -7.91642e-06 2.2982806e-06 -1.0431982e-05 -1.1015062e-07 -2.8040957e-05
1.7936078e-05 3.9608003e-06 -1.3566654e-05 -1.1540339e-05 -5.7495586e-06 2.8890578e-05 -3.7329198e-08 4.6328123e-06
6.799658e-06 -4.2094684e-06 7.6206325e-06 2.0924454e-05 6.250193e-06 1.1352304e-05 -6.366708e-06 -1.3245485e-06
-1.4537241e-05 2.061455e-06 -5.777842e-07 -2.3147184e-05

model.decoder_x.layers.2.0.bias f4 [10]
00000000: 5310 9db6 c711 9737 bbe6 ab35 280d 7bb7
00000010: a3b9 6eb7 b3fe e136 8f95 09b7 955f 0536
00000020: 47fe 7237 ad92 99b6
-4.680865e-06 1.8008881e-05 1.2807644e-06 -1.4963829e-05 -1.4229127e-05 6.7351734e-06 -8.200658e-06 1.987418e-06
1.4483528e-05 -4.5768306e-06
