logs/l1_coef-1e-05/version_1/checkpoints/epoch=3869-step=3870.ckpt (torch, 518107 bytes, 30 tensors)

model.pi f4 [100, 1]
0.62769824 0.48118863 0.3441168 0.34030703 0.43790364 0.3834928 0.40870595 0.2863228
0.4000698 0.35532376 0.7198201 0.6252963 0.37738872 0.6072811 0.49977756 0.5588787
0.37853923 0.50694996 0.64707994 0.63234454 0.46785283 0.3517859 0.21266063 0.36579934
0.24048027 0.4311188 0.3744269 0.4776872 0.2353803 0.2710881 0.25468814 0.30055302
0.4527388 0.41470733 0.4157462 0.30465847 0.46423495 0.36770454 0.4638921 0.2925831
0.44784573 0.42862862 0.44736812 0.34677035 0.4202008 0.43488294 0.34064668 0.59665024
0.2883357 0.5245198 0.22832419 0.62260216 0.39260587 0.4942391 0.26634806 0.35451606
0.27257648 0.17382962 0.32131854 0.31685042 0.35115388 0.57004243 0.5607989 0.5045261
0.31800458 0.32652614 0.26294607 0.21898973 0.24280758 0.16245604 0.36274102 0.4226872
0.33869553 0.49253842 0.30220437 0.42870897 0.43359587 0.272438 0.36877438 0.4355698
0.4310433 0.4929592 0.250718 0.3551531 0.53739834 0.5830863 0.41104475 0.27658495
0.31084108 0.3332088 0.56344247 0.51470685 0.4913166 0.5946392 0.6103068 0.53214234
0.5130586 0.62588644 0.54917216 0.42823786
00000000: d5b0 203f 5b5e f63e 1430 b03e b93c ae3e
00000010: e834 e03e 2b59 c43e e841 d13e e798 923e
00000020: f3d5 cc3e ffec b53e 2146 383f 6b13 203f
00000030: 1839 c13e c676 1b3f d8e2 ff3e ad12 0f3f
00000040: e5cf c13e 79c7 013f 08a7 253f 55e1 213f
00000050: 688a ef3e 481d b43e b5c3 593e 0d4a bb3e
00000060: 7640 763e 9abb dc3e e2b4 bf3e 6b93 f43e
00000070: 8907 713e 0fcc 8a3e 7c66 823e 16e2 993e
00000080: 61cd e73e 8554 d43e b0dc d43e 32fc 9b3e
00000090: 34b0 ed3e c543 bc3e 4483 ed3e 74cd 953e
000000a0: 094c e53e 3675 db3e 6f0d e53e e28b b13e
000000b0: 8f24 d73e faa8 de3e 3e69 ae3e 12be 183f
000000c0: bda0 933e ee46 063f d1cd 693e db62 1f3f
000000d0: a303 c93e e80c fd3e c65e 883e 2183 b53e
000000e0: 258f 8b3e 6400 323e dd83 a43e 383a a23e
000000f0: 71ca b33e 4dee 113f 8490 0f3f 9f28 013f
00000100: 7fd1 a23e 6f2e a73e dea0 863e d83e 603e
00000110: 8da2 783e e05a 263e 31b9 b93e 756a d83e
00000120: 8069 ad3e ff2d fc3e 88ba 9a3e be7f db3e
00000130: 4700 de3e fe7c 8b3e ffcf bc3e 0103 df3e
00000140: b5b1 dc3e 2665 fc3e 1c5e 803e a1d6 b53e
00000150: f092 093f 2545 153f 7574 d23e 8b9c 8d3e
00000160: 9026 9f3e 589a aa3e c43d 103f d4c3 033f
00000170: d98d fb3e 463a 183f 113d 1c3f 7b3a 083f
00000180: cf57 033f 183a 203f 8c96 0c3f fe41 db3e

model.encoder.layers.0.weight f4 [100, 100]
0.23034403 0.05260666 0.07426157 0.07751537 0.018452646 0.047682468 0.036259707 0.11042839
0.036729958 0.04048634 0.004742913 -0.009316959 0.0152774025 -0.0030378674 0.04265229 -0.0053031007
0.01844524 0.014085752 -0.03314692 -0.009505039 0.017311456 0.0058798357 0.01470701 0.021447973
0.009979477 0.034908485 0.008227218 0.00040779533 0.009689504 0.030961465 0.008692631 0.0022974284
0.021035433 0.016508536 0.0054245763 0.05050449 0.023204582 0.012289676 -0.020721456 -0.004593246
0.027518883 0.025071781 0.029375702 0.011284794 0.019401403 0.026692132 0.0069716475 0.046607222
0.012283241 0.036407556 0.006856056 -0.032528628 -0.008022652 0.04809335 0.001400606 0.01592352
-0.0007612849 0.004935314 0.01534724 0.007293461 0.027972946 0.06617363 0.04095359 0.03642161
0.02461352 0.014915022 0.022111265 0.01702633 0.022080312 0.011508367 0.025565397 0.023409871
0.012704414 0.06251946 0.015583791 0.023946714 0.035191588 0.025711065 0.015914591 0.020101441
-0.0011094367 -0.0075714467 0.026321013 0.016335567 -0.014924011 -0.029020306 -0.002936816 0.0023221043
-0.0014692253 0.0050264695 0.054341692 0.036304593 0.021573517 0.034232665 0.06906919 0.019155912
0.021610584 0.0352255 0.025025718 0.017232336 0.11835519 -0.061777297 -0.068967655 -0.08002267
-0.09442073 -0.06625422 -0.071204424 -0.066375695 -0.08490196 -0.07065424 -0.05086994 -0.075187154
-0.05085275 -0.07011223 -0.025241531 -0.072790354 -0.05001729 -0.050251845 -0.10316261 -0.07627501
-0.05517838 -0.06427215 -0.05810254 -0.042087235 -0.060012285 -0.03076238 -0.06616549 -0.06770985
-0.05825157 -0.035057206 -0.03612551 -0.04907074 -0.026093908 -0.027748883 -0.04818858 -0.056500997
-0.021830287 -0.033950876 -0.073712766 -0.05525041 -0.038362935 -0.038790025 -0.0379627 -0.059857167
-0.04930751 -0.040858813 -0.062045228 -0.02094673 -0.057083864 -0.031206857 -0.03527542 -0.08253317
-0.05853375 -0.020025698 -0.0542303 -0.03248434 -0.049406067 -0.04073313 -0.031380292 -0.041759927
-0.03442352 -0.03171817 -0.023378436 -0.027917203 -0.041726705 -0.053841952 -0.04154104 -0.049637172
-0.048397593 -0.053826343 -0.04615161 -0.04612131 -0.059149664 -0.03913795 -0.051182862 -0.044640057
-0.06395342 -0.059789658 -0.051189367 -0.047759034 -0.03754593 -0.04884303 -0.031153362 -0.019077864
-0.05531134 -0.06682097 -0.0444306 -0.04149963 -0.046238717 -0.045748215 -0.0364413 -0.057978258
-0.03988916 -0.031086769 -0.032127522 -0.04327672 -0.041636325 -0.028314622 -0.040761225 -0.05087458
-0.22810335 -0.06380631 -0.13567288 -0.12736438 -0.029255059 -0.14103054 -0.04601295 -0.049671255
-0.13151339 -0.14512423 0.01299446 0.046472028 -0.0042031454 -0.0501311 -0.009652035 0.009963361
-0.032408286 0.028852673 0.042205926 -0.014171821 -0.004163163 -0.00020011707 -0.004246906 -0.01141305
-0.0040971083 -0.030586882 -0.07074016 0.00507495 -0.004020395 -0.092946 -0.008262604 0.0002446473
-0.050404314 -0.07822088 -0.06907579 -0.07387838 -0.11511506 -0.083184764 0.023953993 0.0020050071
-0.026115993 -0.021194786 -0.08226732 -0.0020424346 -0.010828806 -0.010609181 0.00053757976 -0.039264005
-0.0039730635 -0.09654426 0.00032886225 0.03825488 0.016144052 -0.019505583 -0.026682014 -0.009655555
00000000: 4edf 6b3e 157a 573d 7316 983d 61c0 9e3d
00000010: 012a 973c b14e 433d 0f85 143d 4828 e23d
00000020: 2772 163d 01d5 253d 706a 9b3b 29a6 18bc
00000030: 124e 7a3c f516 47bb 2bb4 2e3d a2c5 adbb
00000040: 791a 973c edc7 663c 11c5 07bd 06bb 1bbc
00000050: c1d0 8d3c a3ab c03b acf5 703c a9b3 af3c
00000060: f680 233c 33fc 0e3d 74cb 063c 5dcd d539
00000070: bac0 1e3c e6a2 fd3c 896b 0e3c 7490 163b
00000080: 8052 ac3c e93c 873c a5c0 b13b ccdd 4e3d
00000090: 8917 be3c a35a 493c 0bc0 a9bc f182 96bb
000000a0: 486f e13c 5663 cd3c 50a5 f03c dbe3 383c
000000b0: b1ef 9e3c 75a9 da3c 6b72 e43b 37e7 3e3d
000000c0: a63f 493c 1720 153d c4a8 e03b bd3c 05bd
000000d0: 7171 03bc 88fd 443d 8a94 b73a 0b72 823c
000000e0: f790 47ba 6ab8 a13b fd72 7b3c fcfd ee3b
000000f0: 8527 e53c 0a86 873d f4be 273d d32e 153d
00000100: 4ba2 c93c 235e 743c af22 b53c cd7a 8b3c
00000110: c5e1 b43c 978d 3c3c 866e d13c 0fc6 bf3c
00000120: 2d26 503c 340a 803d 2853 7f3c e62b c43c
00000130: 0e25 103d 03a0 d23c 515f 823c c7ab a43c
00000140: 856a 91ba e619 f8bb 2a9f d73c 2bd2 853c
00000150: d783 74bc febb edbc 9977 40bb 722e 183b
00000160: 0593 c0ba 15b5 a43b 6595 5e3d 20b4 143d
00000170: f2ba b03c 8d37 0c3d 2674 8d3d dcec 9c3c
00000180: ae08 b13c 9d48 103d bc02 cd3c d42a 8d3c
00000190: 3564 f23d 310a 7dbd ea3e 8dbd ede2 a3bd
000001a0: a85f c1bd 4bb0 87bd a0d3 91bd fbef 87bd
000001b0: 14e1 adbd 2cb3 90bd 005d 50bd b9fb 99bd
000001c0: f94a 50bd 0097 8fbd 54c7 cebc 1c13 95bd
000001d0: eede 4cbd e1d4 4dbd eb46 d3bd 1336 9cbd
000001e0: ba02 62bd 1ea1 83bd eefc 6dbd aa63 2cbd
000001f0: 71cf 75bd 6301 fcbc c681 87bd 76ab 8abd
00000200: 3399 6ebd 2598 0fbd 58f8 13bd 66fe 48bd
00000210: e4c2 d5bc a051 e3bc 6361 45bd 976d 67bd
00000220: 6ed5 b2bc 1310 0bbd b8f6 96bd 414e 62bd
00000230: 7422 1dbd 4ae2 1ebd c77e 1bbd ca2c 75bd
00000240: acf6 49bd 925b 27bd 2323 7ebd 7a98 abbc
00000250: c5d0 69bd 86a5 ffbc f57c 10bd 2707 a9bd
00000260: 16c1 6fbd ef0c a4bc 9720 5ebd 4d0e 05bd
00000270: 045e 4abd c8d7 26bd 9f88 00bd 750c 2bbd
00000280: adff 0cbd e9ea 01bd 2284 bfbc 9eb2 e4bc
00000290: 9fe9 2abd 6189 5cbd f026 2abd 5950 4bbd
000002a0: 8e3c 46bd 0379 5cbd 7809 3dbd b3e9 3cbd
000002b0: eb46 72bd 1d4f 20bd 1fa5 51bd 7ed8 36bd
000002c0: 03fa 82bd 00e6 74bd f1ab 51bd fa9e 43bd
000002d0: c3c9 19bd a10f 48bd 5635 ffbc 2e49 9cbc
000002e0: 258e 62bd 6fd9 88bd dcfc 35bd 84fb 29bd
000002f0: cf64 3dbd 7b62 3bbd 7943 15bd 9c7a 6dbd
00000300: d162 23bd aea9 febc 2698 03bd ee42 31bd
00000310: da8a 2abd 11f4 e7bc 3ef5 26bd dd61 50bd
00000320: ed93 69be e2ac 82bd d5ed 0abe cf6b 02be
00000330: 4ea8 efbc 4f6a 10be 1378 3cbd 1674 4bbd
00000340: 72ab 06be 729b 14be b7e6 543c 7459 3e3d
00000350: 8aba 89bb 4556 4dbd 9223 1ebc 5d3d 233c
00000360: 8dbe 04bd 715c ec3c 1fe0 2c3d ed30 68bc
00000370: 246b 88bb 84d6 51b9 a129 8bbb cdfd 3abc
00000380: 0941 86bb 5791 fabc 38e0 90bd c44b a63b
00000390: 85bd 83bb 795a bebd df5f 07bc 0144 8039
000003a0: c174 4ebd 4532 a0bd 9c77 8dbd 8c4d 97bd
000003b0: 72c1 ebbd c65c aabd 2a3b c43c 7066 033b
000003c0: 35f1 d5bc b0a0 adbc c57b a8bd 5eda 05bb
000003d0: 4e6b 31bc 21d2 2dbc 5eec 0c3a 4bd3 20bd
000003e0: 7930 82bb ffb8 c5bd 256b ac39 26b1 1c3d
000003f0: 8840 843c 2cca 9fbc 3d94 dabc 5532 1ebc

model.encoder.layers.0.bias f4 [100]
-0.06632801 -0.2206823 0.12121615 -0.01527391 0.032851208 -0.081455864 0.08867983 -0.21660653
0.16796812 -0.061841186 -0.08955198 -0.13228637 -0.08555323 0.065114856 -0.17199974 0.08712003
-0.077124245 0.089670554 0.16596572 -0.19600631 0.024871742 0.08796853 0.06337476 0.12794599
0.06484038 -0.031107772 -0.105714336 -0.05944888 -0.059159983 -0.18168901 -0.04207816 0.17541665
0.16340747 0.09136049 -0.17047782 0.055298883 0.16245575 0.18238078 0.08430348 0.24420191
0.18339014 0.08197336 0.08668179 -0.06899697 -0.22313929 0.11737423 -0.19080655 -0.013633971
0.19189213 -0.11867816 0.16707164 -0.122749574 -0.07768803 -0.1275228 0.14176342 -0.078009695
0.08622012 0.12610771 -0.086499445 -0.18040656 0.032328244 0.034136552 0.13071366 0.17509428
-0.03394102 0.18119624 0.1676565 -0.1221522 0.15124421 0.13213535 -0.05973453 -0.13227257
0.15089656 -0.15456672 0.13705668 -0.17804112 -0.08806206 -0.14310648 -0.09005922 -0.18700416
-0.07373571 0.11909841 0.17441516 -0.085155465 0.18080847 -0.07591954 -0.18180427 0.08716709
-0.079750784 -0.043783087 -0.07521637 0.04218293 0.1855146 -0.12514511 0.19177368 -0.178224
0.18619281 -0.08698805 -0.066732675 0.07702164
00000000: fbd6 87bd 8afa 61be 2c40 f83d 6c3f 7abc
00000010: fd8e 063d 55d2 a6bd c59d b53d 1ace 5dbe
00000020: d6ff 2b3e 2f4d 7dbd 0767 b7bd 1476 07be
00000030: 8836 afbd f05a 853d b320 30be fc6b b23d
00000040: 51f3 9dbd 32a5 b73d ebf2 293e e1b5 48be
00000050: d3bf cb3c d828 b43d a0ca 813d 4604 033e
00000060: 08cb 843d bad5 febc c280 d8bd ab80 73bd
00000070: bd51 72bd af0c 3abe 265a 2cbd 6ca0 333e
00000080: 4a54 273e 351b bb3d bd91 2ebe 1581 623d
00000090: cd5a 263e 07c2 3a3e 4ea7 ac3d 1110 7a3e
000000a0: a0ca 3b3e a6e1 a73d 3986 b13d 494e 8dbd
000000b0: a07e 64be e661 f03d cb62 43be 0561 5fbc
000000c0: 5f7f 443e 890d f3bd d414 2b3e 2164 fbbd
000000d0: e71a 9fbd 5695 02be 6e2a 113e 8cc3 9fbd
000000e0: 2d94 b03d 6122 013e 9f26 b1bd 7fbc 38be
000000f0: 9f6a 043d c5d2 0b3d cdd9 053e ea4b 333e
00000100: bd05 0bbd 828b 393e 25ae 2b3e ef2a fabd
00000110: c3df 1a3e 7d4e 073e 32ac 74bd 7672 07be
00000120: a184 1a3e bd46 1ebe 9658 0c3e 6950 36be
00000130: e259 b4bd 818a 12be f870 b8bd 057e 3fbe
00000140: bf02 97bd dee9 f33d e399 323e fd65 aebd
00000150: db25 393e b47b 9bbd e62a 3abe a984 b23d
00000160: 6154 a3bd e555 33bd 0a0b 9abd 02c8 2c3d
00000170: 8af7 3d3e 0a26 00be 5260 443e 5a80 36be
00000180: 54a9 3e3e ca26 b2bd 24ab 88bd 86bd 9d3d

model.encoder.layers.1.0.weight f4 [100, 100]
0.03990297 0.007137547 -0.11989103 0.08412806 -0.14870986 0.2128404 -0.0324156 0.14938217
-0.08283672 0.21067913 0.019858943 0.033718966 0.21670519 -0.110699676 0.14922269 -0.22068542
0.16451634 -0.22165498 -0.123386994 0.16078098 -0.14763819 -0.21441892 -0.07287465 -0.08861564
-0.19274023 0.035286747 0.048265755 0.06549227 0.11513648 0.103672735 0.077700555 -0.08949724
-0.08711965 -0.2218881 0.10256684 -0.046516284 -0.048727047 -0.116806455 -0.22631961 -0.01450579
-0.14562908 -0.22056273 -0.22076805 0.04980659 -0.0027308585 -0.03967256 0.15948097 0.13507684
-0.09709099 0.09024777 -0.09830607 0.056598213 0.17384318 0.08008402 -0.13222064 0.037693895
-0.037651133 -0.051120132 0.21933803 0.103151776 -0.009637312 -0.0237515 -0.09640351 -0.16277277
0.04711394 -0.13036162 -0.06268413 0.12734887 -0.13927649 -0.09716894 0.24313876 0.08915175
-0.0643147 0.044458874 -0.057586357 0.101897046 0.21495824 0.06242431 0.2227323 0.09745053
0.04310158 -0.023904422 -0.058003537 0.075907156 -0.12193553 0.11117969 0.0818406 -0.22329335
0.21824314 0.081092626 0.1557764 -0.041102827 -0.08945397 0.05189469 -0.16124189 0.10499917
-0.13312462 0.21537925 0.23702672 -0.2107684 6.074e-41 1.43424e-40 4.5805e-40 4.48975e-40
-5.42335e-40 -2.41318e-40 -7.19896e-40 -3.6816e-41 -7.16169e-40 -5.83394e-40 4.85941e-40 -2.13816e-40
-3.75527e-40 7.31617e-40 3.60581e-40 3.50099e-40 6.35625e-40 1.26794e-40 6.49684e-40 -1.28321e-40
5.68798e-40 -3.03092e-40 2.40226e-40 5.81015e-40 5.84521e-40 3.3848e-41 -6.08042e-40 6.15223e-40
-6.92868e-40 -3.4184e-40 1.4562e-41 3.07694e-40 6.73042e-40 1.72892e-40 6.36715e-40 2.57482e-40
1.64377e-40 -4.02506e-40 5.94609e-40 5.6464e-40 -7.24656e-40 -5.16896e-40 1.08114e-40 -1.00769e-40
2.726736e-26 -6.91595e-40 -6.33935e-40 -1.1987e-40 4.53226e-40 7.15172e-40 -4.41451e-40 2.85572e-40
-4.26452e-40 5.46397e-40 -7.04267e-40 2.57498e-40 4.935e-40 6.99141e-40 -9.067e-41 1.2942e-41
-5.5592e-41 -5.184931e-35 2.75542e-40 3.76114e-40 2.0908e-40 -6.72824e-40 -6.83623e-40 4.69522e-40
7.05157e-40 -3.52819e-40 4.77733e-40 5.33734e-40 2.3826e-41 6.27834e-40 -1.12159e-40 2.1466e-41
-3.3427e-40 -5.97302e-40 -4.995e-41 -4.74752e-40 -3.08682e-40 3.8461e-40 -3.1432e-40 -3.00176e-40
1.23585e-40 3.96492e-40 1.63592e-40 1.68573e-40 -6.0009e-40 -1.33863e-40 -5.602e-41 7.4719e-41
-5.808e-41 6.95575e-40 -6.2707e-40 -2.12676e-40 6.52454e-40 -1.09881e-40 -6.88943e-40 -6.7772e-40
0.032525923 -0.034684718 -0.03179739 -0.070683144 0.08007515 -0.062010758 -0.033098433 -0.027977288
-0.031080356 -0.07784737 0.03272588 0.0320347 -0.066948265 0.05548638 -0.02470834 0.071998715
-0.020906365 0.07200104 0.028867481 -0.030407514 0.07556003 0.07233646 0.051418804 0.031514693
0.053565823 0.034110367 -0.029197305 0.034094114 0.004598112 -0.031046286 -0.054026846 0.018625893
0.031096559 0.06499266 -0.02865936 -0.033395313 -0.03698575 0.030104179 0.076131925 0.03397534
0.02907222 0.077469006 0.07272839 0.018007917 -0.034189723 -0.03264093 -0.03163928 -0.06274564
0.027250292 0.006181943 0.03230992 0.032475416 -0.02689904 -0.03195361 0.03207732 0.034270797
00000000: 4c71 233d 15e2 e93b 6e89 f5bd 554b ac3d
00000010: 6647 18be d5f2 593e 38c6 04bd a4f7 183e
00000020: 4ca6 a9bd 45bc 573e 39af a23c e61c 0a3d
00000030: f7e7 5d3e 83b6 e2bd d5cd 183e 5cfb 61be
00000040: f976 283e 86f9 62be 52b2 fcbd c5a3 243e
00000050: 772e 17be a290 5bbe 4e3f 95bd 1e7c b5bd
00000060: b25d 45be d688 103d 50b2 453d d020 863d
00000070: adcc eb3d 5f52 d43d 7821 9f3d 544a b7bd
00000080: c96b b2bd a236 63be 900e d23d dc87 3ebd
00000090: 0396 47bd 3938 efbd 54c0 67be b1a9 6dbc
000000a0: ca1f 15be 32db 61be 0511 62be ff01 4c3d
000000b0: 34f8 32bb b27f 22bd fb4e 233e 9551 0a3e
000000c0: a4d7 c6bd d3d3 b83d b154 c9bd 87d3 673d
000000d0: f203 323e 1703 a43d d964 07be ea64 1a3d
000000e0: 1338 1abd 5863 51bd 269a 603e 3d41 d33d
000000f0: d1e5 1dbc 8192 c2bc 346f c5bd e8ad 26be
00000100: 8cfa 403d 847d 05be 8a60 80bd be67 023e
00000110: 7f9e 0ebe 8200 c7bd 5ef9 783e 3195 b63d
00000120: 6db7 83bd 821a 363d acdf 6bbd 66af d03d
00000130: 031e 5c3e a2b0 7f3d f013 643e 2594 c73d
00000140: 488b 303d 35d3 c3bc 1e95 6dbd 3675 9b3d
00000150: 56b9 f9bd 2db2 e33d 0b9c a73d 03a7 64be
00000160: 217b 5f3e e413 a63d d983 1f3e 705b 28bd
00000170: a533 b7bd 878f 543d 981c 25be ce09 d73d
00000180: d251 08be 618c 5c3e 22b7 723e acd3 57be
00000190: 52a9 0000 cf8f 0100 dbfc 0400 8fe3 0400
000001a0: cfe7 0580 b2a0 0280 c7d6 0780 a166 0080
000001b0: 63cc 0780 445a 0680 9b4a 0500 0854 0280
000001c0: d116 0480 73f7 0700 27ed 0300 efcf 0300
000001d0: ddeb 0600 7361 0100 0e13 0700 b565 0180
000001e0: 9431 0600 e64c 0380 a79d 0200 a253 0600
000001f0: 685d 0600 5b5e 0000 f99e 0680 feb2 0600
00000200: 6f8b 0780 e9b8 0380 9828 0000 ba59 0300
00000210: 2b54 0700 f4e1 0100 e7ee 0600 c1cd 0200
00000220: 37ca 0100 0662 0480 8779 0600 fd25 0600
00000230: 0ce4 0780 e5a0 0580 612d 0100 e718 0180
00000240: 7c05 0715 e387 0780 27e7 0680 264e 0180
00000250: 69ef 0400 9cc9 0700 96ce 0480 0f1c 0300
00000260: c6a4 0480 22f3 0500 36ab 0780 cdcd 0200
00000270: ad5f 0500 ec9c 0700 c0fc 0080 1424 0000
00000280: f89a 0080 d0d6 8986 1900 0300 7418 0400
00000290: d446 0200 8f53 0780 aa71 0780 d61c 0500
000002a0: b1ad 0700 84d7 0380 ba33 0500 d5cf 0500
000002b0: 6b42 0000 25d6 0600 a738 0180 d73b 0000
000002c0: cfa3 0380 0981 0680 3e8b 0080 6a2b 0580
000002d0: 7b5c 0380 2330 0400 326c 0380 c544 0380
000002e0: 8158 0100 4251 0400 07c8 0100 ead5 0100
000002f0: cf88 0680 2875 0180 299c 0080 49d0 0000
00000300: e7a1 0080 fb92 0700 04d4 0680 db50 0280
00000310: c71a 0700 4e32 0180 7e80 0780 3561 0780
00000320: e739 053d 9011 0ebd fb3d 02bd 53c2 90bd
00000330: 71fe a33d fefe 7dbd 3992 07bd a030 e5bc
00000340: 3b9c febc 716e 9fbd 930b 063d d136 033d
00000350: 2c1c 89bd b045 633d 2569 cabc 1074 933d
00000360: d343 abbc 4875 933d 7f7b ec3c 2e19 f9bc
00000370: 38bf 9a3d 2325 943d 869c 523d 8d15 013d
00000380: d667 5b3d 50b7 0b3d 302f efbc 45a6 0b3d
00000390: c2ab 963b c854 febc 414b 5dbd 5495 983c
000003a0: 36be fe3c df1a 853d 09c7 eabc 86c9 08bd
000003b0: 5f7e 17bd 0a9d f63c 0eeb 9b3d ba29 0b3d
000003c0: dd28 ee3c 12a8 9e3d 9ff2 943d 5785 933c
000003d0: 860a 0cbd 7fb2 05bd 3198 01bd c980 80bd
000003e0: 013c df3c e691 ca3b 6857 043d f104 053d
000003f0: 605b dcbc cae1 02bd 8263 033d 895f 0c3d

model.encoder.layers.1.0.bias f4 [100]
-0.14531872 4.50725e-40 0.026909843 5.08568e-40 -0.13551502 0.02686558 0.023289818 0.009480736
-0.022911057 0.023847977 0.24879512 0.01899473 0.009299075 -0.036048662 7.05471e-40 5.38537e-40
-4.16624e-40 -0.06833787 0.02628706 0.026826106 5.67618e-40 0.026908915 -0.107165106 -2.58788e-40
-0.016547482 -0.00968759 0.02688971 -0.11778399 0.02691471 0.025843311 0.026905237 0.02325669
0.019238425 -0.14306647 -0.14416866 0.026852857 0.013592438 -0.12485344 -0.14291933 0.026937801
0.026925648 0.026934626 0.026934706 0.01883464 -0.03459434 0.026459295 0.026903195 0.026948385
0.02694088 0.28263158 0.026925916 -0.13585344 -0.14563856 -0.1599697 -0.11820351 0.021565396
-0.15621127 -1.2126e-40 0.025802698 0.026419908 0.026726821 0.02690517 -0.148104 -0.017871143
0.015915355 0.026935253 -0.08289584 -4.81455e-40 0.026917579 0.019116692 -0.13069473 -0.11806781
-5.51796e-40 -4.49461e-40 -0.14645322 4.52235e-40 0.015012414 0.022591772 -0.13926348 -2.41746e-40
0.026561914 0.026932513 0.02683451 -0.16644005 -6.71337e-40 -0.14289743 4.54308e-40 -0.011509276
0.02692376 -3.4846407e-06 0.046306446 0.026936846 -0.14507253 -0.08889725 1.57624e-40 0.02618686
0.01644249 0.013878569 0.026415724 -0.08460918
00000000: 6ece 14be 70e8 0400 0872 dc3c ae89 0500
00000010: 73c4 0abe 3415 dc3c 4aca be3c 1755 1b3c
00000020: f8af bbbc d55c c33c 26c4 7e3e d69a 9b3c
00000030: 265b 183c c3a7 13bd 91ae 0700 39dd 0500
00000040: 6189 0480 baf4 8bbd f657 d73c 6cc2 db3c
00000050: 4a2e 0600 1670 dc3c 6179 dbbd 65d1 0280
00000060: 968e 87bc b3b8 1ebc cf47 dc3c bc38 f1bd
00000070: 3d7c dc3c 5ab5 d33c 5f68 dc3c d084 be3c
00000080: e799 9d3c 0480 12be f3a0 13be 86fa db3c
00000090: d1b2 5e3c 29b3 ffbd 7259 12be aaac dc3c
000000a0: 2d93 dc3c 01a6 dc3c 2ca6 dc3c 1a4b 9a3c
000000b0: cbb2 0dbd 2ac1 d83c 1764 dc3c dcc2 dc3c
000000c0: 1fb3 dc3c 16b5 903e bd93 dc3c 2a1d 0bbe
000000d0: 4622 15be 19cf 23be af14 f2bd eaa9 b03c
000000e0: d9f5 1fbe 0652 0180 2e60 d33c 906e d83c
000000f0: 35f2 da3c 3b68 dc3c 93a8 17be 8166 92bc
00000100: eb60 823c 52a7 dc3c 4bc5 a9bd 1a3e 0580
00000110: 4182 dc3c 9c9a 9c3c d7d4 05be 89cd f1bd
00000120: 2f02 0680 eae4 0480 d5f7 15be a6ec 0400
00000130: a1f6 753c 6112 b93c 169b 0ebe e4a1 0280
00000140: 5f98 d93c 93a1 dc3c 0cd4 db3c 436f 2abe
00000150: 6a4f 0780 b453 12be 6df2 0400 6791 3cbc
00000160: 388f dc3c acd9 69b6 d4ab 3d3d a9aa dc3c
00000170: e58d 14be c30f b6bd 64b7 0100 d385 d63c
00000180: 67b2 863c f062 633c ca65 d83c 9447 adbd

model.encoder.layers.2.0.weight f4 [100, 100]
-0.043421835 -6.3663e-40 0.041256636 -7.49924e-40 -0.019518724 0.041322134 0.04055011 0.021603193
-0.039343182 0.04069562 0.03578041 0.040372636 0.03272015 -0.033980086 -2.11843e-40 7.24445e-40
6.18804e-40 -0.004181661 0.041746266 0.04136381 1.42715e-40 0.041263293 -0.03769461 5.37022e-40
0.031510636 -0.033216823 0.041300744 -0.006920503 0.041280497 0.042046927 0.041285317 0.040527526
0.04034863 -0.07949185 -0.035756662 0.04134327 0.03518868 -0.078144215 -0.04381787 0.04123936
0.041272026 0.04125031 0.041240815 0.04030132 0.030326143 0.040563133 0.041280188 0.041219432
0.041241318 0.035539404 0.04124415 -0.03222719 -0.07860713 -0.03410223 -0.030074522 0.04027915
-0.013127384 4.41932e-40 0.042080328 0.04051881 0.041457612 0.041268706 -0.012698138 -0.035794754
0.03649583 0.041237585 -0.009061182 -8.5824e-41 0.04126298 0.04034914 -0.029686278 -0.07834057
-2.92068e-40 7.25543e-40 -0.01478417 5.0417e-41 -0.03129935 0.040366385 -0.039489757 6.0796e-40
0.041591164 0.04125547 0.041352887 -0.0318183 -6.75567e-40 -0.07920696 2.15462e-40 0.022609206
0.041262563 1.1488401e-07 0.031429753 0.041256744 -0.014856541 0.0141192945 6.36234e-40 0.041806806
0.036496464 0.0354253 0.04053271 -0.07797844 0.26345012 -3.12729e-40 -0.0064525874 -6.71756e-40
0.13232848 -0.0063335826 -0.01123366 0.13934028 0.09488597 -0.010685501 -0.05741071 -0.015080008
-0.018983461 0.16904269 -6.75623e-40 4.45648e-40 -2.17187e-40 0.07307711 -0.005731898 -0.006296173
-6.4807e-41 -0.0064373054 0.2855672 -2.35506e-40 0.10943376 0.1275554 -0.0063901376 0.2077281
-0.006398505 -0.006029317 -0.006404536 -0.011261123 -0.015032392 0.2784203 0.28130338 -0.0063102352
-0.019298827 0.230549 0.21242037 -0.0064690565 -0.0064115077 -0.0064502535 -0.0064689307 -0.015286901
0.028526874 -0.00852695 -0.0064072884 -0.0064931507 -0.0064496063 -0.087453105 -0.0064589716 0.28210068
0.2622091 0.21986017 0.19084308 -0.012820889 0.22170728 -7.40913e-40 -0.0062183747 -0.0086244
-0.0061715334 -0.006424301 0.20079337 0.08633626 -0.016939875 -0.006468937 0.23718528 -1.64406e-40
-0.0064358553 -0.015003941 0.22982241 0.23971601 1.11734e-40 -6.80768e-40 0.24672425 -1.08472e-40
0.07994791 -0.011921324 0.29223138 -6.01621e-40 -0.005966356 -0.0064310418 -0.0063060867 0.19135985
-5.7238e-40 0.28831968 4.7623e-40 0.0243457 -0.0064280173 -6.3110683e-06 0.025614679 -0.0064390237
0.18741846 0.08632834 4.924e-40 -0.005657916 -0.016774666 -0.019529203 -0.008587511 0.21522748
0.29411206 -7.11512e-40 -0.0038992828 -1.44142e-40 0.062142983 -0.003779574 -0.008640229 0.064237334
0.11947336 -0.00811728 -0.052643888 -0.012391995 -0.015210856 0.14686638 -5.98947e-40 7.19401e-40
-3.42833e-40 0.060063284 -0.0032041455 -0.0037437829 -5.07405e-40 -0.0038820165 0.21304964 3.24478e-40
0.010252075 0.11905771 -0.0038346741 0.09195044 -0.0038457692 -0.0036561107 -0.0038484507 -0.008659408
-0.012242551 0.31866625 0.25364825 -0.003756607 -0.015987722 0.25611112 0.23944798 -0.003911974
-0.0038568166 -0.0038937528 -0.003913182 -0.012668647 0.0051473165 -0.006028286 -0.0038499765 -0.003937274
-0.0038931887 -0.07766865 -0.0039040956 0.25661463 0.28144377 0.21388824 0.28677005 -0.010175386
00000000: 18db 31bd aaee 0680 b8fc 283d 7c2a 0880
00000010: bbe5 9fbc 6641 293d df17 263d 2ef9 b03c
00000020: 5126 21bd 73b0 263d 7b8e 123d c75d 253d
00000030: 9005 063d b42e 0bbd 884e 0280 75e3 0700
00000040: f9bc 0600 5106 89bb 22fe 2a3d 196d 293d
00000050: d58d 0100 b303 293d aa65 1abd 00d9 0500
00000060: 4c11 013d 5d0e 08bd f82a 293d 63c5 e2bb
00000070: bd15 293d 6639 2c3d cb1a 293d 3100 263d
00000080: 9b44 253d a0cc a2bd 9475 12bd 9057 293d
00000090: 0122 103d 130a a0bd 5e7a 33bd 9aea 283d
000000a0: db0c 293d 16f6 283d 21ec 283d ff12 253d
000000b0: 886e f83c 8725 263d 6a15 293d b5d5 283d
000000c0: a8ec 283d c491 113d a0ef 283d a800 04bd
000000d0: c6fc a0bd c8ae 0bbd d85e f6bc c0fb 243d
000000e0: 3d14 57bc edcf 0400 6c5c 2c3d 0df7 253d
000000f0: 75cf 293d 6009 293d da0b 50bc 859d 12bd
00000100: a77c 153d bee8 283d 5a75 14bc 3eef 0080
00000110: 5f03 293d 2445 253d a330 f3bc 0571 a0bd
00000120: 2b2e 0380 85e6 0700 4e39 72bc 8b8c 0000
00000130: bf33 00bd 3957 253d 03c0 21bd bf9e 0600
00000140: 7f5b 2a3d 7ffb 283d a561 293d e853 02bd
00000150: 355b 0780 4237 a2bd 9f58 0200 f136 b93c
00000160: ef02 293d 27b6 f633 7cbc 003d d5fc 283d
00000170: d968 73bc 9d54 673c 90ed 0600 9d3d 2b3d
00000180: 517d 153d 1f1a 113d a005 263d 29b3 9fbd
00000190: efe2 863e c367 0380 3a70 d3bb 9550 0780
000001a0: 1e81 073e f189 cfbb 630d 38bc 38af 0e3e
000001b0: 9353 c23d 3d12 2fbc 7e27 6bbd 2312 77bc
000001c0: 3483 9bbc 8719 2d3e 5d5b 0780 49da 0400
000001d0: 6e5d 0280 74a9 953d a5d2 bbbb 2150 cebb
000001e0: a8b4 0080 08f0 d2bb dd35 923e 7f90 0280
000001f0: cf1e e03d e29d 023e 5c64 d1bb adb6 543e
00000200: 8daa d1bb 9491 c5bb 24dd d1bb 9380 38bc
00000210: 6c4a 76bc 1b8d 8e3e ff06 903e 17c6 cebb
00000220: 9318 9ebc 0915 6c3e ba84 593e 61fa d3bb
00000230: a017 d2bb a65c d3bb 53f9 d3bb e975 7abc
00000240: 31b1 e93c 9fb4 0bbc 3bf4 d1bb 7fc4 d4bb
00000250: 3857 d3bb 9d1a b3bd c8a5 d3bb 806f 903e
00000260: 4540 863e 0623 613e 5e6c 433e b50e 52bc
00000270: 3c07 633e 5d11 0880 82c3 cbbb 5b4d 0dbc
00000280: 933a cabb f182 d2bb c79c 4d3e 11d1 b03d
00000290: 7ec5 8abc 60f9 d3bb b3e0 723e 4cca 0180
000002a0: dee3 d2bb 17d3 75bc 9156 6b3e 1d78 753e
000002b0: 7837 0100 b469 0780 48a5 7c3e 602e 0180
000002c0: bbbb a33d a851 43bc 5a9f 953e 138d 0680
000002d0: 6c81 c3bb 7dbb d2bb 4aa3 cebb d6f3 433e
000002e0: 903b 0680 a39e 933e 892f 0500 a270 c73c
000002f0: 1ea2 d2bb aac3 d3b6 e0d5 d13c 72fe d2bb
00000300: a0ea 3f3e eacc b03d 9c5c 0500 0a66 b9bb
00000310: 066b 89bc b5fb 9fbc a2b2 0cbc 9864 5c3e
00000320: db95 963e 68bf 0780 1c8b 7fbb cf91 0180
00000330: a489 7e3d bbb2 77bb bf8f 0dbc dd8e 833d
00000340: 73ae f43d 57fe 04bc 1ea1 57bd cb07 4bbc
00000350: f436 79bc 2464 163e 9f85 0680 66d5 0700
00000360: aebb 0380 eb04 763d a4fc 51bb 415a 75bb
00000370: 7086 0580 6e69 7ebb af29 5a3e 8388 0300
00000380: 52f8 273c 87d4 f33d 284f 7bbb 8350 bc3d
00000390: 4d09 7cbb 5c9b 6fbb 4a36 7cbb 31e0 0dbc
000003a0: fb94 48bc 3928 a33e 2fde 813e 6831 76bb
000003b0: aff8 82bc ff20 833e da31 753e 0430 80bb
000003c0: a5c2 7cbb 552e 7fbb 263a 80bb 2890 4fbc
000003d0: d2aa a83b ee88 c5bb e34f 7cbb 4004 81bb
000003e0: de24 7fbb be10 9fbd dbdb 7fbb fe62 833e
000003f0: 6619 903e 8505 5b3e 86d3 923e aab6 26bc

model.encoder.layers.2.0.bias f4 [100]
0.028143622 -0.16067094 -0.12586369 0.027881568 0.028407935 -0.14215024 -0.033986133 0.16070998
0.027889676 -3.31097e-40 3.42227e-40 -0.1507298 0.027881945 -6.66127e-40 6.03576e-40 -0.11884382
-0.09248882 0.027852003 -3.16781e-28 -5.45339e-40 0.02848169 0.028387604 0.027895382 -0.004726416
0.02843965 -0.15439977 0.02848258 0.028380051 0.028395562 0.08974931 -0.07440556 0.027926842
0.2964434 9.464e-41 0.028396275 -0.13845229 0.2613655 0.02847899 -0.15970969 0.2945608
-0.060535464 -6.77742e-40 -2.20584e-40 0.21769871 0.32273102 0.028399047 0.21291913 0.028385695
-0.06922004 -0.10107686 -0.07493734 0.0283932 -6.331e-42 -0.09633472 -0.14471528 -0.12854198
0.028374115 -1.688111e-22 -0.006093896 -1.3893811e-31 -0.06884441 0.29026172 -0.14086841 -0.06297115
0.028406715 -0.16412991 -0.12022849 -0.16269875 -0.14728613 7.52494e-40 0.02837838 -0.16613571
-0.022902653 -0.05953453 3.09402e-40 -0.13847166 1.91455e-40 0.028387332 0.290506 0.028383294
0.028390812 -0.15886164 0.29356977 -7.838533e-06 0.028397435 -3.42727e-40 -1.496575e-21 -5.519243e-16
2.7784e-41 3.49876e-40 0.02816299 -0.1609344 0.028372122 0.028332457 0.15448004 0.12099439
0.028430222 -0.15280594 -0.11991683 0.028404912
00000000: 748d e63c ec86 24be 69e2 00be e367 e43c
00000010: c2b7 e83c d58f 11be 0b35 0bbd 2891 243e
00000020: e478 e43c f79a 0380 fdb9 0300 ea58 1abe
00000030: ad68 e43c e440 0780 8692 0600 6464 f3bd
00000040: c76a bdbd e229 e43c a8c8 c891 2ff0 0580
00000050: 6f52 e93c 1f8d e83c db84 e43c 0de0 9abb
00000060: 45fa e83c f91a 1ebe 4d54 e93c 487d e83c
00000070: cf9d e83c 7cce b73d f161 98bd d5c6 e43c
00000080: 6ec7 973e d107 0100 4e9f e83c 70c6 0dbe
00000090: b3d1 853e c54c e93c f08a 23be acd0 963e
000000a0: 09f4 77bd 4561 0780 e666 0280 69ec 5e3e
000000b0: 003d a53e 1ea5 e83c 7907 5a3e 1e89 e83c
000000c0: 3dc3 8dbd 6301 cfbd c078 99bd db98 e83c
000000d0: a611 0080 234b c5bd 3e30 14be 82a0 03be
000000e0: d570 e83c 8114 4c9b 4eaf c7bb 1b5a 348c
000000f0: 4cfe 8cbd 2f9d 943e cf3f 10be 05f7 80bd
00000100: 33b5 e83c ac11 28be 5b3a f6bd 809a 26be
00000110: 2dd2 16be a631 0800 c779 e83c 7b1f 2abe
00000120: 589e bbbc 7bda 73bd 7d5e 0300 84cb 0dbe
00000130: b315 0200 8d8c e83c 34bd 943e 1584 e83c
00000140: d993 e83c a0ac 22be c74e 963e 3e82 03b7
00000150: bda1 e83c 62bb 0380 f127 e29c d314 1fa6
00000160: 734d 0000 50cf 0300 12b6 e63c fdcb 24be
00000170: a76c e83c 7819 e83c 0430 1e3e e8cb f73d
00000180: 7fe6 e83c 2979 1cbe f496 f5bd 6bb1 e83c

model.encoder.layers.3.weight f4 [10, 100]
0.036969613 -0.051946707 -0.053871226 0.037229497 0.037988137 -0.05445078 -0.04604734 0.018011931
0.037223693 -2.77129e-40 -7.1301e-40 -0.05425284 0.037219554 2.77366e-40 1.952507e-35 -0.051309284
-0.044945173 0.03721728 -3.4031e-40 1.66556e-40 0.035127196 0.0380715 0.037219632 -0.043328587
0.037878145 -0.051891316 0.034827057 0.038173657 0.038154773 0.012235478 -0.03352398 0.037253838
0.029802592 7.48483e-40 0.038100403 -0.049645394 0.033948705 0.03490242 -0.05327629 0.029992126
-0.04553546 6.51161e-40 -4.98908e-40 0.043513644 0.03158686 0.03815029 0.02204604 0.038167264
-0.051354825 -0.052870706 -0.048081044 0.034913465 7.26883e-40 -0.023903672 -0.048981413 -0.054664496
0.038182355 -1.95414e-40 -0.013684456 -3.36917e-40 -0.055258725 0.02551104 -0.05050783 -0.037898444
0.038136147 -0.058659982 -0.054307856 -0.05367605 -0.046704695 -7.63304e-40 0.0381821 -0.057080057
-0.011532714 -0.048904806 -3.90683e-40 -0.05345731 -4.09876e-40 0.038160425 0.03120249 0.03817029
0.038164333 -0.05465533 0.034158897 -0.00048578123 0.038150333 4.0677e-41 -1.28437e-40 -2.8346e-40
-5.1701e-40 3.49174e-40 0.031211285 -0.056764483 0.038184974 0.0343205 0.017665442 0.01557565
0.03778973 -0.050577726 -0.051516384 0.0380124 -0.014674542 0.15346698 0.16386919 -0.016729545
-0.015503963 0.16189447 0.14958088 0.061132897 -0.016732816 -4.85742e-40 1.8277e-41 0.17222336
-0.016743248 2.8493e-41 1.6954512e-09 0.1541431 0.12988588 -0.01674807 -2.8448683e-17 4.413e-42
-0.011943271 -0.015590954 -0.016734194 0.13362502 -0.015378953 0.1631218 -0.011552332 -0.015706465
-0.015696399 0.07104787 0.12911017 -0.01671501 -0.0032166045 -2.578e-41 -0.01563205 0.15916754
-0.034670964 -0.011614865 0.16256288 -0.009828709 0.13394128 -4.62954e-40 -5.0945045e-16 -0.16934438
-0.03676333 -0.015694428 0.060905978 -0.015704961 0.14644068 0.15051053 0.16307904 -0.011661822
2.9123e-40 0.1126192 0.16518728 0.16546853 -0.015717326 3.07198e-40 0.095271826 -2.9109e-41
0.15236479 0.03363449 0.14090642 0.12428512 -0.01569034 0.16540352 0.16743077 0.1634251
0.14188918 -6.99737e-40 -0.015712924 0.16286534 0.099042065 0.16939592 5.32055e-40 0.17088409
5.20933e-40 -0.015700616 -0.028810304 -0.015698614 -0.01570366 0.15802373 -0.06629955 0.0011623127
-0.015693385 -3.35172e-40 7.32438e-40 7.3379e-41 2.30708e-40 -7.644668e-21 -0.0068579433 0.16879287
-0.015712043 -0.0111011695 0.051923156 0.06291323 -0.015278096 0.1518943 0.15452737 -0.015523559
-0.025121687 0.2081214 0.186816 -0.026511475 -0.025615374 0.19085786 0.2698596 0.15479131
-0.026478706 6.58783e-40 6.31393e-40 0.19005905 -0.026492737 -7.1992e-41 1.8352626e-09 0.18234232
0.24306022 -0.0265089 -1.0450547e-14 -1.644e-40 -0.023040777 -0.02568285 -0.026501853 0.26878214
-0.025527613 0.2594791 -0.02271508 -0.02577269 -0.02576108 0.18197954 0.19056839 -0.02648881
-0.06565747 -5.58842e-40 -0.025711428 0.23753737 -0.052342165 -0.0227395 0.18244968 0.01663992
0.27261233 6.37112e-40 -1.0781205e-13 -0.18581697 0.00048189025 -0.025759675 0.05208628 -0.025769742
0.25245997 0.1768859 0.2618291 -0.022853274 6.62568e-40 0.22692 0.28192493 0.263481
00000000: 736d 173d 12c6 54bd 13a8 5cbd f57d 183d
00000010: 7399 1b3d c807 5fbd 239c 3cbd c28d 933c
00000020: df77 183d 8604 0380 95c3 0780 3a38 5ebd
00000030: 8873 183d 2f05 0300 4ca0 cf05 af29 52bd
00000040: 6e18 38bd 2671 183d a5b4 0380 4ad0 0100
00000050: 89e1 0f3d dcf0 1b3d 9d73 183d 5179 31bd
00000060: 1d26 1b3d fd8b 54bd d1a6 0e3d fb5b 1c3d
00000070: 2e48 1c3d 5077 483c 7150 09bd 7b97 183d
00000080: 9124 f43c 7726 0800 2b0f 1c3d f858 4bbd
00000090: cc0d 0b3d d7f5 0e3d 3d38 5abd 0cb2 f53c
000000a0: 6483 3abd 2c17 0700 c16e 0580 5d3b 323d
000000b0: 3961 013d 7a43 1c3d e699 b43c 4755 1c3d
000000c0: 7059 52bd f48e 58bd a1f0 44bd 6c01 0f3d
000000d0: 41ea 0700 a2d1 c3bc bca0 48bd e1e7 5fbd
000000e0: 1a65 1c3d bc20 0280 c534 60bc 30ab 0380
000000f0: f956 62bd 87fc d03c 4ce1 4ebd 663b 1bbd
00000100: a634 1c3d 7345 70bd ea71 5ebd 6bdb 5bbd
00000110: 6c4d 3fbd c84f 0880 d564 1c3d c7cc 69bd
00000120: b5f3 3cbc 6850 48bd 1141 0480 0df6 5abd
00000130: 9176 0480 1b4e 1c3d 5d9c ff3c 7358 1c3d
00000140: 3452 1c3d 44de 5fbd 33ea 0b3d 74b0 feb9
00000150: 8643 1c3d 6471 0000 0866 0180 2c16 0380
00000160: 37a1 0580 5bcd 0300 cfae ff3c e081 68bd
00000170: d967 1c3d a793 0c3d 1eb7 903c 0331 7f3c
00000180: 67c9 1a3d 972a 4fbd d802 53bd e4b2 1b3d
00000190: 7d6d 70bc 7326 1d3e 53cd 273e 660c 89bc
000001a0: 5604 7ebc aac7 253e bb2b 193e 7d66 7a3d
000001b0: 4213 89bc 0d4a 0580 f332 0000 525b 303e
000001c0: 2329 89bc 6d4f 0000 6305 e930 b0d7 1d3e
000001d0: ce00 053e 4033 89bc 4732 03a4 4d0c 0000
000001e0: b6ad 43bc 3371 7fbc 2616 89bc ffd4 083e
000001f0: 01f8 7bbc 6709 273e fe45 3dbc d8aa 80bc
00000200: bc95 80bc 8c81 913d 7535 043e ebed 88bc
00000210: abcd 52bb dd47 0080 c90e 80bc d1fc 223e
00000220: 2403 0ebd 464c 3ebc e276 263e 9808 21bc
00000230: e727 093e 870a 0580 cfd6 12a6 9d68 2dbe
00000240: 2595 16bd 9a91 80bc 8c78 793d b1a7 80bc
00000250: 8cf4 153e 6f1f 1a3e 31fe 263e 3a11 3fbc
00000260: d52b 0300 e5a4 e63d db26 293e 9570 293e
00000270: 9fc1 80bc 5858 0300 e01d c33d 2551 0080
00000280: 8405 1c3e 52c4 093d c649 103e 3289 fe3d
00000290: 0789 80bc 8a5f 293e f972 2b3e e958 273e
000002a0: 664b 113e 959e 0780 64b8 80bc 2cc6 263e
000002b0: 91d6 ca3d 2076 2d3e 27cb 0500 3dfc 2e3e
000002c0: 26ac 0500 949e 80bc 9603 ecbc 619a 80bc
000002d0: f6a4 80bc f9d0 213e 0fc8 87bd be58 983a
000002e0: 6a8f 80bc 53a6 0380 bdf9 0700 8dcc 0000
000002f0: 1f83 0200 5967 109e 99b8 e0bb 0ad8 2c3e
00000300: 8bb6 80bc aee1 35bc 60ad 543d a7d8 803d
00000310: fb50 7abc 2e8a 1b3e 6c3c 1e3e 8756 7ebc
00000320: ffcb cdbc c71d 553e b24c 3f3e 982e d9bc
00000330: 55d7 d1bc 3e70 433e 0a2b 8a3e 9d81 1e3e
00000340: dfe9 d8bc 6b2c 0700 11e0 0600 d79e 423e
00000350: 4c07 d9bc afc8 0080 903c fc30 f2b7 3a3e
00000360: c7e4 783e 3129 d9bc a442 3ca8 48ca 0180
00000370: 03c0 bcbc d764 d2bc 6a1a d9bc d09d 893e
00000380: 491f d1bc 72da 843e fa14 babc 4021 d3bc
00000390: e708 d3bc d858 3a3e 5c24 433e 10ff d8bc
000003a0: 6c77 86bd d315 0680 c6a0 d2bc ff3c 733e
000003b0: bd64 56bd 3048 babc 17d4 3a3e 7150 883c
000003c0: d893 8b3e 02f0 0600 6ac5 f2a9 ce46 3ebe
000003d0: 37a6 fc39 f405 d3bc 6c58 553d 111b d3bc
000003e0: 6f42 813e 9421 353e 770e 863e ca36 bbbc
000003f0: f836 0700 b75d 683e 7758 903e fbe6 863e

model.encoder.layers.3.bias f4 [10]
0.016487828 -0.052676525 -0.00062668766 -0.2273068 0.20666593 0.015082954 -0.19972952 0.3130574
0.20295809 -0.11691527
00000000: 7b11 873c 57c3 57bd 4c48 24ba 1dc3 68be
00000010: 3ca0 533e 7f1e 773c e585 4cbe 0f49 a03e
00000020: 3fd4 4f3e 4671 efbd

model.predictor_linear.0.weight f4 [1, 10]
-0.07675815 0.18174852 0.20528902 -0.07751789 0.15124184 -0.3368439 -0.09041028 -0.042053405
-0.26440814 0.13311942
00000000: 6033 9dbd 491c 3a3e 4937 523e b3c1 9ebd
00000010: 24df 1a3e ce76 acbe 0629 b9bd 3140 2cbd
00000020: 8160 87be 7550 083e

exp_avg f4 [100, 1]
0.00062132743 0.0007307677 0.000593956 0.000627167 0.00013332319 0.0005879772 0.00025846492 0.0007012821
0.00047199673 0.00044066436 -0.0039379923 -0.000432876 0.0007239929 0.00020491597 -0.00096081273 0.00063502166
0.00051885477 0.00063627865 0.0007968896 -0.0010304126 0.0007887876 0.00068870775 0.00069453684 0.0007355376
0.00072486635 -0.00028459477 0.00076820445 0.00066185003 0.000677127 0.0006185219 0.00069100707 0.0007620038
0.0002695961 0.000233918 0.0004033654 0.00061202893 1.1902213e-05 0.0005534503 0.00072761526 0.00069877255
0.00038922927 0.00055084296 0.00031339572 0.0006724784 0.0004988592 0.00041691694 0.0007361996 -0.0011779346
0.00076957676 -0.00024370053 0.00086634856 0.0015158356 0.0011243537 -0.000688244 0.0006056633 0.00014259863
0.0008155938 0.00068156974 0.00016244482 0.00011139432 0.0007984556 -0.00013222026 0.00018078789 0.00011932647
0.00073402276 0.0008101109 0.0007046894 0.00079708046 0.0009084804 0.00070115505 0.0008462438 0.0011844974
0.00045410087 0.0010781781 0.00084949465 0.0012365046 -0.00057681266 0.00047640994 0.0008015017 0.001183015
0.0007964599 0.0005772923 0.00042964544 0.00011967897 0.0006361659 -0.00010059112 0.00078155386 0.00023523027
0.00071736233 0.0006753351 -9.827822e-05 0.00013858397 0.00072305923 -0.0005964351 -0.0020926783 0.00026246076
0.0003666471 -0.0015390327 -1.06490015e-05 0.0011812752
00000000: 94e0 223a fd90 3f3a b6b3 1b3a 7768 243a
00000010: accc 0b39 7b22 1a3a 9382 8739 3fd6 373a
00000020: 5476 f739 f808 e739 460a 81bb a2f3 e2b9
00000030: 57ca 3d3a b6de 5639 0ddf 7bba 9577 263a
00000040: c103 083a f0cb 263a 5be6 503a e90e 87ba
00000050: a4c6 4e3a 658a 343a 9411 363a 18d1 403a
00000060: f504 3e3a aa35 95b9 5461 493a 0180 2d3a
00000070: 3981 313a 4d24 223a b324 353a 36c1 473a
00000080: 9358 8d39 e347 7539 ca7a d339 9170 203a
00000090: 9eaf 4737 6c15 113a 6fbd 3e3a d52d 373a
000000a0: 7811 cc39 7266 103a 434f a439 4349 303a
000000b0: e0c5 023a a595 da39 85fd 403a ed64 9aba
000000c0: 6cbd 493a dd89 7fb9 ab1b 633a 01af c63a
000000d0: 0d5f 933a 466b 34ba 60c5 1e3a 8786 1539
000000e0: 93cd 553a 5fab 323a f355 2a39 5f9c e938
000000f0: 734f 513a 9ba4 0ab9 e191 3d39 e93e fa38
00000100: 6f6b 403a 9f5d 543a e8ba 383a 2af3 503a
00000110: 1627 6e3a b8cd 373a 76d6 5d3a 2341 9b3a
00000120: 6314 ee39 a751 8d3a 9fb0 5e3a 3612 a23a
00000130: 3e35 17ba a9c6 f939 de1b 523a 650f 9b3a
00000140: 85c9 503a 6e55 173a 0942 e139 28fc fa38
00000150: 5fc4 263a 72f4 d2b8 31e1 4c3a 25a8 7639
00000160: 5f0d 3c3a f908 313a b81a ceb8 da50 1139
00000170: af8b 3d3a 155a 1cba 5125 09bb e39a 8939
00000180: 8a3a c039 5eb9 c9ba 1da9 32b7 05d5 9a3a

exp_avg_sq f4 [100, 1]
0.0017504707 1.3929083e-06 1.4796774e-06 8.7825987e-07 1.5828287e-05 8.3396424e-07 6.321649e-06 5.204936e-07
1.0040535e-05 6.047666e-06 0.00014960537 1.2113797e-05 8.6237293e-07 6.680404e-06 9.13292e-06 3.6522054e-06
1.3451148e-06 3.1907325e-06 2.1826096e-05 1.5969263e-05 3.2047042e-06 8.517756e-07 5.008371e-07 1.1153439e-06
5.729548e-07 1.0400559e-05 1.102812e-06 3.1253692e-06 5.124924e-07 2.016394e-06 9.339493e-07 1.8609044e-06
7.762131e-06 5.1806887e-06 5.3233766e-06 1.5520691e-06 8.2827955e-06 2.7834787e-06 8.788466e-06 1.5666359e-06
2.9211697e-06 1.7899197e-06 3.1395978e-06 1.0507794e-06 2.2699198e-06 2.7085887e-06 1.2862605e-06 2.1584141e-05
6.3168284e-07 7.784042e-06 7.62081e-07 2.4680216e-05 3.1755808e-06 6.742637e-06 1.3769088e-06 2.221689e-06
9.937862e-07 5.349368e-07 2.0620248e-06 1.8870783e-06 1.5654646e-06 6.23291e-06 6.4440924e-06 4.12577e-06
1.3552219e-06 2.0386926e-06 1.4708243e-06 8.818199e-07 1.0603271e-06 5.058977e-07 1.2902556e-06 4.0868445e-06
2.410387e-06 1.2097044e-05 9.690344e-07 4.3747445e-06 1.8787701e-05 1.5246044e-06 1.4153314e-06 5.142882e-06
2.1400876e-06 5.555707e-06 1.3466096e-06 1.2259883e-05 1.657969e-05 5.053277e-05 1.9190518e-06 3.1374673e-06
6.671675e-07 6.348198e-07 7.5854105e-06 4.3599607e-06 2.041699e-06 1.7940878e-05 3.0681065e-05 4.607526e-06
3.259762e-06 2.9805262e-05 5.160426e-06 1.7735521e-06
00000000: 0d70 e53a f7f3 ba35 5499 c635 8fc1 6b35
00000010: fdc6 8437 96dd 5f35 8d1e d436 0cb8 0b35
00000020: c573 2837 0eed ca36 63df 1c39 5d3c 4b37
00000030: d17d 6735 3c28 e036 9839 1937 6918 7536
00000040: cb89 b435 5e20 5636 2f17 b737 bbf5 8537
00000050: 6610 5736 93a5 6435 4371 0635 edb2 9535
00000060: 27cd 1935 107e 2e37 5504 9435 6fbd 5136
00000070: 3692 0935 6351 0736 82b4 7a35 30c4 f935
00000080: 193a 0237 c7d5 ad36 759f b236 b050 d035
00000090: 56f6 0a37 cdcb 3a36 2d72 1337 3345 d235
000000a0: 5009 4436 2c3d f035 e1b1 5236 8108 8d35
000000b0: ed54 1836 33c5 3536 93a3 ac35 970f b537
000000c0: ea90 2935 3598 0237 cf91 4c35 5c08 cf37
000000d0: 101c 5536 d03e e236 3ace b835 5418 1536
000000e0: 3c62 8535 9498 0f35 5161 0a36 8447 fd35
000000f0: f41c d235 4a24 d136 553a d836 1870 8a36
00000100: 12e5 b535 79d0 0836 2369 c535 34b6 6c35
00000110: 9050 8e35 06cd 0735 d82c ad35 ba21 8936
00000120: 22c2 2136 69f4 4a37 c50f 8235 c5ca 9236
00000130: 489a 9d37 02a1 cc35 6bf6 bd35 0591 ac36
00000140: 6d9e 0f36 296b ba36 27bd b435 ccaf 4d37
00000150: 9d14 8b37 26f3 5338 0fc9 0036 478d 5236
00000160: 6717 3335 7c68 2a35 2e86 fe36 c74b 9236
00000170: 1f04 0936 be7f 9637 8baf 0038 599a 9a36
00000180: 49c2 5a36 5006 fa37 b927 ad36 c90a ee35

exp_avg f4 [100, 100]
-0.00024962798 -0.00030607902 -0.00028872266 -0.00029972327 -0.0002787012 -0.00024178202 -0.00027776632 -0.00022804506
-0.00027942107 -0.00032148685 -0.00022437173 -0.00029821615 -0.00042548875 -0.00032645834 -0.00051122566 -0.00033246455
-0.000431508 -0.000337025 -0.00029604242 -0.00020557994 -0.00044391127 -0.00041937953 -0.00045305077 -0.00046585017
-0.00038059038 -0.00053946266 -0.0004606761 -0.0004539195 -0.00048037732 -0.0004260162 -0.0002535509 -0.0002458802
-0.00029349222 -0.00028930022 -0.00031115842 -0.00033967308 -0.00042671707 -0.00026970447 -0.00023573151 -0.00025667305
-0.0003224814 -0.00030870907 -0.00033923303 -0.00030654026 -0.0003245791 -0.0003483625 -0.0003816287 -0.00039763594
-0.00033571903 -0.00044065237 -0.00035149872 -0.00037308643 -0.00033704404 -0.00045498286 -0.00034899844 -0.00038090922
-0.00034184463 -0.00034376667 -0.00041641452 -0.00045700348 -0.00027552515 -0.00039805545 -0.0003303336 -0.0003114261
-0.00036036997 -0.0003155838 -0.00031376205 -0.00021664005 -0.00025161827 -0.0003000633 -0.000243318 -0.00021319001
-0.00026300485 -0.00030802411 -0.00025394553 -0.00018173255 -0.00016088814 -0.00027179002 -0.0002679754 -0.000176928
-0.00041598684 -0.00035960195 -0.00038650754 -0.0003767297 -0.00030989698 -0.00028800275 -0.00039504282 -0.00041252552
-0.00040357202 -0.00043220373 -0.00040257696 -0.00043680507 -0.0003332475 -0.0004129255 -0.00046877368 -0.00042554183
-0.00038563157 -0.00042030096 -0.0004204435 -0.00037513018 -8.058944e-05 -0.00010022092 -9.450128e-05 -9.8474615e-05
-9.1458896e-05 -7.912906e-05 -9.0570575e-05 -7.481941e-05 -9.1966285e-05 -0.000105338106 -7.260453e-05 -9.732377e-05
-0.00013893713 -0.00010635169 -0.00016716059 -0.00010858186 -0.00014104319 -0.000109989356 -9.662518e-05 -6.675316e-05
-0.00014500771 -0.00013696673 -0.00014805254 -0.00015214311 -0.00012430333 -0.0001762782 -0.0001505594 -0.00014841577
-0.00015702516 -0.00013905222 -8.22836e-05 -7.97329e-05 -9.545272e-05 -9.420188e-05 -0.000101360594 -0.000110792316
-0.00013910644 -8.766909e-05 -7.6278884e-05 -8.341079e-05 -0.00010497716 -0.000100510995 -0.00011050166 -9.972796e-05
-0.00010551004 -0.000113402886 -0.00012430009 -0.00012969393 -0.000109436594 -0.00014377305 -0.00011440035 -0.00012143371
-0.000109801105 -0.00014859645 -0.000113709815 -0.00012419325 -0.00011139498 -0.0001120527 -0.00013595712 -0.00014911524
-8.936214e-05 -0.00012987014 -0.00010734216 -0.00010129535 -0.00011750247 -0.00010246433 -0.00010212475 -7.0047514e-05
-8.1667415e-05 -9.753697e-05 -7.904812e-05 -6.890129e-05 -8.568426e-05 -0.000100263016 -8.2618004e-05 -5.8757967e-05
-5.1936422e-05 -8.850643e-05 -8.733611e-05 -5.7183002e-05 -0.00013534275 -0.00011679067 -0.00012579554 -0.00012243433
-0.000100733974 -9.311791e-05 -0.00012867636 -0.00013431221 -0.00013157626 -0.00014081148 -0.00013221869 -0.00014366535
-0.000109415436 -0.00013556183 -0.00015396754 -0.00013985172 -0.00012640888 -0.00013802275 -0.00013795866 -0.00012315942
0.00025891297 0.00031905688 0.0003000379 0.00031161928 0.00028971606 0.0002498758 0.00028647878 0.00023777003
0.0002915951 0.00033473846 0.00023360564 0.00031276638 0.00044823 0.0003411379 0.000540288 0.00034941247
0.0004550358 0.00035519086 0.00030987122 0.00021286473 0.0004664802 0.00044030292 0.00047637566 0.00049029064
0.00039930007 0.00056820264 0.00048309713 0.00047695808 0.00050492294 0.00044701833 0.00026263358 0.00025420272
0.0003055395 0.0003016293 0.0003231333 0.000353905 0.00044628873 0.0002797106 0.00024177518 0.00026615013
0.00033756782 0.0003231353 0.00035482616 0.00032022878 0.0003392434 0.00036461107 0.00039954568 0.0004185725
0.0003514802 0.00046277783 0.0003678223 0.00038851926 0.00035138504 0.00047945237 0.00036483014 0.00039989414
00000000: 80e0 82b9 3b79 a0b9 b35f 97b9 2d24 9db9
00000010: a41e 92b9 de86 7db9 2aa1 91b9 611f 6fb9
00000020: 437f 92b9 3c8d a8b9 5445 6bb9 e559 9cb9
00000030: 2214 dfb9 7f28 abb9 c603 06ba a34e aeb9
00000040: 063c e2b9 bbb2 b0b9 2436 9bb9 f290 57b9
00000050: c3bc e8b9 2be0 dbb9 7287 edb9 5a3d f4b9
00000060: fa89 c7b9 ba6a 0dba e686 f1b9 0bfc edb9
00000070: 27db fbb9 ed5a dfb9 07ef 84b9 7be9 80b9
00000080: dcdf 99b9 38ad 97b9 fa22 a3b9 2616 b2b9
00000090: ffb8 dfb9 1f67 8db9 b22e 77b9 1392 86b9
000000a0: b912 a9b9 3bda a1b9 16db b1b9 23b7 a0b9
000000b0: 452c aab9 6ca4 b6b9 5615 c8b9 cb79 d0b9
000000c0: 7203 b0b9 5c07 e7b9 5c49 b8b9 d09a c3b9
000000d0: 49b5 b0b9 c48a eeb9 c7f9 b6b9 c5b4 c7b9
000000e0: 9c39 b3b9 953b b4b9 3652 dab9 f899 efb9
000000f0: 5c74 90b9 19b2 d0b9 a030 adb9 e746 a3b9
00000100: 0af0 bcb9 f174 a5b9 6e80 a4b9 df29 63b9
00000110: a2eb 83b9 d051 9db9 2e23 7fb9 c28b 5fb9
00000120: eae3 89b9 4c7e a1b9 fe23 85b9 768f 3eb9
00000130: 15b4 28b9 0a7f 8eb9 0d7f 8cb9 c085 39b9
00000140: cf18 dab9 f588 bcb9 2aa4 cab9 ce83 c5b9
00000150: ab79 a2b9 13ff 96b9 c01d cfb9 3d48 d8b9
00000160: 8596 d3b9 6799 e2b9 f710 d3b9 fc02 e5b9
00000170: b9b7 aeb9 ec7d d8b9 bdc5 f5b9 421b dfb9
00000180: 982e cab9 d75b dcb9 f96e dcb9 1fad c4b9
00000190: 2002 a9b8 b22d d2b8 fd2e c6b8 2884 ceb8
000001a0: 9fcd bfb8 17f2 a5b8 b5f0 bdb8 5de8 9cb8
000001b0: 06de c0b8 f7e8 dcb8 4343 98b8 4d1a ccb8
000001c0: a7af 11b9 2109 dfb8 d447 2fb9 71b6 e3b8
000001d0: fee4 13b9 16aa e6b8 40a3 cab8 d4fd 8bb8
000001e0: 360d 18b9 ba9e 0fb9 8d3e 1bb9 9b88 1fb9
000001f0: 6c57 02b9 52d7 38b9 7bdf 1db9 0ea0 1bb9
00000200: 1fa7 24b9 8cce 11b9 ac8f acb8 4636 a7b8
00000210: ca2d c8b8 408e c5b8 8e91 d4b8 2c59 e8b8
00000220: 1add 11b9 fcda b7b8 eaf7 9fb8 d4ec aeb8
00000230: 2f27 dcb8 6ec9 d2b8 21bd e7b8 0a25 d1b8
00000240: 4545 ddb8 b6d2 edb8 8d56 02b9 73fe 07b9
00000250: 5381 e5b8 c9c1 16b9 38ea efb8 3aaa feb8
00000260: 0545 e6b8 8ed0 1bb9 7e77 eeb8 df39 02b9
00000270: b99c e9b8 d6fd eab8 b68f 0eb9 d15b 1cb9
00000280: ef67 bbb8 c02d 08b9 e21c e1b8 876e d4b8
00000290: a96b f6b8 1ee2 d6b8 cf2b d6b8 79e6 92b8
000002a0: dc44 abb8 c38c ccb8 a3c6 a5b8 197f 90b8
000002b0: 63b1 b3b8 4c44 d2b8 3443 adb8 e372 76b8
000002c0: 4fd6 59b8 879c b9b8 3828 b7b8 c8d7 6fb8
000002d0: cbea 0db9 83ed f4b8 fce7 03b9 b761 00b9
000002e0: 2441 d3b8 4c48 c3b8 4ced 06b9 29d6 0cb9
000002f0: bcf7 09b9 cba6 13b9 2fa4 0ab9 e0a4 16b9
00000300: f775 e5b8 9a25 0eb9 5972 21b9 29a5 12b9
00000310: a08c 04b9 33ba 10b9 ffa8 10b9 5b24 01b9
00000320: b6be 8739 1747 a739 684e 9d39 d560 a339
00000330: 08e5 9739 c301 8339 8832 9639 e851 7939
00000340: 3be1 9839 d67f af39 09f4 7439 cbfa a339
00000350: 6a00 eb39 c1da b239 1da2 0d3a 5931 b739
00000360: df91 ee39 e938 ba39 3676 a239 7134 5f39
00000370: ea91 f439 75d8 e639 0fc2 f939 d986 003a
00000380: 2659 d139 6ff3 143a 3348 fd39 3b10 fa39
00000390: ce5c 043a c95d ea39 15b2 8939 8346 8539
000003a0: d130 a039 0024 9e39 386a a939 538c b939
000003b0: dcfb e939 1fa6 9239 0885 7d39 118a 8b39
000003c0: 96fb b039 7c6a a939 f607 ba39 61e4 a739
000003d0: 7adc b139 4529 bf39 1d7a d139 da73 db39
000003e0: e046 b839 fda0 f239 46d8 c039 2cb2 cb39
000003f0: 1a3a b839 025f fb39 ac46 bf39 e2a8 d139
